dqn_snake_hard.pth (torch, 41385 bytes, 6 tensors)

model.0.weight f4 [128, 7]
-1.6549028 0.46008724 -0.07009901 -0.099115014 0.19715382 0.04150434 -0.24812956 0.50550133
-2.8105257 -0.556177 0.14801936 0.54010797 -1.207701 0.21316433 -0.04261538 0.30590907
-0.47317126 0.103262134 -0.11455938 -0.20669076 0.32741147 0.3244991 -0.6590777 -0.06514988
-0.8128105 0.40923554 -0.6934921 0.7073787 0.25007755 0.076253094 0.31890026 -0.24036226
-0.59586346 -1.5071903 0.29672658 -0.21864566 -0.18625328 0.13591865 -1.9322411 0.13109124
0.015099801 0.08744441 0.41150796 0.45783195 -0.8981597 0.19421828 -0.5850055 0.0855791
0.18677767 -1.2219845 -0.053212367 -0.7289345 0.36207145 -0.3783836 -0.10196442 -0.032241136
0.20213485 0.747938 -0.16163678 -1.25211 -0.12515318 0.28134185 0.30519512 -0.21352395
-0.14188388 -0.3130934 0.12921235 0.06630759 -0.18199706 -0.1926764 -0.311091 -0.16162278
-0.32945746 -0.05073676 0.029484393 -0.16540132 0.14096798 0.444061 -0.25574362 -0.5418735
-0.41681984 -0.5421321 0.5562798 -0.028836897 -1.24058 0.36730444 -0.25122488 0.52870667
-0.10748589 -0.13192737 -0.2546742 0.3559152 0.302311 0.57825285 -0.45082837 -0.5568
-0.4670991 -0.18127446 0.8705249 -0.06929215 -0.41865662 -0.23158322 0.034032155 0.087667115
0.23341383 -0.8936222 0.1876759 0.54066247 -0.32004386 0.01800892 -0.3658775 0.16406429
-0.3432824 -0.26962823 0.09810262 0.06085766 -0.16219178 0.022030998 0.3041201 0.04071948
0.64001256 -1.497939 -0.41906536 0.17879231 0.12490535 0.13064665 0.12383259 0.3747469
-0.023570672 -0.18123071 0.54383075 0.3856659 -0.15835257 0.16231321 -0.008254239 -0.16400734
0.08022498 -0.028341135 -0.21008319 -0.21261443 0.7624478 -0.22307828 -1.3076783 0.2775975
-0.108221404 -0.59301066 0.11637422 -0.083523795 -0.33198687 0.03412043 0.26140717 -0.1399835
0.22956242 -0.19297841 -0.013334393 -0.13784531 0.28490886 0.018745068 -0.37477773 0.0685771
-0.08353301 0.33214548 -2.342511 0.42509142 -0.12454505 -0.00030766116 0.24634625 0.33352867
-0.16280085 0.9079341 -0.0769833 0.1315722 -0.15010226 -0.035141718 -0.046401322 -0.3537359
-0.31610847 0.081886366 -0.022691453 -0.28761452 0.17405534 0.18528928 0.2836123 0.7319024
-0.95894504 0.2678947 -0.03527597 0.43305454 -0.09650074 -0.024607837 -0.0029788513 0.028158965
-0.025560897 -5.090986 0.09451 0.9405674 0.011119542 0.086210564 -0.07556358 -0.367192
0.35877836 -0.25740448 -0.35143673 -4.694919 0.33062938 -0.50163025 0.54323816 0.46599707
-0.048765775 -0.19406365 -0.36507946 -0.11004587 0.1973147 0.19730304 0.22854272 0.37740305
-0.2935778 0.2382248 -0.094568186 0.10426684 -0.38585576 0.13338025 -0.25659156 -0.2038013
-0.7006507 -0.5369295 0.0065462883 -0.8453206 0.5491302 0.21889913 0.14289743 -0.17645888
0.85700524 0.025828948 -0.8284107 0.056576908 0.18987355 0.1560938 -0.35326117 0.21108007
0.5228428 -0.38536647 -0.23867099 -0.5571106 0.15221332 -0.2088971 -0.36679667 0.24976094
-0.2671773 -0.3118167 0.21392761 -0.2225201 -1.5829445 -0.22215286 0.23565568 -0.3148675
00000000: dbd3 d3bf 8e90 eb3e 1290 8fbd d0fc cabd
00000010: b1e2 493e 7400 2a3d ad15 7ebe 8968 013f
00000020: a7df 33c0 9e61 0ebf 6392 173e 8444 0a3f
00000030: f295 9abf c047 5a3e 778d 2ebd 1da0 9c3e
00000040: 8143 f2be 197b d33d 1c9e eabd bea6 53be
00000050: 7aa2 a73e bf24 a63e 51b9 28bf 4d6d 85bd
00000060: 5914 50bf 5287 d13e b388 31bf c516 353f
00000070: 2a0a 803e 952a 9c3d e546 a33e 8621 76be
00000080: 828a 18bf 9deb c0bf 8cec 973e a6e4 5fbe
00000090: 2eb9 3ebe 422e 0b3e ad53 f7bf c83c 063e
000000a0: 2865 773c 0e16 b33d 2cb1 d23e f368 ea3e
000000b0: cbed 65bf 28e1 463e ecc2 15bf 1844 af3d
000000c0: a542 3f3e fd69 9cbf 36f5 59bd 749b 3abf
000000d0: 6e61 b93e 7fbb c1be b9d2 d0bd 480f 04bd
000000e0: 70fc 4e3e dd78 3f3f 1d84 25be 2445 a0bf
000000f0: 2828 00be 0a0c 903e 8942 9c3e 06a6 5abe
00000100: 024a 11be c74d a0be 3e50 043e 46cc 873d
00000110: 705d 3abe f64c 45be 5247 9fbe 7180 25be
00000120: a6ae a8be 59d1 4fbd 4189 f13c f75e 29be
00000130: e959 103e f75b e33e d4f0 82be 39b8 0abf
00000140: 6969 d5be 2bc9 0abf 5a68 0e3f 5b3b ecbc
00000150: 53cb 9ebf 540f bc3e 8ca0 80be 5259 073f
00000160: 9021 dcbd f817 07be a864 82be 843a b63e
00000170: 82c8 9a3e 6108 143f fad2 e6be 728a 0ebf
00000180: 9d27 efbe 03a0 39be b8da 5e3f 0be9 8dbd
00000190: 295a d6be 2724 6dbe 4d65 0b3d d18a b33d
000001a0: 0904 6f3e 6dc4 64bf 1c2e 403e db68 0a3f
000001b0: cadc a3be 7187 933c 4c54 bbbe 7800 283e
000001c0: b6c2 afbe b60c 8abe 07ea c83d e245 793d
000001d0: 9a15 26be 5a7a b43c a1b5 9b3e 78c9 263d
000001e0: ddd7 233f 77bc bfbf bc8f d6be 5515 373e
000001f0: 60ce ff3d 3cc8 053e f19b fd3d d3de bf3e
00000200: 4817 c1bc 8b94 39be 7e38 0b3f 0076 c53e
00000210: 2d27 22be 6f35 263e ca3c 07bc 8af1 27be
00000220: ff4c a43d ab2b e8bc 0c20 57be 99b7 59be
00000230: c72f 433f a26e 64be 0162 a7bf 4221 8e3e
00000240: 2fa3 ddbd 8ccf 17bf 9b55 ee3d 860e abbd
00000250: 2ffa a9be ddc1 0b3d 29d7 853e d657 0fbe
00000260: 6912 6b3e 229c 45be 7f78 5abc 5227 0dbe
00000270: 93df 913e 428f 993c dee2 bfbe 2772 8c3d
00000280: 5b13 abbd f90e aa3e b3eb 15c0 95a5 d93e
00000290: 7a11 ffbd 954d a1b9 3142 7c3e 45c4 aa3e
000002a0: 44b5 26be 5f6e 683f 6ca9 9dbd ddba 063e
000002b0: 68b4 19be c3f0 0fbd 500f 3ebd df1c b5be
000002c0: f8d8 a1be 0ab4 a73d 6de3 b9bc 3642 93be
000002d0: 903b 323e 79bc 3d3e a235 913e f55d 3b3f
000002e0: 6c7d 75bf 7e29 893e 897d 10bd 53b9 dd3e
000002f0: 2ea2 c5bd 6096 c9bc d538 43bb a1ad e63c
00000300: 1665 d1bc 5be9 a2c0 758e c13d 06c9 703f
00000310: bd2e 363c 2a8f b03d 14c1 9abd 9700 bcbe
00000320: ccb1 b73e 85ca 83be 84ef b3be c73c 96c0
00000330: 4148 a93e d76a 00bf a811 0b3f 2b97 ee3e
00000340: 9fbe 47bd 9fb8 46be b2eb babe bb5f e1bd
00000350: dd0c 4a3e cf09 4a3e 1a07 6a3e f93a c13e
00000360: d44f 96be 34f1 733e f7ac c1bd da89 d53d
00000370: e38e c5be d594 083e f85f 83be 4ab1 50be
00000380: d85d 33bf 3674 09bf 3f82 d63b ee66 58bf
00000390: cc93 0c3f 1827 603e b453 123e a3b1 34be
000003a0: b264 5b3f 3b97 d33c b912 54bf 30bd 673d
000003b0: 366e 423e 0ed7 1f3e a6de b4be 6025 583e
000003c0: 07d9 053f c14e c5be 2b66 74be cd9e 0ebf
000003d0: cfdd 1b3e 1fe9 55be c6cc bbbe 55c1 7f3e
000003e0: 77cb 88be 70a6 9fbe d70f 5b3e 4fdc 63be
000003f0: ed9d cabf 0a7c 63be b94f 713e 5036 a1be

model.0.bias f4 [128]
0.19548075 0.099650316 -0.3760048 0.17846404 0.17938142 0.37675488 0.06537508 -0.22345528
0.13174596 -0.3623179 -0.040690456 0.49676767 0.35402602 -0.343697 0.14718932 -0.00440324
-0.26940477 -0.012751238 -0.53539735 -0.24711321 0.16277753 -0.326015 -0.29325098 0.21996015
-0.30286074 -0.17542039 -0.44751948 -0.034703158 -0.19337316 -0.2174296 -0.0052657663 -0.32243705
0.49843317 0.055338606 0.3814495 -0.26950082 -0.14986072 -0.29759505 -0.3802649 0.30235127
0.02228188 -0.37733912 0.2025734 0.15451843 0.4431895 -0.33799076 0.33396554 0.11330671
0.26586577 0.012755106 -0.239414 -0.25589558 -0.026688296 -0.36619952 0.087391846 -0.39492568
0.2514158 -0.29643568 -0.42202297 -0.1833528 -0.42130053 -0.10801887 0.2540537 0.07503707
-0.25386804 -0.66665184 -0.58718264 -0.4689468 0.122152574 -0.12580748 0.18083179 -0.3286399
-0.15194024 0.2820674 0.21797295 -0.1542976 -0.3722522 -0.20041044 0.18418375 0.35627937
-0.14010008 -0.5370231 0.18154807 -0.3715632 0.29525617 0.21769093 -0.2160023 -0.17622696
0.2720078 0.33501774 -0.3509617 -0.18215731 0.10667007 0.42145294 0.31695223 -0.38896102
0.24629234 0.22242168 -0.42365023 -0.028267432 -0.38716075 -0.39909273 -0.29334927 -0.42245656
0.2704746 -0.3191131 -0.15104042 -0.078569256 -0.03118408 -0.32890445 -0.118205555 -0.071833484
-0.4967388 0.0024930602 0.28631878 -0.16426662 -0.17077006 -0.28815603 0.121236704 0.106004976
-0.18589057 0.12980263 -0.33270696 0.43426576 -0.4947724 -0.07446997 -0.113337226 -0.07246867
00000000: 1b2c 483e 7715 cc3d b383 c0be 47bf 363e
00000010: c3af 373e 04e6 c03e 5fe3 853d 76d1 64be
00000020: 6ae8 063e bb81 b9be 09ab 26bd 5558 fe3e
00000030: e642 b53e 0ef9 afbe ccb8 163e 0e49 90bb
00000040: 6cef 89be 92ea 50bc cd0f 09bf 3f0b 7dbe
00000050: 27af 263e 70eb a6be fe24 96be 3c3d 613e
00000060: 9010 9bbe 67a1 33be 4621 e5be e624 0ebd
00000070: 9d03 46be dda5 5ebe 738c acbb 7816 a5be
00000080: a232 ff3e bcaa 623d 594d c33e 03fc 89be
00000090: 1775 19be 615e 98be 15b2 c2be c9cd 9a3e
000000a0: 7d88 b63c 9832 c1be 676f 4f3e 143a 1e3e
000000b0: bce9 e23e 200d adbe 88fd aa3e 590d e83d
000000c0: 8f1f 883e cbfa 503c f228 75be bf04 83be
000000d0: 6aa1 dabc 817e bbbe 7ffa b23d b333 cabe
000000e0: 92b9 803e 6bc6 97be 6513 d8be d6c0 3bbe
000000f0: b4b4 d7be ff38 ddbd 5413 823e 09ad 993d
00000100: fefa 81be b2a9 2abf 9a51 16bf cc19 f0be
00000110: 212b fa3d add3 00be f82b 393e 7d43 a8be
00000120: 3996 1bbe 236b 903e 4d34 5f3e 3100 1ebe
00000130: d797 bebe 6538 4dbe aa9a 3c3e 406a b63e
00000140: 6576 0fbe 597a 09bf bde7 393e 883d bebe
00000150: d12b 973e 5fea 5e3e b52f 5dbe d774 34be
00000160: 9b44 8b3e 7287 ab3e 40b1 b3be 7287 3abe
00000170: d675 da3d aec8 d73e 9047 a23e e625 c7be
00000180: 0f34 7c3e 82c2 633e afe8 d8be 1a91 e7bc
00000190: ef39 c6be e255 ccbe e031 96be 3a4c d8be
000001a0: a67b 8a3e cb62 a3be 57aa 1abe ebe8 a0bd
000001b0: c175 ffbc 2a66 a8be c115 f2bd 6f1d 93bd
000001c0: 8c54 febe 9c62 233b 6098 923e 8235 28be
000001d0: 59de 2ebe 3089 93be f34a f83d 2319 d93d
000001e0: 195a 3ebe fbea 043e 9158 aabe 1558 de3e
000001f0: cf52 fdbe b683 98bd 591d e8bd 746a 94bd

model.2.weight f4 [64, 128]
-0.06758144 -0.024394827 -0.064286575 -0.09550025 0.034020636 0.022127284 -0.021618657 0.0009960459
-0.037195288 0.0016656962 -0.050759736 0.0578107 0.029569317 0.024724267 0.0061940886 -0.06800522
0.023202494 -0.06555927 -0.08295387 0.031933203 0.018258225 -0.005929292 0.050471768 -0.081573494
0.027703864 -0.008539373 -0.06532053 0.05077399 -0.047631513 -0.073326126 -0.07792099 0.086678594
-0.06754771 -0.04250393 -0.03536802 0.07416804 0.016761186 -0.11071624 -0.02033874 0.031139696
0.006816979 -0.03909136 0.0096768 -0.0015683357 0.046175767 0.00887778 -0.02100892 -0.045834463
-0.03011754 -0.0048577613 0.060660068 -0.0015620897 -0.056414157 -0.026362864 0.047122147 0.077038065
-0.05630091 0.009336327 0.07191738 -0.026749192 -0.07598583 0.05038606 0.06282701 0.032446023
-0.07725562 0.055171814 0.043944906 -0.08230042 0.017493565 0.018904814 0.067339845 -0.035017867
-0.0016062458 0.05046721 -0.015301612 -0.11388107 -0.063950814 0.0041516717 -0.07441426 0.006511709
-0.06437604 0.008768857 0.034502603 0.039100718 -0.08272703 -0.06364991 -0.00979537 0.045572065
-0.038611043 -0.014272777 0.03194844 0.024045652 0.023719056 -0.043678176 -0.112078495 -0.119291164
-0.048571482 -0.07461866 0.002931588 -0.071884386 0.025775379 -0.06318577 -0.0033952026 0.07987812
0.034539614 -0.10520938 -0.015610792 -0.017855868 -0.03624133 0.05187154 0.03260555 -0.02178541
0.04480267 -0.05446166 0.0020844883 0.00938335 0.07199697 -0.05879619 -0.059702877 -0.061127163
-0.0009831113 -0.084386565 -0.091200836 0.041506324 0.038119573 0.068759106 0.020149095 0.059386183
-0.12114326 0.2353701 -0.08275001 0.30276418 -0.16256188 -0.31070498 -0.1775407 -0.27906787
-0.021977032 -0.08663276 -0.007062347 -0.39290908 -0.15003228 -0.18931074 -0.20991251 -0.0864837
0.017577522 -0.46471632 -0.67598003 -0.04776986 -0.020710064 -0.035117377 0.089467734 0.30651802
0.22657607 -0.0073200855 -0.21337672 -0.26640332 -0.046988953 -0.03746536 -0.38088414 0.27554348
-0.08487697 -0.62947404 -0.2644459 -0.08242858 -0.0020284364 -0.044655435 -0.06341088 0.8846426
-0.07325908 -0.08938873 -0.28519973 -0.41448066 -0.007317966 0.06382417 -0.6801199 -0.1765028
-0.33903152 -0.03842111 -0.11911073 -0.20897809 -0.46415886 -0.950622 -0.08633929 0.08314903
-0.15327421 -0.014412136 -0.10881361 0.15455718 -0.085218325 0.14289063 0.019760488 0.101624064
0.056873083 0.032645192 -0.23108432 -0.28977075 -0.0019652082 -0.5535185 -0.39482352 -0.031132886
-0.5081576 0.11232569 -0.31819355 -0.18416823 -0.085846566 0.023499426 0.20499817 -0.39240718
0.0031126607 -0.016079986 -0.41213024 -0.05656991 -0.0037547268 -0.1755858 -0.010624999 -0.15463072
-0.356953 -0.15241382 0.04198372 -0.033793498 0.16757989 -0.35361516 -0.48184818 -0.28602284
0.06721318 -0.105309226 -0.14932428 -0.1965237 0.052739047 -0.12233389 -0.070711866 -0.9379335
-0.5539987 0.28392306 0.059479486 0.013393174 0.031689778 -0.19578685 0.03299507 -0.16064134
-0.25720078 0.054174498 -0.07732891 -0.10374219 -0.005480081 0.16403852 -0.079689756 -0.25574136
-0.046144262 -0.51890814 -0.20830758 -0.1587153 0.07315125 -0.1629492 -0.03433861 0.57618254
00000000: 2368 8abd a9d7 c7bc aea8 83bd a395 c3bd
00000010: 3959 0b3d 4744 b53c 9c19 b1bc c18d 823a
00000020: 165a 18bd 7d53 da3a 71e9 4fbd eaca 6c3d
00000030: 5a3b f23c 8c8a ca3c c8f7 ca3b 5246 8bbd
00000040: 2813 be3c f043 86bd b8e3 a9bd 64cc 023d
00000050: 4692 953c 824a c2bb 7cbb 4e3d 0110 a7bd
00000060: 37f3 e23c bae8 0bbc c5c6 85bd 63f8 4f3d
00000070: 4319 43bd 022c 96bd 0a95 9fbd 8c84 b13d
00000080: 7456 8abd 9a18 2ebd 0fde 10bd 6ae5 973d
00000090: c14e 893c 32bf e2bd 6e9d a6bc ad18 ff3c
000000a0: f760 df3b 431e 20bd 718b 1e3c 9d90 cdba
000000b0: cd22 3d3d 1c74 113c e61a acbc ebbc 3bbd
000000c0: 0fb9 f6bc db2d 9fbb b176 783d 08bf ccba
000000d0: 8812 67bd eff6 d7bc 2703 413d 22c6 9d3d
000000e0: c89b 66bd 65f7 183c 6b49 933d 1f21 dbbc
000000f0: 759e 9bbd 9d61 4e3d 73ab 803d 1fe6 043d
00000100: 3238 9ebd d7fb 613d 93ff 333d 1f8d a8bd
00000110: aa4e 8f3c 45de 9a3c 79e9 893d e56e 0fbd
00000120: aa88 d2ba b5b6 4e3d 9db3 7abc 7a3a e9bd
00000130: a5f8 82bd bf0a 883b 8166 98bd 2d60 d53b
00000140: 96d7 83bd 41ab 0f3c 9a52 0d3d 1328 203d
00000150: ca6c a9bd e25a 82bd c27c 20bc c6a9 3a3d
00000160: 9d26 1ebd 5ed8 69bc 5edc 023d 63fb c43c
00000170: 774e c23c e3e7 32bd 6989 e5bd ed4e f4bd
00000180: e4f2 46bd abd1 98bd e31f 403b 1f38 93bd
00000190: e326 d33c 8a67 81bd 0c82 5ebb 2497 a33d
000001a0: 6979 0d3d 0478 d7bd 68c4 7fbc 7846 92bc
000001b0: ca71 14bd 4077 543d 668d 053d 5177 b2bc
000001c0: 0183 373d 3113 5fbd e99b 083b 9fbc 193c
000001d0: 2673 933d 46d4 70bd 018b 74bd 7a60 7abd
000001e0: bedb 80ba ddd2 acbd 81c7 babd 8902 2a3d
000001f0: 4523 1c3d 93d1 8c3d b70f a53c ed3e 733d
00000200: f519 f8bd dc04 713e d678 a9bd e803 9b3e
00000210: 9f76 26be b914 9fbe 3bcd 35be fce1 8ebe
00000220: 2d09 b4bc 846c b1bd 436b e7bb 612b c9be
00000230: 10a2 19be adda 41be 4ef3 56be 5e1e b1bd
00000240: bcfe 8f3c 4cef edbe 070d 2dbf 54aa 43bd
00000250: 27a8 a9bc 3dd7 0fbd dc3a b73d eeef 9c3e
00000260: 8f03 683e 54dd efbb 6d7f 5abe 0466 88be
00000270: 7d77 40bd 4775 19bd 3f03 c3be 0914 8d3e
00000280: fad3 adbd 3625 21bf 7465 87be 51d0 a8bd
00000290: 84ef 04bb 9ee8 36bd 90dd 81bd f077 623f
000002a0: db08 96bd 7011 b7bd b305 92be cf36 d4be
000002b0: 8ccb efbb 3fb6 823d 561c 2ebf 26bd 34be
000002c0: 8a95 adbe 745f 1dbd 54f0 f3bd 5afe 55be
000002d0: 3ba6 edbe f75b 73bf a7d2 b0bd 0a4a aa3d
000002e0: eaf3 1cbe e120 6cbc acd9 debd 3d44 1e3e
000002f0: f286 aebd ec51 123e bfe0 a13c 4720 d03d
00000300: c0f3 683d f7b6 053d 5ea1 6cbe d55c 94be
00000310: b9ca 00bb 63b3 0dbf 4f26 cabe 650a ffbc
00000320: 9e16 02bf 030b e63d 44ea a2be 9996 3cbe
00000330: 53d0 afbd de81 c03c 0aeb 513e 98e9 c8be
00000340: c8fd 4b3b 2dba 83bc bc02 d3be dab5 67bd
00000350: dd11 76bb c4cc 33be 7a14 2ebc 8457 1ebe
00000360: 8bc2 b6be 5e12 1cbe 1ff7 2b3d 0d6b 0abd
00000370: 109a 2b3e 0c0d b5be ceb4 f6be 9671 92be
00000380: 10a7 893d 5dac d7bd 77e8 18be 823d 49be
00000390: e604 583d 318a fabd 62d1 90bd 691c 70bf
000003a0: dcd2 0dbf 5d5e 913e c3a0 733d 0b6f 5b3c
000003b0: 24cd 013d 597c 48be d725 073d 2a7f 24be
000003c0: d2af 83be 14e6 5d3d 9f5e 9ebd c976 d4bd
000003d0: 4092 b3bb b7f9 273e 6234 a3bd 88f0 82be
000003e0: c401 3dbd 2ad7 04bf 954e 55be 4386 22be
000003f0: 53d0 953d 28dc 26be a4a6 0cbd b380 133f

model.2.bias f4 [64]
-0.1335702 -0.36190137 0.019817118 -0.07878995 -0.40706587 0.29129586 -0.055023428 -0.12268281
-0.06093868 0.016081411 -0.19699743 -0.36616537 0.09345936 -0.10891007 -0.11274027 -0.053598598
-0.08066116 -0.059715647 -0.075776525 0.15955523 -0.06690404 0.40566325 0.14117058 -0.07506195
-0.14540167 0.015613253 -0.113217674 0.16842161 0.015719412 -0.032614443 -0.13861065 -0.057566427
0.036676206 0.36451563 -0.09222674 -0.097237565 0.29722953 -0.002809477 -0.17436339 0.3457781
-0.10927683 -0.031798355 -0.039960638 -0.09461362 0.17051025 0.01633447 -0.10104139 0.00010520171
-0.23129128 -0.14139909 -0.21549878 -0.10544681 -0.09178804 0.4711666 -0.093335435 -0.035988387
-0.13545077 -0.11344915 -0.04635996 -0.10785802 -0.05726632 -0.09438761 -0.0871748 0.023358757
00000000: a0c6 08be 234b b9be 8257 a23c a05c a1bd
00000010: f06a d0be bb24 953e 3f60 61bd 2041 fbbd
00000020: d69a 79bd 2abd 833c b2b9 49be 077a bbbe
00000030: 9f67 bf3d 3e0c dfbd 5fe4 e6bd 348a 5bbd
00000040: ae31 a5bd 6598 74bd b930 9bbd 7262 233e
00000050: fc04 89bd 18b3 cf3e 058f 103e 14ba 99bd
00000060: 2de4 14be bbce 7f3c abde e7bd b776 2c3e
00000070: ffc5 803c b996 05bd f3ef 0dbe c6ca 6bbd
00000080: ca39 163d cba1 ba3e 60e1 bcbd 7d24 c7bd
00000090: 782e 983e 341f 38bb 518c 32be d409 b13e
000000a0: 88cc dfbd fe3e 02bd c4ad 23bd c9c4 c1bd
000000b0: 3d9a 2e3e decf 853c caee cebd bd9f dc38
000000c0: 9fd7 6cbe ecca 10be b6ab 5cbe 7ff4 d7bd
000000d0: 5efb bbbd c03c f13e a626 bfbd 8f68 13bd
000000e0: 9bb3 0abe 0758 e8bd f1e3 3dbd aae4 dcbd
000000f0: 1790 6abd 4b4e c1bd b488 b2bd dd5a bf3c

model.4.weight f4 [4, 64]
0.006515287 0.58675385 0.0421636 -0.08040182 -0.8113458 0.17470065 0.11956806 0.07554445
0.98492235 -0.084033206 -0.3399158 0.18195008 0.32410863 0.22170886 0.090832815 0.10997991
-0.028771214 0.07757282 0.030508135 -0.07238858 -0.08526711 -0.08724483 0.32699284 0.07404525
-0.023707537 0.0061535984 0.12046875 0.4328094 0.2724283 0.0342948 0.07979515 -0.18686566
-0.0376328 0.3211375 0.04789233 -0.07426566 -0.17037426 -0.058031626 -0.43787563 0.3286293
0.04129067 -0.121159665 -0.06549756 0.049912654 0.21638395 0.009199012 -0.07401163 0.036892492
0.26447222 -0.1565996 0.19646294 0.04301107 -0.014713179 -0.029053053 0.10037112 0.023856154
-0.061770614 0.03251778 -0.097341605 -0.018410323 0.042868637 -0.057698864 -0.23389533 0.048908263
-0.013723309 0.31927496 -0.043967433 0.07928246 -0.07567197 0.1735139 0.046462964 0.015385485
-0.1373804 -0.07313493 -1.1961235 0.3855105 0.21511292 0.37433138 -0.0042179152 -0.00964649
-0.0760612 0.10934641 -0.05706779 0.4221551 0.010581481 0.2712082 0.06271538 0.050980814
-0.015169953 -0.0537211 -0.028411046 0.2204531 0.31409612 -0.028700817 -0.09186474 0.24887419
-0.050543264 0.29802293 0.059900388 -0.089551285 0.15215966 0.023648184 -0.46973002 0.12372728
-0.093882635 -0.06961713 0.07614992 0.06546222 0.20097564 0.025431335 -0.034867976 -0.08128617
0.3650716 -0.6472766 0.31579664 -0.05291456 -0.061585292 -0.2696647 -0.11635142 0.09626733
-0.032512266 -0.08408778 0.06775248 0.004562089 -0.0022171729 0.02682558 -1.1318249 0.013251093
0.10966109 -0.53934324 -0.01774122 0.06608455 0.23551951 0.17495784 -0.027929615 -0.20938747
0.4973284 -0.08207568 0.10804367 0.009585267 -0.7006934 0.19716191 0.061613396 0.109547645
0.00676669 0.1131971 -0.13620734 0.25518295 -0.099012375 0.35866904 0.10708143 -0.063752376
-0.051161934 -0.06209964 0.056177594 0.26302898 0.39395377 -0.061475396 0.11671139 -0.23573887
-0.047776382 0.27685905 -0.07570013 0.062965006 -0.050669245 -0.03251752 0.0861925 0.28384644
0.004745783 -0.028567666 -0.033665933 0.09239477 0.2667889 0.050453942 -0.055335812 -0.04305602
0.11399319 -0.20765746 0.3594022 0.10227617 0.008494881 -0.38870236 -0.04885584 0.10310224
-0.014392109 -0.06951302 0.010427833 0.06954868 0.020435125 -0.0076018632 -0.33541992 -0.023465136
-0.01756955 0.13180225 0.048505012 0.058476523 0.64328897 0.18183126 0.06890241 -0.01160001
0.14546789 -0.009688002 -0.23645443 -0.07237603 0.3115174 0.27799332 0.097360626 -0.09447329
0.14349128 0.008968458 -0.024295464 0.08757416 -0.05807708 0.27543488 0.16228549 0.107381
-0.0377888 0.10918885 0.040337324 0.25059336 0.42977744 -0.09148437 0.007424738 -1.1510664
-0.05075631 0.30615813 -0.09087959 -0.056627624 -0.1834337 0.0059953933 0.31745493 0.32411665
0.09273447 0.02762589 0.064240396 -0.123764336 0.2812011 -0.0005398379 0.055859264 -0.08819962
0.17422801 -0.06474259 0.24408674 0.03680001 -0.099429235 -0.27896178 0.05352026 0.022247007
-0.02505581 0.06457503 -0.035889644 -0.050592806 0.002159989 -0.021920826 0.21419768 -0.033766557
00000000: 307e d53b 8035 163f bdb3 2c3d b6a9 a4bd
00000010: 5cb4 4fbf bae4 323e 19e0 f43d 0cb7 9a3d
00000020: df23 7c3f 9a19 acbd 7209 aebe 1f51 3a3e
00000030: 91f1 a53e a607 633e 8e06 ba3d 263d e13d
00000040: 9cb1 ebbc 80de 9e3d 32ec f93c 7740 94bd
00000050: 86a0 aebd 6bad b2bd 9b6b a73e 09a5 973d
00000060: 4f36 c2bc 20a4 c93b 52b8 f63d 3299 dd3e
00000070: b97b 8b3e b478 0c3d a46b a33d b659 3fbe
00000080: da24 1abd 226c a43e bf2a 443d 9818 98bd
00000090: 9776 2ebe 92b2 6dbd 3c31 e0be 1a42 a83e
000000a0: 6820 293d 8f22 f8bd 9623 86bd 3671 4c3d
000000b0: c193 5d3e 74b7 163c 6993 97bd 951c 173d
000000c0: e768 873e a55b 20be 952d 493e 602c 303d
000000d0: 8c0f 71bc ab00 eebc 608f cd3d fb6d c33c
000000e0: 2f03 7dbd 5d31 053d 095b c7bd 3fd1 96bc
000000f0: 0697 2f3d a555 6cbd 4282 6fbe 0854 483d
00000100: bbd7 60bc 0278 a33e 3217 34bd d85e a23d
00000110: e8f9 9abd a1ad 313e f34f 3e3d 6713 7c3c
00000120: 73ad 0cbe c4c7 95bd 931a 99bf a261 c53e
00000130: 9046 5c3e 5da8 bf3e 7036 8abb 500c 1ebc
00000140: f9c5 9bbd 03f1 df3d eabf 69bd b724 d83e
00000150: f35d 2d3c cddb 8a3e ec70 803d 42d1 503d
00000160: 658b 78bc a80a 5cbd 48be e8bc 75be 613e
00000170: 35d1 a03e fa1d ebbc 9523 bcbd e0d8 7e3e
00000180: 7406 4fbd 7696 983e 1c5a 753d aa66 b7bd
00000190: becf 1b3e d6b9 c13c 7480 f0be ba64 fd3d
000001a0: 8a45 c0bd 6d93 8ebd 7df4 9b3d 0e11 863d
000001b0: 8fcc 4d3e 6055 d03c b9d1 0ebd 5d79 a6bd
000001c0: aaea ba3e ebb3 25bf 19b0 a13e f0bc 58bd
000001d0: dc40 7cbd 7e11 8abe a749 eebd ce27 c53d
000001e0: 952b 05bd 3736 acbd d0c1 8a3d 947d 953b
000001f0: fd4d 11bb 52c1 db3c a3df 90bf 1d1b 593c
00000200: fe95 e03d 6612 0abf 0956 91bc 5657 873d
00000210: 072c 713e 2628 333e a6cc e4bc ab69 56be
00000220: d4a1 fe3e 4b17 a8bd 0046 dd3d 860b 1d3c
00000230: a560 33bf d0e4 493e 545e 7c3d 845a e03d
00000240: 1cbb dd3b e2d3 e73d f079 0bbe 57a7 823e
00000250: 00c7 cabd 78a3 b73e 824d db3d 9b90 82bd
00000260: 2d8f 51bd 315c 7ebd 7a1a 663d bcab 863e
00000270: 4fb4 c93e a0cd 7bbd 6206 ef3d 8865 71be
00000280: 2bb1 43bd 78c0 8d3e ab08 9bbd ccf3 803d
00000290: 8e8a 4fbd 1731 05bd b285 b03d 5254 913e
000002a0: 8382 9b3b bd06 eabc 4ae5 09bd 7839 bd3d
000002b0: 8e98 883e cba8 4e3d cea7 62bd 825b 30bd
000002c0: 4375 e93d 28a4 54be 9103 b83e 2b76 d13d
000002d0: 1d2e 0b3c ff03 c7be 101d 48bd 4427 d33d
000002e0: e1cc 6bbc d85c 8ebd 80d9 2a3c 8a6f 8e3d
000002f0: 9067 a73c 0d19 f9bb 29bc abbe f539 c0bc
00000300: 04ee 8fbc 2bf7 063e 31ad 463d 1485 6f3d
00000310: 96ae 243f f931 3a3e b51c 8d3d f80d 3ebc
00000320: 89f5 143e 6dba 1ebc 1c21 72be e239 94bd
00000330: 357f 9f3e 2455 8e3e 0265 c73d 367b c1bd
00000340: 61ef 123e 70f0 123c 4807 c7bc 155a b33d
00000350: 3be2 6dbd cd05 8d3e 2b2e 263e 92ea db3d
00000360: 6ec8 1abd 679e df3d c038 253d c64d 803e
00000370: ca0b dc3e 285c bbbd 374b f33b 2556 93bf
00000380: d9e5 4fbd c2c0 9c3e 141f babd 5ef2 67bd
00000390: 0bd6 3bbe 0175 c43b 7489 a23e 9ef2 a53e
000003a0: 92eb bd3d b14f e23c 7890 833d 2878 fdbd
000003b0: 97f9 8f3e e983 0dba afcc 643d 01a2 b4bd
000003c0: d468 323e c397 84bd e0f1 793e 9bbb 163d
000003d0: 8ea1 cbbd 14d4 8ebe 0f38 5b3d 5b3f b63c
000003e0: d841 cdbc ea3f 843d 0501 13bd 673a 4fbd
000003f0: 9a8e 0d3b 4e93 b3bc a356 5b3e cd4e 0abd

model.4.bias f4 [4]
0.03936196 0.124746636 0.11776294 0.08106059
00000000: 023a 213d 2a7b ff3d b22d f13d 1803 a63d
