dqn_snake_hard.pth (torch, 41385 bytes, 6 tensors)

model.0.weight f4 [128, 7]
00000000: d551 9fbf f56f 543c b8f6 783e 6606 72bf
00000010: f560 a1be 3803 a33e 3c6b 633e c9b9 35bd
00000020: 689b 1dbf b0a4 bc3d fc35 80ba 017b a43e
00000030: edea 0f3d 8327 343e 1e49 fb3e 3884 703c
00000040: 53b2 48be 71fa c3be 9199 08bf 91c4 b1be
00000050: 1699 78bd 33c8 29be b114 88be fa07 363e
00000060: 6e4e e2bd f100 d13d 8223 193e f474 14bd
00000070: 8890 10c0 32ae 293d 399c 81be 2321 53bd
00000080: 7b5e 0c3f 0b22 fa3d 1123 de3d 13be b3be
00000090: 3125 a63c c5a4 46be 3a21 48be 0ecf 71be
000000a0: f5ee 413e 2185 753d 02e3 ba3e 3354 8fbf
000000b0: 007b 303e e908 1fbe cd39 b83e 11de c8be
000000c0: f837 f1bd 6f22 033e cbce debf ada5 28bf
000000d0: 849a 563e 00bf edbd a8ef 493e 2733 fdbc
000000e0: 722e a0be 5a71 32bd f7fb f8bb 89bc 28bc
000000f0: bf2d 81be f64b a73e e122 2dbe f88d 25be
00000100: f79f 84be 62bf 853e c74a 59be addf f43a
00000110: f5b2 b0be 5228 97be f657 b1be 6ec4 0dbf
00000120: a345 87be 58f6 2c3f d7e1 53be 845c 33be
00000130: 77cf 87be 3bf0 35be 6bd6 03be 28cf 64bf
00000140: 4baf 37bd 4988 55be 915f c3be def0 09bb
00000150: 998e e03c 0aa0 58c0 065b a73e 2c36 4e3e
00000160: da50 ab3e 9f0a 20bf 931a 90bc 92da 60be
00000170: 90be c6bd 6fd8 0b3e df40 183e ef89 2b3f
00000180: 0a34 0dbf caac 14be 6b6a b7be 652c 10be
00000190: 7591 773d 8351 e33e bd17 033f 32ea 673d
000001a0: 6ad3 cbbe ac14 dd3e 71c4 d3bd c363 9e3e
000001b0: 82ce abbe 73c5 023f b220 61bb 5a37 51be
000001c0: 1539 e4be 8eb4 47bf 85b2 e3be 9c5a 6ebe
000001d0: 0d4e bc3e 3fb8 f03e 33c8 74be 27d0 08bf
000001e0: af07 03bf cd9e a83e d5d8 bdbc eced 283e
000001f0: 64b9 483e 5aaa b7be 1fb4 103f 65f3 3ebe
00000200: bc91 82bf afce 6c3e 07eb 1f3e 9bee b6be
00000210: c6fb 803e 5459 fb3e 9d67 2ebf 8ca5 a3bd
00000220: 3a25 8f3e 4464 993e ee25 acbc beec ac3d
00000230: 9c40 cebd 2474 20bf b48f e23c 9bd2 9fbd
00000240: f4d4 c1be d42d dbbd 43d8 fe3c a2be 1c3e
00000250: 5ec2 e73e 43a2 13bf 53f6 42be 4e24 973d
00000260: b8f1 2d3e b277 d2bc 0e84 093f 1251 06be
00000270: a47c f6be e977 b0bd 99ce a53e 4357 9cbc
00000280: 08d5 11bf b34b 943e cca6 fbbe 75cd 573e
00000290: 2b74 163e d25c 8fbe 64f6 72be 2c56 0cbf
000002a0: 7222 f53e 302f 06bf aec9 49be d53e 11bf
000002b0: ba28 893e 0594 483d 1d8f bd3e 94f5 4abf
000002c0: eeaf 9a3c 5e5d 86be 97e5 02bf f1d5 b03e
000002d0: 02f6 303e c28d 4a3e 5edc d43d 2dc4 5bbe
000002e0: 308e 50be fae2 a1bd 1226 61bc 3e37 ecbd
000002f0: d64d 1cbe e254 bf3e 5fe5 91bf bbfc 6a3e
00000300: a95a 743e b437 e33e db75 02be 667a a7bd
00000310: dc8a 38bf 1b09 ff3e a2b8 acbe 9dbe d03e
00000320: 1784 683d 0e51 a3be 7ff6 1dbd fb4f 1b3e
00000330: a38f 51be d35d 3b3e e12d fabe 9fff 9b3d
00000340: 0ab7 7ebe c97e 3b3e 93f4 04c0 8ea0 083f
00000350: 464d 013f 84d9 1b3d f3d9 bbbe 73fa 8dbc
00000360: 3323 c63d 8a95 593e 93f4 ba3d f305 9bbe
00000370: e3e1 083d df9e 613e c254 f7bd 808a 11bf
00000380: 7463 e2bd 8c5a 813d c753 5d3e 2e7c 64be
00000390: 2017 dbbe 3d42 663e b9fe ed3d e887 833e
000003a0: 18f4 3fbe 5ec4 e5be f370 c1bd 5ec0 1ebd
000003b0: 9729 edbc b425 a83e 5091 893e fec0 f93e
000003c0: ad43 d33d a8eb 82be cb33 34bf 37c7 35bf
000003d0: 0596 093e 4f35 bf3e 06d2 6dbf fdfc be3c
000003e0: c3d3 f03d 2023 bbbe aec7 e2bb a531 023f
000003f0: 64a3 b7bc fb16 a3bf 7cae c73c 6b04 0f3e
-1.2446848 0.012966146 0.24312866 -0.94541013 -0.31519285 0.31838393 0.22208875 -0.04436663
-0.61565256 0.09211099 -0.0009781714 0.32125095 0.035136152 0.17593198 0.4907922 0.014679961
-0.19599275 -0.3827701 -0.53359324 -0.3472028 -0.06069287 -0.16580276 -0.26578286 0.1777648
-0.110501155 0.10205258 0.14954951 -0.036244348 -2.2588215 0.04142589 -0.253145 -0.051545274
0.54831666 0.122135244 0.10846532 -0.35105953 0.020281406 -0.19398792 -0.19543925 -0.23614141
0.18938811 0.059941415 0.36501318 -1.119757 0.17234421 -0.15530743 0.35981598 -0.39231923
-0.11778253 0.12806104 -1.7406858 -0.658778 0.2095738 -0.11608696 0.19720328 -0.03090818
-0.31285435 -0.04356513 -0.007598396 -0.0102988565 -0.25230214 0.3267514 -0.16907836 -0.16167438
-0.25903293 0.26122576 -0.21219932 0.0018682383 -0.34511533 -0.2952295 -0.3463742 -0.5537785
-0.26420316 0.6756339 -0.2069162 -0.1751576 -0.2652547 -0.17767422 -0.12874763 -0.89378595
-0.044844907 -0.2085277 -0.3815885 -0.002104811 0.027411746 -3.384768 0.32686633 0.20137852
0.33460122 -0.62516207 -0.017590797 -0.21958378 -0.09704316 0.13656782 0.14868496 0.67007345
-0.5515753 -0.14519039 -0.35823378 -0.14079435 0.060441453 0.44398126 0.51208097 0.05661983
-0.39809734 0.43179834 -0.103402026 0.30935487 -0.3355599 0.51082534 -0.0034351763 -0.20431271
-0.445748 -0.7800988 -0.44472137 -0.23276752 0.36778298 0.4701557 -0.23904495 -0.53442615
-0.511836 0.32933655 -0.023174683 0.1649701 0.19601971 -0.35872155 0.5652484 -0.18647535
-1.0200725 0.23125719 0.15617 -0.35728917 0.25192088 0.4909159 -0.6812685 -0.0799056
0.2795809 0.2995931 -0.02101418 0.084435925 -0.10070917 -0.62677217 0.027656414 -0.07803842
-0.37857783 -0.107021004 0.031108981 0.15307096 0.45265478 -0.57669467 -0.19039278 0.073799714
0.1698674 -0.02569184 0.53717124 -0.13116863 -0.48141968 -0.08616621 0.32384184 -0.019084578
-0.56965685 0.28964004 -0.49150693 0.2107447 0.14692752 -0.28000504 -0.23726803 -0.5481899
0.47877842 -0.5241575 -0.19705841 -0.567365 0.26788884 0.048969287 0.3702325 -0.7928097
0.018882718 -0.2624311 -0.51131576 0.34538224 0.17281345 0.19780639 0.10393594 -0.21461554
-0.2036674 -0.079046205 -0.013741987 -0.11533974 -0.15264067 0.37369448 -1.1398124 0.22947972
0.23862709 0.44378436 -0.12740271 -0.081776425 -0.7208688 0.49811634 -0.33734614 0.40770426
0.056766596 -0.31897777 -0.038565155 0.15167229 -0.2046495 0.1829751 -0.48863128 0.07617115
-0.24874511 0.18310083 -2.0774276 0.53369987 0.50508535 0.038049236 -0.3668972 -0.017331338
0.096746825 0.21248451 0.0912868 -0.30277976 0.033418547 0.22033261 -0.12076713 -0.5685196
-0.110541254 0.063160986 0.2161399 -0.22312996 -0.4279108 0.22486205 0.1162085 0.25689626
-0.18745458 -0.4487638 -0.094453715 -0.038757674 -0.028950496 0.32841265 0.26868677 0.48780054
0.103156425 -0.25570416 -0.7039153 -0.710071 0.13436134 0.3734536 -0.92898595 0.023313994
0.1175914 -0.36550236 -0.0069207763 0.50857 -0.022416778 -1.2741388 0.024375193 0.13966529

model.0.bias f4 [128]
00000000: f23c d03d bece 4b3e 8d3c 08be ed5a b7be
00000010: 9675 1a3e c0e1 afbe c59c a0be f40d 3b3e
00000020: 3a4a 2abe 260d 6ebe 7b97 a63b 6c0e 343e
00000030: d28f 72be 480b f13d 59fd 81bd 3a32 dabe
00000040: 22d0 6bbd de4d 093b 7ba1 b13c ff34 10bf
00000050: ac95 7d3d 6e1c 9a3c ce9c e6be 34d6 f3bd
00000060: 1d96 b73d 868f 923e cdb4 b6be 3dd7 3fbe
00000070: 3eeb 81be 27b7 153e b6c5 a6be 865d 87be
00000080: d13a e3be 4b7f ce3d bc94 3fbc 0154 c33c
00000090: 1630 5e3d 7771 923d d6ed ccbe 04bd 7abe
000000a0: 091f 37bc 71c2 91be 2637 1f3e f1c4 81be
000000b0: 9501 ce3d 7b93 dcbd f336 44bc bd3c 60bd
000000c0: 39af e43d 8dbb 03be 236f 003e 06eb 87be
000000d0: 585a 453e 44ae 72be 4482 a13e 1464 27be
000000e0: cdf2 28be 655f 94be 073d e6be fff8 023e
000000f0: 9bde 063e 5288 f03d e29c 70be b30d 5abe
00000100: dd35 73be 07f4 09bf 51dd c0bd 3dfd 78be
00000110: 11e2 a8be 9dfb 5bbe 260d 92bc 5370 6e3e
00000120: beda 183e 9efb debe 1d9c 103d af0e 09be
00000130: bf4b a7be a9ca 6ebe 12bd cbbd 46ee 6dbe
00000140: b89d 94be 41de 40be e99b afbe 452a 39be
00000150: 0e17 3ebe 75a3 b5bd 3a1f 073d e75a 00be
00000160: a257 113e 8380 8abe eb0d 8ebd f218 a93c
00000170: 1dad bebe 9b00 efbd 341c f2bc 4b52 9fbe
00000180: 6383 9fbe 021e cfbd 9a26 b3bd 75f7 bebe
00000190: 5f7f 5fbd 7f75 aabd 3249 ccbe 5527 1d3e
000001a0: 45cf 41be c297 3fbe 4e64 403e a4d7 523e
000001b0: 8c1a c9be 4f40 83be 20b5 80be 6df7 56be
000001c0: 6cee 9c3e 78cd 46be 12b5 a23a ef66 d23d
000001d0: c696 2a3e ed27 1e3c ae20 133e 4ed6 3d3d
000001e0: 4e21 8f3e 6984 293e 1fde 8a3e 0898 983d
000001f0: 866b 80bd ab0b 5bbe 7c92 2b3d 7ce5 aebd
0.101678744 0.19903085 -0.13304348 -0.35811558 0.15083918 -0.3435192 -0.31369606 0.18267041
-0.16629878 -0.23247203 0.005083976 0.17583627 -0.23687676 0.1176973 -0.0634715 -0.42616445
-0.057571538 0.0020950953 0.021683445 -0.56330866 0.061910316 0.018812384 -0.45041507 -0.119060904
0.08964179 0.28625125 -0.35684815 -0.1873445 -0.25374788 0.14620648 -0.32572716 -0.2643854
-0.4438081 0.10082873 -0.011693176 0.023843767 0.054245077 0.07150548 -0.40025204 -0.24486166
-0.011176833 -0.2846866 0.15548381 -0.25345567 0.100588955 -0.10770317 -0.011975992 -0.054745425
0.111662336 -0.12864514 0.12542395 -0.26546496 0.19272745 -0.2369929 0.31544697 -0.1634677
-0.16498871 -0.2897903 -0.44968435 0.12790297 0.13170855 0.11744751 -0.23497346 -0.21294288
-0.23751016 -0.5388798 -0.09417213 -0.24315353 -0.32984975 -0.21482702 -0.017828535 0.23285036
0.14927194 -0.43551344 0.03530513 -0.13384508 -0.32674977 -0.23319496 -0.09948172 -0.23235425
-0.2902658 -0.18834783 -0.34298638 -0.18082531 -0.18563482 -0.088690676 0.032988764 -0.12534676
0.14193586 -0.27051172 -0.069362484 0.020641778 -0.3724145 -0.11670037 -0.029554464 -0.31117472
-0.31154928 -0.101131454 -0.08747597 -0.3729817 -0.05456483 -0.08323192 -0.39899594 0.15347035
-0.18926723 -0.18710235 0.18788263 0.20590073 -0.39278066 -0.25635 -0.25138187 -0.20992823
0.3065065 -0.19414318 0.0012413582 0.10273539 0.16659078 0.009653074 0.14367935 0.046346955
0.27955097 0.16554417 0.2712259 0.07450873 -0.062705085 -0.2139117 0.041887745 -0.085398644

model.2.weight f4 [64, 128]
00000000: 162d cebe 6682 12bf 8af4 47be f59c 13bd
00000010: f4f7 5cbf 70a9 9bbd 2d0b 083e 6f04 373e
00000020: a9c5 f1bb d7ee d4bc 79e7 203e e4df fcbd
00000030: 3cad 473e 4edb 363e d102 ae3b 9679 1ebd
00000040: 8d40 8e3c 8998 2fbe 4464 64bf a39c 3abf
00000050: e3ba 21be fb71 6b3c fd67 9ebe 62bd 25be
00000060: 48ef 33bf 3352 213d 800e aebd 08b7 a1bd
00000070: 48cc 983d 7b65 bbbe 8b25 e4bd ed72 7dbd
00000080: ed89 8c3d 379a 06bf c044 e73d ce71 933c
00000090: cb77 7cbe fb20 37bf 40c5 fc3d 70b1 64bd
000000a0: d57f c3be d74f 323e 77f3 303e 6f95 153d
000000b0: b9ed b9bd 616c 03bf dd12 cebd f077 a53c
000000c0: 6699 813e a4fb 783e b26c 95be d455 8dbe
000000d0: 8711 0abf 3e93 a2bd d005 37bf fae8 34be
000000e0: d085 0cbf 1ecc 8a3d b137 4a3d 1d78 8ebe
000000f0: f835 59be 00ad 7cbb 4e0b 6cbe 6722 c53c
00000100: 3c97 7ebd b972 63be f2ac 59bf e1ca 8abc
00000110: c729 043e 66d0 92bd 4d2b c3be 9c37 0ebe
00000120: 20d0 6d3e e8be 9abe e160 943d 5adf d8bc
00000130: 9f45 de3d 1e91 97bd 58e2 5d3d ad52 333d
00000140: 055d bd3d 281e 9c3c a0b3 093d 4ead 483d
00000150: c01c 86bd 2991 9ebe b695 7c3d 1e33 81be
00000160: ce3b c63e b8d8 223c 7532 09bf 7324 8ebe
00000170: 83cd 0c3e f1b2 3abf cb6a db3d e385 74bf
00000180: 0475 e4bd 8d7c 59bd 02e4 a93e 35a3 25be
00000190: 763a 12bf 4391 b93d 0d70 a53c bc63 99be
000001a0: 1d38 7b3d 090d a53d ed50 933d d21f 90be
000001b0: 3d91 123d 6dac 143f 24a9 6cbe 12fb d23c
000001c0: ea25 26be b1a8 323e 34c9 13be 3ad5 7cbe
000001d0: f341 1abf e7ed 56be 62b8 8abe 8600 2bbf
000001e0: 7828 06bf 9421 a53e f1b8 88be 557e 9bbd
000001f0: 1fff d83d b2bc c8bc 4bc0 19bd c1a1 8abe
00000200: 9fed 953e a299 b0be 9427 c5be f614 2abd
00000210: 67b7 093e 4273 dfbb 7283 8cbe 8fe9 903e
00000220: 52a0 82bd 8fcd 76bd 5c30 d3be 5905 b43e
00000230: acfd 33bd 4d00 3d3e a795 69be 6e19 38bf
00000240: 1e0c 62be b3d4 033f 85da 27bf f8ef c93e
00000250: 9bfe a8bd bfeb 123e 36e3 82bf 4bbc 3b3f
00000260: cc26 b1be fac8 3c3e f2a7 593d abb1 583e
00000270: d681 1a3f 9057 5cbe c4b8 62bf 407b edbe
00000280: 5f9b acbc c332 39be dcdf 113e 4254 8dbf
00000290: 6fff 38bd 8702 74bd ac25 7e3f c610 b9bd
000002a0: 75e2 5c3d 8e12 9abf 3ed2 66be 6fa1 dcbd
000002b0: f333 ca3e 2624 dabd 464b 2bbf 5848 80bf
000002c0: f32e 2bbd 4017 6cbe db17 96bd 7db0 293e
000002d0: a388 b7be 234c 35bd 7978 65be 52b9 e53d
000002e0: 2c0f 0dbf a7ce f0bc 61cc df3c 42d1 11bf
000002f0: 527b 0e3d 4519 c73d 6791 0fbe c6be 72be
00000300: 3910 acbd eb6b 55bd f3bd 8d3e 3707 5d3c
00000310: 84fc 97bd b71f f5be 6237 09c0 2eba 7abd
00000320: 4391 b63e de0f 1abf 4d5d 1e3e b3a2 b9bd
00000330: 59c6 2bbf 34df 043e baa9 5ebd 7673 2a3d
00000340: 7bf1 c03c 105c d03d 7c6a acbd c453 973d
00000350: ab0d b43d c367 16bf 08d9 8ebf fc18 b53b
00000360: 3b1e a5bf 3686 febb 286d 03bf 37c9 ecbb
00000370: bc08 ef3d 48bf 70be b3a5 403e 4a35 69be
00000380: 9fc4 3abd aeaa 4f3d a16a cfbe 01f1 6dbf
00000390: ea0b 2bbf a24f b73e 9d4b 273d 89ec 3239
000003a0: 7a7c 093f 48a8 af3e b03a 9bbe 2899 303e
000003b0: 2ceb 8cbc 9fd8 563f 43aa a9be fc9e d73c
000003c0: e596 1fbe 58d3 5f3c 1ff9 c1bd 5f9f 0a3d
000003d0: 9eeb 8ebf 4737 5e3e 6a82 aabe 7755 cb3c
000003e0: 1a0a 06be 13c1 22bf b34b 89be 7065 083e
000003f0: f8fe 9b3e 3f92 15bc 40bb 793d c87a e8bd
-0.40268773 -0.5723022 -0.19526878 -0.036038358 -0.86315846 -0.07600677 0.13285513 0.17872785
-0.0073782993 -0.025992794 0.157133 -0.12347391 0.19499677 0.17857096 0.0053103943 -0.038690172
0.017364765 -0.17148031 -0.89215493 -0.7289526 -0.15793948 0.014370437 -0.30938712 -0.16185525
-0.7028699 0.039385032 -0.084988594 -0.078962386 0.074608386 -0.3660086 -0.11139973 -0.06187718
0.06862245 -0.52579063 0.1129241 0.017998602 -0.24655072 -0.715347 0.1234231 -0.05583328
-0.38183466 0.17413269 0.17280374 0.036519464 -0.09078545 -0.5133725 -0.10062192 0.020198792
0.25312346 0.24314743 -0.2918449 -0.27604544 -0.53932995 -0.079382405 -0.71493244 -0.17666999
-0.5489168 0.067772135 0.049369518 -0.27826014 -0.21211994 -0.0038555264 -0.23051187 0.024064256
-0.062155947 -0.22211732 -0.8502952 -0.016942443 0.12906562 -0.07168655 -0.38118973 -0.13888401
0.23223925 -0.30223775 0.07245041 -0.02647369 0.10853123 -0.07400726 0.054170936 0.043780018
0.09246258 0.019057348 0.03361857 0.0489934 -0.065484524 -0.30970123 0.061666213 -0.25234312
0.38717502 0.009939365 -0.53592616 -0.27762184 0.13750271 -0.7292929 0.107137285 -0.95516795
-0.111551315 -0.053097297 0.3318177 -0.1617554 -0.57120454 0.090609096 0.020195032 -0.29958904
0.06133281 0.08059127 0.0719317 -0.28149277 0.03578304 0.580756 -0.23111397 0.025754485
-0.162254 0.17447163 -0.14432222 -0.24690714 -0.6025688 -0.2098919 -0.27093798 -0.66797674
-0.524055 0.3225218 -0.267036 -0.07592455 0.105955355 -0.02450404 -0.0375369 -0.27076533
0.29282853 -0.34492213 -0.38506758 -0.041523896 0.13448869 -0.0068191597 -0.27444035 0.2830319
-0.06378235 -0.06025463 -0.41247833 0.3516033 -0.043943092 0.18457146 -0.22810994 -0.719138
-0.22074935 0.5149643 -0.6556781 0.39440894 -0.08251687 0.14347742 -1.0225589 0.7333419
-0.34599912 0.18436041 0.05313868 0.21161525 0.60354364 -0.21517777 -0.8856318 -0.46383095
-0.02107018 -0.1808577 0.14245552 -1.1041338 -0.045165475 -0.059572723 0.9927623 -0.090364024
0.053926904 -1.2036912 -0.22541139 -0.107729785 0.3949276 -0.10651426 -0.66911733 -1.0022078
-0.04179282 -0.23055744 -0.07328769 0.16571231 -0.35846433 -0.044262063 -0.22409238 0.11216988
-0.55101275 -0.029395415 0.027319135 -0.5695993 0.034785576 0.09721617 -0.1402031 -0.23705587
-0.08401532 -0.05210487 0.27683982 0.01349049 -0.074212104 -0.4787576 -2.1440053 -0.06121271
0.356577 -0.6018046 0.15465279 -0.090642355 -0.6709953 0.1297577 -0.054361083 0.04161402
0.023552647 0.101738095 -0.08418748 0.07389024 0.087916695 -0.5875208 -1.1159983 0.00552666
-1.2899851 -0.007767464 -0.51338434 -0.007226135 0.11671588 -0.23510468 0.18813209 -0.22774234
-0.04559767 0.050699882 -0.4051104 -0.9294587 -0.66815054 0.35802943 0.040843595 0.00017063519
0.5370556 0.34308076 -0.30318213 0.17245924 -0.017201982 0.8392429 -0.33137712 0.026320927
-0.15584905 0.013661228 -0.09471344 0.033843394 -1.1165655 0.21700774 -0.33302623 0.024821026
-0.13089791 -0.6357586 -0.26815566 0.13319945 0.30467963 -0.009129106 0.06096959 -0.11351544

model.2.bias f4 [64]
00000000: 9f87 453d c307 033e 5b23 9f3d 5b34 d6bd
00000010: b867 c13d 3d71 56bd 4f5f 2b3e d87e 66bd
00000020: 45fc fbbd 8eb5 5b3e fcc9 323d 4c24 89bc
00000030: b8ca 74bd 80dc b9bd aaf2 d73d fd10 5cbd
00000040: fb27 9b3e b1cc a9bd ca0d ccbd db86 783e
00000050: 0169 1b3e 11f1 f4bd 6600 1fbd 54ae c9bb
00000060: b171 7bbd 32a5 efbc 68ec 09be ee69 8ebd
00000070: 2020 67bd 9a43 fdbc 6043 a6bd 8b67 36bd
00000080: 6d48 b1bd e00b 6abe 8984 85be 6d3e 973e
00000090: 3f16 92bd 1f5e 273e 2d9d 86bb 02e4 bfbc
000000a0: 827b ab3c 2625 cbbd 59ce 05be f2f6 62bd
000000b0: 6b99 2f3e 4c50 03ba fbb4 cdbc e73f c8bc
000000c0: a8b5 b4bd f6f5 c03d 9c79 4cbe dae1 6e3c
000000d0: 9c43 44bd 836d c83d 01e3 1cbe 9c18 d1bd
000000e0: 267a 7fbd 6eb8 4d3e 5f6a 00be 917f 07bc
000000f0: bdd8 cebc e40e 8fbd 3cf0 99be 9029 913c
0.04822504 0.1279593 0.077704154 -0.10459205 0.09443611 -0.052354086 0.16735576 -0.05627331
-0.12303976 0.21455976 0.04364966 -0.01674094 -0.05976364 -0.0907526 0.10544331 -0.05372714
0.3030394 -0.08290995 -0.099635676 0.24270193 0.15176775 -0.11960042 -0.03881874 -0.0061548147
-0.06138772 -0.029253576 -0.13469088 -0.06953798 -0.05642712 -0.030916024 -0.081183195 -0.04453234
-0.08656392 -0.22856092 -0.2607768 0.29539815 -0.07133149 0.16344498 -0.0041080923 -0.023424152
0.020932917 -0.09919195 -0.13066997 -0.055411287 0.17148368 -0.00050092186 -0.025110712 -0.024444534
-0.08823711 0.09421913 -0.19968265 0.014580214 -0.04791604 0.09786513 -0.1532097 -0.10209772
-0.06237235 0.20089886 -0.12540577 -0.00827016 -0.025249833 -0.06985262 -0.30066097 0.017720014

model.4.weight f4 [4, 64]
00000000: 7ac6 b63e 426d c83d bc2e d73e 92fc 0dbc
00000010: f30a c73e 404b c73d 4ee8 933e fe1f 723d
00000020: d06a 18be b1a3 e0bc bc5b 033f f668 0c3d
00000030: e7d1 b6bd 63ba b9bb a584 0b3f 3959 6ebd
00000040: 68b4 913e 29c5 16be 1cca 8f3d 9bfd f1bd
00000050: 5dde fc3e 3d7f e43c 3d40 ecbc c52b 8e3d
00000060: e0f2 a23d 7265 da3e 6dc3 9ebe 83ee a73c
00000070: 30cd b73d 3c1a bd3c a219 f93d 7bc8 973d
00000080: dc3a debd b472 6bbd 97bf 39bf e233 8c3e
00000090: 995d 8bbd 88ab 663e 7245 c63c 3597 b03d
000000a0: 0daf 183e 77dd 153d 6a43 2d3f a096 28bc
000000b0: e61f 383c c110 5d3d 649c 20bd e042 12bf
000000c0: 7c3d f1bd 6898 6b3e 94b9 9a3e ba6a 183e
000000d0: 67fa d43c 1976 d3be 7103 613e a3cd 533c
000000e0: bb8e 9e3d c3c1 833d a5a1 0f3f adab 423d
000000f0: afa1 93bb cb01 14be 2eed 3abf 2ab4 a23e
00000100: 4f3d 093f 1b35 9dbe 9309 be3d b7c9 d03b
00000110: 12f0 e63c de25 0bbd 2e67 d83e 5d6d 68bd
00000120: 0ec7 603d a336 513e ba54 c83e 64d6 803c
00000130: c8d2 fbbd 87a5 debd 6afb 323f 0868 673d
00000140: 10d4 263e cd9d 0c3f 4698 8bbd 9519 9cbe
00000150: 54b2 5c3e 873f b4bc 9a19 adbd 8579 493c
00000160: dce9 fe3d 56d6 d2be 91dd 98bd b00b b23c
00000170: 45ae bd3c a080 1bbd 68a8 59bd 3279 d7bd
00000180: cc6d bdbd 5fa0 47be 6936 d93e d445 9a3e
00000190: 4807 8fbd 30b3 323e f85d 28bd 0d96 91bc
000001a0: cf29 b5bf 9bbb 973d 8440 613f 7afb a7bb
000001b0: 06e8 88be f4bc 99bd f0c8 bc3d ba15 d8be
000001c0: 9afc c8bd da43 f43e a736 663e 9103 d9be
000001d0: 346a e9bd d53a 003d ef93 803e 4414 ebbc
000001e0: a797 1f3c 4363 993e 6f5f af3e f09d 54bc
000001f0: f9d2 10bc 406c aa3d 5cae 183d b41e 033e
00000200: 0cc2 a93e 4a31 a6be 57ac dfbe ac4d 93bc
00000210: b4a7 4fbd 2c61 033d 9c3c eb3e 0ede 853a
00000220: f81a 0abc 467d dd3e a938 ad3e eebe 94bd
00000230: 3f0e 70bd 04c9 d6bd 5213 e13e 4aea 6bbc
00000240: b8f7 dd3e 5c74 be3e a061 863a 8071 ebbd
00000250: 9b76 9abd 966b b2bd 30aa cfbd 6e94 b1bd
00000260: 531f a3bd 8e5e 81bf 5ac2 bb3e b01d 68bc
00000270: 8d84 ab3d 05c9 2fbd f8e6 bcbd c683 1cbd
00000280: be36 93bd 27aa 15bf 5871 a03e dfd3 843e
00000290: 80a4 bbbc 1e25 863e 3caa 97bd 567f 02bd
000002a0: f9b0 543d 13cc bebc 2ec5 0a3f 6b8c 323d
000002b0: f2ef fabe 1eb5 ad3d 7854 ad3d 40f6 0a3e
000002c0: dcbf 11bd 5675 cf3e 4780 803e 2c3a 0fbf
000002d0: b984 893c cb3c 263d 992f b33d ddb5 7abd
000002e0: ad9e ce3d b679 e73d 26eb af3e 9272 dbbb
000002f0: 1f42 dbbc 91a5 f33e 399e ddbb 95a4 733d
00000300: 8684 ad3e 76be c4bd aad4 a63e e183 a23d
00000310: ef6f 903e 95fe 80bd 0137 973e 2323 243d
00000320: 75b7 51bc b196 003e 349a 1a3f cdfe e1bd
00000330: 24fc 82bc 8861 2fbd 3789 2e3f 998a 163c
00000340: 3df6 953e f607 923e 3d3f 05bd b746 853e
00000350: db4b e5bc 5eb0 4b3d f582 9dbd a090 96bd
00000360: 546c 243d 58d1 cb3e 014f 1abe 604b 47bd
00000370: fd69 86bc 28cf 313b bc5b c33d e9d0 c03c
00000380: 28dd 883c 4e32 7abe 455c fb3e 96e7 cd3e
00000390: ad8a 3e3d 10cd d33e 1b24 033d df71 9b3d
000003a0: 9bd2 c6bc 88b8 7f3d 06c6 433f fae9 27bd
000003b0: 3791 99be ccc3 b33d 90b0 9a3d a8cc bb3e
000003c0: 1456 0a3d 595a 6a3e a76d 953e a4bc d93d
000003d0: 5d83 543d d422 513e 6941 293e cbcd c7bc
000003e0: ba44 93bd a00e 213e 669d e43e 42d4 9ebc
000003f0: 704e 6b3c 8a61 52be 669e fd3c 7158 0bbd
0.356983 0.09786464 0.42027843 -0.0086661745 0.3887554 0.0973115 0.28888172 0.05911254
-0.14884496 -0.027421804 0.5131185 0.034279786 -0.089267544 -0.005667971 0.54499274 -0.058190558
0.28457952 -0.14723648 0.07020971 -0.118159495 0.493884 0.027892703 -0.028839225 0.06941942
0.07956481 0.42655522 -0.31008473 0.020499473 0.08974683 0.023083799 0.12163092 0.074112855
-0.1085107 -0.057482436 -0.7255797 0.27383333 -0.06804962 0.22526371 0.024203036 0.086225905
0.14910527 0.03658816 0.6768099 -0.010289818 0.011238074 0.053971056 -0.039211646 -0.57133293
-0.11779305 0.23007357 0.3021971 0.14884463 0.025998307 -0.4130104 0.21973969 0.012927446
0.077420674 0.064334415 0.56106025 0.047527004 -0.004505358 -0.14453809 -0.7301816 0.3177808
0.53609174 -0.3070458 0.0927917 0.0063717025 0.028190646 -0.03397166 0.4226622 -0.056744922
0.054877333 0.20430999 0.3912714 0.01572723 -0.12296063 -0.108714156 0.6991488 0.056495696
0.16291833 0.54928285 -0.06816153 -0.30488268 0.21552402 -0.022002948 -0.08452149 0.012297039
0.12446949 -0.4117915 -0.074641354 0.021734089 0.023154387 -0.037964463 -0.05313912 -0.10521163
-0.09249458 -0.1949477 0.42424324 0.301314 -0.06983811 0.17451167 -0.04110524 -0.017771745
-1.4153384 0.0740883 0.8798907 -0.005126414 -0.2673952 -0.07506743 0.09218013 -0.42204076
-0.09813805 0.47708017 0.22481786 -0.42385533 -0.1139721 0.031306107 0.25112864 -0.028696187
0.009740747 0.29958543 0.34252498 -0.012977108 -0.008839362 0.08321428 0.037275657 0.12804681
0.3315586 -0.3245948 -0.43686172 -0.017981373 -0.050697044 0.032075092 0.4594468 0.0010213272
-0.008429281 0.4325964 0.3383229 -0.072629794 -0.058607336 -0.104875594 0.43960053 -0.014399121
0.43353057 0.3719815 0.0010252483 -0.11496258 -0.075421534 -0.08711927 -0.101398826 -0.08670889
-0.07964959 -1.0106981 0.36671716 -0.014167234 0.083748914 -0.042916317 -0.09223741 -0.038211606
-0.071881756 -0.58462757 0.31336474 0.25942895 -0.022905588 0.26200193 -0.074055165 -0.03185972
0.051926587 -0.02329067 0.5420712 0.043590944 -0.4901119 0.08481811 0.08463377 0.135705
-0.035583362 0.40519208 0.25097868 -0.5594814 0.01678692 0.04058532 0.08749313 -0.061208595
0.10088859 0.113025114 0.34359092 -0.0066970075 -0.026764927 0.47587255 -0.0067632464 0.05948313
0.3389017 -0.0960664 0.32584125 0.0793531 0.282104 -0.06298558 0.29534152 0.04007257
-0.012800087 0.12557484 0.60391545 -0.110349275 -0.01598937 -0.042817622 0.68178123 0.009188318
0.29289427 0.285217 -0.03253101 0.26030514 -0.027990272 0.049728744 -0.07690994 -0.07351804
0.040142372 0.39808154 -0.150692 -0.048655868 -0.016407961 0.0027131531 0.09538981 0.023537116
0.016707018 -0.24433252 0.49093834 0.4021575 0.04651897 0.41367388 0.032016855 0.075900786
-0.024270346 0.062431842 0.76474035 -0.04099462 -0.29993603 0.0877758 0.07553208 0.36679578
0.033773497 0.22886027 0.2918522 0.106316835 0.05188309 0.20423442 0.16528858 -0.024390122
-0.07190843 0.15728235 0.44651335 -0.019388322 0.014361963 -0.2054502 0.03095932 -0.03401989

model.4.bias f4 [4]
00000000: 8a3d 99bb e9a6 be3d ef12 ca3d d5b5 d9bb
-0.0046765255 0.09309179 0.098668925 -0.0066439905
