checkpoints/checkpoint_ep300.pt (torch, 163021 bytes, 24 tensors)

model.0.weight f4 [128, 7]
-0.51520693 0.29679394 -0.05360795 -0.41947633 -0.02280721 0.1967019 -0.115311794 0.19861056
-0.69812655 -0.31389403 0.3646234 0.2931946 -0.36111236 0.16633207 -0.056013566 0.25818127
-0.24887937 0.13175164 -0.042014636 -0.17812425 0.32580706 0.037295572 -0.47710055 0.04726318
-0.36671028 0.33398572 -0.27804062 0.33112928 -0.3062065 -0.081371285 0.42265648 -0.16226982
0.2510239 -0.47289324 0.123633 -0.3025122 -0.6282506 0.11728519 -1.1961898 0.16394018
-0.20670143 -0.0037994124 0.095229626 0.004122967 -0.9618399 0.26594302 -0.3121021 0.30342114
0.26310498 -0.91309667 -0.07475975 -0.5631651 0.38953188 -0.31609476 -0.14433692 0.071311414
0.41101107 0.21337734 -0.28100598 -1.1024592 -0.0892312 0.35965186 0.08105509 -0.21352395
-0.14188388 -0.3130934 0.12921235 0.06630759 -0.18199706 -0.1926764 -0.25554934 -0.121225975
-0.3318592 -0.0124505665 0.06693068 -0.12087449 0.19065385 0.13523713 -0.43944085 -0.30216375
-0.4512196 -0.1400605 0.33222538 -0.24977274 -0.92382485 0.24610862 -0.23376974 0.099163815
0.1009563 0.08271753 -0.26872316 0.4599279 -0.058417916 0.3346231 -0.081673704 -0.14656347
-0.052699056 -0.37071872 0.80165815 0.0359667 -0.7741418 -0.044727717 -0.015649157 -0.11781695
0.25108668 -0.08444744 0.13720256 0.0945173 -0.13206105 0.099489234 -0.081769995 0.18828265
-0.2990533 -0.23886088 0.14194511 0.10469889 -0.118829 0.065851435 0.34791136 0.18903515
0.20180267 -0.91428363 0.0060518677 0.08018149 0.39312795 0.31173244 0.36635846 0.21582825
-0.16182654 -0.008050581 0.12511487 -0.055513263 0.18083714 0.16231321 -0.008254239 -0.16400734
0.08022498 -0.028341135 -0.21008319 -0.21261443 0.35065767 -0.09607382 -0.66229975 0.16651939
-0.00023982306 0.14045952 0.101948805 -0.083523795 -0.33198687 0.03412043 0.26140717 -0.1399835
0.22956242 -0.19297841 -0.013334393 -0.13784531 0.28490886 0.018745068 -0.37477773 0.0685771
-0.08353301 0.01508591 -1.5297477 0.31404316 -0.19527397 0.28364304 0.101473235 0.04272317
-0.13830811 0.6027813 0.054278515 -0.43969354 0.35914674 -0.18674356 0.09565541 -0.3537359
-0.31610847 0.081886366 -0.022691453 -0.28761452 0.17405534 0.18528928 -0.0876253 0.2660589
-0.5988698 0.33369964 -0.11064309 0.11861698 0.02603928 -0.24944103 0.26890248 0.29996362
0.026006218 -0.5832548 -0.2285843 0.8418337 0.011119542 0.086210564 -0.07556358 -0.367192
0.35877836 -0.25740448 -0.35143673 -1.9168259 0.32639223 0.0076929466 -0.09424564 0.60457796
-0.108367614 0.03716141 -0.13773774 -0.2644276 0.04302825 0.025327547 0.44849184 0.11181628
-0.1902807 0.2382248 -0.094568186 0.10426684 -0.38585576 0.13338025 -0.25659156 -0.2038013
-0.82458633 -0.09545947 -0.1123771 -0.46118823 0.26979065 -0.4294866 0.16288517 0.06465644
0.67126524 0.064569384 -0.65654826 -0.24402565 0.2240195 0.06797921 0.055015925 -0.0085880775
0.44570005 -0.37584934 -0.11504415 -0.23188886 0.06674952 -0.2088971 -0.36679667 0.24976094
-0.2671773 -0.3118167 0.21392761 -0.2225201 -0.2921317 0.47071195 0.29546595 -0.09145593
00000000: 9ae4 03bf 60f5 973e 0394 5bbd 9ac5 d6be
00000010: 30d6 babc 396c 493e 9728 ecbd 9160 4b3e
00000020: 6cb8 32bf b8b6 a0be ebaf ba3e 9a1d 963e
00000030: b8e3 b8be f452 2a3e 7b6e 65bd 5630 843e
00000040: 3cda 7ebe e7e9 063e 8a17 2cbd 3466 36be
00000050: 2fd0 a63e 3ec3 183d 8646 f4be 0997 413d
00000060: 73c1 bbbe 2d00 ab3e 575b 8ebe c789 a93e
00000070: 19c7 9cbe fda5 a6bd 6e66 d83e 0f2a 26be
00000080: 3486 803e 101f f2be 4c33 fd3d e1e2 9abe
00000090: 08d5 20bf 3833 f03d bf1c 99bf efdf 273e
000000a0: 8aa9 53be 90ff 78bb c007 c33d f419 873b
000000b0: 243b 76bf af29 883e d9cb 9fbe 045a 9b3e
000000c0: b2b5 863e b4c0 69bf a41b 99bd 972b 10bf
000000d0: b970 c73e 2cd7 a1be 0fcd 13be b80b 923d
000000e0: 0b70 d23e 977f 5a3e 04e0 8fbe 621d 8dbf
000000f0: d9be b6bd 4a24 b83e 3600 a63d 06a6 5abe
00000100: 024a 11be c74d a0be 3e50 043e 46cc 873d
00000110: 705d 3abe f64c 45be 5dd7 82be 5345 f8bd
00000120: 73e9 a9be 76fd 4bbc f412 893d 0b8d f7bd
00000130: c33a 433e 9a7b 0a3e 64fe e0be 35b5 9abe
00000140: 4106 e7be 056c 0fbe 7219 aa3e 6dc4 7fbe
00000150: c97f 6cbf e603 7c3e 5661 6fbe 6616 cb3d
00000160: 2dc2 ce3d cf67 a93d 1596 89be ab7b eb3e
00000170: a047 6fbd b853 ab3e 8b44 a7bd bc14 16be
00000180: f7da 57bd d8ce bdbe 7839 4d3f d251 133d
00000190: 282e 46bf 6934 37bd a932 80bc 034a f1bd
000001a0: 6f8e 803e c8f2 acbd d47e 0c3e 4992 c13d
000001b0: 033b 07be 03c1 cb3d 0777 a7bd 2bcd 403e
000001c0: 841d 99be f297 74be 0f5a 113e 5f6c d63d
000001d0: 9e5c f3bd 1edd 863d 7021 b23e 6e92 413e
000001e0: 5ca5 4e3e 7e0e 6abf bf4e c63b 3136 a43d
000001f0: 1148 c93e 659b 9f3e 5693 bb3e 1502 5d3e
00000200: dbb5 25be 96e6 03bc 1d1e 003e e061 63bd
00000210: 5f2d 393e 6f35 263e ca3c 07bc 8af1 27be
00000220: ff4c a43d ab2b e8bc 0c20 57be 99b7 59be
00000230: 6789 b33e 5ac2 c4bd 7a8c 29bf 0f84 2a3e
00000240: 0379 7bb9 9fd4 0f3e 89ca d03d 860e abbd
00000250: 2ffa a9be ddc1 0b3d 29d7 853e d657 0fbe
00000260: 6912 6b3e 229c 45be 7f78 5abc 5227 0dbe
00000270: 93df 913e 428f 993c dee2 bfbe 2772 8c3d
00000280: 5b13 abbd e52a 773c c6ce c3bf 44ca a03e
00000290: e6f5 47be a939 913e 33d1 cf3d 7efe 2e3d
000002a0: a4a0 0dbe e04f 1a3f 2653 5e3d 831f e1be
000002b0: 15e2 b73e b439 3fbe fce6 c33d df1c b5be
000002c0: f8d8 a1be 0ab4 a73d 6de3 b9bc 3642 93be
000002d0: 903b 323e 79bc 3d3e e574 b3bd df38 883e
000002e0: 884f 19bf aeda aa3e d898 e2bd 76ed f23d
000002f0: 5450 d53c 786d 7fbe 96ad 893e d594 993e
00000300: fe0a d53c 3050 15bf 0112 6abe 6a82 573f
00000310: bd2e 363c 2a8f b03d 14c1 9abd 9700 bcbe
00000320: ccb1 b73e 85ca 83be 84ef b3be 8d5a f5bf
00000330: e21c a73e 1d15 fc3b dc03 c1bd 9fc5 1a3f
00000340: d7ef ddbd 9036 183d 1f0b 0dbe 0e63 87be
00000350: 643e 303d b77b cf3c b9a0 e53e efff e43d
00000360: f2d8 42be 34f1 733e f7ac c1bd da89 d53d
00000370: e38e c5be d594 083e f85f 83be 4ab1 50be
00000380: 1718 53bf 4180 c3bd f725 e6bd dd20 ecbe
00000390: 0022 8a3e abe5 dbbe 5fcb 263e 986a 843d
000003a0: 0ad8 2b3f f43c 843d 8c13 28bf dce1 79be
000003b0: 5e65 653e af38 8b3d 6158 613d 02b5 0cbc
000003c0: cc32 e43e 536f c0be 449c ebbd 4674 6dbe
000003d0: f9b3 883d 1fe9 55be c6cc bbbe 55c1 7f3e
000003e0: 77cb 88be 70a6 9fbe d70f 5b3e 4fdc 63be
000003f0: 4992 95be 2801 f13e 5047 973e 3f4d bbbd

model.0.bias f4 [128]
0.23530014 -0.010350068 -0.37836137 0.11661917 -0.0018179478 0.38499156 0.05509222 -0.12853375
0.0065978696 -0.3623179 0.006197438 0.2734623 0.26845717 -0.46927962 0.11259217 0.009599751
-0.22556111 0.064631395 -0.28301132 -0.24711321 0.09798129 -0.326015 -0.29325098 -0.109239966
-0.11784554 -0.17542039 -0.15181841 -0.090711035 -0.19337316 0.007832038 0.15476313 -0.32243705
0.3078071 0.042818055 0.27037424 -0.26950082 -0.33699095 -0.048879225 -0.3169704 0.14893247
-0.027013458 -0.37733912 0.15765555 0.279111 0.35322267 -0.33799076 0.14206694 -0.09328209
0.21521355 0.012755106 -0.18925428 -0.18638813 0.0181981 -0.2322328 -0.030868253 -0.36414105
0.15406023 -0.25661325 -0.42202297 -0.1833528 -0.35823914 -0.08129305 0.12967315 0.090064675
-0.25386804 -0.42405537 -0.39016438 -0.3052048 -0.08832208 -0.053887747 0.03583099 -0.3286399
0.16825119 0.35427842 0.2152492 -0.009665702 -0.3722522 -0.29406795 0.18455274 0.19805114
-0.14010008 -0.35919967 0.20384261 -0.3715632 0.23099884 0.32471734 -0.2160023 -0.10822273
-0.011056344 0.36338067 -0.3509617 0.021033017 0.21887757 0.29797533 0.2272724 -0.19677244
0.24991725 0.016190313 -0.19612414 0.13845454 -0.38716075 -0.24436635 -0.2806375 -0.06678776
0.1320871 -0.2643307 -0.15104042 -0.0132922605 0.054020226 -0.31713378 -0.08330965 -0.071833484
-0.31393975 0.03787122 0.09763734 0.13031965 -0.14056587 -0.17452405 0.11915402 0.25372314
0.0641533 0.13368525 -0.08236261 0.34337518 -0.24293742 -0.0052668536 -0.13274169 -0.07246867
00000000: 85f2 703e 5593 29bc 95b8 c1be 08d6 ee3d
00000010: 3548 eeba 9d1d c53e 61a8 613d 5a9e 03be
00000020: f132 d83b bb81 b9be e113 cb3b 4003 8c3e
00000030: 3873 893e 6b45 f0be b996 e63d 4648 1d3c
00000040: 7ef9 66be 775d 843d dce6 90be 3f0b 7dbe
00000050: 6aaa c83d 70eb a6be fe24 96be 34b9 dfbd
00000060: 0159 f1bd 67a1 33be 4976 1bbe b5c6 b9bd
00000070: 9d03 46be f351 003c 3a7a 1e3e 7816 a5be
00000080: e498 9d3e fc61 2f3d 7e6e 8a3e 03fc 89be
00000090: 148a acbe 9535 48bd f249 a2be c181 183e
000000a0: 544b ddbc 9832 c1be 7570 213e a3e7 8e3e
000000b0: 9ad9 b43e 200d adbe ff79 113e ae0a bfbd
000000c0: f160 5c3e cbfa 503c e0cb 41be 88dc 3ebe
000000d0: 2f14 953c 6fce 6dbe 6bdf fcbc b270 babe
000000e0: f7c1 1d3e d062 83be 6513 d8be d6c0 3bbe
000000f0: 1f6b b7be f87c a6bd 0ac9 043e d473 b83d
00000100: fefa 81be c91d d9be a0c3 c7be ce43 9cbe
00000110: 35e2 b4bd 66b9 5cbd 84c3 123d 7d43 a8be
00000120: 0a4a 2c3e fb63 b53e 496a 5c3e e45c 1ebc
00000130: d797 bebe 1390 96be 65fb 3c3e ebcd 4a3e
00000140: 6576 0fbe 05e9 b7be 1ebc 503e 883d bebe
00000150: f68a 6c3e 5a41 a63e b52f 5dbe e1a3 ddbd
00000160: ab25 35bc 080d ba3e 40b1 b3be 6f4d ac3c
00000170: 7121 603e 3990 983e 19ba 683e b77e 49be
00000180: 4fea 7f3e 8ca1 843c c4d4 48be 07c7 0d3e
00000190: ef39 c6be 2c3b 7abe b8af 8fbe 05c8 88bd
000001a0: d741 073e 5a56 87be 57aa 1abe c8c7 59bc
000001b0: 5044 5d3d 5c5f a2be 409e aabd 6f1d 93bd
000001c0: b6bc a0be da1e 1b3d 16f6 c73d 8472 053e
000001d0: 80f0 0fbe 6fb6 32be 0607 f43d 00e8 813e
000001e0: ce62 833d c9e4 083e baad a8bd dfce af3e
000001f0: 96c4 78be 9295 acbb 70ed 07be 746a 94bd

model.2.weight f4 [64, 128]
-0.03899151 -0.024394827 -0.064286575 -0.09550025 0.034020636 0.022127284 0.009431168 0.0009960459
-0.037195288 0.0016656962 -0.050759736 0.0578107 0.060343523 0.024724267 0.03665857 -0.06800522
0.023202494 -0.06555927 -0.08295387 0.031933203 0.049298957 -0.005929292 0.050471768 -0.081573494
0.027703864 -0.008539373 -0.034359246 0.05077399 -0.047631513 -0.073326126 -0.047305327 0.086678594
-0.06754771 -0.04250393 -0.03536802 0.07416804 0.016761186 -0.11071624 -0.02033874 0.031139696
0.006816979 -0.03909136 0.03558115 0.02881613 0.077103905 0.00887778 -0.02100892 -0.045834463
-0.0006947903 -0.0048577613 0.060660068 -0.0015620897 -0.056414157 -0.026362864 0.047122147 0.077038065
-0.05630091 0.009336327 0.07191738 -0.026749192 -0.07598583 0.05038606 0.09382039 0.06374341
-0.07725562 0.055171814 0.043944906 -0.08230042 0.017493565 0.04997929 0.067339845 -0.035017867
0.023530938 0.05046721 0.015382596 -0.08661313 -0.063950814 0.033971865 -0.07441426 0.006511709
-0.06437604 0.008768857 0.034502603 0.039100718 -0.08272703 -0.06364991 -0.00979537 0.045572065
-0.00760961 -0.014272777 0.03194844 0.024045652 0.023719056 -0.017897999 -0.112078495 -0.08839977
-0.01855321 -0.045168083 0.002931588 -0.041257095 0.025775379 -0.06318577 -0.0033952026 0.07987812
0.034539614 -0.10520938 -0.015610792 -0.017855868 -0.03624133 0.05187154 0.03260555 -0.02178541
0.04480267 -0.05446166 0.0020844883 0.00938335 0.07199697 -0.05879619 -0.059702877 -0.031126829
-0.0009831113 -0.084386565 -0.091200836 0.041506324 0.038119573 0.068759106 0.020149095 0.059386183
-0.094958745 0.34275776 -0.08275001 0.4019175 -0.124105155 -0.2544014 -0.0663196 -0.27906787
0.034399647 -0.08663276 -0.007062347 -0.1102877 -0.024996996 0.22669739 -0.014664086 -0.1343064
0.017577522 -0.22369908 -0.41150892 -0.04776986 0.18545717 -0.035117377 0.089467734 0.4493113
0.22657607 -0.0073200855 -0.223502 -0.26640332 -0.046988953 0.03366504 -0.11822789 0.27554348
0.042509053 -0.58384854 -0.10268457 -0.08242858 -0.0020284364 0.029510953 -0.031763684 0.93625885
0.06731992 -0.08938873 -0.009889904 -0.2666089 0.40399557 0.06382417 -0.61647785 -0.18578959
-0.053685028 -0.03842111 -0.11911073 -0.20897809 -0.24328983 -0.61163104 0.10574606 0.08314903
-0.15327421 -0.014412136 -0.10881361 0.15455718 -0.046535548 0.15082622 0.15892884 0.25547504
0.056873083 0.032645192 -0.20029856 -0.009704076 -0.0019652082 -0.5512457 -0.39482352 -0.031132886
-0.17808147 0.11232569 -0.14645034 0.10793974 -0.085846566 0.006167011 0.20499817 -0.35618445
0.0031126607 -0.016079986 -0.32634792 -0.05656991 0.16469416 -0.1399841 -0.010624999 -0.15463072
-0.35893777 -0.095367834 0.04198372 0.10075621 0.2871599 -0.22677939 0.010453643 -0.027507644
0.006525233 -0.105309226 -0.14932428 -0.05427656 0.052739047 0.03676908 -0.070711866 -0.64828885
-0.45904177 0.25404635 0.059479486 0.013393174 0.12859665 -0.19578685 0.0022389966 -0.16064134
-0.22431134 0.21989286 0.115711264 -0.10374219 -0.005480081 0.07336071 -0.079689756 -0.13627258
0.124352776 -0.36417904 -0.06116338 -0.13948624 -0.16839553 -0.030345522 0.08900803 0.57618254
00000000: 90b5 1fbd a9d7 c7bc aea8 83bd a395 c3bd
00000010: 3959 0b3d 4744 b53c 3085 1a3c c18d 823a
00000020: 165a 18bd 7d53 da3a 71e9 4fbd eaca 6c3d
00000030: c52a 773d 8c8a ca3c 4c27 163d 5246 8bbd
00000040: 2813 be3c f043 86bd b8e3 a9bd 64cc 023d
00000050: b4ed 493d 824a c2bb 7cbb 4e3d 0110 a7bd
00000060: 37f3 e23c bae8 0bbc 48bc 0cbd 63f8 4f3d
00000070: 4319 43bd 022c 96bd 3bc3 41bd 8c84 b13d
00000080: 7456 8abd 9a18 2ebd 0fde 10bd 6ae5 973d
00000090: c14e 893c 32bf e2bd 6e9d a6bc ad18 ff3c
000000a0: f760 df3b 431e 20bd 8abd 113d ce0f ec3c
000000b0: a7e8 9d3d 1c74 113c e61a acbc ebbc 3bbd
000000c0: 9622 36ba db2d 9fbb b176 783d 08bf ccba
000000d0: 8812 67bd eff6 d7bc 2703 413d 22c6 9d3d
000000e0: c89b 66bd 65f7 183c 6b49 933d 1f21 dbbc
000000f0: 759e 9bbd 9d61 4e3d e824 c03d e88b 823d
00000100: 3238 9ebd d7fb 613d 93ff 333d 1f8d a8bd
00000110: aa4e 8f3c 16b7 4c3d 79e9 893d e56e 0fbd
00000120: f4c3 c03c b5b6 4e3d 4907 7c3c 3a62 b1bd
00000130: a5f8 82bd 1526 0b3d 8166 98bd 2d60 d53b
00000140: 96d7 83bd 41ab 0f3c 9a52 0d3d 1328 203d
00000150: ca6c a9bd e25a 82bd c27c 20bc c6a9 3a3d
00000160: 095a f9bb 5ed8 69bc 5edc 023d 63fb c43c
00000170: 774e c23c d39e 92bc 6989 e5bd f00a b5bd
00000180: e7fc 97bc 2b02 39bd e31f 403b 33fd 28bd
00000190: e326 d33c 8a67 81bd 0c82 5ebb 2497 a33d
000001a0: 6979 0d3d 0478 d7bd 68c4 7fbc 7846 92bc
000001b0: ca71 14bd 4077 543d 668d 053d 5177 b2bc
000001c0: 0183 373d 3113 5fbd e99b 083b 9fbc 193c
000001d0: 2673 933d 46d4 70bd 018b 74bd b1fd febc
000001e0: bedb 80ba ddd2 acbd 81c7 babd 8902 2a3d
000001f0: 4523 1c3d 93d1 8c3d b70f a53c ed3e 733d
00000200: bb79 c2bd f27d af3e d678 a9bd 21c8 cd3e
00000210: d82a febd e640 82be 92d2 87bd fce1 8ebe
00000220: a5e6 0c3d 846c b1bd 436b e7bb 85de e1bd
00000230: 80c6 ccbc 5c23 683e a241 70bc 9e87 09be
00000240: bcfe 8f3c 5f11 65be 4cb1 d2be 54aa 43bd
00000250: 7ce8 3d3e 3dd7 0fbd dc3a b73d 210c e63e
00000260: 8f03 683e 54dd efbb b5dd 64be 0466 88be
00000270: 7d77 40bd 5ae4 093d 7721 f2bd 0914 8d3e
00000280: f91d 2e3d 1977 15bf 4a4c d2bd 51d0 a8bd
00000290: 84ef 04bb f4c0 f13c a31a 02bd a9ae 6f3f
000002a0: 07df 893d 7011 b7bd 4409 22bc f680 88be
000002b0: 82d8 ce3e 3fb6 823d 7ed1 1dbf a03f 3ebe
000002c0: d5e4 5bbd 745f 1dbd 54f0 f3bd 5afe 55be
000002d0: f820 79be da93 1cbf 6491 d83d 0a4a aa3d
000002e0: eaf3 1cbe e120 6cbc acd9 debd 3d44 1e3e
000002f0: 0f9c 3ebd 3072 1a3e 3ebe 223e a0cd 823e
00000300: c0f3 683d f7b6 053d 111b 4dbe d8fd 1ebc
00000310: b9ca 00bb 701e 0dbf 4f26 cabe 650a ffbc
00000320: fd5a 36be 030b e63d 14f7 15be 830f dd3d
00000330: 53d0 afbd a314 ca3b 0aeb 513e cf5d b6be
00000340: c8fd 4b3b 2dba 83bc 1317 a7be dab5 67bd
00000350: 96a5 283e fe57 0fbe 7a14 2ebc 8457 1ebe
00000360: b1c6 b7be 3650 c3bd 1ff7 2b3d 4659 ce3d
00000370: 9f06 933e db38 68be c245 2b3c b657 e1bc
00000380: 9fd1 d53b 5dac d7bd 77e8 18be 1951 5ebd
00000390: e604 583d 2d9b 163d 62d1 90bd 42f6 25bf
000003a0: 8607 ebbe 5d12 823e c3a0 733d 0b6f 5b3c
000003b0: d7ae 033e 597c 48be 21bc 123b 2a7f 24be
000003c0: dfb1 65be 982b 613e 07fa ec3d c976 d4bd
000003d0: 4092 b3bb 243e 963d 6234 a3bd 0a8b 0bbe
000003e0: abac fe3d ad75 babe 7486 7abd 7bd5 0ebe
000003f0: e16f 2cbe 2c97 f8bc d849 b63d b380 133f

model.2.bias f4 [64]
-0.10211185 -0.11826387 0.03414778 -0.07878995 -0.03839486 0.22139129 -0.025031766 -0.06082364
-0.035586886 0.016081411 -0.023142016 -0.14056441 0.051894244 0.04921023 -0.11274027 -0.053598598
-0.08066116 -0.035216574 -0.044279855 0.18924926 -0.039462443 0.11136585 0.16158608 -0.07506195
-0.11469039 0.015613253 -0.0815711 0.13483125 -0.059192095 -0.032614443 -0.08024167 -0.012393936
0.036676206 0.10500158 -0.09222674 -0.097237565 0.16642559 -0.002809477 0.04349032 0.21102732
-0.10927683 -0.031798355 -0.008355261 -0.09461362 0.03797628 0.045446765 -0.10104139 0.00010520171
0.087917596 -0.05736464 0.002544698 -0.10544681 -0.06021598 0.20501533 -0.093335435 -0.0061340844
-0.08608553 -0.081882715 -0.04635996 -0.08108143 -0.030443307 -0.06276169 -0.024749383 0.023358757
00000000: 0520 d1bd 5434 f2bd 8bde 0b3d a05c a1bd
00000010: ee43 1dbd 66b4 623e 6b0f cdbc 3622 79bd
00000020: 8ec3 11bd 2abd 833c 5394 bdbc 1ef0 0fbe
00000030: 0f8f 543d ab90 493d 5fe4 e6bd 348a 5bbd
00000040: ae31 a5bd 413f 10bd cb5e 35bd 8fca 413e
00000050: 5fa3 21bd c713 e43d d276 253e 14ba 99bd
00000060: cce2 eabd bbce 7f3c c00e a7bd 3411 0a3e
00000070: 6973 72bd b996 05bd bf55 a4bd ef0f 4bbc
00000080: ca39 163d 120b d73d 60e1 bcbd 7d24 c7bd
00000090: 786b 2a3e 341f 38bb e822 323d 8c17 583e
000000a0: 88cc dfbd fe3e 02bd 81e4 08bc c9c4 c1bd
000000b0: 048d 1b3d 6326 3a3d caee cebd bd9f dc38
000000c0: 240e b43d 2ff7 6abd f3c4 263b 7ff4 d7bd
000000d0: 08a5 76bd 8aef 513e a626 bfbd 6e00 c9bb
000000e0: 9c4d b0bd 20b2 a7bd f1e3 3dbd 050e a6bd
000000f0: 3e64 f9bc 3389 80bd 38bf cabc dd5a bf3c

model.4.weight f4 [4, 64]
0.006515287 0.51705164 0.017814497 -0.08040182 -0.110763244 0.25807956 0.11956806 0.07554445
-0.35374695 -0.084033206 -0.3229785 0.09649962 -0.3572275 0.23724136 0.090832815 0.10997991
-0.028771214 0.07757282 0.030508135 0.23697461 -0.08526711 0.051031947 0.35204583 0.07404525
-0.023707537 0.0061535984 0.12046875 0.29553542 0.16199018 0.0342948 -0.009340294 0.046561856
-0.0376328 0.09180078 0.04789233 -0.07426566 -0.13812834 -0.058031626 -0.06353392 0.12960492
0.04129067 -0.121159665 -0.06549756 0.049912654 0.189261 0.029953817 -0.07401163 0.036892492
0.041545838 -0.1565996 0.1125331 0.04301107 -0.014713179 0.056287635 0.10037112 -0.0029579294
-0.084070206 0.03251778 -0.097341605 -0.03615229 0.009586664 -0.057698864 -0.38093236 0.048908263
0.016107125 0.28061318 -0.03531261 0.07928246 0.0072899396 0.34459534 0.046462964 0.032596275
-0.16134909 -0.07313493 -0.412846 0.6080794 -0.3543842 0.23470198 -0.0042179152 -0.00964649
-0.0760612 0.10934641 -0.05706779 0.17194338 -0.005428463 0.2543497 0.29740033 0.050980814
-0.015169953 -0.0537211 -0.028411046 0.31896293 0.17569192 -0.028700817 -0.06860131 0.17845199
-0.050543264 0.27855894 0.059900388 -0.089551285 -0.03408663 0.023648184 0.015975092 0.22181258
-0.093882635 -0.06961713 0.07614992 0.06546222 -0.041007847 -0.004873043 -0.034867976 -0.08128617
0.008416459 -0.70987993 0.37300995 -0.05291456 -0.080957614 -0.25401512 -0.11635142 0.09626733
-0.08752619 -0.08790023 0.06775248 -0.04106392 0.043181058 0.05605339 -0.3435346 0.013251093
0.10966109 -0.055877898 0.01794513 0.06608455 0.2513008 0.30833596 -0.043992992 -0.20938747
0.11111828 -0.08207568 -0.3385115 -0.06691568 -0.21588998 0.2077177 0.061613396 0.109547645
0.00676669 0.113384366 -0.13620734 0.1618337 -0.099012375 0.31129146 0.287487 -0.063752376
-0.06552686 -0.06209964 0.07304572 0.38436484 0.19753282 -0.061475396 0.06284581 -1.0788836
-0.047776382 0.14033286 -0.07570013 0.062965006 -0.14762999 -0.03251752 -0.05824715 0.14002785
0.004745783 -0.028567666 -0.033665933 0.09239477 0.08509893 0.08115487 -0.055335812 -0.04305602
-0.25654092 -0.18522398 0.41949633 0.10227617 0.008494881 -0.38208833 -0.04885584 0.10310224
-0.04421798 -0.06951302 0.010427833 0.06954868 0.061004445 -0.0076018632 -0.28548867 -0.023465136
-0.01756955 0.56200117 0.0348344 0.058476523 0.17579778 0.26493806 0.06890241 0.0068201227
0.084803455 -0.009688002 -0.31307927 -0.43818387 -0.23297791 0.2007796 0.097360626 -0.09447329
0.14349128 0.008968458 0.00734995 0.07577052 -0.05807708 0.21509951 0.3470682 0.107381
-0.0377888 0.10918885 0.040337324 0.3263121 0.46175912 -0.09148437 -0.069366 -1.0416569
-0.05075631 0.10948807 -0.09087959 -0.056627624 -0.32777607 0.0059953933 -0.0340006 0.223225
0.09273447 0.02762589 0.086588375 -0.123764336 0.10122032 0.028228441 0.055859264 -0.08819962
-0.44982794 -0.06474259 0.1918585 0.03680001 -0.099429235 -0.1509444 0.05352026 0.022247007
-0.02505581 0.06457503 -0.035889644 -0.014268138 -0.049669378 -0.021920826 -0.22824633 -0.033766557
00000000: 307e d53b 7f5d 043f b5ef 913c b6a9 a4bd
00000010: d7d7 e2bd 0123 843e 19e0 f43d 0cb7 9a3d
00000020: 521e b5be 9a19 acbd 705d a5be 98a1 c53d
00000030: 86e6 b6be 66ef 723e 8e06 ba3d 263d e13d
00000040: 9cb1 ebbc 80de 9e3d 32ec f93c 79a9 723e
00000050: 86a0 aebd e006 513d 5a3f b43e 09a5 973d
00000060: 4f36 c2bc 20a4 c93b 52b8 f63d 6b50 973e
00000070: c1e0 253e b478 0c3d 0808 19bc a5b7 3e3d
00000080: da24 1abd 0c02 bc3d bf2a 443d 9818 98bd
00000090: 8471 0dbe 92b2 6dbd 121e 82bd 27b7 043e
000000a0: 6820 293d 8f22 f8bd 9623 86bd 3671 4c3d
000000b0: a3cd 413e b561 f53c 6993 97bd 951c 173d
000000c0: f82b 2a3d a55b 20be c177 e63d 602c 303d
000000d0: 8c0f 71bc dd8d 663d 608f cd3d d2d9 41bb
000000e0: 002d acbd 5d31 053d 095b c7bd 6c14 14bd
000000f0: 6211 1d3c a555 6cbd 9109 c3be 0854 483d
00000100: 17f3 833c 88ac 8f3e f5a3 10bd d85e a23d
00000110: 72e0 ee3b cd6e b03e f34f 3e3d ac83 053d
00000120: b238 25be c4c7 95bd 8d60 d3be 17ab 1b3f
00000130: d971 b5be b755 703e 7036 8abb 500c 1ebc
00000140: f9c5 9bbd 03f1 df3d eabf 69bd ed11 303e
00000150: 40e1 b1bb 203a 823e db44 983e 42d1 503d
00000160: 658b 78bc a80a 5cbd 48be e8bc 1c4f a33e
00000170: 95e8 333e fa1d ebbc d87e 8cbd 1ebc 363e
00000180: 7406 4fbd 479f 8e3e 1c5a 753d aa66 b7bd
00000190: 6c9e 0bbd d6b9 c13c 32de 823c d622 633e
000001a0: 8a45 c0bd 6d93 8ebd 7df4 9b3d 0e11 863d
000001b0: d8f7 27bd 0cae 9fbb b9d1 0ebd 5d79 a6bd
000001c0: 30e5 093c b1ba 35bf 29fb be3e f0bc 58bd
000001d0: 1bcd a5bd 450e 82be a749 eebd ce27 c53d
000001e0: ee40 b3bd 0905 b4bd d0c1 8a3d a432 28bd
000001f0: 9fde 303d 3d98 653d c4e3 afbe 1d1b 593c
00000200: fe95 e03d 39e0 64bd aa01 933c 5657 873d
00000210: 80aa 803e 36de 9d3e ff31 34bd ab69 56be
00000220: fb91 e33d 4b17 a8bd 6151 adbe 170b 89bd
00000230: 4312 5dbe f3b3 543e 545e 7c3d 845a e03d
00000240: 1cbb dd3b 1036 e83d f079 0bbe bcb7 253e
00000250: 00c7 cabd 9861 9f3e 7f31 933e 9b90 82bd
00000260: f232 86bd 315c 7ebd ff98 953d 78cb c43e
00000270: 0b46 4a3e a0cd 7bbd 4eb5 803d dc18 8abf
00000280: 2bb1 43bd 6bb3 0f3e ab08 9bbd ccf3 803d
00000290: 512c 17be 1731 05bd 9094 6ebd 7663 0f3e
000002a0: 8382 9b3b bd06 eabc 4ae5 09bd 7839 bd3d
000002b0: 5948 ae3d 8634 a63d cea7 62bd 825b 30bd
000002c0: 5559 83be 5bab 3dbe 39c8 d63e 2b76 d13d
000002d0: 1d2e 0b3c 15a1 c3be 101d 48bd 4427 d33d
000002e0: ea1d 35bd d85c 8ebd 80d9 2a3c 8a6f 8e3d
000002f0: ccdf 793d 0d19 f9bb 922b 92be f539 c0bc
00000300: 04ee 8fbc 4fdf 0f3f 84ae 0e3d 1485 6f3d
00000310: 5504 343e f6a5 873e b51c 8d3d 567b df3b
00000320: 6fad ad3d 6dba 1ebc ed4b a0be a359 e0be
00000330: c391 6ebe 2b99 4d3e 0265 c73d 367b c1bd
00000340: 61ef 123e 70f0 123c d9d7 f03b 932d 9b3d
00000350: 3be2 6dbd 0c43 5c3e ecb2 b13e 92ea db3d
00000360: 6ec8 1abd 679e df3d c038 253d 6112 a73e
00000370: b16b ec3e 285c bbbd c30f 8ebd 0355 85bf
00000380: d9e5 4fbd 483b e03d 141f babd 5ef2 67bd
00000390: 44d2 a7be 0175 c43b 3744 0bbd 1895 643e
000003a0: 92eb bd3d b14f e23c 3f55 b13d 2878 fdbd
000003b0: 994c cf3d 553f e73c afcc 643d 01a2 b4bd
000003c0: d94f e6be c397 84bd 8e76 443e 9bbb 163d
000003d0: 8ea1 cbbd 2b91 1abe 0f38 5b3d 5b3f b63c
000003e0: d841 cdbc ea3f 843d 0501 13bd e9c4 69bc
000003f0: 1e72 4bbd 4e93 b3bc 68b9 69be cd4e 0abd

model.4.bias f4 [4]
0.073078826 0.09047365 0.19947815 0.1993193
00000000: 5aaa 953d 404a b93d 0044 4c3e 5c1a 4c3e

model.0.weight f4 [128, 7]
-0.51520693 0.29679394 -0.05360795 -0.41947633 -0.02280721 0.1967019 -0.115311794 0.19861056
-0.69812655 -0.31389403 0.3646234 0.2931946 -0.36111236 0.16633207 -0.056013566 0.25818127
-0.24887937 0.13175164 -0.042014636 -0.17812425 0.32580706 0.037295572 -0.47710055 0.04726318
-0.36671028 0.33398572 -0.27804062 0.33112928 -0.3062065 -0.081371285 0.42265648 -0.16226982
0.2510239 -0.47289324 0.123633 -0.3025122 -0.6282506 0.11728519 -1.1961898 0.16394018
-0.20670143 -0.0037994124 0.095229626 0.004122967 -0.9618399 0.26594302 -0.3121021 0.30342114
0.26310498 -0.91309667 -0.07475975 -0.5631651 0.38953188 -0.31609476 -0.14433692 0.071311414
0.41101107 0.21337734 -0.28100598 -1.1024592 -0.0892312 0.35965186 0.08105509 -0.21352395
-0.14188388 -0.3130934 0.12921235 0.06630759 -0.18199706 -0.1926764 -0.25554934 -0.121225975
-0.3318592 -0.0124505665 0.06693068 -0.12087449 0.19065385 0.13523713 -0.43944085 -0.30216375
-0.4512196 -0.1400605 0.33222538 -0.24977274 -0.92382485 0.24610862 -0.23376974 0.099163815
0.1009563 0.08271753 -0.26872316 0.4599279 -0.058417916 0.3346231 -0.081673704 -0.14656347
-0.052699056 -0.37071872 0.80165815 0.0359667 -0.7741418 -0.044727717 -0.015649157 -0.11781695
0.25108668 -0.08444744 0.13720256 0.0945173 -0.13206105 0.099489234 -0.081769995 0.18828265
-0.2990533 -0.23886088 0.14194511 0.10469889 -0.118829 0.065851435 0.34791136 0.18903515
0.20180267 -0.91428363 0.0060518677 0.08018149 0.39312795 0.31173244 0.36635846 0.21582825
-0.16182654 -0.008050581 0.12511487 -0.055513263 0.18083714 0.16231321 -0.008254239 -0.16400734
0.08022498 -0.028341135 -0.21008319 -0.21261443 0.35065767 -0.09607382 -0.66229975 0.16651939
-0.00023982306 0.14045952 0.101948805 -0.083523795 -0.33198687 0.03412043 0.26140717 -0.1399835
0.22956242 -0.19297841 -0.013334393 -0.13784531 0.28490886 0.018745068 -0.37477773 0.0685771
-0.08353301 0.01508591 -1.5297477 0.31404316 -0.19527397 0.28364304 0.101473235 0.04272317
-0.13830811 0.6027813 0.054278515 -0.43969354 0.35914674 -0.18674356 0.09565541 -0.3537359
-0.31610847 0.081886366 -0.022691453 -0.28761452 0.17405534 0.18528928 -0.0876253 0.2660589
-0.5988698 0.33369964 -0.11064309 0.11861698 0.02603928 -0.24944103 0.26890248 0.29996362
0.026006218 -0.5832548 -0.2285843 0.8418337 0.011119542 0.086210564 -0.07556358 -0.367192
0.35877836 -0.25740448 -0.35143673 -1.9168259 0.32639223 0.0076929466 -0.09424564 0.60457796
-0.108367614 0.03716141 -0.13773774 -0.2644276 0.04302825 0.025327547 0.44849184 0.11181628
-0.1902807 0.2382248 -0.094568186 0.10426684 -0.38585576 0.13338025 -0.25659156 -0.2038013
-0.82458633 -0.09545947 -0.1123771 -0.46118823 0.26979065 -0.4294866 0.16288517 0.06465644
0.67126524 0.064569384 -0.65654826 -0.24402565 0.2240195 0.06797921 0.055015925 -0.0085880775
0.44570005 -0.37584934 -0.11504415 -0.23188886 0.06674952 -0.2088971 -0.36679667 0.24976094
-0.2671773 -0.3118167 0.21392761 -0.2225201 -0.2921317 0.47071195 0.29546595 -0.09145593
00000000: 9ae4 03bf 60f5 973e 0394 5bbd 9ac5 d6be
00000010: 30d6 babc 396c 493e 9728 ecbd 9160 4b3e
00000020: 6cb8 32bf b8b6 a0be ebaf ba3e 9a1d 963e
00000030: b8e3 b8be f452 2a3e 7b6e 65bd 5630 843e
00000040: 3cda 7ebe e7e9 063e 8a17 2cbd 3466 36be
00000050: 2fd0 a63e 3ec3 183d 8646 f4be 0997 413d
00000060: 73c1 bbbe 2d00 ab3e 575b 8ebe c789 a93e
00000070: 19c7 9cbe fda5 a6bd 6e66 d83e 0f2a 26be
00000080: 3486 803e 101f f2be 4c33 fd3d e1e2 9abe
00000090: 08d5 20bf 3833 f03d bf1c 99bf efdf 273e
000000a0: 8aa9 53be 90ff 78bb c007 c33d f419 873b
000000b0: 243b 76bf af29 883e d9cb 9fbe 045a 9b3e
000000c0: b2b5 863e b4c0 69bf a41b 99bd 972b 10bf
000000d0: b970 c73e 2cd7 a1be 0fcd 13be b80b 923d
000000e0: 0b70 d23e 977f 5a3e 04e0 8fbe 621d 8dbf
000000f0: d9be b6bd 4a24 b83e 3600 a63d 06a6 5abe
00000100: 024a 11be c74d a0be 3e50 043e 46cc 873d
00000110: 705d 3abe f64c 45be 5dd7 82be 5345 f8bd
00000120: 73e9 a9be 76fd 4bbc f412 893d 0b8d f7bd
00000130: c33a 433e 9a7b 0a3e 64fe e0be 35b5 9abe
00000140: 4106 e7be 056c 0fbe 7219 aa3e 6dc4 7fbe
00000150: c97f 6cbf e603 7c3e 5661 6fbe 6616 cb3d
00000160: 2dc2 ce3d cf67 a93d 1596 89be ab7b eb3e
00000170: a047 6fbd b853 ab3e 8b44 a7bd bc14 16be
00000180: f7da 57bd d8ce bdbe 7839 4d3f d251 133d
00000190: 282e 46bf 6934 37bd a932 80bc 034a f1bd
000001a0: 6f8e 803e c8f2 acbd d47e 0c3e 4992 c13d
000001b0: 033b 07be 03c1 cb3d 0777 a7bd 2bcd 403e
000001c0: 841d 99be f297 74be 0f5a 113e 5f6c d63d
000001d0: 9e5c f3bd 1edd 863d 7021 b23e 6e92 413e
000001e0: 5ca5 4e3e 7e0e 6abf bf4e c63b 3136 a43d
000001f0: 1148 c93e 659b 9f3e 5693 bb3e 1502 5d3e
00000200: dbb5 25be 96e6 03bc 1d1e 003e e061 63bd
00000210: 5f2d 393e 6f35 263e ca3c 07bc 8af1 27be
00000220: ff4c a43d ab2b e8bc 0c20 57be 99b7 59be
00000230: 6789 b33e 5ac2 c4bd 7a8c 29bf 0f84 2a3e
00000240: 0379 7bb9 9fd4 0f3e 89ca d03d 860e abbd
00000250: 2ffa a9be ddc1 0b3d 29d7 853e d657 0fbe
00000260: 6912 6b3e 229c 45be 7f78 5abc 5227 0dbe
00000270: 93df 913e 428f 993c dee2 bfbe 2772 8c3d
00000280: 5b13 abbd e52a 773c c6ce c3bf 44ca a03e
00000290: e6f5 47be a939 913e 33d1 cf3d 7efe 2e3d
000002a0: a4a0 0dbe e04f 1a3f 2653 5e3d 831f e1be
000002b0: 15e2 b73e b439 3fbe fce6 c33d df1c b5be
000002c0: f8d8 a1be 0ab4 a73d 6de3 b9bc 3642 93be
000002d0: 903b 323e 79bc 3d3e e574 b3bd df38 883e
000002e0: 884f 19bf aeda aa3e d898 e2bd 76ed f23d
000002f0: 5450 d53c 786d 7fbe 96ad 893e d594 993e
00000300: fe0a d53c 3050 15bf 0112 6abe 6a82 573f
00000310: bd2e 363c 2a8f b03d 14c1 9abd 9700 bcbe
00000320: ccb1 b73e 85ca 83be 84ef b3be 8d5a f5bf
00000330: e21c a73e 1d15 fc3b dc03 c1bd 9fc5 1a3f
00000340: d7ef ddbd 9036 183d 1f0b 0dbe 0e63 87be
00000350: 643e 303d b77b cf3c b9a0 e53e efff e43d
00000360: f2d8 42be 34f1 733e f7ac c1bd da89 d53d
00000370: e38e c5be d594 083e f85f 83be 4ab1 50be
00000380: 1718 53bf 4180 c3bd f725 e6bd dd20 ecbe
00000390: 0022 8a3e abe5 dbbe 5fcb 263e 986a 843d
000003a0: 0ad8 2b3f f43c 843d 8c13 28bf dce1 79be
000003b0: 5e65 653e af38 8b3d 6158 613d 02b5 0cbc
000003c0: cc32 e43e 536f c0be 449c ebbd 4674 6dbe
000003d0: f9b3 883d 1fe9 55be c6cc bbbe 55c1 7f3e
000003e0: 77cb 88be 70a6 9fbe d70f 5b3e 4fdc 63be
000003f0: 4992 95be 2801 f13e 5047 973e 3f4d bbbd

model.0.bias f4 [128]
0.23530014 -0.010350068 -0.37836137 0.11661917 -0.0018179478 0.38499156 0.05509222 -0.12853375
0.0065978696 -0.3623179 0.006197438 0.2734623 0.26845717 -0.46927962 0.11259217 0.009599751
-0.22556111 0.064631395 -0.28301132 -0.24711321 0.09798129 -0.326015 -0.29325098 -0.109239966
-0.11784554 -0.17542039 -0.15181841 -0.090711035 -0.19337316 0.007832038 0.15476313 -0.32243705
0.3078071 0.042818055 0.27037424 -0.26950082 -0.33699095 -0.048879225 -0.3169704 0.14893247
-0.027013458 -0.37733912 0.15765555 0.279111 0.35322267 -0.33799076 0.14206694 -0.09328209
0.21521355 0.012755106 -0.18925428 -0.18638813 0.0181981 -0.2322328 -0.030868253 -0.36414105
0.15406023 -0.25661325 -0.42202297 -0.1833528 -0.35823914 -0.08129305 0.12967315 0.090064675
-0.25386804 -0.42405537 -0.39016438 -0.3052048 -0.08832208 -0.053887747 0.03583099 -0.3286399
0.16825119 0.35427842 0.2152492 -0.009665702 -0.3722522 -0.29406795 0.18455274 0.19805114
-0.14010008 -0.35919967 0.20384261 -0.3715632 0.23099884 0.32471734 -0.2160023 -0.10822273
-0.011056344 0.36338067 -0.3509617 0.021033017 0.21887757 0.29797533 0.2272724 -0.19677244
0.24991725 0.016190313 -0.19612414 0.13845454 -0.38716075 -0.24436635 -0.2806375 -0.06678776
0.1320871 -0.2643307 -0.15104042 -0.0132922605 0.054020226 -0.31713378 -0.08330965 -0.071833484
-0.31393975 0.03787122 0.09763734 0.13031965 -0.14056587 -0.17452405 0.11915402 0.25372314
0.0641533 0.13368525 -0.08236261 0.34337518 -0.24293742 -0.0052668536 -0.13274169 -0.07246867
00000000: 85f2 703e 5593 29bc 95b8 c1be 08d6 ee3d
00000010: 3548 eeba 9d1d c53e 61a8 613d 5a9e 03be
00000020: f132 d83b bb81 b9be e113 cb3b 4003 8c3e
00000030: 3873 893e 6b45 f0be b996 e63d 4648 1d3c
00000040: 7ef9 66be 775d 843d dce6 90be 3f0b 7dbe
00000050: 6aaa c83d 70eb a6be fe24 96be 34b9 dfbd
00000060: 0159 f1bd 67a1 33be 4976 1bbe b5c6 b9bd
00000070: 9d03 46be f351 003c 3a7a 1e3e 7816 a5be
00000080: e498 9d3e fc61 2f3d 7e6e 8a3e 03fc 89be
00000090: 148a acbe 9535 48bd f249 a2be c181 183e
000000a0: 544b ddbc 9832 c1be 7570 213e a3e7 8e3e
000000b0: 9ad9 b43e 200d adbe ff79 113e ae0a bfbd
000000c0: f160 5c3e cbfa 503c e0cb 41be 88dc 3ebe
000000d0: 2f14 953c 6fce 6dbe 6bdf fcbc b270 babe
000000e0: f7c1 1d3e d062 83be 6513 d8be d6c0 3bbe
000000f0: 1f6b b7be f87c a6bd 0ac9 043e d473 b83d
00000100: fefa 81be c91d d9be a0c3 c7be ce43 9cbe
00000110: 35e2 b4bd 66b9 5cbd 84c3 123d 7d43 a8be
00000120: 0a4a 2c3e fb63 b53e 496a 5c3e e45c 1ebc
00000130: d797 bebe 1390 96be 65fb 3c3e ebcd 4a3e
00000140: 6576 0fbe 05e9 b7be 1ebc 503e 883d bebe
00000150: f68a 6c3e 5a41 a63e b52f 5dbe e1a3 ddbd
00000160: ab25 35bc 080d ba3e 40b1 b3be 6f4d ac3c
00000170: 7121 603e 3990 983e 19ba 683e b77e 49be
00000180: 4fea 7f3e 8ca1 843c c4d4 48be 07c7 0d3e
00000190: ef39 c6be 2c3b 7abe b8af 8fbe 05c8 88bd
000001a0: d741 073e 5a56 87be 57aa 1abe c8c7 59bc
000001b0: 5044 5d3d 5c5f a2be 409e aabd 6f1d 93bd
000001c0: b6bc a0be da1e 1b3d 16f6 c73d 8472 053e
000001d0: 80f0 0fbe 6fb6 32be 0607 f43d 00e8 813e
000001e0: ce62 833d c9e4 083e baad a8bd dfce af3e
000001f0: 96c4 78be 9295 acbb 70ed 07be 746a 94bd

model.2.weight f4 [64, 128]
-0.03899151 -0.024394827 -0.064286575 -0.09550025 0.034020636 0.022127284 0.009431168 0.0009960459
-0.037195288 0.0016656962 -0.050759736 0.0578107 0.060343523 0.024724267 0.03665857 -0.06800522
0.023202494 -0.06555927 -0.08295387 0.031933203 0.049298957 -0.005929292 0.050471768 -0.081573494
0.027703864 -0.008539373 -0.034359246 0.05077399 -0.047631513 -0.073326126 -0.047305327 0.086678594
-0.06754771 -0.04250393 -0.03536802 0.07416804 0.016761186 -0.11071624 -0.02033874 0.031139696
0.006816979 -0.03909136 0.03558115 0.02881613 0.077103905 0.00887778 -0.02100892 -0.045834463
-0.0006947903 -0.0048577613 0.060660068 -0.0015620897 -0.056414157 -0.026362864 0.047122147 0.077038065
-0.05630091 0.009336327 0.07191738 -0.026749192 -0.07598583 0.05038606 0.09382039 0.06374341
-0.07725562 0.055171814 0.043944906 -0.08230042 0.017493565 0.04997929 0.067339845 -0.035017867
0.023530938 0.05046721 0.015382596 -0.08661313 -0.063950814 0.033971865 -0.07441426 0.006511709
-0.06437604 0.008768857 0.034502603 0.039100718 -0.08272703 -0.06364991 -0.00979537 0.045572065
-0.00760961 -0.014272777 0.03194844 0.024045652 0.023719056 -0.017897999 -0.112078495 -0.08839977
-0.01855321 -0.045168083 0.002931588 -0.041257095 0.025775379 -0.06318577 -0.0033952026 0.07987812
0.034539614 -0.10520938 -0.015610792 -0.017855868 -0.03624133 0.05187154 0.03260555 -0.02178541
0.04480267 -0.05446166 0.0020844883 0.00938335 0.07199697 -0.05879619 -0.059702877 -0.031126829
-0.0009831113 -0.084386565 -0.091200836 0.041506324 0.038119573 0.068759106 0.020149095 0.059386183
-0.094958745 0.34275776 -0.08275001 0.4019175 -0.124105155 -0.2544014 -0.0663196 -0.27906787
0.034399647 -0.08663276 -0.007062347 -0.1102877 -0.024996996 0.22669739 -0.014664086 -0.1343064
0.017577522 -0.22369908 -0.41150892 -0.04776986 0.18545717 -0.035117377 0.089467734 0.4493113
0.22657607 -0.0073200855 -0.223502 -0.26640332 -0.046988953 0.03366504 -0.11822789 0.27554348
0.042509053 -0.58384854 -0.10268457 -0.08242858 -0.0020284364 0.029510953 -0.031763684 0.93625885
0.06731992 -0.08938873 -0.009889904 -0.2666089 0.40399557 0.06382417 -0.61647785 -0.18578959
-0.053685028 -0.03842111 -0.11911073 -0.20897809 -0.24328983 -0.61163104 0.10574606 0.08314903
-0.15327421 -0.014412136 -0.10881361 0.15455718 -0.046535548 0.15082622 0.15892884 0.25547504
0.056873083 0.032645192 -0.20029856 -0.009704076 -0.0019652082 -0.5512457 -0.39482352 -0.031132886
-0.17808147 0.11232569 -0.14645034 0.10793974 -0.085846566 0.006167011 0.20499817 -0.35618445
0.0031126607 -0.016079986 -0.32634792 -0.05656991 0.16469416 -0.1399841 -0.010624999 -0.15463072
-0.35893777 -0.095367834 0.04198372 0.10075621 0.2871599 -0.22677939 0.010453643 -0.027507644
0.006525233 -0.105309226 -0.14932428 -0.05427656 0.052739047 0.03676908 -0.070711866 -0.64828885
-0.45904177 0.25404635 0.059479486 0.013393174 0.12859665 -0.19578685 0.0022389966 -0.16064134
-0.22431134 0.21989286 0.115711264 -0.10374219 -0.005480081 0.07336071 -0.079689756 -0.13627258
0.124352776 -0.36417904 -0.06116338 -0.13948624 -0.16839553 -0.030345522 0.08900803 0.57618254
00000000: 90b5 1fbd a9d7 c7bc aea8 83bd a395 c3bd
00000010: 3959 0b3d 4744 b53c 3085 1a3c c18d 823a
00000020: 165a 18bd 7d53 da3a 71e9 4fbd eaca 6c3d
00000030: c52a 773d 8c8a ca3c 4c27 163d 5246 8bbd
00000040: 2813 be3c f043 86bd b8e3 a9bd 64cc 023d
00000050: b4ed 493d 824a c2bb 7cbb 4e3d 0110 a7bd
00000060: 37f3 e23c bae8 0bbc 48bc 0cbd 63f8 4f3d
00000070: 4319 43bd 022c 96bd 3bc3 41bd 8c84 b13d
00000080: 7456 8abd 9a18 2ebd 0fde 10bd 6ae5 973d
00000090: c14e 893c 32bf e2bd 6e9d a6bc ad18 ff3c
000000a0: f760 df3b 431e 20bd 8abd 113d ce0f ec3c
000000b0: a7e8 9d3d 1c74 113c e61a acbc ebbc 3bbd
000000c0: 9622 36ba db2d 9fbb b176 783d 08bf ccba
000000d0: 8812 67bd eff6 d7bc 2703 413d 22c6 9d3d
000000e0: c89b 66bd 65f7 183c 6b49 933d 1f21 dbbc
000000f0: 759e 9bbd 9d61 4e3d e824 c03d e88b 823d
00000100: 3238 9ebd d7fb 613d 93ff 333d 1f8d a8bd
00000110: aa4e 8f3c 16b7 4c3d 79e9 893d e56e 0fbd
00000120: f4c3 c03c b5b6 4e3d 4907 7c3c 3a62 b1bd
00000130: a5f8 82bd 1526 0b3d 8166 98bd 2d60 d53b
00000140: 96d7 83bd 41ab 0f3c 9a52 0d3d 1328 203d
00000150: ca6c a9bd e25a 82bd c27c 20bc c6a9 3a3d
00000160: 095a f9bb 5ed8 69bc 5edc 023d 63fb c43c
00000170: 774e c23c d39e 92bc 6989 e5bd f00a b5bd
00000180: e7fc 97bc 2b02 39bd e31f 403b 33fd 28bd
00000190: e326 d33c 8a67 81bd 0c82 5ebb 2497 a33d
000001a0: 6979 0d3d 0478 d7bd 68c4 7fbc 7846 92bc
000001b0: ca71 14bd 4077 543d 668d 053d 5177 b2bc
000001c0: 0183 373d 3113 5fbd e99b 083b 9fbc 193c
000001d0: 2673 933d 46d4 70bd 018b 74bd b1fd febc
000001e0: bedb 80ba ddd2 acbd 81c7 babd 8902 2a3d
000001f0: 4523 1c3d 93d1 8c3d b70f a53c ed3e 733d
00000200: bb79 c2bd f27d af3e d678 a9bd 21c8 cd3e
00000210: d82a febd e640 82be 92d2 87bd fce1 8ebe
00000220: a5e6 0c3d 846c b1bd 436b e7bb 85de e1bd
00000230: 80c6 ccbc 5c23 683e a241 70bc 9e87 09be
00000240: bcfe 8f3c 5f11 65be 4cb1 d2be 54aa 43bd
00000250: 7ce8 3d3e 3dd7 0fbd dc3a b73d 210c e63e
00000260: 8f03 683e 54dd efbb b5dd 64be 0466 88be
00000270: 7d77 40bd 5ae4 093d 7721 f2bd 0914 8d3e
00000280: f91d 2e3d 1977 15bf 4a4c d2bd 51d0 a8bd
00000290: 84ef 04bb f4c0 f13c a31a 02bd a9ae 6f3f
000002a0: 07df 893d 7011 b7bd 4409 22bc f680 88be
000002b0: 82d8 ce3e 3fb6 823d 7ed1 1dbf a03f 3ebe
000002c0: d5e4 5bbd 745f 1dbd 54f0 f3bd 5afe 55be
000002d0: f820 79be da93 1cbf 6491 d83d 0a4a aa3d
000002e0: eaf3 1cbe e120 6cbc acd9 debd 3d44 1e3e
000002f0: 0f9c 3ebd 3072 1a3e 3ebe 223e a0cd 823e
00000300: c0f3 683d f7b6 053d 111b 4dbe d8fd 1ebc
00000310: b9ca 00bb 701e 0dbf 4f26 cabe 650a ffbc
00000320: fd5a 36be 030b e63d 14f7 15be 830f dd3d
00000330: 53d0 afbd a314 ca3b 0aeb 513e cf5d b6be
00000340: c8fd 4b3b 2dba 83bc 1317 a7be dab5 67bd
00000350: 96a5 283e fe57 0fbe 7a14 2ebc 8457 1ebe
00000360: b1c6 b7be 3650 c3bd 1ff7 2b3d 4659 ce3d
00000370: 9f06 933e db38 68be c245 2b3c b657 e1bc
00000380: 9fd1 d53b 5dac d7bd 77e8 18be 1951 5ebd
00000390: e604 583d 2d9b 163d 62d1 90bd 42f6 25bf
000003a0: 8607 ebbe 5d12 823e c3a0 733d 0b6f 5b3c
000003b0: d7ae 033e 597c 48be 21bc 123b 2a7f 24be
000003c0: dfb1 65be 982b 613e 07fa ec3d c976 d4bd
000003d0: 4092 b3bb 243e 963d 6234 a3bd 0a8b 0bbe
000003e0: abac fe3d ad75 babe 7486 7abd 7bd5 0ebe
000003f0: e16f 2cbe 2c97 f8bc d849 b63d b380 133f

model.2.bias f4 [64]
-0.10211185 -0.11826387 0.03414778 -0.07878995 -0.03839486 0.22139129 -0.025031766 -0.06082364
-0.035586886 0.016081411 -0.023142016 -0.14056441 0.051894244 0.04921023 -0.11274027 -0.053598598
-0.08066116 -0.035216574 -0.044279855 0.18924926 -0.039462443 0.11136585 0.16158608 -0.07506195
-0.11469039 0.015613253 -0.0815711 0.13483125 -0.059192095 -0.032614443 -0.08024167 -0.012393936
0.036676206 0.10500158 -0.09222674 -0.097237565 0.16642559 -0.002809477 0.04349032 0.21102732
-0.10927683 -0.031798355 -0.008355261 -0.09461362 0.03797628 0.045446765 -0.10104139 0.00010520171
0.087917596 -0.05736464 0.002544698 -0.10544681 -0.06021598 0.20501533 -0.093335435 -0.0061340844
-0.08608553 -0.081882715 -0.04635996 -0.08108143 -0.030443307 -0.06276169 -0.024749383 0.023358757
00000000: 0520 d1bd 5434 f2bd 8bde 0b3d a05c a1bd
00000010: ee43 1dbd 66b4 623e 6b0f cdbc 3622 79bd
00000020: 8ec3 11bd 2abd 833c 5394 bdbc 1ef0 0fbe
00000030: 0f8f 543d ab90 493d 5fe4 e6bd 348a 5bbd
00000040: ae31 a5bd 413f 10bd cb5e 35bd 8fca 413e
00000050: 5fa3 21bd c713 e43d d276 253e 14ba 99bd
00000060: cce2 eabd bbce 7f3c c00e a7bd 3411 0a3e
00000070: 6973 72bd b996 05bd bf55 a4bd ef0f 4bbc
00000080: ca39 163d 120b d73d 60e1 bcbd 7d24 c7bd
00000090: 786b 2a3e 341f 38bb e822 323d 8c17 583e
000000a0: 88cc dfbd fe3e 02bd 81e4 08bc c9c4 c1bd
000000b0: 048d 1b3d 6326 3a3d caee cebd bd9f dc38
000000c0: 240e b43d 2ff7 6abd f3c4 263b 7ff4 d7bd
000000d0: 08a5 76bd 8aef 513e a626 bfbd 6e00 c9bb
000000e0: 9c4d b0bd 20b2 a7bd f1e3 3dbd 050e a6bd
000000f0: 3e64 f9bc 3389 80bd 38bf cabc dd5a bf3c

model.4.weight f4 [4, 64]
0.006515287 0.51705164 0.017814497 -0.08040182 -0.110763244 0.25807956 0.11956806 0.07554445
-0.35374695 -0.084033206 -0.3229785 0.09649962 -0.3572275 0.23724136 0.090832815 0.10997991
-0.028771214 0.07757282 0.030508135 0.23697461 -0.08526711 0.051031947 0.35204583 0.07404525
-0.023707537 0.0061535984 0.12046875 0.29553542 0.16199018 0.0342948 -0.009340294 0.046561856
-0.0376328 0.09180078 0.04789233 -0.07426566 -0.13812834 -0.058031626 -0.06353392 0.12960492
0.04129067 -0.121159665 -0.06549756 0.049912654 0.189261 0.029953817 -0.07401163 0.036892492
0.041545838 -0.1565996 0.1125331 0.04301107 -0.014713179 0.056287635 0.10037112 -0.0029579294
-0.084070206 0.03251778 -0.097341605 -0.03615229 0.009586664 -0.057698864 -0.38093236 0.048908263
0.016107125 0.28061318 -0.03531261 0.07928246 0.0072899396 0.34459534 0.046462964 0.032596275
-0.16134909 -0.07313493 -0.412846 0.6080794 -0.3543842 0.23470198 -0.0042179152 -0.00964649
-0.0760612 0.10934641 -0.05706779 0.17194338 -0.005428463 0.2543497 0.29740033 0.050980814
-0.015169953 -0.0537211 -0.028411046 0.31896293 0.17569192 -0.028700817 -0.06860131 0.17845199
-0.050543264 0.27855894 0.059900388 -0.089551285 -0.03408663 0.023648184 0.015975092 0.22181258
-0.093882635 -0.06961713 0.07614992 0.06546222 -0.041007847 -0.004873043 -0.034867976 -0.08128617
0.008416459 -0.70987993 0.37300995 -0.05291456 -0.080957614 -0.25401512 -0.11635142 0.09626733
-0.08752619 -0.08790023 0.06775248 -0.04106392 0.043181058 0.05605339 -0.3435346 0.013251093
0.10966109 -0.055877898 0.01794513 0.06608455 0.2513008 0.30833596 -0.043992992 -0.20938747
0.11111828 -0.08207568 -0.3385115 -0.06691568 -0.21588998 0.2077177 0.061613396 0.109547645
0.00676669 0.113384366 -0.13620734 0.1618337 -0.099012375 0.31129146 0.287487 -0.063752376
-0.06552686 -0.06209964 0.07304572 0.38436484 0.19753282 -0.061475396 0.06284581 -1.0788836
-0.047776382 0.14033286 -0.07570013 0.062965006 -0.14762999 -0.03251752 -0.05824715 0.14002785
0.004745783 -0.028567666 -0.033665933 0.09239477 0.08509893 0.08115487 -0.055335812 -0.04305602
-0.25654092 -0.18522398 0.41949633 0.10227617 0.008494881 -0.38208833 -0.04885584 0.10310224
-0.04421798 -0.06951302 0.010427833 0.06954868 0.061004445 -0.0076018632 -0.28548867 -0.023465136
-0.01756955 0.56200117 0.0348344 0.058476523 0.17579778 0.26493806 0.06890241 0.0068201227
0.084803455 -0.009688002 -0.31307927 -0.43818387 -0.23297791 0.2007796 0.097360626 -0.09447329
0.14349128 0.008968458 0.00734995 0.07577052 -0.05807708 0.21509951 0.3470682 0.107381
-0.0377888 0.10918885 0.040337324 0.3263121 0.46175912 -0.09148437 -0.069366 -1.0416569
-0.05075631 0.10948807 -0.09087959 -0.056627624 -0.32777607 0.0059953933 -0.0340006 0.223225
0.09273447 0.02762589 0.086588375 -0.123764336 0.10122032 0.028228441 0.055859264 -0.08819962
-0.44982794 -0.06474259 0.1918585 0.03680001 -0.099429235 -0.1509444 0.05352026 0.022247007
-0.02505581 0.06457503 -0.035889644 -0.014268138 -0.049669378 -0.021920826 -0.22824633 -0.033766557
00000000: 307e d53b 7f5d 043f b5ef 913c b6a9 a4bd
00000010: d7d7 e2bd 0123 843e 19e0 f43d 0cb7 9a3d
00000020: 521e b5be 9a19 acbd 705d a5be 98a1 c53d
00000030: 86e6 b6be 66ef 723e 8e06 ba3d 263d e13d
00000040: 9cb1 ebbc 80de 9e3d 32ec f93c 79a9 723e
00000050: 86a0 aebd e006 513d 5a3f b43e 09a5 973d
00000060: 4f36 c2bc 20a4 c93b 52b8 f63d 6b50 973e
00000070: c1e0 253e b478 0c3d 0808 19bc a5b7 3e3d
00000080: da24 1abd 0c02 bc3d bf2a 443d 9818 98bd
00000090: 8471 0dbe 92b2 6dbd 121e 82bd 27b7 043e
000000a0: 6820 293d 8f22 f8bd 9623 86bd 3671 4c3d
000000b0: a3cd 413e b561 f53c 6993 97bd 951c 173d
000000c0: f82b 2a3d a55b 20be c177 e63d 602c 303d
000000d0: 8c0f 71bc dd8d 663d 608f cd3d d2d9 41bb
000000e0: 002d acbd 5d31 053d 095b c7bd 6c14 14bd
000000f0: 6211 1d3c a555 6cbd 9109 c3be 0854 483d
00000100: 17f3 833c 88ac 8f3e f5a3 10bd d85e a23d
00000110: 72e0 ee3b cd6e b03e f34f 3e3d ac83 053d
00000120: b238 25be c4c7 95bd 8d60 d3be 17ab 1b3f
00000130: d971 b5be b755 703e 7036 8abb 500c 1ebc
00000140: f9c5 9bbd 03f1 df3d eabf 69bd ed11 303e
00000150: 40e1 b1bb 203a 823e db44 983e 42d1 503d
00000160: 658b 78bc a80a 5cbd 48be e8bc 1c4f a33e
00000170: 95e8 333e fa1d ebbc d87e 8cbd 1ebc 363e
00000180: 7406 4fbd 479f 8e3e 1c5a 753d aa66 b7bd
00000190: 6c9e 0bbd d6b9 c13c 32de 823c d622 633e
000001a0: 8a45 c0bd 6d93 8ebd 7df4 9b3d 0e11 863d
000001b0: d8f7 27bd 0cae 9fbb b9d1 0ebd 5d79 a6bd
000001c0: 30e5 093c b1ba 35bf 29fb be3e f0bc 58bd
000001d0: 1bcd a5bd 450e 82be a749 eebd ce27 c53d
000001e0: ee40 b3bd 0905 b4bd d0c1 8a3d a432 28bd
000001f0: 9fde 303d 3d98 653d c4e3 afbe 1d1b 593c
00000200: fe95 e03d 39e0 64bd aa01 933c 5657 873d
00000210: 80aa 803e 36de 9d3e ff31 34bd ab69 56be
00000220: fb91 e33d 4b17 a8bd 6151 adbe 170b 89bd
00000230: 4312 5dbe f3b3 543e 545e 7c3d 845a e03d
00000240: 1cbb dd3b 1036 e83d f079 0bbe bcb7 253e
00000250: 00c7 cabd 9861 9f3e 7f31 933e 9b90 82bd
00000260: f232 86bd 315c 7ebd ff98 953d 78cb c43e
00000270: 0b46 4a3e a0cd 7bbd 4eb5 803d dc18 8abf
00000280: 2bb1 43bd 6bb3 0f3e ab08 9bbd ccf3 803d
00000290: 512c 17be 1731 05bd 9094 6ebd 7663 0f3e
000002a0: 8382 9b3b bd06 eabc 4ae5 09bd 7839 bd3d
000002b0: 5948 ae3d 8634 a63d cea7 62bd 825b 30bd
000002c0: 5559 83be 5bab 3dbe 39c8 d63e 2b76 d13d
000002d0: 1d2e 0b3c 15a1 c3be 101d 48bd 4427 d33d
000002e0: ea1d 35bd d85c 8ebd 80d9 2a3c 8a6f 8e3d
000002f0: ccdf 793d 0d19 f9bb 922b 92be f539 c0bc
00000300: 04ee 8fbc 4fdf 0f3f 84ae 0e3d 1485 6f3d
00000310: 5504 343e f6a5 873e b51c 8d3d 567b df3b
00000320: 6fad ad3d 6dba 1ebc ed4b a0be a359 e0be
00000330: c391 6ebe 2b99 4d3e 0265 c73d 367b c1bd
00000340: 61ef 123e 70f0 123c d9d7 f03b 932d 9b3d
00000350: 3be2 6dbd 0c43 5c3e ecb2 b13e 92ea db3d
00000360: 6ec8 1abd 679e df3d c038 253d 6112 a73e
00000370: b16b ec3e 285c bbbd c30f 8ebd 0355 85bf
00000380: d9e5 4fbd 483b e03d 141f babd 5ef2 67bd
00000390: 44d2 a7be 0175 c43b 3744 0bbd 1895 643e
000003a0: 92eb bd3d b14f e23c 3f55 b13d 2878 fdbd
000003b0: 994c cf3d 553f e73c afcc 643d 01a2 b4bd
000003c0: d94f e6be c397 84bd 8e76 443e 9bbb 163d
000003d0: 8ea1 cbbd 2b91 1abe 0f38 5b3d 5b3f b63c
000003e0: d841 cdbc ea3f 843d 0501 13bd e9c4 69bc
000003f0: 1e72 4bbd 4e93 b3bc 68b9 69be cd4e 0abd

model.4.bias f4 [4]
0.073078826 0.09047365 0.19947815 0.1993193
00000000: 5aaa 953d 404a b93d 0044 4c3e 5c1a 4c3e
