checkpoints/checkpoint_ep400.pt (torch, 163021 bytes, 24 tensors)

model.0.weight f4 [128, 7]
00000000: fc1d 86bf 1e3d bbbc 411b 9b3e 0f01 73bf
00000010: fa89 b8be e0e3 b63e e807 613e a46d 45bd
00000020: e784 15bf bc04 b43d 430e f13c dbb8 b13e
00000030: 98cd 9a3d fb69 263e 1e49 fb3e 3884 703c
00000040: 53b2 48be 71fa c3be 9199 08bf 91c4 b1be
00000050: 1699 78bd 33c8 29be b114 88be fa07 363e
00000060: 6e4e e2bd f100 d13d 8223 193e f474 14bd
00000070: e0c4 14c0 fb60 063d 7a0c 93bc 3610 43bd
00000080: d436 003f 922b 053e fe5a e83d 13be b3be
00000090: 3125 a63c c5a4 46be 3a21 48be 0ecf 71be
000000a0: f5ee 413e 2185 753d 22a3 bc3e e983 89bf
000000b0: 47b7 483e 4523 28be 1798 b63e 87f0 c2be
000000c0: f4dd d7bd b5cb 1a3e 13ad d0bf c36a 33bf
000000d0: bca9 803e d3ea 0ebe f07d 143e 549b 7fbd
000000e0: 722e a0be 5a71 32bd f7fb f8bb 89bc 28bc
000000f0: bf2d 81be f64b a73e e122 2dbe f88d 25be
00000100: f79f 84be 62bf 853e c74a 59be addf f43a
00000110: f5b2 b0be 5228 97be 8aa4 81be 8d53 0fbf
00000120: 975a 8abe 69fa 283f 38ef 7abe a52d 41be
00000130: 8d64 8cbe 3bf0 35be 6bd6 03be 28cf 64bf
00000140: 4baf 37bd 4988 55be 915f c3be def0 09bb
00000150: e90b c83c 3447 58c0 76f1 ab3e e4c1 543e
00000160: e5dc b03e 26b0 1dbf 4ab1 27bc d9d3 82be
00000170: d516 41bd a9cf 2c3e 0504 3d3e fa88 183f
00000180: fe01 05bf 7f3f 23be c7fe e9be 664b 23be
00000190: 62de 1cbc 505a be3e 610f 023f 5179 4abd
000001a0: 2090 b8be 44b9 c03e 0c24 d8bd d9b4 9e3e
000001b0: bc24 84be d781 053f 8e3a c9ba d3e7 55be
000001c0: f20f 22be b476 48bf 4ac9 d1be aa8d 50be
000001d0: 0f17 ba3e 0598 fd3e 6c18 5abe 1be3 b8be
000001e0: 18c1 c3be 50cc ad3e 0de5 bfbc bdeb a53d
000001f0: be46 973e d622 b4be 2759 023f cd91 94be
00000200: c7fa 6ebf ec46 5d3e db14 7e3e 6a22 b6be
00000210: d289 843e f8bc ef3e 9d67 2ebf 73ae c6bd
00000220: 8e0f 873e 5821 8c3e ea29 1cbd 79e3 893d
00000230: 9c40 cebd 2474 20bf b48f e23c 9bd2 9fbd
00000240: f4d4 c1be d42d dbbd 43d8 fe3c 0100 e63d
00000250: 6fe3 fb3e fb98 e5be c9d3 c1bd 13cb fd3d
00000260: 0a37 b13d 1457 4fbd 0e84 093f 1251 06be
00000270: a47c f6be e977 b0bd 99ce a53e 4357 9cbc
00000280: 08d5 11bf b34b 943e cca6 fbbe 75cd 573e
00000290: 2b74 163e d25c 8fbe 64f6 72be 2c56 0cbf
000002a0: e4c9 e73e 401e 25bf fc0e d9bd 0ad2 06bf
000002b0: f3f9 c73e cd1d 333d 63d0 bc3e eb2a 04bf
000002c0: b542 0dbd 7c41 21be 6d21 31bf e959 a33e
000002d0: 63f3 8c3e 6f82 763e 5edc d43d 2dc4 5bbe
000002e0: 308e 50be fae2 a1bd 1226 61bc 3e37 ecbd
000002f0: d64d 1cbe fbb8 e53d 20de 1abf ac65 943e
00000300: 5839 4a3e 3800 1c3f bbc9 1cbe c0d9 d9bd
00000310: a8f4 42bf a438 fa3e 03c2 abbe ad0e c83e
00000320: ff04 9e3d b552 b8be a6d8 0bbc d6e4 393e
00000330: 0206 40be a8ad 453e 4a9a 07bf 7bd1 193d
00000340: 81ef 73be 560f 363e 1a75 ffbf fad9 b83e
00000350: 2ec3 0b3f 3f3b e93d f308 a4be 2cc9 e73d
00000360: 3121 053d 8a95 593e 93f4 ba3d f305 9bbe
00000370: e3e1 083d df9e 613e c254 f7bd 808a 11bf
00000380: 7463 e2bd 8c5a 813d c753 5d3e 2e7c 64be
00000390: 2017 dbbe 3d42 663e b9fe ed3d d031 893e
000003a0: 644c 29be fcf0 9cbe 3cc2 fcbd a35f ba3d
000003b0: b5c5 a53d 21d6 b93e c86a 763e 2eec df3e
000003c0: 84fa 133e 674b 65be 8ea1 43bf 2dee 3ebf
000003d0: 6a1d f53d 5df5 c03e c631 6bbf b04b 473d
000003e0: 31de 083e 1793 a0be 8258 9abd 569b fd3e
000003f0: 1a0f 04bd 9a20 75bf 65f2 913d 479c 81bd
-1.04779 -0.022856291 0.3029423 -0.9492349 -0.36042768 0.3572073 0.21975672 -0.048200265
-0.5840592 0.087899655 0.029425746 0.34711346 0.07558745 0.16251366 0.4907922 0.014679961
-0.19599275 -0.3827701 -0.53359324 -0.3472028 -0.06069287 -0.16580276 -0.26578286 0.1777648
-0.110501155 0.10205258 0.14954951 -0.036244348 -2.3245163 0.03280733 -0.017950285 -0.04762288
0.5008366 0.13004902 0.113454804 -0.35105953 0.020281406 -0.19398792 -0.19543925 -0.23614141
0.18938811 0.059941415 0.3684321 -1.0743381 0.19601165 -0.16419704 0.3566291 -0.38074133
-0.10540381 0.1511677 -1.6302818 -0.7008478 0.25129497 -0.13956766 0.14501166 -0.06240399
-0.31285435 -0.04356513 -0.007598396 -0.0102988565 -0.25230214 0.3267514 -0.16907836 -0.16167438
-0.25903293 0.26122576 -0.21219932 0.0018682383 -0.34511533 -0.2952295 -0.25320846 -0.55986863
-0.2702224 0.66007096 -0.24505317 -0.18865068 -0.27420464 -0.17767422 -0.12874763 -0.89378595
-0.044844907 -0.2085277 -0.3815885 -0.002104811 0.024419742 -3.379346 0.33582658 0.20777088
0.3454353 -0.61596906 -0.01023514 -0.25552252 -0.047140915 0.16876091 0.18458565 0.5958401
-0.51956165 -0.1594219 -0.45702192 -0.15946731 -0.009574505 0.37178278 0.50804716 -0.049432103
-0.3604746 0.37641346 -0.105537504 0.3099735 -0.25809276 0.52151245 -0.0015352534 -0.20889215
-0.15826395 -0.78306127 -0.40973884 -0.2036654 0.36345717 0.49530044 -0.21298379 -0.36110768
-0.38233256 0.3394494 -0.02342465 0.08101604 0.2954616 -0.35182828 0.50917286 -0.29017487
-0.93351406 0.21609086 0.24812643 -0.3557313 0.258864 0.4682386 -0.6812685 -0.09701242
0.26379055 0.2736919 -0.03812591 0.0673284 -0.10070917 -0.62677217 0.027656414 -0.07803842
-0.37857783 -0.107021004 0.031108981 0.112304695 0.49196956 -0.44843277 -0.09464223 0.12392249
0.08653076 -0.050620154 0.53717124 -0.13116863 -0.48141968 -0.08616621 0.32384184 -0.019084578
-0.56965685 0.28964004 -0.49150693 0.2107447 0.14692752 -0.28000504 -0.23726803 -0.5481899
0.45271218 -0.6449928 -0.10598561 -0.52664244 0.39057884 0.043729592 0.36877736 -0.5162799
-0.034487445 -0.15747637 -0.6919163 0.31904534 0.2752944 0.24073194 0.10393594 -0.21461554
-0.2036674 -0.079046205 -0.013741987 -0.11533974 -0.15264067 0.11216923 -0.60495186 0.2898382
0.19748437 0.60937834 -0.15311329 -0.10637236 -0.76154566 0.48871338 -0.33546457 0.39073697
0.07715797 -0.360006 -0.00853554 0.181537 -0.18752292 0.19304526 -0.529698 0.03755329
-0.23821832 0.17779288 -1.9957612 0.36103803 0.54594696 0.113882534 -0.32038078 0.11317667
0.032502357 0.21248451 0.0912868 -0.30277976 0.033418547 0.22033261 -0.12076713 -0.5685196
-0.110541254 0.063160986 0.2161399 -0.22312996 -0.4279108 0.22486205 0.1162085 0.26795816
-0.16533047 -0.30652606 -0.12341735 0.091002725 0.0809435 0.3629618 0.24064171 0.43734878
0.14451033 -0.22392045 -0.7641839 -0.7458218 0.11968501 0.37687197 -0.91872823 0.048656166
0.1336601 -0.3136222 -0.07536413 0.49532574 -0.032240964 -0.9575287 0.07126311 -0.06328636

model.0.bias f4 [128]
00000000: ab76 cb3d 4b11 3e3e 8d3c 08be ed5a b7be
00000010: 8491 1f3e c0e1 afbe 9949 9abe e2c8 1a3e
00000020: 3a4a 2abe 260d 6ebe 9b7e 7dbb 6c0e 343e
00000030: b607 6bbe 9be5 d33d bcbc d3bc b88a dcbe
00000040: f60e 01bd 5442 133c 3482 ea3c c896 14bf
00000050: ac95 7d3d 7372 c8bb ce9c e6be 34d6 f3bd
00000060: 699b b43d 128a a83e cdb4 b6be 4007 59be
00000070: 2316 65be f447 103e 76aa c7be 865d 87be
00000080: d13a e3be eaa0 0a3e e204 d8bc 109c 2d3c
00000090: 4a6d c23d 3ea1 ec3d f397 c6be 04bd 7abe
000000a0: 2bd3 59bd 5449 90be 68a4 033e f1c4 81be
000000b0: a81b ea3d 7b93 dcbd 1850 b3bd 4076 9ebc
000000c0: 39af e43d d239 dcbd 236f 003e 06eb 87be
000000d0: f1e3 6a3e 44ae 72be 7207 b83e 1464 27be
000000e0: 1642 3bbe 655f 94be 8aea f7be 9637 203e
000000f0: 7631 d53d 36e0 b53d 1c82 6ebe e886 50be
00000100: dd35 73be 07f4 09bf 8215 b3bd 3dfd 78be
00000110: 75f3 93be 9dfb 5bbe c527 e53c 896b 5e3e
00000120: beda 183e 9efb debe a3f4 0f3d af0e 09be
00000130: bf4b a7be a9ca 6ebe e85a 63bd 46ee 6dbe
00000140: b89d 94be e02a 18be e99b afbe 452a 39be
00000150: 0e17 3ebe 9759 28bd e4ba e63c 244f f1bd
00000160: a4e9 0a3e 8380 8abe 0801 0abe c265 b33c
00000170: 0717 9fbe 0b80 9fbd 51f0 003c cdfe 9abe
00000180: 6383 9fbe 021e cfbd 2efd a6bd b536 afbe
00000190: 3d42 adbd 7f75 aabd 3249 ccbe f699 1a3e
000001a0: 45cf 41be e829 eebd 28a5 5c3e 8f90 4e3e
000001b0: 8c1a c9be 4f40 83be 20b5 80be 6df7 56be
000001c0: c5b7 8d3e ca77 1abe 12b5 a23a b384 ae3d
000001d0: 489a 763e 0393 cc3b bb73 dc3d 26ce 123d
000001e0: 921e 953e 5003 383e a324 883e c469 b63d
000001f0: 0983 f8bc ab0b 5bbe 7c92 2b3d 25f3 86bd
0.099347435 0.18561284 -0.13304348 -0.35811558 0.15582854 -0.3435192 -0.30134276 0.15115693
-0.16629878 -0.23247203 -0.00386802 0.17583627 -0.2295216 0.10346528 -0.025846832 -0.43074584
-0.03150841 0.008987982 0.028626539 -0.58042574 0.061910316 -0.006117159 -0.45041507 -0.119060904
0.08818705 0.3291784 -0.35684815 -0.21194172 -0.22371726 0.14089948 -0.3899724 -0.2643854
-0.4438081 0.13537946 -0.026369516 0.01059629 0.094935015 0.11554192 -0.38787803 -0.24486166
-0.0531799 -0.28180945 0.12855685 -0.25345567 0.11431056 -0.10770317 -0.08755511 -0.019343495
0.111662336 -0.10753216 0.12542395 -0.26546496 0.22938515 -0.2369929 0.3594318 -0.1634677
-0.18286929 -0.2897903 -0.48421127 0.15646204 0.104098246 0.088806555 -0.2329182 -0.20363963
-0.23751016 -0.5388798 -0.08744337 -0.24315353 -0.2889668 -0.21482702 0.027973065 0.21720709
0.14927194 -0.43551344 0.035145413 -0.13384508 -0.32674977 -0.23319496 -0.055506617 -0.23235425
-0.2902658 -0.14860106 -0.34298638 -0.18082531 -0.18563482 -0.041101065 0.028165288 -0.11782673
0.1356569 -0.27051172 -0.13476956 0.021899108 -0.31072256 -0.07788094 0.007869796 -0.30272523
-0.31154928 -0.101131454 -0.08153759 -0.34221426 -0.084598996 -0.08323192 -0.39899594 0.15097794
-0.18926723 -0.11629087 0.21547377 0.20172332 -0.39278066 -0.25635 -0.25138187 -0.20992823
0.27679268 -0.15084758 0.0012413582 0.08521404 0.24082291 0.006243111 0.10764261 0.03584113
0.29124886 0.17970014 0.26590452 0.08906892 -0.03033592 -0.2139117 0.041887745 -0.06589345

model.2.weight f4 [64, 128]
00000000: 162d cebe 6682 12bf 8af4 47be f59c 13bd
00000010: f4f7 5cbf 70a9 9bbd 2d0b 083e 6f04 373e
00000020: a9c5 f1bb d7ee d4bc 79e7 203e e4df fcbd
00000030: 3cad 473e 4edb 363e d102 ae3b 9679 1ebd
00000040: 8d40 8e3c 8998 2fbe 4464 64bf a39c 3abf
00000050: e3ba 21be fb71 6b3c fd67 9ebe 62bd 25be
00000060: 48ef 33bf 3352 213d 800e aebd 08b7 a1bd
00000070: 48cc 983d 7b65 bbbe 8b25 e4bd ed72 7dbd
00000080: ed89 8c3d 379a 06bf c044 e73d ce71 933c
00000090: cb77 7cbe fb20 37bf 40c5 fc3d 70b1 64bd
000000a0: d57f c3be d74f 323e 77f3 303e 6f95 153d
000000b0: b9ed b9bd 616c 03bf dd12 cebd f077 a53c
000000c0: 6699 813e a4fb 783e b26c 95be d455 8dbe
000000d0: 8711 0abf 3e93 a2bd d005 37bf fae8 34be
000000e0: d085 0cbf 1ecc 8a3d b137 4a3d 1d78 8ebe
000000f0: f835 59be 00ad 7cbb 4e0b 6cbe 6722 c53c
00000100: 3c97 7ebd b972 63be f2ac 59bf e1ca 8abc
00000110: c729 043e 66d0 92bd 4d2b c3be 9c37 0ebe
00000120: 20d0 6d3e e8be 9abe e160 943d 5adf d8bc
00000130: 9f45 de3d 1e91 97bd 58e2 5d3d ad52 333d
00000140: 055d bd3d 281e 9c3c a0b3 093d 4ead 483d
00000150: c01c 86bd 2991 9ebe b695 7c3d 1e33 81be
00000160: ce3b c63e b8d8 223c 7532 09bf 7324 8ebe
00000170: 83cd 0c3e f1b2 3abf cb6a db3d e385 74bf
00000180: 0475 e4bd 8d7c 59bd 02e4 a93e 35a3 25be
00000190: 763a 12bf 4391 b93d 0d70 a53c bc63 99be
000001a0: 1d38 7b3d 090d a53d ed50 933d d21f 90be
000001b0: 3d91 123d 6dac 143f 24a9 6cbe 12fb d23c
000001c0: ea25 26be b1a8 323e 34c9 13be 3ad5 7cbe
000001d0: f341 1abf e7ed 56be 62b8 8abe 8600 2bbf
000001e0: 7828 06bf 9421 a53e f1b8 88be 557e 9bbd
000001f0: 1fff d83d b2bc c8bc 4bc0 19bd c1a1 8abe
00000200: 4490 ac3e 8e5c 5bbe 9427 c5be f614 2abd
00000210: b61c 3e3e 4273 dfbb 7283 8cbe 8fe9 903e
00000220: 52a0 82bd 8fcd 76bd cd04 2abe 5905 b43e
00000230: acfd 33bd 4508 3f3e 48b0 98be 6e19 38bf
00000240: 1e0c 62be 564d 46bd c916 d2be f8ef c93e
00000250: 9bfe a8bd 4807 9c3d 36e3 82bf 4bbc 3b3f
00000260: 7c0d debe 1f50 c4bd f2a7 593d 90a7 913e
00000270: b898 0e3f e079 dfbe ccee 97bf 407b edbe
00000280: 5f9b acbc bf8b 173d fd5b 65bd 3366 9dbf
00000290: e21c 1cbd ab60 febd ac25 7e3f c610 b9bd
000002a0: daad d83d 575d abbf 3ed2 66be 6fa1 dcbd
000002b0: d88f 6e3e 2624 dabd 18ae bbbe 58e0 d1bf
000002c0: f32e 2bbd 12ae bfbe db17 96bd 7db0 293e
000002d0: 5528 b5bd 234c 35bd 5782 96be 52b9 e53d
000002e0: 522b 15bf a7ce f0bc df8c a03d 14ef 0ebf
000002f0: 7f06 473d 37ad 6a3d 62fe 26be c6be 72be
00000300: 3910 acbd eb6b 55bd 951e 3c3e 3707 5d3c
00000310: a23d a43d b71f f5be c818 e2bf 4540 12bd
00000320: 4391 b63e de0f 1abf e7ca 923e b3a2 b9bd
00000330: 59c6 2bbf 34df 043e 648c 6e3d 7673 2a3d
00000340: 7bf1 c03c e848 9e3d 7c6a acbd c453 973d
00000350: ab0d b43d c433 23bf b89a b1bf 1f80 e0bd
00000360: 8c11 8cbf 3686 febb 3f47 e8be 5d1a 51bc
00000370: f00f 0d3d 9fad 94be b3a5 403e 4a35 69be
00000380: 9fc4 3abd aeaa 4f3d eb72 d2be 01f1 6dbf
00000390: b75f 74bf a24f b73e 9d4b 273d f68d bfbd
000003a0: 7a7c 093f 775f 243e 5ba2 6cbe 9ddb 9abd
000003b0: 2ceb 8cbc 9fd8 563f 43aa a9be fc9e d73c
000003c0: 7a2f 08be 2cd4 9a3d 1ff9 c1bd 6199 593d
000003d0: 9eeb 8ebf 267c 59bd b493 cabe 1720 3d3e
000003e0: 4dd6 3abd 13c1 22bf e585 79be 0428 873d
000003f0: f8fe 9b3e 3f92 15bc 40bb 793d 4693 90bd
-0.40268773 -0.5723022 -0.19526878 -0.036038358 -0.86315846 -0.07600677 0.13285513 0.17872785
-0.0073782993 -0.025992794 0.157133 -0.12347391 0.19499677 0.17857096 0.0053103943 -0.038690172
0.017364765 -0.17148031 -0.89215493 -0.7289526 -0.15793948 0.014370437 -0.30938712 -0.16185525
-0.7028699 0.039385032 -0.084988594 -0.078962386 0.074608386 -0.3660086 -0.11139973 -0.06187718
0.06862245 -0.52579063 0.1129241 0.017998602 -0.24655072 -0.715347 0.1234231 -0.05583328
-0.38183466 0.17413269 0.17280374 0.036519464 -0.09078545 -0.5133725 -0.10062192 0.020198792
0.25312346 0.24314743 -0.2918449 -0.27604544 -0.53932995 -0.079382405 -0.71493244 -0.17666999
-0.5489168 0.067772135 0.049369518 -0.27826014 -0.21211994 -0.0038555264 -0.23051187 0.024064256
-0.062155947 -0.22211732 -0.8502952 -0.016942443 0.12906562 -0.07168655 -0.38118973 -0.13888401
0.23223925 -0.30223775 0.07245041 -0.02647369 0.10853123 -0.07400726 0.054170936 0.043780018
0.09246258 0.019057348 0.03361857 0.0489934 -0.065484524 -0.30970123 0.061666213 -0.25234312
0.38717502 0.009939365 -0.53592616 -0.27762184 0.13750271 -0.7292929 0.107137285 -0.95516795
-0.111551315 -0.053097297 0.3318177 -0.1617554 -0.57120454 0.090609096 0.020195032 -0.29958904
0.06133281 0.08059127 0.0719317 -0.28149277 0.03578304 0.580756 -0.23111397 0.025754485
-0.162254 0.17447163 -0.14432222 -0.24690714 -0.6025688 -0.2098919 -0.27093798 -0.66797674
-0.524055 0.3225218 -0.267036 -0.07592455 0.105955355 -0.02450404 -0.0375369 -0.27076533
0.33703816 -0.21422026 -0.38506758 -0.041523896 0.1856564 -0.0068191597 -0.27444035 0.2830319
-0.06378235 -0.06025463 -0.16603394 0.3516033 -0.043943092 0.18655498 -0.29821992 -0.719138
-0.22074935 -0.048413597 -0.4103301 0.39440894 -0.08251687 0.07618576 -1.0225589 0.7333419
-0.43369663 -0.095855944 0.05313868 0.28448153 0.5570178 -0.4364767 -1.186975 -0.46383095
-0.02107018 0.036998507 -0.05599593 -1.2296814 -0.038113482 -0.12420782 0.9927623 -0.090364024
0.105800346 -1.338786 -0.22541139 -0.107729785 0.2329706 -0.10651426 -0.3665626 -1.6396589
-0.04179282 -0.37437493 -0.07328769 0.16571231 -0.08845583 -0.044262063 -0.29396316 0.11216988
-0.58269227 -0.029395415 0.07839369 -0.55833554 0.04859018 0.057294097 -0.16307977 -0.23705587
-0.08401532 -0.05210487 0.18371041 0.01349049 0.08019568 -0.4787576 -1.7663813 -0.035705823
0.356577 -0.6018046 0.28670427 -0.090642355 -0.6709953 0.1297577 0.058239356 0.04161402
0.023552647 0.077287495 -0.08418748 0.07389024 0.087916695 -0.63750863 -1.3875341 -0.10961937
-1.0942855 -0.007767464 -0.45366856 -0.012762633 0.034439027 -0.29038712 0.18813209 -0.22774234
-0.04559767 0.050699882 -0.411033 -0.9294587 -0.9545855 0.35802943 0.040843595 -0.09353249
0.5370556 0.16052042 -0.23108809 -0.07561419 -0.017201982 0.8392429 -0.33137712 0.026320927
-0.13299361 0.0756 -0.09471344 0.05312479 -1.1165655 -0.053096913 -0.39565814 0.18469273
-0.04561453 -0.6357586 -0.24367483 0.06599429 0.30467963 -0.009129106 0.06096959 -0.0705934

model.2.bias f4 [64]
00000000: 9f87 453d e31e 1f3e fe65 963d 5b34 d6bd
00000010: c12e 603d 3d71 56bd ad71 293e d87e 66bd
00000020: 45fc fbbd 9615 603e 1584 173d 4c24 89bc
00000030: b8ca 74bd 80dc b9bd c6f5 f63d fd10 5cbd
00000040: af8d 863e 2775 9cbd ca0d ccbd 2bc8 6e3e
00000050: 0c93 f53d 11f1 f4bd 6600 1fbd 54ae c9bb
00000060: f138 f4bc ef23 613c ad70 c0bd ee69 8ebd
00000070: 2020 67bd 9a43 fdbc 6043 a6bd 8b67 36bd
00000080: 6d48 b1bd e00b 6abe 8984 85be dc4a 973e
00000090: 3f16 92bd 1ada 093e 2d9d 86bb 02e4 bfbc
000000a0: 4600 3abb 2625 cbbd 58d2 9dbd f2f6 62bd
000000b0: 5fd6 123e 4c50 03ba 3c10 d93b 4efd f4bc
000000c0: a8b5 b4bd 34f0 853d 9d72 ccbd dae1 6e3c
000000d0: 9c43 44bd 6db9 d93d 5e05 0abe 9c18 d1bd
000000e0: 267a 7fbd b7dc 3f3e 60e7 20be 917f 07bc
000000f0: e637 35bc fac9 88bd 564e 78be e994 dcbc
0.04822504 0.15539126 0.07343672 -0.10459205 0.054732088 -0.052354086 0.1654727 -0.05627331
-0.12303976 0.21883234 0.036991198 -0.01674094 -0.05976364 -0.0907526 0.12058596 -0.05372714
0.2627997 -0.076395325 -0.099635676 0.23318546 0.119909376 -0.11960042 -0.03881874 -0.0061548147
-0.029812308 0.013741477 -0.09396491 -0.06953798 -0.05642712 -0.030916024 -0.081183195 -0.04453234
-0.08656392 -0.22856092 -0.2607768 0.295493 -0.07133149 0.13462105 -0.0041080923 -0.023424152
-0.002838151 -0.09919195 -0.077061355 -0.055411287 0.14339589 -0.00050092186 0.0066242497 -0.029905941
-0.08823711 0.06539956 -0.09982798 0.014580214 -0.04791604 0.1063107 -0.1347861 -0.10209772
-0.06237235 0.1873654 -0.15713263 -0.00827016 -0.0110606905 -0.06679149 -0.24248633 -0.026926475

model.4.weight f4 [4, 64]
00000000: 7ac6 b63e ddc8 093f a848 6c3e 92fc 0dbc
00000010: afb8 a93e 404b c73d 2c0f 913e fe1f 723d
00000020: d06a 18be 63a1 80bd 2113 ee3e f668 0c3d
00000030: e7d1 b6bd 63ba b9bb 39ef 9d3e 3959 6ebd
00000040: a155 be3e 29c5 16be 1cca 8f3d 100f bbbd
00000050: a2aa e33e 3d7f e43c 3d40 ecbc c52b 8e3d
00000060: e0f2 a23d 7265 da3e e662 9f3c 83ee a73c
00000070: 30cd b73d 3c1a bd3c a219 f93d 7bc8 973d
00000080: dc3a debd b472 6bbd 97bf 39bf b11d 8f3e
00000090: 995d 8bbd dbda 713e 7245 c63c 3597 b03d
000000a0: efc0 f03d 77dd 153d 6e1a 3b3f a096 28bc
000000b0: 5908 98bc c110 5d3d a2fe 8ebd bd9e bbbe
000000c0: 7c3d f1bd 1b0a 753e 4d95 b03e ba6a 183e
000000d0: 67fa d43c 5003 65be 7697 ba3e a3cd 533c
000000e0: bb8e 9e3d 4369 f23d 9904 243f adab 423d
000000f0: 5474 d93c 992e aabe 2eed 3abf 3d5e 373e
00000100: 4f3d 093f 98f9 97be 3cb3 c93e b7c9 d03b
00000110: 3323 4f3d de25 0bbd 6ae9 983e 5d6d 68bd
00000120: 0ec7 603d 72be 943e d0a3 b03e 64d6 803c
00000130: c8d2 fbbd 87a5 debd 77fc 413f 0868 673d
00000140: c43c 343e cd9d 0c3f 4698 8bbd 29d9 b3be
00000150: 4db6 213e 873f b4bc 9a19 adbd 8579 493c
00000160: dce9 fe3d 56d6 d2be fd43 a6bd b00b b23c
00000170: 45ae bd3c a080 1bbd 68a8 59bd 3279 d7bd
00000180: cc6d bdbd 5fa0 47be 6936 d93e 3f46 943e
00000190: 4807 8fbd dc77 ee3d f85d 28bd 0d96 91bc
000001a0: 1521 c2bf 9bbb 973d 4091 3f3f 7afb a7bb
000001b0: 33e1 97be f4bc 99bd f0c8 bc3d 1bf9 2dbf
000001c0: 9afc c8bd daf3 dd3e f6d7 323e 9103 d9be
000001d0: 346a e9bd 0378 9f3c 20c4 963e 4414 ebbc
000001e0: a797 1f3c 69e4 a93e 188e 8c3e f09d 54bc
000001f0: f9d2 10bc 969f 383e 191e 383d 5a83 823e
00000200: 0cc2 a93e 089d ffbe 1693 1ebf ac4d 93bc
00000210: 184a 92bc 2c61 033d b4e0 e93e 0ede 853a
00000220: f81a 0abc eae5 dd3e e970 e53e eebe 94bd
00000230: 3f0e 70bd 04c9 d6bd 6c60 3b3f 4aea 6bbc
00000240: 1e48 863e 71cc be3e a061 863a 1e6d 26be
00000250: 5533 ecbb 966b b2bd 30aa cfbd 6e94 b1bd
00000260: e23a abbd 6973 95bf f60b 0c3e b01d 68bc
00000270: 8d84 ab3d 05c9 2fbd f8e6 bcbd c683 1cbd
00000280: be36 93bd 27aa 15bf 5871 a03e 0349 ab3e
00000290: 80a4 bbbc 3f75 1e3e 3caa 97bd 567f 02bd
000002a0: 6124 48bc 13cc bebc be02 1a3f 6b8c 323d
000002b0: b664 e5be 1eb5 ad3d 7854 ad3d a638 7a3e
000002c0: dcbf 11bd 7e6d c83e 30cc 623e 2c3a 0fbf
000002d0: b984 893c c092 a43d d5c6 863e ddb5 7abd
000002e0: ad9e ce3d 4b4d 333e 4663 a33e 9272 dbbb
000002f0: 517f 81bc 0ba5 f13e a6dc c8bc a4a7 e73d
00000300: 8684 ad3e 116f 323d 8243 4d3e e183 a23d
00000310: 8a07 a13e 95fe 80bd c465 dc3e 2323 243d
00000320: 75b7 51bc 5230 a03d a0e7 1e3f cdfe e1bd
00000330: 24fc 82bc 8861 2fbd c94e 143f 998a 163c
00000340: 2898 6e3e f607 923e 3d3f 05bd 2b40 993e
00000350: 1f50 5c3d 5eb0 4b3d f582 9dbd a090 96bd
00000360: 546c 243d 3376 493e 8ff2 afbc 604b 47bd
00000370: fd69 86bc 28cf 313b bc5b c33d e9d0 c03c
00000380: 28dd 883c 4e32 7abe 455c fb3e 36d4 c23e
00000390: ad8a 3e3d d56d c53e 1b24 033d df71 9b3d
000003a0: 1d48 963c 88b8 7f3d 726d 3b3f fae9 27bd
000003b0: c225 8ebe ccc3 b33d 90b0 9a3d 5abe 683e
000003c0: 1456 0a3d 9f33 b33d 6adf 323e a4bc d93d
000003d0: 5d83 543d 22de 6e3e d456 3a3c cbcd c7bc
000003e0: ba44 93bd 9227 163e d108 073f 42d4 9ebc
000003f0: 55bb 2c3d 04a1 07be 669e fd3c 4cfa 15bd
0.356983 0.5382212 0.23074591 -0.0086661745 0.33148715 0.0973115 0.28331888 0.05911254
-0.14884496 -0.06280782 0.4649897 0.034279786 -0.089267544 -0.005667971 0.30846575 -0.058190558
0.37174705 -0.14723648 0.07020971 -0.09133732 0.4446612 0.027892703 -0.028839225 0.06941942
0.07956481 0.42655522 0.019456338 0.020499473 0.08974683 0.023083799 0.12163092 0.074112855
-0.1085107 -0.057482436 -0.7255797 0.2795234 -0.06804962 0.23618643 0.024203036 0.086225905
0.11755549 0.03658816 0.73087204 -0.010289818 -0.018558668 0.053971056 -0.06982161 -0.36644545
-0.11779305 0.23929636 0.34488907 0.14884463 0.025998307 -0.22364545 0.3644368 0.012927446
0.077420674 0.11836483 0.64069515 0.047527004 0.026544727 -0.33238676 -0.7301816 0.17907043
0.53609174 -0.29682612 0.39394557 0.0063717025 0.050570678 -0.03397166 0.2986558 -0.056744922
0.054877333 0.29051548 0.3449998 0.01572723 -0.12296063 -0.108714156 0.75775856 0.056495696
0.17601305 0.54928285 -0.06816153 -0.35126618 0.15792198 -0.022002948 -0.08452149 0.012297039
0.12446949 -0.4117915 -0.081184365 0.021734089 0.023154387 -0.037964463 -0.05313912 -0.10521163
-0.09249458 -0.1949477 0.42424324 0.28959844 -0.06983811 0.11643955 -0.04110524 -0.017771745
-1.5166346 0.0740883 0.7483101 -0.005126414 -0.29664 -0.07506743 0.09218013 -0.6795823
-0.09813805 0.43350106 0.17465195 -0.42385533 -0.1139721 0.019466406 0.29446507 -0.028696187
0.009740747 0.33182076 0.2745216 -0.012977108 -0.008839362 0.18029627 0.04495058 0.25490838
0.3315586 -0.49924493 -0.61943185 -0.017981373 -0.017857596 0.032075092 0.45679247 0.0010213272
-0.008429281 0.43339473 0.44812706 -0.072629794 -0.058607336 -0.104875594 0.73194003 -0.014399121
0.26226896 0.3726535 0.0010252483 -0.16252562 -0.0072082677 -0.08711927 -0.101398826 -0.08670889
-0.083608404 -1.1675845 0.13676438 -0.014167234 0.083748914 -0.042916317 -0.09223741 -0.038211606
-0.071881756 -0.58462757 0.31336474 0.3345414 -0.022905588 0.15474413 -0.074055165 -0.03185972
-0.012215705 -0.02329067 0.60160434 0.043590944 -0.448034 0.08481811 0.08463377 0.24435672
-0.035583362 0.39146036 0.22148204 -0.5594814 0.01678692 0.08035803 0.26323572 -0.061208595
0.10088859 0.17509954 0.31911677 -0.0066970075 -0.01580778 0.4719623 -0.024519276 0.11311272
0.3389017 0.043562952 0.20045283 0.0793531 0.31451064 -0.06298558 0.4304639 0.04007257
-0.012800087 0.07821716 0.6207218 -0.110349275 -0.01598937 -0.042817622 0.57932717 0.009188318
0.2330023 0.285217 -0.03253101 0.2993177 0.053787347 0.049728744 -0.07690994 -0.07351804
0.040142372 0.19673996 -0.021477966 -0.048655868 -0.016407961 0.0027131531 0.09538981 0.023537116
0.016707018 -0.24433252 0.49093834 0.3805253 0.04651897 0.38560358 0.032016855 0.075900786
0.018344933 0.062431842 0.73213875 -0.04099462 -0.27763182 0.0877758 0.07553208 0.22728863
0.033773497 0.0875008 0.17468038 0.106316835 0.05188309 0.23326924 0.0113732405 -0.024390122
-0.07190843 0.14663532 0.5274783 -0.019388322 0.04217084 -0.13245016 0.03095932 -0.036615655

model.4.bias f4 [4]
00000000: 6e78 903c cc8d ba3d 1f90 9c3d 1963 73bb
0.01763555 0.09109077 0.076446764 -0.0037137924

model.0.weight f4 [128, 7]
00000000: fc1d 86bf 1e3d bbbc 411b 9b3e 0f01 73bf
00000010: fa89 b8be e0e3 b63e e807 613e a46d 45bd
00000020: e784 15bf bc04 b43d 430e f13c dbb8 b13e
00000030: 98cd 9a3d fb69 263e 1e49 fb3e 3884 703c
00000040: 53b2 48be 71fa c3be 9199 08bf 91c4 b1be
00000050: 1699 78bd 33c8 29be b114 88be fa07 363e
00000060: 6e4e e2bd f100 d13d 8223 193e f474 14bd
00000070: e0c4 14c0 fb60 063d 7a0c 93bc 3610 43bd
00000080: d436 003f 922b 053e fe5a e83d 13be b3be
00000090: 3125 a63c c5a4 46be 3a21 48be 0ecf 71be
000000a0: f5ee 413e 2185 753d 22a3 bc3e e983 89bf
000000b0: 47b7 483e 4523 28be 1798 b63e 87f0 c2be
000000c0: f4dd d7bd b5cb 1a3e 13ad d0bf c36a 33bf
000000d0: bca9 803e d3ea 0ebe f07d 143e 549b 7fbd
000000e0: 722e a0be 5a71 32bd f7fb f8bb 89bc 28bc
000000f0: bf2d 81be f64b a73e e122 2dbe f88d 25be
00000100: f79f 84be 62bf 853e c74a 59be addf f43a
00000110: f5b2 b0be 5228 97be 8aa4 81be 8d53 0fbf
00000120: 975a 8abe 69fa 283f 38ef 7abe a52d 41be
00000130: 8d64 8cbe 3bf0 35be 6bd6 03be 28cf 64bf
00000140: 4baf 37bd 4988 55be 915f c3be def0 09bb
00000150: e90b c83c 3447 58c0 76f1 ab3e e4c1 543e
00000160: e5dc b03e 26b0 1dbf 4ab1 27bc d9d3 82be
00000170: d516 41bd a9cf 2c3e 0504 3d3e fa88 183f
00000180: fe01 05bf 7f3f 23be c7fe e9be 664b 23be
00000190: 62de 1cbc 505a be3e 610f 023f 5179 4abd
000001a0: 2090 b8be 44b9 c03e 0c24 d8bd d9b4 9e3e
000001b0: bc24 84be d781 053f 8e3a c9ba d3e7 55be
000001c0: f20f 22be b476 48bf 4ac9 d1be aa8d 50be
000001d0: 0f17 ba3e 0598 fd3e 6c18 5abe 1be3 b8be
000001e0: 18c1 c3be 50cc ad3e 0de5 bfbc bdeb a53d
000001f0: be46 973e d622 b4be 2759 023f cd91 94be
00000200: c7fa 6ebf ec46 5d3e db14 7e3e 6a22 b6be
00000210: d289 843e f8bc ef3e 9d67 2ebf 73ae c6bd
00000220: 8e0f 873e 5821 8c3e ea29 1cbd 79e3 893d
00000230: 9c40 cebd 2474 20bf b48f e23c 9bd2 9fbd
00000240: f4d4 c1be d42d dbbd 43d8 fe3c 0100 e63d
00000250: 6fe3 fb3e fb98 e5be c9d3 c1bd 13cb fd3d
00000260: 0a37 b13d 1457 4fbd 0e84 093f 1251 06be
00000270: a47c f6be e977 b0bd 99ce a53e 4357 9cbc
00000280: 08d5 11bf b34b 943e cca6 fbbe 75cd 573e
00000290: 2b74 163e d25c 8fbe 64f6 72be 2c56 0cbf
000002a0: e4c9 e73e 401e 25bf fc0e d9bd 0ad2 06bf
000002b0: f3f9 c73e cd1d 333d 63d0 bc3e eb2a 04bf
000002c0: b542 0dbd 7c41 21be 6d21 31bf e959 a33e
000002d0: 63f3 8c3e 6f82 763e 5edc d43d 2dc4 5bbe
000002e0: 308e 50be fae2 a1bd 1226 61bc 3e37 ecbd
000002f0: d64d 1cbe fbb8 e53d 20de 1abf ac65 943e
00000300: 5839 4a3e 3800 1c3f bbc9 1cbe c0d9 d9bd
00000310: a8f4 42bf a438 fa3e 03c2 abbe ad0e c83e
00000320: ff04 9e3d b552 b8be a6d8 0bbc d6e4 393e
00000330: 0206 40be a8ad 453e 4a9a 07bf 7bd1 193d
00000340: 81ef 73be 560f 363e 1a75 ffbf fad9 b83e
00000350: 2ec3 0b3f 3f3b e93d f308 a4be 2cc9 e73d
00000360: 3121 053d 8a95 593e 93f4 ba3d f305 9bbe
00000370: e3e1 083d df9e 613e c254 f7bd 808a 11bf
00000380: 7463 e2bd 8c5a 813d c753 5d3e 2e7c 64be
00000390: 2017 dbbe 3d42 663e b9fe ed3d d031 893e
000003a0: 644c 29be fcf0 9cbe 3cc2 fcbd a35f ba3d
000003b0: b5c5 a53d 21d6 b93e c86a 763e 2eec df3e
000003c0: 84fa 133e 674b 65be 8ea1 43bf 2dee 3ebf
000003d0: 6a1d f53d 5df5 c03e c631 6bbf b04b 473d
000003e0: 31de 083e 1793 a0be 8258 9abd 569b fd3e
000003f0: 1a0f 04bd 9a20 75bf 65f2 913d 479c 81bd
-1.04779 -0.022856291 0.3029423 -0.9492349 -0.36042768 0.3572073 0.21975672 -0.048200265
-0.5840592 0.087899655 0.029425746 0.34711346 0.07558745 0.16251366 0.4907922 0.014679961
-0.19599275 -0.3827701 -0.53359324 -0.3472028 -0.06069287 -0.16580276 -0.26578286 0.1777648
-0.110501155 0.10205258 0.14954951 -0.036244348 -2.3245163 0.03280733 -0.017950285 -0.04762288
0.5008366 0.13004902 0.113454804 -0.35105953 0.020281406 -0.19398792 -0.19543925 -0.23614141
0.18938811 0.059941415 0.3684321 -1.0743381 0.19601165 -0.16419704 0.3566291 -0.38074133
-0.10540381 0.1511677 -1.6302818 -0.7008478 0.25129497 -0.13956766 0.14501166 -0.06240399
-0.31285435 -0.04356513 -0.007598396 -0.0102988565 -0.25230214 0.3267514 -0.16907836 -0.16167438
-0.25903293 0.26122576 -0.21219932 0.0018682383 -0.34511533 -0.2952295 -0.25320846 -0.55986863
-0.2702224 0.66007096 -0.24505317 -0.18865068 -0.27420464 -0.17767422 -0.12874763 -0.89378595
-0.044844907 -0.2085277 -0.3815885 -0.002104811 0.024419742 -3.379346 0.33582658 0.20777088
0.3454353 -0.61596906 -0.01023514 -0.25552252 -0.047140915 0.16876091 0.18458565 0.5958401
-0.51956165 -0.1594219 -0.45702192 -0.15946731 -0.009574505 0.37178278 0.50804716 -0.049432103
-0.3604746 0.37641346 -0.105537504 0.3099735 -0.25809276 0.52151245 -0.0015352534 -0.20889215
-0.15826395 -0.78306127 -0.40973884 -0.2036654 0.36345717 0.49530044 -0.21298379 -0.36110768
-0.38233256 0.3394494 -0.02342465 0.08101604 0.2954616 -0.35182828 0.50917286 -0.29017487
-0.93351406 0.21609086 0.24812643 -0.3557313 0.258864 0.4682386 -0.6812685 -0.09701242
0.26379055 0.2736919 -0.03812591 0.0673284 -0.10070917 -0.62677217 0.027656414 -0.07803842
-0.37857783 -0.107021004 0.031108981 0.112304695 0.49196956 -0.44843277 -0.09464223 0.12392249
0.08653076 -0.050620154 0.53717124 -0.13116863 -0.48141968 -0.08616621 0.32384184 -0.019084578
-0.56965685 0.28964004 -0.49150693 0.2107447 0.14692752 -0.28000504 -0.23726803 -0.5481899
0.45271218 -0.6449928 -0.10598561 -0.52664244 0.39057884 0.043729592 0.36877736 -0.5162799
-0.034487445 -0.15747637 -0.6919163 0.31904534 0.2752944 0.24073194 0.10393594 -0.21461554
-0.2036674 -0.079046205 -0.013741987 -0.11533974 -0.15264067 0.11216923 -0.60495186 0.2898382
0.19748437 0.60937834 -0.15311329 -0.10637236 -0.76154566 0.48871338 -0.33546457 0.39073697
0.07715797 -0.360006 -0.00853554 0.181537 -0.18752292 0.19304526 -0.529698 0.03755329
-0.23821832 0.17779288 -1.9957612 0.36103803 0.54594696 0.113882534 -0.32038078 0.11317667
0.032502357 0.21248451 0.0912868 -0.30277976 0.033418547 0.22033261 -0.12076713 -0.5685196
-0.110541254 0.063160986 0.2161399 -0.22312996 -0.4279108 0.22486205 0.1162085 0.26795816
-0.16533047 -0.30652606 -0.12341735 0.091002725 0.0809435 0.3629618 0.24064171 0.43734878
0.14451033 -0.22392045 -0.7641839 -0.7458218 0.11968501 0.37687197 -0.91872823 0.048656166
0.1336601 -0.3136222 -0.07536413 0.49532574 -0.032240964 -0.9575287 0.07126311 -0.06328636

model.0.bias f4 [128]
00000000: ab76 cb3d 4b11 3e3e 8d3c 08be ed5a b7be
00000010: 8491 1f3e c0e1 afbe 9949 9abe e2c8 1a3e
00000020: 3a4a 2abe 260d 6ebe 9b7e 7dbb 6c0e 343e
00000030: b607 6bbe 9be5 d33d bcbc d3bc b88a dcbe
00000040: f60e 01bd 5442 133c 3482 ea3c c896 14bf
00000050: ac95 7d3d 7372 c8bb ce9c e6be 34d6 f3bd
00000060: 699b b43d 128a a83e cdb4 b6be 4007 59be
00000070: 2316 65be f447 103e 76aa c7be 865d 87be
00000080: d13a e3be eaa0 0a3e e204 d8bc 109c 2d3c
00000090: 4a6d c23d 3ea1 ec3d f397 c6be 04bd 7abe
000000a0: 2bd3 59bd 5449 90be 68a4 033e f1c4 81be
000000b0: a81b ea3d 7b93 dcbd 1850 b3bd 4076 9ebc
000000c0: 39af e43d d239 dcbd 236f 003e 06eb 87be
000000d0: f1e3 6a3e 44ae 72be 7207 b83e 1464 27be
000000e0: 1642 3bbe 655f 94be 8aea f7be 9637 203e
000000f0: 7631 d53d 36e0 b53d 1c82 6ebe e886 50be
00000100: dd35 73be 07f4 09bf 8215 b3bd 3dfd 78be
00000110: 75f3 93be 9dfb 5bbe c527 e53c 896b 5e3e
00000120: beda 183e 9efb debe a3f4 0f3d af0e 09be
00000130: bf4b a7be a9ca 6ebe e85a 63bd 46ee 6dbe
00000140: b89d 94be e02a 18be e99b afbe 452a 39be
00000150: 0e17 3ebe 9759 28bd e4ba e63c 244f f1bd
00000160: a4e9 0a3e 8380 8abe 0801 0abe c265 b33c
00000170: 0717 9fbe 0b80 9fbd 51f0 003c cdfe 9abe
00000180: 6383 9fbe 021e cfbd 2efd a6bd b536 afbe
00000190: 3d42 adbd 7f75 aabd 3249 ccbe f699 1a3e
000001a0: 45cf 41be e829 eebd 28a5 5c3e 8f90 4e3e
000001b0: 8c1a c9be 4f40 83be 20b5 80be 6df7 56be
000001c0: c5b7 8d3e ca77 1abe 12b5 a23a b384 ae3d
000001d0: 489a 763e 0393 cc3b bb73 dc3d 26ce 123d
000001e0: 921e 953e 5003 383e a324 883e c469 b63d
000001f0: 0983 f8bc ab0b 5bbe 7c92 2b3d 25f3 86bd
0.099347435 0.18561284 -0.13304348 -0.35811558 0.15582854 -0.3435192 -0.30134276 0.15115693
-0.16629878 -0.23247203 -0.00386802 0.17583627 -0.2295216 0.10346528 -0.025846832 -0.43074584
-0.03150841 0.008987982 0.028626539 -0.58042574 0.061910316 -0.006117159 -0.45041507 -0.119060904
0.08818705 0.3291784 -0.35684815 -0.21194172 -0.22371726 0.14089948 -0.3899724 -0.2643854
-0.4438081 0.13537946 -0.026369516 0.01059629 0.094935015 0.11554192 -0.38787803 -0.24486166
-0.0531799 -0.28180945 0.12855685 -0.25345567 0.11431056 -0.10770317 -0.08755511 -0.019343495
0.111662336 -0.10753216 0.12542395 -0.26546496 0.22938515 -0.2369929 0.3594318 -0.1634677
-0.18286929 -0.2897903 -0.48421127 0.15646204 0.104098246 0.088806555 -0.2329182 -0.20363963
-0.23751016 -0.5388798 -0.08744337 -0.24315353 -0.2889668 -0.21482702 0.027973065 0.21720709
0.14927194 -0.43551344 0.035145413 -0.13384508 -0.32674977 -0.23319496 -0.055506617 -0.23235425
-0.2902658 -0.14860106 -0.34298638 -0.18082531 -0.18563482 -0.041101065 0.028165288 -0.11782673
0.1356569 -0.27051172 -0.13476956 0.021899108 -0.31072256 -0.07788094 0.007869796 -0.30272523
-0.31154928 -0.101131454 -0.08153759 -0.34221426 -0.084598996 -0.08323192 -0.39899594 0.15097794
-0.18926723 -0.11629087 0.21547377 0.20172332 -0.39278066 -0.25635 -0.25138187 -0.20992823
0.27679268 -0.15084758 0.0012413582 0.08521404 0.24082291 0.006243111 0.10764261 0.03584113
0.29124886 0.17970014 0.26590452 0.08906892 -0.03033592 -0.2139117 0.041887745 -0.06589345

model.2.weight f4 [64, 128]
00000000: 162d cebe 6682 12bf 8af4 47be f59c 13bd
00000010: f4f7 5cbf 70a9 9bbd 2d0b 083e 6f04 373e
00000020: a9c5 f1bb d7ee d4bc 79e7 203e e4df fcbd
00000030: 3cad 473e 4edb 363e d102 ae3b 9679 1ebd
00000040: 8d40 8e3c 8998 2fbe 4464 64bf a39c 3abf
00000050: e3ba 21be fb71 6b3c fd67 9ebe 62bd 25be
00000060: 48ef 33bf 3352 213d 800e aebd 08b7 a1bd
00000070: 48cc 983d 7b65 bbbe 8b25 e4bd ed72 7dbd
00000080: ed89 8c3d 379a 06bf c044 e73d ce71 933c
00000090: cb77 7cbe fb20 37bf 40c5 fc3d 70b1 64bd
000000a0: d57f c3be d74f 323e 77f3 303e 6f95 153d
000000b0: b9ed b9bd 616c 03bf dd12 cebd f077 a53c
000000c0: 6699 813e a4fb 783e b26c 95be d455 8dbe
000000d0: 8711 0abf 3e93 a2bd d005 37bf fae8 34be
000000e0: d085 0cbf 1ecc 8a3d b137 4a3d 1d78 8ebe
000000f0: f835 59be 00ad 7cbb 4e0b 6cbe 6722 c53c
00000100: 3c97 7ebd b972 63be f2ac 59bf e1ca 8abc
00000110: c729 043e 66d0 92bd 4d2b c3be 9c37 0ebe
00000120: 20d0 6d3e e8be 9abe e160 943d 5adf d8bc
00000130: 9f45 de3d 1e91 97bd 58e2 5d3d ad52 333d
00000140: 055d bd3d 281e 9c3c a0b3 093d 4ead 483d
00000150: c01c 86bd 2991 9ebe b695 7c3d 1e33 81be
00000160: ce3b c63e b8d8 223c 7532 09bf 7324 8ebe
00000170: 83cd 0c3e f1b2 3abf cb6a db3d e385 74bf
00000180: 0475 e4bd 8d7c 59bd 02e4 a93e 35a3 25be
00000190: 763a 12bf 4391 b93d 0d70 a53c bc63 99be
000001a0: 1d38 7b3d 090d a53d ed50 933d d21f 90be
000001b0: 3d91 123d 6dac 143f 24a9 6cbe 12fb d23c
000001c0: ea25 26be b1a8 323e 34c9 13be 3ad5 7cbe
000001d0: f341 1abf e7ed 56be 62b8 8abe 8600 2bbf
000001e0: 7828 06bf 9421 a53e f1b8 88be 557e 9bbd
000001f0: 1fff d83d b2bc c8bc 4bc0 19bd c1a1 8abe
00000200: 4490 ac3e 8e5c 5bbe 9427 c5be f614 2abd
00000210: b61c 3e3e 4273 dfbb 7283 8cbe 8fe9 903e
00000220: 52a0 82bd 8fcd 76bd cd04 2abe 5905 b43e
00000230: acfd 33bd 4508 3f3e 48b0 98be 6e19 38bf
00000240: 1e0c 62be 564d 46bd c916 d2be f8ef c93e
00000250: 9bfe a8bd 4807 9c3d 36e3 82bf 4bbc 3b3f
00000260: 7c0d debe 1f50 c4bd f2a7 593d 90a7 913e
00000270: b898 0e3f e079 dfbe ccee 97bf 407b edbe
00000280: 5f9b acbc bf8b 173d fd5b 65bd 3366 9dbf
00000290: e21c 1cbd ab60 febd ac25 7e3f c610 b9bd
000002a0: daad d83d 575d abbf 3ed2 66be 6fa1 dcbd
000002b0: d88f 6e3e 2624 dabd 18ae bbbe 58e0 d1bf
000002c0: f32e 2bbd 12ae bfbe db17 96bd 7db0 293e
000002d0: 5528 b5bd 234c 35bd 5782 96be 52b9 e53d
000002e0: 522b 15bf a7ce f0bc df8c a03d 14ef 0ebf
000002f0: 7f06 473d 37ad 6a3d 62fe 26be c6be 72be
00000300: 3910 acbd eb6b 55bd 951e 3c3e 3707 5d3c
00000310: a23d a43d b71f f5be c818 e2bf 4540 12bd
00000320: 4391 b63e de0f 1abf e7ca 923e b3a2 b9bd
00000330: 59c6 2bbf 34df 043e 648c 6e3d 7673 2a3d
00000340: 7bf1 c03c e848 9e3d 7c6a acbd c453 973d
00000350: ab0d b43d c433 23bf b89a b1bf 1f80 e0bd
00000360: 8c11 8cbf 3686 febb 3f47 e8be 5d1a 51bc
00000370: f00f 0d3d 9fad 94be b3a5 403e 4a35 69be
00000380: 9fc4 3abd aeaa 4f3d eb72 d2be 01f1 6dbf
00000390: b75f 74bf a24f b73e 9d4b 273d f68d bfbd
000003a0: 7a7c 093f 775f 243e 5ba2 6cbe 9ddb 9abd
000003b0: 2ceb 8cbc 9fd8 563f 43aa a9be fc9e d73c
000003c0: 7a2f 08be 2cd4 9a3d 1ff9 c1bd 6199 593d
000003d0: 9eeb 8ebf 267c 59bd b493 cabe 1720 3d3e
000003e0: 4dd6 3abd 13c1 22bf e585 79be 0428 873d
000003f0: f8fe 9b3e 3f92 15bc 40bb 793d 4693 90bd
-0.40268773 -0.5723022 -0.19526878 -0.036038358 -0.86315846 -0.07600677 0.13285513 0.17872785
-0.0073782993 -0.025992794 0.157133 -0.12347391 0.19499677 0.17857096 0.0053103943 -0.038690172
0.017364765 -0.17148031 -0.89215493 -0.7289526 -0.15793948 0.014370437 -0.30938712 -0.16185525
-0.7028699 0.039385032 -0.084988594 -0.078962386 0.074608386 -0.3660086 -0.11139973 -0.06187718
0.06862245 -0.52579063 0.1129241 0.017998602 -0.24655072 -0.715347 0.1234231 -0.05583328
-0.38183466 0.17413269 0.17280374 0.036519464 -0.09078545 -0.5133725 -0.10062192 0.020198792
0.25312346 0.24314743 -0.2918449 -0.27604544 -0.53932995 -0.079382405 -0.71493244 -0.17666999
-0.5489168 0.067772135 0.049369518 -0.27826014 -0.21211994 -0.0038555264 -0.23051187 0.024064256
-0.062155947 -0.22211732 -0.8502952 -0.016942443 0.12906562 -0.07168655 -0.38118973 -0.13888401
0.23223925 -0.30223775 0.07245041 -0.02647369 0.10853123 -0.07400726 0.054170936 0.043780018
0.09246258 0.019057348 0.03361857 0.0489934 -0.065484524 -0.30970123 0.061666213 -0.25234312
0.38717502 0.009939365 -0.53592616 -0.27762184 0.13750271 -0.7292929 0.107137285 -0.95516795
-0.111551315 -0.053097297 0.3318177 -0.1617554 -0.57120454 0.090609096 0.020195032 -0.29958904
0.06133281 0.08059127 0.0719317 -0.28149277 0.03578304 0.580756 -0.23111397 0.025754485
-0.162254 0.17447163 -0.14432222 -0.24690714 -0.6025688 -0.2098919 -0.27093798 -0.66797674
-0.524055 0.3225218 -0.267036 -0.07592455 0.105955355 -0.02450404 -0.0375369 -0.27076533
0.33703816 -0.21422026 -0.38506758 -0.041523896 0.1856564 -0.0068191597 -0.27444035 0.2830319
-0.06378235 -0.06025463 -0.16603394 0.3516033 -0.043943092 0.18655498 -0.29821992 -0.719138
-0.22074935 -0.048413597 -0.4103301 0.39440894 -0.08251687 0.07618576 -1.0225589 0.7333419
-0.43369663 -0.095855944 0.05313868 0.28448153 0.5570178 -0.4364767 -1.186975 -0.46383095
-0.02107018 0.036998507 -0.05599593 -1.2296814 -0.038113482 -0.12420782 0.9927623 -0.090364024
0.105800346 -1.338786 -0.22541139 -0.107729785 0.2329706 -0.10651426 -0.3665626 -1.6396589
-0.04179282 -0.37437493 -0.07328769 0.16571231 -0.08845583 -0.044262063 -0.29396316 0.11216988
-0.58269227 -0.029395415 0.07839369 -0.55833554 0.04859018 0.057294097 -0.16307977 -0.23705587
-0.08401532 -0.05210487 0.18371041 0.01349049 0.08019568 -0.4787576 -1.7663813 -0.035705823
0.356577 -0.6018046 0.28670427 -0.090642355 -0.6709953 0.1297577 0.058239356 0.04161402
0.023552647 0.077287495 -0.08418748 0.07389024 0.087916695 -0.63750863 -1.3875341 -0.10961937
-1.0942855 -0.007767464 -0.45366856 -0.012762633 0.034439027 -0.29038712 0.18813209 -0.22774234
-0.04559767 0.050699882 -0.411033 -0.9294587 -0.9545855 0.35802943 0.040843595 -0.09353249
0.5370556 0.16052042 -0.23108809 -0.07561419 -0.017201982 0.8392429 -0.33137712 0.026320927
-0.13299361 0.0756 -0.09471344 0.05312479 -1.1165655 -0.053096913 -0.39565814 0.18469273
-0.04561453 -0.6357586 -0.24367483 0.06599429 0.30467963 -0.009129106 0.06096959 -0.0705934

model.2.bias f4 [64]
00000000: 9f87 453d e31e 1f3e fe65 963d 5b34 d6bd
00000010: c12e 603d 3d71 56bd ad71 293e d87e 66bd
00000020: 45fc fbbd 9615 603e 1584 173d 4c24 89bc
00000030: b8ca 74bd 80dc b9bd c6f5 f63d fd10 5cbd
00000040: af8d 863e 2775 9cbd ca0d ccbd 2bc8 6e3e
00000050: 0c93 f53d 11f1 f4bd 6600 1fbd 54ae c9bb
00000060: f138 f4bc ef23 613c ad70 c0bd ee69 8ebd
00000070: 2020 67bd 9a43 fdbc 6043 a6bd 8b67 36bd
00000080: 6d48 b1bd e00b 6abe 8984 85be dc4a 973e
00000090: 3f16 92bd 1ada 093e 2d9d 86bb 02e4 bfbc
000000a0: 4600 3abb 2625 cbbd 58d2 9dbd f2f6 62bd
000000b0: 5fd6 123e 4c50 03ba 3c10 d93b 4efd f4bc
000000c0: a8b5 b4bd 34f0 853d 9d72 ccbd dae1 6e3c
000000d0: 9c43 44bd 6db9 d93d 5e05 0abe 9c18 d1bd
000000e0: 267a 7fbd b7dc 3f3e 60e7 20be 917f 07bc
000000f0: e637 35bc fac9 88bd 564e 78be e994 dcbc
0.04822504 0.15539126 0.07343672 -0.10459205 0.054732088 -0.052354086 0.1654727 -0.05627331
-0.12303976 0.21883234 0.036991198 -0.01674094 -0.05976364 -0.0907526 0.12058596 -0.05372714
0.2627997 -0.076395325 -0.099635676 0.23318546 0.119909376 -0.11960042 -0.03881874 -0.0061548147
-0.029812308 0.013741477 -0.09396491 -0.06953798 -0.05642712 -0.030916024 -0.081183195 -0.04453234
-0.08656392 -0.22856092 -0.2607768 0.295493 -0.07133149 0.13462105 -0.0041080923 -0.023424152
-0.002838151 -0.09919195 -0.077061355 -0.055411287 0.14339589 -0.00050092186 0.0066242497 -0.029905941
-0.08823711 0.06539956 -0.09982798 0.014580214 -0.04791604 0.1063107 -0.1347861 -0.10209772
-0.06237235 0.1873654 -0.15713263 -0.00827016 -0.0110606905 -0.06679149 -0.24248633 -0.026926475

model.4.weight f4 [4, 64]
00000000: 7ac6 b63e ddc8 093f a848 6c3e 92fc 0dbc
00000010: afb8 a93e 404b c73d 2c0f 913e fe1f 723d
00000020: d06a 18be 63a1 80bd 2113 ee3e f668 0c3d
00000030: e7d1 b6bd 63ba b9bb 39ef 9d3e 3959 6ebd
00000040: a155 be3e 29c5 16be 1cca 8f3d 100f bbbd
00000050: a2aa e33e 3d7f e43c 3d40 ecbc c52b 8e3d
00000060: e0f2 a23d 7265 da3e e662 9f3c 83ee a73c
00000070: 30cd b73d 3c1a bd3c a219 f93d 7bc8 973d
00000080: dc3a debd b472 6bbd 97bf 39bf b11d 8f3e
00000090: 995d 8bbd dbda 713e 7245 c63c 3597 b03d
000000a0: efc0 f03d 77dd 153d 6e1a 3b3f a096 28bc
000000b0: 5908 98bc c110 5d3d a2fe 8ebd bd9e bbbe
000000c0: 7c3d f1bd 1b0a 753e 4d95 b03e ba6a 183e
000000d0: 67fa d43c 5003 65be 7697 ba3e a3cd 533c
000000e0: bb8e 9e3d 4369 f23d 9904 243f adab 423d
000000f0: 5474 d93c 992e aabe 2eed 3abf 3d5e 373e
00000100: 4f3d 093f 98f9 97be 3cb3 c93e b7c9 d03b
00000110: 3323 4f3d de25 0bbd 6ae9 983e 5d6d 68bd
00000120: 0ec7 603d 72be 943e d0a3 b03e 64d6 803c
00000130: c8d2 fbbd 87a5 debd 77fc 413f 0868 673d
00000140: c43c 343e cd9d 0c3f 4698 8bbd 29d9 b3be
00000150: 4db6 213e 873f b4bc 9a19 adbd 8579 493c
00000160: dce9 fe3d 56d6 d2be fd43 a6bd b00b b23c
00000170: 45ae bd3c a080 1bbd 68a8 59bd 3279 d7bd
00000180: cc6d bdbd 5fa0 47be 6936 d93e 3f46 943e
00000190: 4807 8fbd dc77 ee3d f85d 28bd 0d96 91bc
000001a0: 1521 c2bf 9bbb 973d 4091 3f3f 7afb a7bb
000001b0: 33e1 97be f4bc 99bd f0c8 bc3d 1bf9 2dbf
000001c0: 9afc c8bd daf3 dd3e f6d7 323e 9103 d9be
000001d0: 346a e9bd 0378 9f3c 20c4 963e 4414 ebbc
000001e0: a797 1f3c 69e4 a93e 188e 8c3e f09d 54bc
000001f0: f9d2 10bc 969f 383e 191e 383d 5a83 823e
00000200: 0cc2 a93e 089d ffbe 1693 1ebf ac4d 93bc
00000210: 184a 92bc 2c61 033d b4e0 e93e 0ede 853a
00000220: f81a 0abc eae5 dd3e e970 e53e eebe 94bd
00000230: 3f0e 70bd 04c9 d6bd 6c60 3b3f 4aea 6bbc
00000240: 1e48 863e 71cc be3e a061 863a 1e6d 26be
00000250: 5533 ecbb 966b b2bd 30aa cfbd 6e94 b1bd
00000260: e23a abbd 6973 95bf f60b 0c3e b01d 68bc
00000270: 8d84 ab3d 05c9 2fbd f8e6 bcbd c683 1cbd
00000280: be36 93bd 27aa 15bf 5871 a03e 0349 ab3e
00000290: 80a4 bbbc 3f75 1e3e 3caa 97bd 567f 02bd
000002a0: 6124 48bc 13cc bebc be02 1a3f 6b8c 323d
000002b0: b664 e5be 1eb5 ad3d 7854 ad3d a638 7a3e
000002c0: dcbf 11bd 7e6d c83e 30cc 623e 2c3a 0fbf
000002d0: b984 893c c092 a43d d5c6 863e ddb5 7abd
000002e0: ad9e ce3d 4b4d 333e 4663 a33e 9272 dbbb
000002f0: 517f 81bc 0ba5 f13e a6dc c8bc a4a7 e73d
00000300: 8684 ad3e 116f 323d 8243 4d3e e183 a23d
00000310: 8a07 a13e 95fe 80bd c465 dc3e 2323 243d
00000320: 75b7 51bc 5230 a03d a0e7 1e3f cdfe e1bd
00000330: 24fc 82bc 8861 2fbd c94e 143f 998a 163c
00000340: 2898 6e3e f607 923e 3d3f 05bd 2b40 993e
00000350: 1f50 5c3d 5eb0 4b3d f582 9dbd a090 96bd
00000360: 546c 243d 3376 493e 8ff2 afbc 604b 47bd
00000370: fd69 86bc 28cf 313b bc5b c33d e9d0 c03c
00000380: 28dd 883c 4e32 7abe 455c fb3e 36d4 c23e
00000390: ad8a 3e3d d56d c53e 1b24 033d df71 9b3d
000003a0: 1d48 963c 88b8 7f3d 726d 3b3f fae9 27bd
000003b0: c225 8ebe ccc3 b33d 90b0 9a3d 5abe 683e
000003c0: 1456 0a3d 9f33 b33d 6adf 323e a4bc d93d
000003d0: 5d83 543d 22de 6e3e d456 3a3c cbcd c7bc
000003e0: ba44 93bd 9227 163e d108 073f 42d4 9ebc
000003f0: 55bb 2c3d 04a1 07be 669e fd3c 4cfa 15bd
0.356983 0.5382212 0.23074591 -0.0086661745 0.33148715 0.0973115 0.28331888 0.05911254
-0.14884496 -0.06280782 0.4649897 0.034279786 -0.089267544 -0.005667971 0.30846575 -0.058190558
0.37174705 -0.14723648 0.07020971 -0.09133732 0.4446612 0.027892703 -0.028839225 0.06941942
0.07956481 0.42655522 0.019456338 0.020499473 0.08974683 0.023083799 0.12163092 0.074112855
-0.1085107 -0.057482436 -0.7255797 0.2795234 -0.06804962 0.23618643 0.024203036 0.086225905
0.11755549 0.03658816 0.73087204 -0.010289818 -0.018558668 0.053971056 -0.06982161 -0.36644545
-0.11779305 0.23929636 0.34488907 0.14884463 0.025998307 -0.22364545 0.3644368 0.012927446
0.077420674 0.11836483 0.64069515 0.047527004 0.026544727 -0.33238676 -0.7301816 0.17907043
0.53609174 -0.29682612 0.39394557 0.0063717025 0.050570678 -0.03397166 0.2986558 -0.056744922
0.054877333 0.29051548 0.3449998 0.01572723 -0.12296063 -0.108714156 0.75775856 0.056495696
0.17601305 0.54928285 -0.06816153 -0.35126618 0.15792198 -0.022002948 -0.08452149 0.012297039
0.12446949 -0.4117915 -0.081184365 0.021734089 0.023154387 -0.037964463 -0.05313912 -0.10521163
-0.09249458 -0.1949477 0.42424324 0.28959844 -0.06983811 0.11643955 -0.04110524 -0.017771745
-1.5166346 0.0740883 0.7483101 -0.005126414 -0.29664 -0.07506743 0.09218013 -0.6795823
-0.09813805 0.43350106 0.17465195 -0.42385533 -0.1139721 0.019466406 0.29446507 -0.028696187
0.009740747 0.33182076 0.2745216 -0.012977108 -0.008839362 0.18029627 0.04495058 0.25490838
0.3315586 -0.49924493 -0.61943185 -0.017981373 -0.017857596 0.032075092 0.45679247 0.0010213272
-0.008429281 0.43339473 0.44812706 -0.072629794 -0.058607336 -0.104875594 0.73194003 -0.014399121
0.26226896 0.3726535 0.0010252483 -0.16252562 -0.0072082677 -0.08711927 -0.101398826 -0.08670889
-0.083608404 -1.1675845 0.13676438 -0.014167234 0.083748914 -0.042916317 -0.09223741 -0.038211606
-0.071881756 -0.58462757 0.31336474 0.3345414 -0.022905588 0.15474413 -0.074055165 -0.03185972
-0.012215705 -0.02329067 0.60160434 0.043590944 -0.448034 0.08481811 0.08463377 0.24435672
-0.035583362 0.39146036 0.22148204 -0.5594814 0.01678692 0.08035803 0.26323572 -0.061208595
0.10088859 0.17509954 0.31911677 -0.0066970075 -0.01580778 0.4719623 -0.024519276 0.11311272
0.3389017 0.043562952 0.20045283 0.0793531 0.31451064 -0.06298558 0.4304639 0.04007257
-0.012800087 0.07821716 0.6207218 -0.110349275 -0.01598937 -0.042817622 0.57932717 0.009188318
0.2330023 0.285217 -0.03253101 0.2993177 0.053787347 0.049728744 -0.07690994 -0.07351804
0.040142372 0.19673996 -0.021477966 -0.048655868 -0.016407961 0.0027131531 0.09538981 0.023537116
0.016707018 -0.24433252 0.49093834 0.3805253 0.04651897 0.38560358 0.032016855 0.075900786
0.018344933 0.062431842 0.73213875 -0.04099462 -0.27763182 0.0877758 0.07553208 0.22728863
0.033773497 0.0875008 0.17468038 0.106316835 0.05188309 0.23326924 0.0113732405 -0.024390122
-0.07190843 0.14663532 0.5274783 -0.019388322 0.04217084 -0.13245016 0.03095932 -0.036615655

model.4.bias f4 [4]
00000000: 6e78 903c cc8d ba3d 1f90 9c3d 1963 73bb
0.01763555 0.09109077 0.076446764 -0.0037137924
