checkpoints/checkpoint_ep700.pt (torch, 163021 bytes, 24 tensors)

model.0.weight f4 [128, 7]
00000000: 40b2 7dbf 53a1 693e 46eb 9abe bba9 bcbe
00000010: 3c76 3a3e 27f6 d43c d612 84bc ef84 703e
00000020: 5bff 9ebf a726 11bf ba43 2a3e a8ed bf3e
00000030: ce11 86bf b5f4 44bd 7b6e 65bd 5630 843e
00000040: 3cda 7ebe e7e9 063e 8a17 2cbd 3466 36be
00000050: 2fd0 a63e e9e4 253e b7ad 64bf 80e4 febd
00000060: 00ab cabe 5c57 e63e 075d 32bf 276e 1b3f
00000070: f4ae 04be bf29 33bd 69a8 ab3e a17c 8bbe
00000080: a38b 37be dc22 8ebf a43f 9d3e 11da 64be
00000090: 3e30 d1be 4bce 4d3e 7e2b 00c0 17d8 133e
000000a0: 663b 2ebe a24d 373c 5aa9 56bd 6b9a 8a3e
000000b0: ef37 7ebf 37a6 883e 551f 8dbe a79f 7d3b
000000c0: f801 7a3e 237c 8abf d782 cabc c55d 4abf
000000d0: 9f56 dd3e 8f0a 84be 07e0 20bd 2592 6a3d
000000e0: 2f7f 893e 6f86 bd3e e184 1ebd edb4 b4bf
000000f0: 6773 fcbe 6517 d83e a4fe 963e 06a6 5abe
00000100: 024a 11be c74d a0be 3e50 043e 46cc 873d
00000110: 705d 3abe f64c 45be 5247 9fbe 7180 25be
00000120: a6ae a8be f376 9dbc 65b3 793d 644b 09be
00000130: ff63 303e e926 c43e 368a e5be aec5 e3be
00000140: cb20 5fbf bef1 b93d c1d8 983e 9212 1cbe
00000150: 839e 7dbf f165 fe3e ad04 9dbe ef68 993e
00000160: 9fcd 98be 1e1e 68be d822 3abe cd6d ff3e
00000170: e3ff 963d 4db4 f83e 44f2 1abf 6161 b43b
00000180: 8578 a93d 84b5 77be fb34 453f 3753 7dbd
00000190: 196a 13bf 00b0 11be 7323 c53c a8df 01be
000001a0: 8dad 973e 8e3f 17bf 1c49 923e b0ce c93e
000001b0: 11d5 a4be 97d1 03be 5a8a eebe d949 863e
000001c0: b6c2 afbe b60c 8abe 07ea c83d e245 793d
000001d0: 9a15 26be 5a7a b43c a1b5 9b3e a36a 153f
000001e0: 07ed 0e3f f44d 81bf 7ed0 f9be 5781 913e
000001f0: 5947 783a d5da fe3d 6bea bf3e e57b ca3e
00000200: c0cd 183e ef75 a5bd 7c96 663e bd05 8b3e
00000210: 3f09 02be 6f35 263e ca3c 07bc 8af1 27be
00000220: ff4c a43d ab2b e8bc 0c20 57be 99b7 59be
00000230: 568b 1c3f 93fe abbc 8756 66bf ea85 613e
00000240: 1c0e 91be bceb 5cbd 7d30 c93d 860e abbd
00000250: 2ffa a9be ddc1 0b3d 29d7 853e d657 0fbe
00000260: 6912 6b3e 229c 45be 7f78 5abc 5227 0dbe
00000270: 93df 913e 428f 993c dee2 bfbe 2772 8c3d
00000280: 5b13 abbd 1374 2e3e 68ce 10c0 4eef ab3e
00000290: 94b0 3fbe 92f2 bcbd d1a1 833e 728d 833e
000002a0: efe8 51be f53e 2e3f be6a 4e3d bcca 12bd
000002b0: 651c 093f 7e93 b0be 6409 9b3d df1c b5be
000002c0: f8d8 a1be 0ab4 a73d 6de3 b9bc 3642 93be
000002d0: 903b 323e 79bc 3d3e b5b9 cb3d 5d2f d53e
000002e0: 0ea0 56bf 02a4 e83e e0fa 4fbe d2b6 b03e
000002f0: 9987 ff39 709a 4dbd 3f01 643e b075 383e
00000300: 7bbf ccbd f70d 57c0 f193 2d3e 9316 593f
00000310: bd2e 363c 2a8f b03d 14c1 9abd 9700 bcbe
00000320: ccb1 b73e 85ca 83be 84ef b3be 4d80 7fc0
00000330: 1ada 023f 5a05 7fbe cc5a 4d3e fc42 c43e
00000340: 96fe 58be 7d12 c2bd 3629 07be 642c 87be
00000350: 2a79 423e 7e05 983d 79c6 fa3e b8bf 123e
00000360: 90a5 40be 34f1 733e f7ac c1bd da89 d53d
00000370: e38e c5be d594 083e f85f 83be 4ab1 50be
00000380: 1634 0ebf 70e1 babe 2c98 213e c5e2 61bf
00000390: 6b00 ac3e d06d e9bc fb71 423d 13d2 00be
000003a0: 0caf 363f 13df a43d a38b 20bf a5f2 d7bd
000003b0: 79e9 bfbb 0047 5a3e 547e 1a3e 4811 cebc
000003c0: b024 213f 8100 cabe 513c e6be 3db1 bcbe
000003d0: 0902 333e 1fe9 55be c6cc bbbe 55c1 7f3e
000003e0: 77cb 88be 70a6 9fbe d70f 5b3e 4fdc 63be
000003f0: 0a5c 9dbf 0bab 373e 1770 fa3e 0e83 4bbd
-0.9910011 0.22815447 -0.30257624 -0.36848244 0.18209165 0.02599628 -0.016122263 0.2348821
-1.2421678 -0.56699604 0.16627398 0.37486005 -1.0474184 -0.048084933 -0.056013566 0.25818127
-0.24887937 0.13175164 -0.042014636 -0.17812425 0.32580706 0.16200604 -0.8932757 -0.12445927
-0.39583588 0.44988525 -0.696732 0.60714954 -0.12957364 -0.043740984 0.33526924 -0.27243522
-0.17924361 -1.1104388 0.30712616 -0.2234881 -0.40857118 0.20098226 -2.0026546 0.144379
-0.17014846 0.011187943 -0.0524076 0.27070937 -0.993041 0.26689312 -0.27562967 0.0038699897
0.24414814 -1.0819134 -0.024720592 -0.7904933 0.4323015 -0.25789306 -0.03927615 0.05726828
0.26854846 0.37016627 -0.038700942 -1.4117714 -0.49306795 0.4220535 0.2949115 -0.21352395
-0.14188388 -0.3130934 0.12921235 0.06630759 -0.18199706 -0.1926764 -0.311091 -0.16162278
-0.32945746 -0.019221758 0.0609621 -0.13407665 0.17225645 0.38310936 -0.4483201 -0.44486755
-0.87159413 0.09079312 0.2985287 -0.15241459 -0.99069995 0.4968715 -0.3066763 0.2996287
-0.29844376 -0.22667739 -0.18177354 0.4988846 0.07373025 0.4857506 -0.6052592 0.0055047725
0.082749404 -0.24190336 0.77033967 -0.061846938 -0.5758377 -0.14227295 0.024064755 -0.12682974
0.29624596 -0.5908135 0.28571403 0.39415503 -0.32193807 -0.12872921 -0.4658993 0.26228216
-0.3432824 -0.26962823 0.09810262 0.06085766 -0.16219178 0.022030998 0.3041201 0.5836584
0.55830425 -1.0101914 -0.4879188 0.2841899 0.0009471081 0.12444083 0.37483534 0.3954765
0.14922237 -0.08079135 0.22518343 0.27152815 -0.1269884 0.16231321 -0.008254239 -0.16400734
0.08022498 -0.028341135 -0.21008319 -0.21261443 0.6115011 -0.020995414 -0.8997578 0.2202374
-0.28331077 -0.05393575 0.098237015 -0.083523795 -0.33198687 0.03412043 0.26140717 -0.1399835
0.22956242 -0.19297841 -0.013334393 -0.13784531 0.28490886 0.018745068 -0.37477773 0.0685771
-0.08353301 0.17036466 -2.262598 0.33581012 -0.18719703 -0.09225954 0.25709394 0.25693852
-0.20499013 0.68064815 0.050394766 -0.035837874 0.5355895 -0.34487528 0.075701505 -0.3537359
-0.31610847 0.081886366 -0.022691453 -0.28761452 0.17405534 0.18528928 0.0994753 0.41637698
-0.83837974 0.45437628 -0.20310545 0.3451448 0.00048738418 -0.05019611 0.222661 0.18013644
-0.099974595 -3.3602273 0.16950966 0.8480007 0.011119542 0.086210564 -0.07556358 -0.367192
0.35877836 -0.25740448 -0.35143673 -3.9922059 0.51114047 -0.24904385 0.20054168 0.38332355
-0.21190867 -0.094761826 -0.13199314 -0.26401055 0.18991533 0.074229226 0.48979548 0.14330947
-0.18813157 0.2382248 -0.094568186 0.10426684 -0.38585576 0.13338025 -0.25659156 -0.2038013
-0.55548227 -0.3650012 0.15780705 -0.8823665 0.3359407 -0.028494745 0.04747198 -0.12580137
0.7136085 0.080503605 -0.6271307 -0.10544328 -0.0058566895 0.21316147 0.15087253 -0.025154725
0.62946606 -0.3945351 -0.44967893 -0.36853972 0.17481245 -0.2088971 -0.36679667 0.24976094
-0.2671773 -0.3118167 0.21392761 -0.2225201 -1.2293713 0.17936341 0.48913643 -0.04968553

model.0.bias f4 [128]
00000000: e6e0 da3e 5690 25be 95b8 c1be a33a a03d
00000010: 5e54 423e eada 993e aa61 fb3d 6b12 08be
00000020: eec0 f83d bb81 b9be 9f60 15bc 1212 bf3e
00000030: 1996 da3e ff03 cfbe 2e0f 573e 9123 c03d
00000040: 6cef 89be 0f4f 9bbc 0508 01bf 3f0b 7dbe
00000050: cf1b 143e 70eb a6be fe24 96be dbcf 123e
00000060: 3118 39be 67a1 33be 1779 b3be 8a54 02be
00000070: 9d03 46be e5eb f1bd 0d2a cd3d 7816 a5be
00000080: c356 ce3e d133 e63d 5ce0 ce3e 03fc 89be
00000090: 6e41 a3be 5e97 a4be 777c b2be cd19 693e
000000a0: ff49 97bc 9832 c1be 3544 293e 6262 423e
000000b0: e635 043f 200d adbe 3e5d 133e 4a31 4bbd
000000c0: 46d0 4c3e cbfa 503c f228 75be bf04 83be
000000d0: 0c02 63bd ee1f 44be ca5c bbbd b333 cabe
000000e0: b19b 903e 6bc6 97be 6513 d8be d6c0 3bbe
000000f0: ae71 c7be ff38 ddbd 06d5 0b3e 7138 d43d
00000100: fefa 81be ee4d 1ebf 9a51 16bf 28bc e0be
00000110: 243f f4bc 9272 3a3c a05c d73c 7d43 a8be
00000120: d94a 77bc 236b 903e 4c12 013e ce66 8ebd
00000130: d797 bebe 6d25 36be aa9a 3c3e 1d90 873e
00000140: 6576 0fbe 9d71 06bf 1d3c a53e 883d bebe
00000150: eef2 b83e e72a 823e b52f 5dbe d774 34be
00000160: b2ae 2d3e a2c7 e43e 40b1 b3be d701 1abe
00000170: 44bb d03d 38de c43e dedd ac3e 5f54 aabe
00000180: 5712 893e 7b9f 483e 6cd9 60be adb2 7e3c
00000190: ef39 c6be 96ff c8be e031 96be 3a4c d8be
000001a0: feae 603e cc55 8cbe 57aa 1abe 8c48 87bd
000001b0: 4962 3ebd 2a66 a8be 4980 c1bd 6f1d 93bd
000001c0: ff51 fbbe 2a4c f9bc f8d5 6d3e 5b24 86bd
000001d0: 59de 2ebe 869c 56be f34a f83d f58d 7d3e
000001e0: b9d6 bc3d 7f10 1a3e 4fc8 2dbe 3e0f dc3e
000001f0: cf52 fdbe b683 98bd d604 f1bd 746a 94bd
0.4274971 -0.16168341 -0.37836137 0.07823684 0.18977496 0.3004983 0.12274487 -0.13288276
0.121461734 -0.3623179 -0.009117275 0.37318474 0.4269264 -0.40432736 0.21001884 0.09381784
-0.26940477 -0.018958597 -0.5040286 -0.24711321 0.14463733 -0.326015 -0.29325098 0.14337103
-0.18075635 -0.17542039 -0.35053322 -0.12727562 -0.19337316 -0.118125714 0.10017786 -0.32243705
0.4030057 0.11240352 0.40405548 -0.26950082 -0.31885856 -0.32146734 -0.34860584 0.22763748
-0.018467901 -0.37733912 0.16529925 0.18982843 0.5164474 -0.33799076 0.14391038 -0.049607553
0.20001325 0.012755106 -0.239414 -0.25589558 -0.055421874 -0.19152805 -0.091485575 -0.39492568
0.28243783 -0.29643568 -0.42202297 -0.1833528 -0.38953918 -0.10801887 0.1365548 0.10362328
-0.25386804 -0.6183766 -0.58718264 -0.43893552 -0.029815264 0.011379855 0.026289284 -0.3286399
-0.015093529 0.2820674 0.12604636 -0.06953202 -0.3722522 -0.17787714 0.18418375 0.26477137
-0.14010008 -0.5251711 0.32272425 -0.3715632 0.3612284 0.25423357 -0.2160023 -0.17622696
0.16961172 0.44683558 -0.3509617 -0.15039764 0.10191968 0.3845079 0.3376302 -0.33267495
0.26771805 0.19592087 -0.2195794 0.015545529 -0.38716075 -0.39257497 -0.29334927 -0.42245656
0.21941754 -0.27409208 -0.15104042 -0.06605634 -0.04648045 -0.32890445 -0.094482966 -0.071833484
-0.49085996 -0.030431826 0.23226154 -0.06549903 -0.17077006 -0.20958146 0.121236704 0.24761184
0.092206426 0.15045355 -0.16970943 0.4298038 -0.4947724 -0.07446997 -0.117685005 -0.07246867

model.2.weight f4 [64, 128]
00000000: 2368 8abd a9d7 c7bc aea8 83bd a395 c3bd
00000010: 3959 0b3d 4744 b53c 9c19 b1bc c18d 823a
00000020: 165a 18bd 7d53 da3a 71e9 4fbd eaca 6c3d
00000030: 5a3b f23c 8c8a ca3c c8f7 ca3b 5246 8bbd
00000040: 2813 be3c f043 86bd b8e3 a9bd 64cc 023d
00000050: 4692 953c 824a c2bb 7cbb 4e3d 0110 a7bd
00000060: 37f3 e23c bae8 0bbc c5c6 85bd 63f8 4f3d
00000070: 4319 43bd 022c 96bd 0a95 9fbd 8c84 b13d
00000080: 7456 8abd 9a18 2ebd 0fde 10bd 6ae5 973d
00000090: c14e 893c 32bf e2bd 6e9d a6bc ad18 ff3c
000000a0: f760 df3b 431e 20bd 718b 1e3c 9d90 cdba
000000b0: cd22 3d3d 1c74 113c e61a acbc ebbc 3bbd
000000c0: 0fb9 f6bc db2d 9fbb b176 783d 08bf ccba
000000d0: 8812 67bd eff6 d7bc 2703 413d 22c6 9d3d
000000e0: c89b 66bd 65f7 183c 6b49 933d 1f21 dbbc
000000f0: 759e 9bbd 9d61 4e3d 73ab 803d 1fe6 043d
00000100: 3238 9ebd d7fb 613d 93ff 333d 1f8d a8bd
00000110: aa4e 8f3c 45de 9a3c 79e9 893d e56e 0fbd
00000120: aa88 d2ba b5b6 4e3d 9db3 7abc 7a3a e9bd
00000130: a5f8 82bd bf0a 883b 8166 98bd 2d60 d53b
00000140: 96d7 83bd 41ab 0f3c 9a52 0d3d 1328 203d
00000150: ca6c a9bd e25a 82bd c27c 20bc c6a9 3a3d
00000160: 9d26 1ebd 5ed8 69bc 5edc 023d 63fb c43c
00000170: 774e c23c e3e7 32bd 6989 e5bd ed4e f4bd
00000180: e4f2 46bd abd1 98bd e31f 403b 1f38 93bd
00000190: e326 d33c 8a67 81bd 0c82 5ebb 2497 a33d
000001a0: 6979 0d3d 0478 d7bd 68c4 7fbc 7846 92bc
000001b0: ca71 14bd 4077 543d 668d 053d 5177 b2bc
000001c0: 0183 373d 3113 5fbd e99b 083b 9fbc 193c
000001d0: 2673 933d 46d4 70bd 018b 74bd 7a60 7abd
000001e0: bedb 80ba ddd2 acbd 81c7 babd 8902 2a3d
000001f0: 4523 1c3d 93d1 8c3d b70f a53c ed3e 733d
00000200: f519 f8bd 8e01 993e d678 a9bd c3f3 db3e
00000210: 88c4 8bbd 6611 8fbe 3bcd 35be fce1 8ebe
00000220: f85b 1d3c 846c b1bd 436b e7bb a142 88be
00000230: 10a2 19be 9712 22be 4324 aabd 5e1e b1bd
00000240: bcfe 8f3c 4cef edbe 070d 2dbf 54aa 43bd
00000250: 2894 933d 3dd7 0fbd dc3a b73d f8e9 dd3e
00000260: 8f03 683e 54dd efbb 6d7f 5abe 0466 88be
00000270: 7d77 40bd 4775 19bd cd8f 92be 0914 8d3e
00000280: 6bbf 5abd 68c7 19bf f3e0 0cbe 51d0 a8bd
00000290: 84ef 04bb 9ee8 36bd 90dd 81bd 4b79 813f
000002a0: db08 96bd 7011 b7bd b52d 22be cf36 d4be
000002b0: 05c2 f43d 3fb6 823d fffd 25bf 26bd 34be
000002c0: d648 59be 745f 1dbd 54f0 f3bd 5afe 55be
000002d0: 9a40 cdbe f75b 73bf a7d2 b0bd 0a4a aa3d
000002e0: eaf3 1cbe e120 6cbc acd9 debd 3d44 1e3e
000002f0: f286 aebd ec51 123e bfe0 a13c 4720 d03d
00000300: c0f3 683d f7b6 053d 5ea1 6cbe d55c 94be
00000310: b9ca 00bb 63b3 0dbf 4f26 cabe 650a ffbc
00000320: bdf4 f3be 030b e63d 44ea a2be d0c5 71bd
00000330: 53d0 afbd de81 c03c 0aeb 513e 98e9 c8be
00000340: c8fd 4b3b 2dba 83bc bc02 d3be dab5 67bd
00000350: dd11 76bb 7744 e9bd 7a14 2ebc 8457 1ebe
00000360: 8bc2 b6be 9f03 f8bd 1ff7 2b3d 0d6b 0abd
00000370: 109a 2b3e 0c0d b5be 6af4 b5be 9671 92be
00000380: 10a7 893d 5dac d7bd 77e8 18be 823d 49be
00000390: e604 583d 318a fabd 62d1 90bd 691c 70bf
000003a0: 8607 ebbe e913 c23e c3a0 733d 0b6f 5b3c
000003b0: 24cd 013d 597c 48be d725 073d 2a7f 24be
000003c0: d2af 83be 14e6 5d3d 438c 4a3d c976 d4bd
000003d0: 4092 b3bb cff6 683e 6234 a3bd 88f0 82be
000003e0: c401 3dbd 2ad7 04bf b7fa 34be adbf 02bd
000003f0: 53d0 953d 28dc 26be a56d bd3d b380 133f
-0.06758144 -0.024394827 -0.064286575 -0.09550025 0.034020636 0.022127284 -0.021618657 0.0009960459
-0.037195288 0.0016656962 -0.050759736 0.0578107 0.029569317 0.024724267 0.0061940886 -0.06800522
0.023202494 -0.06555927 -0.08295387 0.031933203 0.018258225 -0.005929292 0.050471768 -0.081573494
0.027703864 -0.008539373 -0.06532053 0.05077399 -0.047631513 -0.073326126 -0.07792099 0.086678594
-0.06754771 -0.04250393 -0.03536802 0.07416804 0.016761186 -0.11071624 -0.02033874 0.031139696
0.006816979 -0.03909136 0.0096768 -0.0015683357 0.046175767 0.00887778 -0.02100892 -0.045834463
-0.03011754 -0.0048577613 0.060660068 -0.0015620897 -0.056414157 -0.026362864 0.047122147 0.077038065
-0.05630091 0.009336327 0.07191738 -0.026749192 -0.07598583 0.05038606 0.06282701 0.032446023
-0.07725562 0.055171814 0.043944906 -0.08230042 0.017493565 0.018904814 0.067339845 -0.035017867
-0.0016062458 0.05046721 -0.015301612 -0.11388107 -0.063950814 0.0041516717 -0.07441426 0.006511709
-0.06437604 0.008768857 0.034502603 0.039100718 -0.08272703 -0.06364991 -0.00979537 0.045572065
-0.038611043 -0.014272777 0.03194844 0.024045652 0.023719056 -0.043678176 -0.112078495 -0.119291164
-0.048571482 -0.07461866 0.002931588 -0.071884386 0.025775379 -0.06318577 -0.0033952026 0.07987812
0.034539614 -0.10520938 -0.015610792 -0.017855868 -0.03624133 0.05187154 0.03260555 -0.02178541
0.04480267 -0.05446166 0.0020844883 0.00938335 0.07199697 -0.05879619 -0.059702877 -0.061127163
-0.0009831113 -0.084386565 -0.091200836 0.041506324 0.038119573 0.068759106 0.020149095 0.059386183
-0.12114326 0.29884 -0.08275001 0.42959413 -0.06824595 -0.2794296 -0.1775407 -0.27906787
0.009604447 -0.08663276 -0.007062347 -0.26613334 -0.15003228 -0.15827404 -0.083076976 -0.0864837
0.017577522 -0.46471632 -0.67598003 -0.04776986 0.07205993 -0.035117377 0.089467734 0.43342566
0.22657607 -0.0073200855 -0.21337672 -0.26640332 -0.046988953 -0.03746536 -0.28625336 0.27554348
-0.053405207 -0.60069895 -0.13757686 -0.08242858 -0.0020284364 -0.044655435 -0.06341088 1.0115141
-0.07325908 -0.08938873 -0.15837748 -0.41448066 0.11951069 0.06382417 -0.6484069 -0.1765028
-0.21219191 -0.03842111 -0.11911073 -0.20897809 -0.4008835 -0.950622 -0.08633929 0.08314903
-0.15327421 -0.014412136 -0.10881361 0.15455718 -0.085218325 0.14289063 0.019760488 0.101624064
0.056873083 0.032645192 -0.23108432 -0.28977075 -0.0019652082 -0.5535185 -0.39482352 -0.031132886
-0.47647658 0.11232569 -0.31819355 -0.05902654 -0.085846566 0.023499426 0.20499817 -0.39240718
0.0031126607 -0.016079986 -0.41213024 -0.05656991 -0.0037547268 -0.11390012 -0.010624999 -0.15463072
-0.356953 -0.12110066 0.04198372 -0.033793498 0.16757989 -0.35361516 -0.35538036 -0.28602284
0.06721318 -0.105309226 -0.14932428 -0.1965237 0.052739047 -0.12233389 -0.070711866 -0.9379335
-0.45904177 0.37905815 0.059479486 0.013393174 0.031689778 -0.19578685 0.03299507 -0.16064134
-0.25720078 0.054174498 0.04945017 -0.10374219 -0.005480081 0.227504 -0.079689756 -0.25574136
-0.046144262 -0.51890814 -0.17673765 -0.031921078 0.07315125 -0.1629492 0.09249429 0.57618254

model.2.bias f4 [64]
00000000: a0c6 08be d9a1 70be 8257 a23c a05c a1bd
00000010: 99de b1be fb80 a03e 6b0f cdbc 86b4 bcbd
00000020: 3454 33bd 2abd 833c afd5 efbd aace 9abe
00000030: a7f8 ea3d fa7f 1bbe 5fe4 e6bd 348a 5bbd
00000040: ae31 a5bd 413f 10bd cb5e 35bd ed57 503e
00000050: fc04 89bd 55b3 b83e d232 333e 14ba 99bd
00000060: 2de4 14be bbce 7f3c abde e7bd 5b8d 613e
00000070: abbb 553d b996 05bd f3ef 0dbe e980 18bd
00000080: ca39 163d d066 8d3e 60e1 bcbd 7d24 c7bd
00000090: e0ab 763e 341f 38bb 42d4 a93c 2f8e a03e
000000a0: 88cc dfbd fe3e 02bd c4ad 23bd c9c4 c1bd
000000b0: 4cf7 f53d decf 853c caee cebd bd9f dc38
000000c0: 8986 14bd 2266 c5bd c10a 12be 7ff4 d7bd
000000d0: 5efb bbbd a0a0 bb3e a626 bfbd 8f68 13bd
000000e0: 469a d4bd 20b2 a7bd f1e3 3dbd aae4 dcbd
000000f0: 1790 6abd 4b4e c1bd b488 b2bd dd5a bf3c
-0.1335702 -0.2349924 0.019817118 -0.07878995 -0.3474014 0.31348404 -0.025031766 -0.092141196
-0.043781474 0.016081411 -0.11710679 -0.30235797 0.11473208 -0.15185538 -0.11274027 -0.053598598
-0.08066116 -0.035216574 -0.044279855 0.20346041 -0.06690404 0.3607432 0.17499855 -0.07506195
-0.14540167 0.015613253 -0.113217674 0.22026579 0.052180927 -0.032614443 -0.13861065 -0.037232313
0.036676206 0.27617502 -0.09222674 -0.097237565 0.24089003 -0.002809477 0.020731095 0.31358477
-0.10927683 -0.031798355 -0.039960638 -0.09461362 0.12010059 0.01633447 -0.10104139 0.00010520171
-0.036261115 -0.09638621 -0.14261915 -0.10544681 -0.09178804 0.36645985 -0.093335435 -0.035988387
-0.10380988 -0.081882715 -0.04635996 -0.10785802 -0.05726632 -0.09438761 -0.0871748 0.023358757

model.4.weight f4 [4, 64]
00000000: 307e d53b 8035 163f bdb3 2c3d b6a9 a4bd
00000010: 5cb4 4fbf cc60 843e 19e0 f43d 0cb7 9a3d
00000020: 8e4c 3c3f 9a19 acbd 7d75 e7be 290c f13d
00000030: f193 2e3e 6c59 113f 8e06 ba3d 263d e13d
00000040: 9cb1 ebbc 80de 9e3d 32ec f93c 8676 fa3d
00000050: 86a0 aebd fc78 dd3d 0d3a a23e 09a5 973d
00000060: 4f36 c2bc 20a4 c93b 52b8 f63d bdd2 de3e
00000070: fd94 be3e b478 0c3d a46b a33d b659 3fbe
00000080: da24 1abd 90c6 aa3e bf2a 443d 9818 98bd
00000090: 5bdc 7bbe 92b2 6dbd fa99 c9be 84c3 dc3e
000000a0: 6820 293d 8f22 f8bd 9623 86bd 3671 4c3d
000000b0: 9dbc 483e 74b7 163c 6993 97bd 951c 173d
000000c0: 5bb1 823e a55b 20be 39a8 ff3e 602c 303d
000000d0: 8c0f 71bc 2184 cabd 608f cd3d fb6d c33c
000000e0: 2f03 7dbd 5d31 053d 095b c7bd 3fd1 96bc
000000f0: 0697 2f3d a555 6cbd 4282 6fbe 0854 483d
00000100: bbd7 60bc e728 d33e 3217 34bd d85e a23d
00000110: 10c2 9dbd 16fd 9d3e f34f 3e3d ac83 053d
00000120: 7e19 4d3f c4c7 95bd 6b74 acbf 2757 343f
00000130: 3116 843e a53e c33e 7036 8abb 500c 1ebc
00000140: f9c5 9bbd 03f1 df3d eabf 69bd 50a6 953e
00000150: f35d 2d3c 0236 9a3e 0872 ae3d 42d1 503d
00000160: 658b 78bc a80a 5cbd 48be e8bc 302e b63e
00000170: 9078 e43e fa1d ebbc 9523 bcbd d7c1 703e
00000180: 7406 4fbd bb44 c13e 1c5a 753d aa66 b7bd
00000190: 4d65 65bb d6b9 c13c 9931 a8be 5e45 643e
000001a0: 8a45 c0bd 6d93 8ebd 7df4 9b3d 0e11 863d
000001b0: 5dc9 e73d 6055 d03c b9d1 0ebd 5d79 a6bd
000001c0: de31 163d 69b9 2dbf 2072 f83e f0bc 58bd
000001d0: dc40 7cbd 1039 42be a749 eebd ce27 c53d
000001e0: a55e 7ebd 0905 b4bd d0c1 8a3d 947d 953b
000001f0: fd4d 11bb 52c1 db3c a3df 90bf 1d1b 593c
00000200: fe95 e03d 6612 0abf 0956 91bc 5657 873d
00000210: 6ac6 933e 1321 1e3e ff31 34bd ab69 56be
00000220: e268 873e 4b17 a8bd f774 8e3e 67d5 b53d
00000230: 0fb5 28bf 18fb ae3e 545e 7c3d 845a e03d
00000240: 1cbb dd3b 1036 e83d f079 0bbe e266 733e
00000250: 00c7 cabd fc09 c23e 20bf 473e 9b90 82bd
00000260: 2d8f 51bd 315c 7ebd 7a1a 663d 3520 873e
00000270: d31d 863e a0cd 7bbd 6206 ef3d 9b99 82be
00000280: 2bb1 43bd d8b9 cc3e ab08 9bbd ccf3 803d
00000290: 2242 febd 1731 05bd 37fb 253f a0e5 533e
000002a0: 8382 9b3b bd06 eabc 4ae5 09bd 7839 bd3d
000002b0: f937 a13e cba8 4e3d cea7 62bd 825b 30bd
000002c0: a571 7ebe 655a 74be 1ca9 553e 2b76 d13d
000002d0: 1d2e 0b3c 2131 f0be 101d 48bd 4427 d33d
000002e0: e1cc 6bbc d85c 8ebd 80d9 2a3c 8a6f 8e3d
000002f0: 9067 a73c 0d19 f9bb 29bc abbe f539 c0bc
00000300: 04ee 8fbc 535e 273e 31ad 463d 1485 6f3d
00000310: 96ae 243f 9429 6e3e b51c 8d3d f80d 3ebc
00000320: 7ac5 563f 6dba 1ebc 9ed9 39be 9d63 89bb
00000330: 140c 4f3e 8421 743e 0265 c73d 367b c1bd
00000340: 61ef 123e 70f0 123c d9d7 f03b 1a88 b93d
00000350: 3be2 6dbd 4b7c 2a3e d5a0 b73e 92ea db3d
00000360: 6ec8 1abd 679e df3d c038 253d 1576 a03e
00000370: 2d9c 9e3e 285c bbbd 374b f33b 19f0 94bf
00000380: d9e5 4fbd 379b 8d3e 141f babd 5ef2 67bd
00000390: 21ec 9fbe 0175 c43b f579 043e 8a99 b73e
000003a0: 92eb bd3d b14f e23c 7890 833d 2878 fdbd
000003b0: 0069 9c3e e983 0dba afcc 643d 01a2 b4bd
000003c0: 2b05 aa3d c397 84bd be49 443e 9bbb 163d
000003d0: 8ea1 cbbd ca76 77be 0f38 5b3d 5b3f b63c
000003e0: d841 cdbc ea3f 843d 0501 13bd 673a 4fbd
000003f0: 9a8e 0d3b 4e93 b3bc a356 5b3e cd4e 0abd
0.006515287 0.58675385 0.0421636 -0.08040182 -0.8113458 0.258551 0.11956806 0.07554445
0.73554313 -0.084033206 -0.45206824 0.117698975 0.17048623 0.5677707 0.090832815 0.10997991
-0.028771214 0.07757282 0.030508135 0.12229638 -0.08526711 0.108140916 0.31684914 0.07404525
-0.023707537 0.0061535984 0.12046875 0.43520156 0.37223044 0.0342948 0.07979515 -0.18686566
-0.0376328 0.33354616 0.04789233 -0.07426566 -0.24595778 -0.058031626 -0.39375287 0.43117917
0.04129067 -0.121159665 -0.06549756 0.049912654 0.196032 0.009199012 -0.07401163 0.036892492
0.25525936 -0.1565996 0.4993303 0.04301107 -0.014713179 -0.09888483 0.10037112 0.023856154
-0.061770614 0.03251778 -0.097341605 -0.018410323 0.042868637 -0.057698864 -0.23389533 0.048908263
-0.013723309 0.41242144 -0.043967433 0.07928246 -0.0770303 0.30857152 0.046462964 0.032596275
0.80117023 -0.07313493 -1.3473028 0.70445484 0.2579818 0.3813373 -0.0042179152 -0.00964649
-0.0760612 0.10934641 -0.05706779 0.2922845 0.010581481 0.3011933 0.085178435 0.050980814
-0.015169953 -0.0537211 -0.028411046 0.35582113 0.44623232 -0.028700817 -0.09186474 0.23511444
-0.050543264 0.3774775 0.059900388 -0.089551285 -0.0035003007 0.023648184 -0.3285034 0.22292086
-0.093882635 -0.06961713 0.07614992 0.06546222 0.11317704 0.025431335 -0.034867976 -0.08128617
0.03666865 -0.6786104 0.4852457 -0.05291456 -0.061585292 -0.1896708 -0.11635142 0.09626733
-0.06210198 -0.08790023 0.06775248 0.004562089 -0.0022171729 0.02682558 -1.1318249 0.013251093
0.10966109 -0.53934324 -0.01774122 0.06608455 0.28862315 0.15442304 -0.043992992 -0.20938747
0.26447207 -0.08207568 0.27823612 0.08878594 -0.65901273 0.34175944 0.061613396 0.109547645
0.00676669 0.113384366 -0.13620734 0.23769715 -0.099012375 0.37898242 0.19506502 -0.063752376
-0.051161934 -0.06209964 0.056177594 0.2639176 0.2619463 -0.061475396 0.11671139 -0.25507817
-0.047776382 0.39985538 -0.07570013 0.062965006 -0.124149576 -0.03251752 0.6483645 0.20693064
0.004745783 -0.028567666 -0.033665933 0.09239477 0.31488016 0.050453942 -0.055335812 -0.04305602
-0.2484804 -0.23862608 0.20865291 0.10227617 0.008494881 -0.46912482 -0.04885584 0.10310224
-0.014392109 -0.06951302 0.010427833 0.06954868 0.020435125 -0.0076018632 -0.33541992 -0.023465136
-0.01756955 0.16344576 0.048505012 0.058476523 0.64328897 0.23258048 0.06890241 -0.01160001
0.83895075 -0.009688002 -0.1814942 -0.004192783 0.20219451 0.2384091 0.097360626 -0.09447329
0.14349128 0.008968458 0.00734995 0.090591624 -0.05807708 0.16648977 0.35864893 0.107381
-0.0377888 0.10918885 0.040337324 0.3134009 0.30978528 -0.09148437 0.007424738 -1.1635772
-0.05075631 0.27657482 -0.09087959 -0.056627624 -0.3123484 0.0059953933 0.12937148 0.35859329
0.09273447 0.02762589 0.064240396 -0.123764336 0.3054886 -0.0005398379 0.055859264 -0.08819962
0.08301767 -0.06474259 0.19168755 0.03680001 -0.099429235 -0.24166408 0.05352026 0.022247007
-0.02505581 0.06457503 -0.035889644 -0.050592806 0.002159989 -0.021920826 0.21419768 -0.033766557

model.4.bias f4 [4]
00000000: b3f3 983d 4806 ea3d 9249 0d3e 27dd 223e
0.07468357 0.11426979 0.13797596 0.15904675

model.0.weight f4 [128, 7]
00000000: 40b2 7dbf 53a1 693e 46eb 9abe bba9 bcbe
00000010: 3c76 3a3e 27f6 d43c d612 84bc ef84 703e
00000020: 5bff 9ebf a726 11bf ba43 2a3e a8ed bf3e
00000030: ce11 86bf b5f4 44bd 7b6e 65bd 5630 843e
00000040: 3cda 7ebe e7e9 063e 8a17 2cbd 3466 36be
00000050: 2fd0 a63e e9e4 253e b7ad 64bf 80e4 febd
00000060: 00ab cabe 5c57 e63e 075d 32bf 276e 1b3f
00000070: f4ae 04be bf29 33bd 69a8 ab3e a17c 8bbe
00000080: a38b 37be dc22 8ebf a43f 9d3e 11da 64be
00000090: 3e30 d1be 4bce 4d3e 7e2b 00c0 17d8 133e
000000a0: 663b 2ebe a24d 373c 5aa9 56bd 6b9a 8a3e
000000b0: ef37 7ebf 37a6 883e 551f 8dbe a79f 7d3b
000000c0: f801 7a3e 237c 8abf d782 cabc c55d 4abf
000000d0: 9f56 dd3e 8f0a 84be 07e0 20bd 2592 6a3d
000000e0: 2f7f 893e 6f86 bd3e e184 1ebd edb4 b4bf
000000f0: 6773 fcbe 6517 d83e a4fe 963e 06a6 5abe
00000100: 024a 11be c74d a0be 3e50 043e 46cc 873d
00000110: 705d 3abe f64c 45be 5247 9fbe 7180 25be
00000120: a6ae a8be f376 9dbc 65b3 793d 644b 09be
00000130: ff63 303e e926 c43e 368a e5be aec5 e3be
00000140: cb20 5fbf bef1 b93d c1d8 983e 9212 1cbe
00000150: 839e 7dbf f165 fe3e ad04 9dbe ef68 993e
00000160: 9fcd 98be 1e1e 68be d822 3abe cd6d ff3e
00000170: e3ff 963d 4db4 f83e 44f2 1abf 6161 b43b
00000180: 8578 a93d 84b5 77be fb34 453f 3753 7dbd
00000190: 196a 13bf 00b0 11be 7323 c53c a8df 01be
000001a0: 8dad 973e 8e3f 17bf 1c49 923e b0ce c93e
000001b0: 11d5 a4be 97d1 03be 5a8a eebe d949 863e
000001c0: b6c2 afbe b60c 8abe 07ea c83d e245 793d
000001d0: 9a15 26be 5a7a b43c a1b5 9b3e a36a 153f
000001e0: 07ed 0e3f f44d 81bf 7ed0 f9be 5781 913e
000001f0: 5947 783a d5da fe3d 6bea bf3e e57b ca3e
00000200: c0cd 183e ef75 a5bd 7c96 663e bd05 8b3e
00000210: 3f09 02be 6f35 263e ca3c 07bc 8af1 27be
00000220: ff4c a43d ab2b e8bc 0c20 57be 99b7 59be
00000230: 568b 1c3f 93fe abbc 8756 66bf ea85 613e
00000240: 1c0e 91be bceb 5cbd 7d30 c93d 860e abbd
00000250: 2ffa a9be ddc1 0b3d 29d7 853e d657 0fbe
00000260: 6912 6b3e 229c 45be 7f78 5abc 5227 0dbe
00000270: 93df 913e 428f 993c dee2 bfbe 2772 8c3d
00000280: 5b13 abbd 1374 2e3e 68ce 10c0 4eef ab3e
00000290: 94b0 3fbe 92f2 bcbd d1a1 833e 728d 833e
000002a0: efe8 51be f53e 2e3f be6a 4e3d bcca 12bd
000002b0: 651c 093f 7e93 b0be 6409 9b3d df1c b5be
000002c0: f8d8 a1be 0ab4 a73d 6de3 b9bc 3642 93be
000002d0: 903b 323e 79bc 3d3e b5b9 cb3d 5d2f d53e
000002e0: 0ea0 56bf 02a4 e83e e0fa 4fbe d2b6 b03e
000002f0: 9987 ff39 709a 4dbd 3f01 643e b075 383e
00000300: 7bbf ccbd f70d 57c0 f193 2d3e 9316 593f
00000310: bd2e 363c 2a8f b03d 14c1 9abd 9700 bcbe
00000320: ccb1 b73e 85ca 83be 84ef b3be 4d80 7fc0
00000330: 1ada 023f 5a05 7fbe cc5a 4d3e fc42 c43e
00000340: 96fe 58be 7d12 c2bd 3629 07be 642c 87be
00000350: 2a79 423e 7e05 983d 79c6 fa3e b8bf 123e
00000360: 90a5 40be 34f1 733e f7ac c1bd da89 d53d
00000370: e38e c5be d594 083e f85f 83be 4ab1 50be
00000380: 1634 0ebf 70e1 babe 2c98 213e c5e2 61bf
00000390: 6b00 ac3e d06d e9bc fb71 423d 13d2 00be
000003a0: 0caf 363f 13df a43d a38b 20bf a5f2 d7bd
000003b0: 79e9 bfbb 0047 5a3e 547e 1a3e 4811 cebc
000003c0: b024 213f 8100 cabe 513c e6be 3db1 bcbe
000003d0: 0902 333e 1fe9 55be c6cc bbbe 55c1 7f3e
000003e0: 77cb 88be 70a6 9fbe d70f 5b3e 4fdc 63be
000003f0: 0a5c 9dbf 0bab 373e 1770 fa3e 0e83 4bbd
-0.9910011 0.22815447 -0.30257624 -0.36848244 0.18209165 0.02599628 -0.016122263 0.2348821
-1.2421678 -0.56699604 0.16627398 0.37486005 -1.0474184 -0.048084933 -0.056013566 0.25818127
-0.24887937 0.13175164 -0.042014636 -0.17812425 0.32580706 0.16200604 -0.8932757 -0.12445927
-0.39583588 0.44988525 -0.696732 0.60714954 -0.12957364 -0.043740984 0.33526924 -0.27243522
-0.17924361 -1.1104388 0.30712616 -0.2234881 -0.40857118 0.20098226 -2.0026546 0.144379
-0.17014846 0.011187943 -0.0524076 0.27070937 -0.993041 0.26689312 -0.27562967 0.0038699897
0.24414814 -1.0819134 -0.024720592 -0.7904933 0.4323015 -0.25789306 -0.03927615 0.05726828
0.26854846 0.37016627 -0.038700942 -1.4117714 -0.49306795 0.4220535 0.2949115 -0.21352395
-0.14188388 -0.3130934 0.12921235 0.06630759 -0.18199706 -0.1926764 -0.311091 -0.16162278
-0.32945746 -0.019221758 0.0609621 -0.13407665 0.17225645 0.38310936 -0.4483201 -0.44486755
-0.87159413 0.09079312 0.2985287 -0.15241459 -0.99069995 0.4968715 -0.3066763 0.2996287
-0.29844376 -0.22667739 -0.18177354 0.4988846 0.07373025 0.4857506 -0.6052592 0.0055047725
0.082749404 -0.24190336 0.77033967 -0.061846938 -0.5758377 -0.14227295 0.024064755 -0.12682974
0.29624596 -0.5908135 0.28571403 0.39415503 -0.32193807 -0.12872921 -0.4658993 0.26228216
-0.3432824 -0.26962823 0.09810262 0.06085766 -0.16219178 0.022030998 0.3041201 0.5836584
0.55830425 -1.0101914 -0.4879188 0.2841899 0.0009471081 0.12444083 0.37483534 0.3954765
0.14922237 -0.08079135 0.22518343 0.27152815 -0.1269884 0.16231321 -0.008254239 -0.16400734
0.08022498 -0.028341135 -0.21008319 -0.21261443 0.6115011 -0.020995414 -0.8997578 0.2202374
-0.28331077 -0.05393575 0.098237015 -0.083523795 -0.33198687 0.03412043 0.26140717 -0.1399835
0.22956242 -0.19297841 -0.013334393 -0.13784531 0.28490886 0.018745068 -0.37477773 0.0685771
-0.08353301 0.17036466 -2.262598 0.33581012 -0.18719703 -0.09225954 0.25709394 0.25693852
-0.20499013 0.68064815 0.050394766 -0.035837874 0.5355895 -0.34487528 0.075701505 -0.3537359
-0.31610847 0.081886366 -0.022691453 -0.28761452 0.17405534 0.18528928 0.0994753 0.41637698
-0.83837974 0.45437628 -0.20310545 0.3451448 0.00048738418 -0.05019611 0.222661 0.18013644
-0.099974595 -3.3602273 0.16950966 0.8480007 0.011119542 0.086210564 -0.07556358 -0.367192
0.35877836 -0.25740448 -0.35143673 -3.9922059 0.51114047 -0.24904385 0.20054168 0.38332355
-0.21190867 -0.094761826 -0.13199314 -0.26401055 0.18991533 0.074229226 0.48979548 0.14330947
-0.18813157 0.2382248 -0.094568186 0.10426684 -0.38585576 0.13338025 -0.25659156 -0.2038013
-0.55548227 -0.3650012 0.15780705 -0.8823665 0.3359407 -0.028494745 0.04747198 -0.12580137
0.7136085 0.080503605 -0.6271307 -0.10544328 -0.0058566895 0.21316147 0.15087253 -0.025154725
0.62946606 -0.3945351 -0.44967893 -0.36853972 0.17481245 -0.2088971 -0.36679667 0.24976094
-0.2671773 -0.3118167 0.21392761 -0.2225201 -1.2293713 0.17936341 0.48913643 -0.04968553

model.0.bias f4 [128]
00000000: e6e0 da3e 5690 25be 95b8 c1be a33a a03d
00000010: 5e54 423e eada 993e aa61 fb3d 6b12 08be
00000020: eec0 f83d bb81 b9be 9f60 15bc 1212 bf3e
00000030: 1996 da3e ff03 cfbe 2e0f 573e 9123 c03d
00000040: 6cef 89be 0f4f 9bbc 0508 01bf 3f0b 7dbe
00000050: cf1b 143e 70eb a6be fe24 96be dbcf 123e
00000060: 3118 39be 67a1 33be 1779 b3be 8a54 02be
00000070: 9d03 46be e5eb f1bd 0d2a cd3d 7816 a5be
00000080: c356 ce3e d133 e63d 5ce0 ce3e 03fc 89be
00000090: 6e41 a3be 5e97 a4be 777c b2be cd19 693e
000000a0: ff49 97bc 9832 c1be 3544 293e 6262 423e
000000b0: e635 043f 200d adbe 3e5d 133e 4a31 4bbd
000000c0: 46d0 4c3e cbfa 503c f228 75be bf04 83be
000000d0: 0c02 63bd ee1f 44be ca5c bbbd b333 cabe
000000e0: b19b 903e 6bc6 97be 6513 d8be d6c0 3bbe
000000f0: ae71 c7be ff38 ddbd 06d5 0b3e 7138 d43d
00000100: fefa 81be ee4d 1ebf 9a51 16bf 28bc e0be
00000110: 243f f4bc 9272 3a3c a05c d73c 7d43 a8be
00000120: d94a 77bc 236b 903e 4c12 013e ce66 8ebd
00000130: d797 bebe 6d25 36be aa9a 3c3e 1d90 873e
00000140: 6576 0fbe 9d71 06bf 1d3c a53e 883d bebe
00000150: eef2 b83e e72a 823e b52f 5dbe d774 34be
00000160: b2ae 2d3e a2c7 e43e 40b1 b3be d701 1abe
00000170: 44bb d03d 38de c43e dedd ac3e 5f54 aabe
00000180: 5712 893e 7b9f 483e 6cd9 60be adb2 7e3c
00000190: ef39 c6be 96ff c8be e031 96be 3a4c d8be
000001a0: feae 603e cc55 8cbe 57aa 1abe 8c48 87bd
000001b0: 4962 3ebd 2a66 a8be 4980 c1bd 6f1d 93bd
000001c0: ff51 fbbe 2a4c f9bc f8d5 6d3e 5b24 86bd
000001d0: 59de 2ebe 869c 56be f34a f83d f58d 7d3e
000001e0: b9d6 bc3d 7f10 1a3e 4fc8 2dbe 3e0f dc3e
000001f0: cf52 fdbe b683 98bd d604 f1bd 746a 94bd
0.4274971 -0.16168341 -0.37836137 0.07823684 0.18977496 0.3004983 0.12274487 -0.13288276
0.121461734 -0.3623179 -0.009117275 0.37318474 0.4269264 -0.40432736 0.21001884 0.09381784
-0.26940477 -0.018958597 -0.5040286 -0.24711321 0.14463733 -0.326015 -0.29325098 0.14337103
-0.18075635 -0.17542039 -0.35053322 -0.12727562 -0.19337316 -0.118125714 0.10017786 -0.32243705
0.4030057 0.11240352 0.40405548 -0.26950082 -0.31885856 -0.32146734 -0.34860584 0.22763748
-0.018467901 -0.37733912 0.16529925 0.18982843 0.5164474 -0.33799076 0.14391038 -0.049607553
0.20001325 0.012755106 -0.239414 -0.25589558 -0.055421874 -0.19152805 -0.091485575 -0.39492568
0.28243783 -0.29643568 -0.42202297 -0.1833528 -0.38953918 -0.10801887 0.1365548 0.10362328
-0.25386804 -0.6183766 -0.58718264 -0.43893552 -0.029815264 0.011379855 0.026289284 -0.3286399
-0.015093529 0.2820674 0.12604636 -0.06953202 -0.3722522 -0.17787714 0.18418375 0.26477137
-0.14010008 -0.5251711 0.32272425 -0.3715632 0.3612284 0.25423357 -0.2160023 -0.17622696
0.16961172 0.44683558 -0.3509617 -0.15039764 0.10191968 0.3845079 0.3376302 -0.33267495
0.26771805 0.19592087 -0.2195794 0.015545529 -0.38716075 -0.39257497 -0.29334927 -0.42245656
0.21941754 -0.27409208 -0.15104042 -0.06605634 -0.04648045 -0.32890445 -0.094482966 -0.071833484
-0.49085996 -0.030431826 0.23226154 -0.06549903 -0.17077006 -0.20958146 0.121236704 0.24761184
0.092206426 0.15045355 -0.16970943 0.4298038 -0.4947724 -0.07446997 -0.117685005 -0.07246867

model.2.weight f4 [64, 128]
00000000: 2368 8abd a9d7 c7bc aea8 83bd a395 c3bd
00000010: 3959 0b3d 4744 b53c 9c19 b1bc c18d 823a
00000020: 165a 18bd 7d53 da3a 71e9 4fbd eaca 6c3d
00000030: 5a3b f23c 8c8a ca3c c8f7 ca3b 5246 8bbd
00000040: 2813 be3c f043 86bd b8e3 a9bd 64cc 023d
00000050: 4692 953c 824a c2bb 7cbb 4e3d 0110 a7bd
00000060: 37f3 e23c bae8 0bbc c5c6 85bd 63f8 4f3d
00000070: 4319 43bd 022c 96bd 0a95 9fbd 8c84 b13d
00000080: 7456 8abd 9a18 2ebd 0fde 10bd 6ae5 973d
00000090: c14e 893c 32bf e2bd 6e9d a6bc ad18 ff3c
000000a0: f760 df3b 431e 20bd 718b 1e3c 9d90 cdba
000000b0: cd22 3d3d 1c74 113c e61a acbc ebbc 3bbd
000000c0: 0fb9 f6bc db2d 9fbb b176 783d 08bf ccba
000000d0: 8812 67bd eff6 d7bc 2703 413d 22c6 9d3d
000000e0: c89b 66bd 65f7 183c 6b49 933d 1f21 dbbc
000000f0: 759e 9bbd 9d61 4e3d 73ab 803d 1fe6 043d
00000100: 3238 9ebd d7fb 613d 93ff 333d 1f8d a8bd
00000110: aa4e 8f3c 45de 9a3c 79e9 893d e56e 0fbd
00000120: aa88 d2ba b5b6 4e3d 9db3 7abc 7a3a e9bd
00000130: a5f8 82bd bf0a 883b 8166 98bd 2d60 d53b
00000140: 96d7 83bd 41ab 0f3c 9a52 0d3d 1328 203d
00000150: ca6c a9bd e25a 82bd c27c 20bc c6a9 3a3d
00000160: 9d26 1ebd 5ed8 69bc 5edc 023d 63fb c43c
00000170: 774e c23c e3e7 32bd 6989 e5bd ed4e f4bd
00000180: e4f2 46bd abd1 98bd e31f 403b 1f38 93bd
00000190: e326 d33c 8a67 81bd 0c82 5ebb 2497 a33d
000001a0: 6979 0d3d 0478 d7bd 68c4 7fbc 7846 92bc
000001b0: ca71 14bd 4077 543d 668d 053d 5177 b2bc
000001c0: 0183 373d 3113 5fbd e99b 083b 9fbc 193c
000001d0: 2673 933d 46d4 70bd 018b 74bd 7a60 7abd
000001e0: bedb 80ba ddd2 acbd 81c7 babd 8902 2a3d
000001f0: 4523 1c3d 93d1 8c3d b70f a53c ed3e 733d
00000200: f519 f8bd 8e01 993e d678 a9bd c3f3 db3e
00000210: 88c4 8bbd 6611 8fbe 3bcd 35be fce1 8ebe
00000220: f85b 1d3c 846c b1bd 436b e7bb a142 88be
00000230: 10a2 19be 9712 22be 4324 aabd 5e1e b1bd
00000240: bcfe 8f3c 4cef edbe 070d 2dbf 54aa 43bd
00000250: 2894 933d 3dd7 0fbd dc3a b73d f8e9 dd3e
00000260: 8f03 683e 54dd efbb 6d7f 5abe 0466 88be
00000270: 7d77 40bd 4775 19bd cd8f 92be 0914 8d3e
00000280: 6bbf 5abd 68c7 19bf f3e0 0cbe 51d0 a8bd
00000290: 84ef 04bb 9ee8 36bd 90dd 81bd 4b79 813f
000002a0: db08 96bd 7011 b7bd b52d 22be cf36 d4be
000002b0: 05c2 f43d 3fb6 823d fffd 25bf 26bd 34be
000002c0: d648 59be 745f 1dbd 54f0 f3bd 5afe 55be
000002d0: 9a40 cdbe f75b 73bf a7d2 b0bd 0a4a aa3d
000002e0: eaf3 1cbe e120 6cbc acd9 debd 3d44 1e3e
000002f0: f286 aebd ec51 123e bfe0 a13c 4720 d03d
00000300: c0f3 683d f7b6 053d 5ea1 6cbe d55c 94be
00000310: b9ca 00bb 63b3 0dbf 4f26 cabe 650a ffbc
00000320: bdf4 f3be 030b e63d 44ea a2be d0c5 71bd
00000330: 53d0 afbd de81 c03c 0aeb 513e 98e9 c8be
00000340: c8fd 4b3b 2dba 83bc bc02 d3be dab5 67bd
00000350: dd11 76bb 7744 e9bd 7a14 2ebc 8457 1ebe
00000360: 8bc2 b6be 9f03 f8bd 1ff7 2b3d 0d6b 0abd
00000370: 109a 2b3e 0c0d b5be 6af4 b5be 9671 92be
00000380: 10a7 893d 5dac d7bd 77e8 18be 823d 49be
00000390: e604 583d 318a fabd 62d1 90bd 691c 70bf
000003a0: 8607 ebbe e913 c23e c3a0 733d 0b6f 5b3c
000003b0: 24cd 013d 597c 48be d725 073d 2a7f 24be
000003c0: d2af 83be 14e6 5d3d 438c 4a3d c976 d4bd
000003d0: 4092 b3bb cff6 683e 6234 a3bd 88f0 82be
000003e0: c401 3dbd 2ad7 04bf b7fa 34be adbf 02bd
000003f0: 53d0 953d 28dc 26be a56d bd3d b380 133f
-0.06758144 -0.024394827 -0.064286575 -0.09550025 0.034020636 0.022127284 -0.021618657 0.0009960459
-0.037195288 0.0016656962 -0.050759736 0.0578107 0.029569317 0.024724267 0.0061940886 -0.06800522
0.023202494 -0.06555927 -0.08295387 0.031933203 0.018258225 -0.005929292 0.050471768 -0.081573494
0.027703864 -0.008539373 -0.06532053 0.05077399 -0.047631513 -0.073326126 -0.07792099 0.086678594
-0.06754771 -0.04250393 -0.03536802 0.07416804 0.016761186 -0.11071624 -0.02033874 0.031139696
0.006816979 -0.03909136 0.0096768 -0.0015683357 0.046175767 0.00887778 -0.02100892 -0.045834463
-0.03011754 -0.0048577613 0.060660068 -0.0015620897 -0.056414157 -0.026362864 0.047122147 0.077038065
-0.05630091 0.009336327 0.07191738 -0.026749192 -0.07598583 0.05038606 0.06282701 0.032446023
-0.07725562 0.055171814 0.043944906 -0.08230042 0.017493565 0.018904814 0.067339845 -0.035017867
-0.0016062458 0.05046721 -0.015301612 -0.11388107 -0.063950814 0.0041516717 -0.07441426 0.006511709
-0.06437604 0.008768857 0.034502603 0.039100718 -0.08272703 -0.06364991 -0.00979537 0.045572065
-0.038611043 -0.014272777 0.03194844 0.024045652 0.023719056 -0.043678176 -0.112078495 -0.119291164
-0.048571482 -0.07461866 0.002931588 -0.071884386 0.025775379 -0.06318577 -0.0033952026 0.07987812
0.034539614 -0.10520938 -0.015610792 -0.017855868 -0.03624133 0.05187154 0.03260555 -0.02178541
0.04480267 -0.05446166 0.0020844883 0.00938335 0.07199697 -0.05879619 -0.059702877 -0.061127163
-0.0009831113 -0.084386565 -0.091200836 0.041506324 0.038119573 0.068759106 0.020149095 0.059386183
-0.12114326 0.29884 -0.08275001 0.42959413 -0.06824595 -0.2794296 -0.1775407 -0.27906787
0.009604447 -0.08663276 -0.007062347 -0.26613334 -0.15003228 -0.15827404 -0.083076976 -0.0864837
0.017577522 -0.46471632 -0.67598003 -0.04776986 0.07205993 -0.035117377 0.089467734 0.43342566
0.22657607 -0.0073200855 -0.21337672 -0.26640332 -0.046988953 -0.03746536 -0.28625336 0.27554348
-0.053405207 -0.60069895 -0.13757686 -0.08242858 -0.0020284364 -0.044655435 -0.06341088 1.0115141
-0.07325908 -0.08938873 -0.15837748 -0.41448066 0.11951069 0.06382417 -0.6484069 -0.1765028
-0.21219191 -0.03842111 -0.11911073 -0.20897809 -0.4008835 -0.950622 -0.08633929 0.08314903
-0.15327421 -0.014412136 -0.10881361 0.15455718 -0.085218325 0.14289063 0.019760488 0.101624064
0.056873083 0.032645192 -0.23108432 -0.28977075 -0.0019652082 -0.5535185 -0.39482352 -0.031132886
-0.47647658 0.11232569 -0.31819355 -0.05902654 -0.085846566 0.023499426 0.20499817 -0.39240718
0.0031126607 -0.016079986 -0.41213024 -0.05656991 -0.0037547268 -0.11390012 -0.010624999 -0.15463072
-0.356953 -0.12110066 0.04198372 -0.033793498 0.16757989 -0.35361516 -0.35538036 -0.28602284
0.06721318 -0.105309226 -0.14932428 -0.1965237 0.052739047 -0.12233389 -0.070711866 -0.9379335
-0.45904177 0.37905815 0.059479486 0.013393174 0.031689778 -0.19578685 0.03299507 -0.16064134
-0.25720078 0.054174498 0.04945017 -0.10374219 -0.005480081 0.227504 -0.079689756 -0.25574136
-0.046144262 -0.51890814 -0.17673765 -0.031921078 0.07315125 -0.1629492 0.09249429 0.57618254

model.2.bias f4 [64]
00000000: a0c6 08be d9a1 70be 8257 a23c a05c a1bd
00000010: 99de b1be fb80 a03e 6b0f cdbc 86b4 bcbd
00000020: 3454 33bd 2abd 833c afd5 efbd aace 9abe
00000030: a7f8 ea3d fa7f 1bbe 5fe4 e6bd 348a 5bbd
00000040: ae31 a5bd 413f 10bd cb5e 35bd ed57 503e
00000050: fc04 89bd 55b3 b83e d232 333e 14ba 99bd
00000060: 2de4 14be bbce 7f3c abde e7bd 5b8d 613e
00000070: abbb 553d b996 05bd f3ef 0dbe e980 18bd
00000080: ca39 163d d066 8d3e 60e1 bcbd 7d24 c7bd
00000090: e0ab 763e 341f 38bb 42d4 a93c 2f8e a03e
000000a0: 88cc dfbd fe3e 02bd c4ad 23bd c9c4 c1bd
000000b0: 4cf7 f53d decf 853c caee cebd bd9f dc38
000000c0: 8986 14bd 2266 c5bd c10a 12be 7ff4 d7bd
000000d0: 5efb bbbd a0a0 bb3e a626 bfbd 8f68 13bd
000000e0: 469a d4bd 20b2 a7bd f1e3 3dbd aae4 dcbd
000000f0: 1790 6abd 4b4e c1bd b488 b2bd dd5a bf3c
-0.1335702 -0.2349924 0.019817118 -0.07878995 -0.3474014 0.31348404 -0.025031766 -0.092141196
-0.043781474 0.016081411 -0.11710679 -0.30235797 0.11473208 -0.15185538 -0.11274027 -0.053598598
-0.08066116 -0.035216574 -0.044279855 0.20346041 -0.06690404 0.3607432 0.17499855 -0.07506195
-0.14540167 0.015613253 -0.113217674 0.22026579 0.052180927 -0.032614443 -0.13861065 -0.037232313
0.036676206 0.27617502 -0.09222674 -0.097237565 0.24089003 -0.002809477 0.020731095 0.31358477
-0.10927683 -0.031798355 -0.039960638 -0.09461362 0.12010059 0.01633447 -0.10104139 0.00010520171
-0.036261115 -0.09638621 -0.14261915 -0.10544681 -0.09178804 0.36645985 -0.093335435 -0.035988387
-0.10380988 -0.081882715 -0.04635996 -0.10785802 -0.05726632 -0.09438761 -0.0871748 0.023358757

model.4.weight f4 [4, 64]
00000000: 307e d53b 8035 163f bdb3 2c3d b6a9 a4bd
00000010: 5cb4 4fbf cc60 843e 19e0 f43d 0cb7 9a3d
00000020: 8e4c 3c3f 9a19 acbd 7d75 e7be 290c f13d
00000030: f193 2e3e 6c59 113f 8e06 ba3d 263d e13d
00000040: 9cb1 ebbc 80de 9e3d 32ec f93c 8676 fa3d
00000050: 86a0 aebd fc78 dd3d 0d3a a23e 09a5 973d
00000060: 4f36 c2bc 20a4 c93b 52b8 f63d bdd2 de3e
00000070: fd94 be3e b478 0c3d a46b a33d b659 3fbe
00000080: da24 1abd 90c6 aa3e bf2a 443d 9818 98bd
00000090: 5bdc 7bbe 92b2 6dbd fa99 c9be 84c3 dc3e
000000a0: 6820 293d 8f22 f8bd 9623 86bd 3671 4c3d
000000b0: 9dbc 483e 74b7 163c 6993 97bd 951c 173d
000000c0: 5bb1 823e a55b 20be 39a8 ff3e 602c 303d
000000d0: 8c0f 71bc 2184 cabd 608f cd3d fb6d c33c
000000e0: 2f03 7dbd 5d31 053d 095b c7bd 3fd1 96bc
000000f0: 0697 2f3d a555 6cbd 4282 6fbe 0854 483d
00000100: bbd7 60bc e728 d33e 3217 34bd d85e a23d
00000110: 10c2 9dbd 16fd 9d3e f34f 3e3d ac83 053d
00000120: 7e19 4d3f c4c7 95bd 6b74 acbf 2757 343f
00000130: 3116 843e a53e c33e 7036 8abb 500c 1ebc
00000140: f9c5 9bbd 03f1 df3d eabf 69bd 50a6 953e
00000150: f35d 2d3c 0236 9a3e 0872 ae3d 42d1 503d
00000160: 658b 78bc a80a 5cbd 48be e8bc 302e b63e
00000170: 9078 e43e fa1d ebbc 9523 bcbd d7c1 703e
00000180: 7406 4fbd bb44 c13e 1c5a 753d aa66 b7bd
00000190: 4d65 65bb d6b9 c13c 9931 a8be 5e45 643e
000001a0: 8a45 c0bd 6d93 8ebd 7df4 9b3d 0e11 863d
000001b0: 5dc9 e73d 6055 d03c b9d1 0ebd 5d79 a6bd
000001c0: de31 163d 69b9 2dbf 2072 f83e f0bc 58bd
000001d0: dc40 7cbd 1039 42be a749 eebd ce27 c53d
000001e0: a55e 7ebd 0905 b4bd d0c1 8a3d 947d 953b
000001f0: fd4d 11bb 52c1 db3c a3df 90bf 1d1b 593c
00000200: fe95 e03d 6612 0abf 0956 91bc 5657 873d
00000210: 6ac6 933e 1321 1e3e ff31 34bd ab69 56be
00000220: e268 873e 4b17 a8bd f774 8e3e 67d5 b53d
00000230: 0fb5 28bf 18fb ae3e 545e 7c3d 845a e03d
00000240: 1cbb dd3b 1036 e83d f079 0bbe e266 733e
00000250: 00c7 cabd fc09 c23e 20bf 473e 9b90 82bd
00000260: 2d8f 51bd 315c 7ebd 7a1a 663d 3520 873e
00000270: d31d 863e a0cd 7bbd 6206 ef3d 9b99 82be
00000280: 2bb1 43bd d8b9 cc3e ab08 9bbd ccf3 803d
00000290: 2242 febd 1731 05bd 37fb 253f a0e5 533e
000002a0: 8382 9b3b bd06 eabc 4ae5 09bd 7839 bd3d
000002b0: f937 a13e cba8 4e3d cea7 62bd 825b 30bd
000002c0: a571 7ebe 655a 74be 1ca9 553e 2b76 d13d
000002d0: 1d2e 0b3c 2131 f0be 101d 48bd 4427 d33d
000002e0: e1cc 6bbc d85c 8ebd 80d9 2a3c 8a6f 8e3d
000002f0: 9067 a73c 0d19 f9bb 29bc abbe f539 c0bc
00000300: 04ee 8fbc 535e 273e 31ad 463d 1485 6f3d
00000310: 96ae 243f 9429 6e3e b51c 8d3d f80d 3ebc
00000320: 7ac5 563f 6dba 1ebc 9ed9 39be 9d63 89bb
00000330: 140c 4f3e 8421 743e 0265 c73d 367b c1bd
00000340: 61ef 123e 70f0 123c d9d7 f03b 1a88 b93d
00000350: 3be2 6dbd 4b7c 2a3e d5a0 b73e 92ea db3d
00000360: 6ec8 1abd 679e df3d c038 253d 1576 a03e
00000370: 2d9c 9e3e 285c bbbd 374b f33b 19f0 94bf
00000380: d9e5 4fbd 379b 8d3e 141f babd 5ef2 67bd
00000390: 21ec 9fbe 0175 c43b f579 043e 8a99 b73e
000003a0: 92eb bd3d b14f e23c 7890 833d 2878 fdbd
000003b0: 0069 9c3e e983 0dba afcc 643d 01a2 b4bd
000003c0: 2b05 aa3d c397 84bd be49 443e 9bbb 163d
000003d0: 8ea1 cbbd ca76 77be 0f38 5b3d 5b3f b63c
000003e0: d841 cdbc ea3f 843d 0501 13bd 673a 4fbd
000003f0: 9a8e 0d3b 4e93 b3bc a356 5b3e cd4e 0abd
0.006515287 0.58675385 0.0421636 -0.08040182 -0.8113458 0.258551 0.11956806 0.07554445
0.73554313 -0.084033206 -0.45206824 0.117698975 0.17048623 0.5677707 0.090832815 0.10997991
-0.028771214 0.07757282 0.030508135 0.12229638 -0.08526711 0.108140916 0.31684914 0.07404525
-0.023707537 0.0061535984 0.12046875 0.43520156 0.37223044 0.0342948 0.07979515 -0.18686566
-0.0376328 0.33354616 0.04789233 -0.07426566 -0.24595778 -0.058031626 -0.39375287 0.43117917
0.04129067 -0.121159665 -0.06549756 0.049912654 0.196032 0.009199012 -0.07401163 0.036892492
0.25525936 -0.1565996 0.4993303 0.04301107 -0.014713179 -0.09888483 0.10037112 0.023856154
-0.061770614 0.03251778 -0.097341605 -0.018410323 0.042868637 -0.057698864 -0.23389533 0.048908263
-0.013723309 0.41242144 -0.043967433 0.07928246 -0.0770303 0.30857152 0.046462964 0.032596275
0.80117023 -0.07313493 -1.3473028 0.70445484 0.2579818 0.3813373 -0.0042179152 -0.00964649
-0.0760612 0.10934641 -0.05706779 0.2922845 0.010581481 0.3011933 0.085178435 0.050980814
-0.015169953 -0.0537211 -0.028411046 0.35582113 0.44623232 -0.028700817 -0.09186474 0.23511444
-0.050543264 0.3774775 0.059900388 -0.089551285 -0.0035003007 0.023648184 -0.3285034 0.22292086
-0.093882635 -0.06961713 0.07614992 0.06546222 0.11317704 0.025431335 -0.034867976 -0.08128617
0.03666865 -0.6786104 0.4852457 -0.05291456 -0.061585292 -0.1896708 -0.11635142 0.09626733
-0.06210198 -0.08790023 0.06775248 0.004562089 -0.0022171729 0.02682558 -1.1318249 0.013251093
0.10966109 -0.53934324 -0.01774122 0.06608455 0.28862315 0.15442304 -0.043992992 -0.20938747
0.26447207 -0.08207568 0.27823612 0.08878594 -0.65901273 0.34175944 0.061613396 0.109547645
0.00676669 0.113384366 -0.13620734 0.23769715 -0.099012375 0.37898242 0.19506502 -0.063752376
-0.051161934 -0.06209964 0.056177594 0.2639176 0.2619463 -0.061475396 0.11671139 -0.25507817
-0.047776382 0.39985538 -0.07570013 0.062965006 -0.124149576 -0.03251752 0.6483645 0.20693064
0.004745783 -0.028567666 -0.033665933 0.09239477 0.31488016 0.050453942 -0.055335812 -0.04305602
-0.2484804 -0.23862608 0.20865291 0.10227617 0.008494881 -0.46912482 -0.04885584 0.10310224
-0.014392109 -0.06951302 0.010427833 0.06954868 0.020435125 -0.0076018632 -0.33541992 -0.023465136
-0.01756955 0.16344576 0.048505012 0.058476523 0.64328897 0.23258048 0.06890241 -0.01160001
0.83895075 -0.009688002 -0.1814942 -0.004192783 0.20219451 0.2384091 0.097360626 -0.09447329
0.14349128 0.008968458 0.00734995 0.090591624 -0.05807708 0.16648977 0.35864893 0.107381
-0.0377888 0.10918885 0.040337324 0.3134009 0.30978528 -0.09148437 0.007424738 -1.1635772
-0.05075631 0.27657482 -0.09087959 -0.056627624 -0.3123484 0.0059953933 0.12937148 0.35859329
0.09273447 0.02762589 0.064240396 -0.123764336 0.3054886 -0.0005398379 0.055859264 -0.08819962
0.08301767 -0.06474259 0.19168755 0.03680001 -0.099429235 -0.24166408 0.05352026 0.022247007
-0.02505581 0.06457503 -0.035889644 -0.050592806 0.002159989 -0.021920826 0.21419768 -0.033766557

model.4.bias f4 [4]
00000000: b3f3 983d 4806 ea3d 9249 0d3e 27dd 223e
0.07468357 0.11426979 0.13797596 0.15904675
