checkpoints/checkpoint_ep20.pt (torch, 162921 bytes, 24 tensors)

model.0.weight f4 [128, 7]
000000 7f a8 a2 be e6 2c 3b 3e c4 e2 9c bc fa 30 96 be
       -0.31769177 0.18278846 -0.019151099 -0.2933424
000010 34 c8 6c be 6d a7 51 3e 97 bb 6f be 70 bc 5f 3e
       -0.23123246 0.20474024 -0.23411404 0.21849227
000020 ed 64 ac be cf c0 75 be 67 f5 7c 3e d2 bc a3 3e
       -0.3367075 -0.23999332 0.24702989 0.31979996
000030 40 89 9f be 62 e4 3b 3e 18 6a 35 bd 1b d8 88 3e
       -0.311594 0.1834884 -0.044290632 0.26727375
000040 92 45 7a be 96 ba 11 3e 8a 17 2c bd 34 66 36 be
       -0.24440601 0.14231333 -0.042014636 -0.17812425
000050 2f d0 a6 3e 0f c6 09 3e 88 27 20 be e9 7e bd 3d
       0.32580706 0.1345446 -0.1564008 0.09252722
000060 bd c8 46 be 82 59 7c 3e d4 08 b2 be 01 27 85 3e
       -0.19412513 0.2464352 -0.3477236 0.2600632
000070 a3 18 7d be 2f 43 1a bd 87 53 9f 3e 59 05 14 be
       -0.2471643 -0.037661728 0.31118414 -0.14455165
000080 05 4c 74 3e 96 cd ad be af 02 73 bc a7 a1 aa be
       0.23857124 -0.33945912 -0.014832183 -0.33326456
000090 18 d9 8d be 32 7f 3c 3e f0 2c c6 be 86 13 b7 3d
       -0.27704692 0.18407896 -0.3870616 0.08939271
0000a0 6d aa 4f be f8 e3 10 bd 95 59 05 bd e6 f2 fb bd
       -0.20279856 -0.035373658 -0.032556135 -0.123021886
0000b0 69 5b 1f be 24 00 38 3e e1 64 35 be 23 49 70 3e
       -0.15562214 0.17968804 -0.17714263 0.234654
0000c0 25 b3 46 3e 6f 9f 82 be 79 f5 2b bd 09 50 59 be
       0.19404276 -0.25512263 -0.041982148 -0.21221937
0000d0 e3 df a1 3e ea 81 8b be 2f 05 cc bd 10 30 f3 3d
       0.31616125 -0.27247554 -0.09961926 0.118744016
0000e0 51 b0 a2 3e 45 a6 0f be ef 60 a9 bd 7d 41 82 bf
       0.31775144 -0.1402827 -0.08270442 -1.0176235
0000f0 a3 fc 67 be 54 a3 6a 3e 52 db 8c bd 06 a6 5a be
       -0.22654967 0.22913867 -0.068777695 -0.21352395
000100 02 4a 11 be c7 4d a0 be 3e 50 04 3e 46 cc 87 3d
       -0.14188388 -0.3130934 0.12921235 0.06630759
000110 70 5d 3a be f6 4c 45 be 5d d7 82 be 53 45 f8 bd
       -0.18199706 -0.1926764 -0.25554934 -0.121225975
000120 73 e9 a9 be 76 fd 4b bc f4 12 89 3d 0b 8d f7 bd
       -0.3318592 -0.0124505665 0.06693068 -0.12087449
000130 c3 3a 43 3e 34 5e 13 3e 55 b8 50 be 0f 76 8e bd
       0.19065385 0.14391404 -0.20382817 -0.06956112
000140 e4 5a 20 be 0c b0 8e bd 39 b9 a3 3e 03 75 8a bd
       -0.15659672 -0.06967172 0.3197725 -0.067605995
000150 28 11 12 bf 6d 29 b1 bd 5f 24 5d be 35 d0 9e 3d
       -0.5705743 -0.086504795 -0.21595906 0.07754556
000160 e7 c9 9c 3e 2d f7 3b 3d 3b 79 9b be 85 b4 d8 3e
       0.3062279 0.045890022 -0.3036593 0.42325225
000170 0a 69 83 be d6 b8 5b 3e 4c f8 4c bd a1 d0 fa bd
       -0.25666076 0.21457228 -0.05004148 -0.12246824
000180 cd 33 04 3e bb 71 1f be 7b 4d 41 3f 20 0f 80 3b
       0.12910385 -0.15570728 0.7550885 0.003908053
000190 e8 50 3f bf 1a 21 fc 3b 2e 72 a2 3d 04 d7 70 be
       -0.7473283 0.0076943757 0.07931934 -0.23519522
0001a0 ee 91 41 3d b2 93 c3 3d 02 28 9a 3d 69 e9 49 3e
       0.04725831 0.09549655 0.07527162 0.19717945
0001b0 d2 bb 0e 3d d2 87 df 3c 7a 8f 7f bd c9 82 0e bd
       0.03484709 0.027286444 -0.06239269 -0.034792695
0001c0 84 1d 99 be f2 97 74 be 0f 5a 11 3e 5f 6c d6 3d
       -0.2990533 -0.23886088 0.14194511 0.10469889
0001d0 9e 5c f3 bd 1e dd 86 3d 70 21 b2 3e d8 b3 e0 bd
       -0.118829 0.065851435 0.34791136 -0.109718025
0001e0 76 95 39 3e 32 d2 b3 be e1 13 63 bd 74 7c ae bd
       0.18123421 -0.35121304 -0.05543888 -0.08519831
0001f0 12 3d a6 3e 92 e3 db 3d 3d 7d 8b 3e b4 0c 5c 3e
       0.32468468 0.10736765 0.27243987 0.21489221
000200 6e e2 66 3d 29 55 ae 3c 77 3f 70 3e 6a 87 a1 3d
       0.056368284 0.021280842 0.2346171 0.07887156
000210 a7 b3 73 3e 6f 35 26 3e ca 3c 07 bc 8a f1 27 be
       0.23799 0.16231321 -0.008254239 -0.16400734
000220 ff 4c a4 3d ab 2b e8 bc 0c 20 57 be 99 b7 59 be
       0.08022498 -0.028341135 -0.21008319 -0.21261443
000230 b5 e4 1f 3e b4 25 ae bc 23 da e9 be a7 f5 43 3e
       0.15614589 -0.021258213 -0.45674238 0.19136678
000240 69 0c 01 3d 79 ec 0c 3d 47 6e 89 3d 99 f4 89 bd
       0.031505976 0.034405205 0.06710487 -0.067361064
000250 8d cd a5 be 12 83 63 3d b2 38 91 3e f8 ff fe bd
       -0.32383385 0.05554492 0.28363568 -0.12451166
000260 d0 6a 7e 3e 3c eb 3e be d7 f2 b2 3c 05 26 ef bd
       0.24845433 -0.18644422 0.02184431 -0.116771735
000270 19 46 a7 3e f8 b6 8c 3d de e2 bf be 27 72 8c 3d
       0.32670668 0.06870836 -0.37477773 0.0685771
000280 5b 13 ab bd 70 c1 3e 3e 6f 83 65 bf 08 90 92 3e
       -0.08353301 0.18628478 -0.89653677 0.28625512
000290 7d 40 cd be fb 94 8a 3e 90 6b a4 3d 41 96 dc bc
       -0.40088263 0.27066788 0.080283284 -0.026927115
0002a0 37 a2 9a 3d 89 86 cf 3e 12 6d 30 3e 45 5a 9c be
       0.07550471 0.4053233 0.17229107 -0.3053762
0002b0 28 c4 a5 3e c5 51 c7 bd 69 28 f4 3d df 1c b5 be
       0.32376218 -0.09732393 0.1192177 -0.3537359
0002c0 f8 d8 a1 be 0a b4 a7 3d 6d e3 b9 bc 36 42 93 be
       -0.31610847 0.081886366 -0.022691453 -0.28761452
0002d0 90 3b 32 3e 79 bc 3d 3e fb 9e 53 be e6 63 39 3e
       0.17405534 0.18528928 -0.20666115 0.18104514
0002e0 ce 59 b3 be 80 cf 3a 3e 62 58 49 bd 0e 58 75 bc
       -0.35029453 0.18243217 -0.049156554 -0.014974607
0002f0 93 70 cf bc 0d 14 d2 bd a4 ac 65 3e 58 bb 88 3e
       -0.025322234 -0.10257731 0.22429138 0.26705432
000300 e7 20 f1 3d 1f 5d 58 be 63 ba 71 be fa 70 bb 3e
       0.11773854 -0.21129273 -0.23606257 0.36609632
000310 bd 2e 36 3c 2a 8f b0 3d 14 c1 9a bd 97 00 bc be
       0.011119542 0.086210564 -0.07556358 -0.367192
000320 cc b1 b7 3e 85 ca 83 be 84 ef b3 be ef 54 e3 bf
       0.35877836 -0.25740448 -0.35143673 -1.7760295
000330 1b 1a 37 bb 31 fa 68 bb 2d 12 de bc fb 3d af 3e
       -0.0027939144 -0.0035549516 -0.027108276 0.34226975
000340 1c 8a 96 be 05 b4 59 be 25 4a a4 3c 18 1f 31 bd
       -0.29402244 -0.21260078 0.020054886 -0.043242544
000350 c0 e8 fb 3d 98 22 53 3d 12 fd aa 3e a3 3e 41 3c
       0.12300253 0.051546663 0.33396202 0.011794719
000360 25 52 8a be 4a 33 98 3e 73 da 89 bd 86 e7 2f 3e
       -0.27015796 0.2972663 -0.06731119 0.17178163
000370 c2 26 c2 be d5 94 08 3e f8 5f 83 be 4a b1 50 be
       -0.37920195 0.13338025 -0.25659156 -0.2038013
000380 9c 75 14 bf 28 db b9 be 14 84 2d 3e 38 16 00 be
       -0.5799196 -0.36300015 0.16944915 -0.12508476
000390 1e f3 ec 3d 9a d1 92 be eb 18 22 3e eb f4 bd ba
       0.115698084 -0.28675538 0.15829818 -0.0014492547
0003a0 48 9f 19 3f 21 48 81 3a dc 6b 1a bf f5 51 08 be
       0.6000867 0.0009863415 -0.6032083 -0.13312514
0003b0 d8 84 86 3e 4d fc 96 3d 78 c5 cb 3d 8f 99 1f be
       0.26273227 0.07372341 0.099497736 -0.15585922
0003c0 9f 5c 9b 3e 47 bc b5 be 51 3a 6b be 89 42 d4 bd
       0.30344102 -0.35495207 -0.22971465 -0.10364253
0003d0 09 2d c2 3d 1f e9 55 be c6 cc bb be 55 c1 7f 3e
       0.09481246 -0.2088971 -0.36679667 0.24976094
0003e0 77 cb 88 be 70 a6 9f be d7 0f 5b 3e 4f dc 63 be
       -0.2671773 -0.3118167 0.21392761 -0.2225201
0003f0 6e 2e 9a be 85 94 d1 3e 0d b3 07 3e 92 bf 98 bd
       -0.30113548 0.40933624 0.13251896 -0.07458414

model.0.bias f4 [128]
000000 a2 b3 2d 3e 0c 9e 33 3c 0d 5b bc be c1 bf fa 3d
       0.16963056 0.010962974 -0.36788216 0.122436054
000010 ef f3 44 3d 84 bb 50 3e 40 28 8a 3d 90 2b 5a be
       0.048084196 0.20384032 0.06745958 -0.2130568
000020 81 2a 84 3d bb 81 b9 be e1 13 cb 3b df 53 6a 3e
       0.064534195 -0.3623179 0.006197438 0.22883557
000030 7c 36 5a 3e 36 9b be be b0 93 b3 3c 56 93 51 3d
       0.21309847 -0.37227792 0.021921009 0.0511659
000040 7e f9 66 be 06 ae 1a 3e 8a b9 de bd 3f 0b 7d be
       -0.22556111 0.15105447 -0.108752325 -0.24711321
000050 71 3c 9b 3d bb 2f 9b be fe 65 80 be c1 2c e7 bb
       0.07579888 -0.30309853 -0.25077814 -0.0070548956
000060 b4 b9 16 be 67 a1 33 be e9 0c 3c be 50 34 53 bd
       -0.14719278 -0.17542039 -0.183643 -0.05156356
000070 9d 03 46 be d8 5f 8c 3d 32 20 49 3e 5c 46 84 be
       -0.19337316 0.06854218 0.19641188 -0.2583493
000080 03 91 91 3e 4b cb dc 3c 4c 7d 7d 3e 03 fc 89 be
       0.28430948 0.026952406 0.24754828 -0.26950082
000090 cc 51 6e be a1 38 52 bc cf f8 91 be 9f b9 9d 3d
       -0.2327339 -0.012830884 -0.28510138 0.0770142
0000a0 18 da ce 3d 55 11 9b be d9 d0 1f 3e ad 46 83 3e
       0.10100192 -0.3028666 0.15607013 0.2563986
0000b0 dc a0 80 3e 20 0d ad be e7 1e 3a 3e 32 86 76 bd
       0.25122726 -0.33799076 0.18175851 -0.060186572
0000c0 48 fa 80 3e cb fa 50 3c d6 6f 32 be 31 29 ea bd
       0.2519095 0.012755106 -0.17425475 -0.11433638
0000d0 a4 11 a4 bc 32 2e d2 bd db 27 c5 bd 66 6f a2 be
       -0.020027943 -0.10262717 -0.096267425 -0.31725615
0000e0 d6 25 f9 3d a0 fc 6d be 9b 5a 94 be 01 b9 86 be
       0.1216542 -0.232409 -0.28975376 -0.26313022
0000f0 80 79 b6 be c0 0f 64 bd d8 8a 63 3e de 67 3a 3e
       -0.35639572 -0.055679083 0.22220933 0.18203685
000100 fe fa 81 be aa fc e2 be 43 08 bd be ab 8a 8d be
       -0.25386804 -0.44333392 -0.36920366 -0.27644858
000110 04 4f 23 bc fe a2 cc 3d 28 90 ce 3c 7d 43 a8 be
       -0.009967569 0.09992026 0.025215223 -0.3286399
000120 de ee 4b 3e e4 12 9d 3e 82 e4 71 3e 04 a9 d1 bc
       0.1991534 0.30678475 0.23622325 -0.025593288
000130 77 1c b4 be 64 66 86 be 9c bf 84 3d 01 ba 25 3e
       -0.35177967 -0.26249993 0.06481859 0.16184236
000140 65 76 0f be de 4f b4 be 97 56 54 3e 88 3d be be
       -0.14010008 -0.35217184 0.20736156 -0.3715632
000150 f0 07 e2 3d 35 81 81 3e b5 2f 5d be b4 d2 cf 3d
       0.1103667 0.2529389 -0.2160023 0.1014761
000160 25 c9 ba 3d 0b b2 99 3e cd d2 a7 be 83 79 ec 3c
       0.091203965 0.30018649 -0.32778016 0.028866535
000170 54 16 18 3e 9c 53 96 3e 68 1d 85 3e 58 0a a3 bd
       0.14852268 0.29360664 0.25998998 -0.07960957
000180 da cd 4b 3e 85 55 06 3e 3a 14 2f be ee c9 03 3e
       0.19902745 0.1311856 -0.1709756 0.12869999
000190 21 ad b6 be f4 fa 9e be b4 cf a2 be f1 56 2c be
       -0.35678962 -0.31050837 -0.3179909 -0.1683004
0001a0 06 ba bc 3d be bf 25 be a7 3c a4 bd 5f 77 ac 3b
       0.09215169 -0.16186425 -0.08019381 0.0052632536
0001b0 01 5e cc 3d a9 2d 52 be 84 9b d5 bc d3 6a 11 bd
       0.09978867 -0.2052523 -0.026075132 -0.035502266
0001c0 48 ef 94 be 6e 56 b6 3d a8 3e d1 3d ec 14 b4 3d
       -0.29088807 0.08903204 0.10217029 0.08793053
0001d0 80 f0 0f be d0 f1 43 bd 59 ae 1f 3e c9 3a 78 3e
       -0.14056587 -0.047838032 0.15593852 0.24241175
0001e0 24 da a6 3d 34 1e ae 3d 97 77 a6 bd 02 1a 58 3e
       0.08147076 0.085018545 -0.08128279 0.21103671
0001f0 ac 23 26 be 8d 53 4c 3c 92 c4 d0 bd 36 cc ab 3b
       -0.16224545 0.012471092 -0.10193743 0.0052428497

model.2.weight f4 [64, 128]
000000 2e ea cb bc a9 d7 c7 bc ae a8 83 bd 29 17 93 bd
       -0.024891939 -0.024394827 -0.064286575 -0.07182152
000010 fd a2 72 3d fd cb 26 3d 30 85 1a 3c c1 8d 82 3a
       0.05923747 0.040721882 0.009431168 0.0009960459
000020 16 5a 18 bd 7d 53 da 3a 71 e9 4f bd c9 2b a3 3d
       -0.037195288 0.0016656962 -0.050759736 0.07967336
000030 63 32 71 3d 8c 8a ca 3c 4c 27 16 3d 59 20 29 bd
       0.058885943 0.024724267 0.03665857 -0.041290615
000040 28 13 be 3c 60 82 80 bd d9 f4 a0 bd 64 cc 02 3d
       0.023202494 -0.06274867 -0.07859201 0.031933203
000050 b4 ed 49 3d 82 4a c2 bb 7c bb 4e 3d a0 bf 90 bd
       0.049298957 -0.005929292 0.050471768 -0.070677996
000060 e2 83 1a 3d ba e8 0b bc 48 bc 0c bd 02 a8 96 3d
       0.03772343 -0.008539373 -0.034359246 0.07356264
000070 43 19 43 bd 02 2c 96 bd 5a 60 ab bc 8c 84 b1 3d
       -0.047631513 -0.073326126 -0.020919967 0.086678594
000080 f5 e0 42 bd a6 9e fa bc 1f 71 0a bc 6a e5 97 3d
       -0.047577817 -0.030593228 -0.008449822 0.07416804
000090 2a ac 9f 3c 21 a6 ab bd 6e 9d a6 bc 97 c4 1b 3d
       0.019491274 -0.08381296 -0.02033874 0.03802928
0000a0 7d e5 f2 3c ee 18 10 bd 74 61 6d 3d 7c 54 44 3d
       0.029650444 -0.035180025 0.057954267 0.047932133
0000b0 f9 70 85 3d 1c 74 11 3c 1b 38 93 bc 67 5c 28 bd
       0.065156884 0.00887778 -0.01797109 -0.041103747
0000c0 a0 f0 c8 3c db 2d 9f bb 9a c8 89 3d 82 46 36 3b
       0.024528801 -0.0048577613 0.06727715 0.0027813022
0000d0 48 5b 01 bd 9c e8 ae bc 27 03 41 3d 22 c6 9d 3d
       -0.031581193 -0.021351151 0.047122147 0.077038065
0000e0 08 c4 fb bc 65 f7 18 3c 56 ba 99 3d 1f 21 db bc
       -0.030733123 0.009336327 0.07506244 -0.026749192
0000f0 75 9e 9b bd 9d 61 4e 3d cf 25 b2 3d 32 98 96 3d
       -0.07598583 0.05038606 0.08698618 0.07353248
000100 32 38 9e bd d7 fb 61 3d 93 ff 33 3d ca a3 92 bd
       -0.07725562 0.055171814 0.043944906 -0.071601465
000110 aa 4e 8f 3c 98 f2 5f 3d 2d 0c a2 3d e5 6e 0f bd
       0.017493565 0.054674715 0.079124786 -0.035017867
000120 a1 81 40 3d 49 80 8f 3d e1 ed 0c 3d 8a 9b 9d bd
       0.046998624 0.0700689 0.034406547 -0.07695682
000130 a5 f8 82 bd 15 26 0b 3d da 70 98 bd 2d 60 d5 3b
       -0.063950814 0.033971865 -0.074434 0.006511709
000140 96 d7 83 bd 07 46 63 3c d4 f6 7c 3d 13 28 20 3d
       -0.06437604 0.013871676 0.06175883 0.039100718
000150 85 cd 92 bd 2b c8 26 bd c2 7c 20 bc 0b 67 90 3d
       -0.07168106 -0.04071824 -0.00979537 0.07050904
000160 fe f7 7d bb 5f 29 23 3c 5e dc 02 3d 63 fb c4 3c
       -0.0038752551 0.009958594 0.03194844 0.024045652
000170 77 4e c2 3c e4 7f 69 bc f7 14 b2 bd 39 c2 8c bd
       0.023719056 -0.014251683 -0.08695405 -0.068729825
000180 e0 fb 2e bc f6 50 c2 bc bb 03 b6 3c d9 01 15 bd
       -0.010680169 -0.023720246 0.022218576 -0.036378715
000190 e3 26 d3 3c 8a 67 81 bd 0c 82 5e bb e1 80 aa 3d
       0.025775379 -0.06318577 -0.0033952026 0.08325363
0001a0 69 79 0d 3d 4f 22 aa bd 68 c4 7f bc 2b 3d fc 3b
       0.034539614 -0.08307325 -0.015610792 0.0076977215
0001b0 2b ae 5f bc 40 77 54 3d 10 32 67 3d 09 67 be bc
       -0.013652365 0.05187154 0.056444228 -0.02324249
0001c0 01 83 37 3d 77 d1 16 bd e9 9b 08 3b 2a 50 ba 3c
       0.04480267 -0.036820855 0.0020844883 0.022743303
0001d0 26 73 93 3d 12 50 61 bd 83 dc 12 bd d6 aa e7 bc
       0.07199697 -0.055008 -0.035854828 -0.028279703
0001e0 52 9a dc 3b dd d2 ac bd 1c 02 88 bd 0f e6 75 3d
       0.0067322636 -0.084386565 -0.06641027 0.060033854
0001f0 3a f6 2f 3d 93 d1 8c 3d 18 b2 45 3d ed 3e 73 3d
       0.04295943 0.068759106 0.048265547 0.059386183
000200 ca d0 04 be 7b c1 a1 3d d6 78 a9 bd 71 80 48 3d
       -0.12970272 0.078982316 -0.08275001 0.048950616
000210 c1 a2 c5 3c f4 13 aa bc ad 91 d0 3d 6c 3e b5 3c
       0.024125459 -0.020761468 0.101840355 0.022124492
000220 85 f8 a0 3e 84 6c b1 bd 43 6b e7 bb 0e d6 6b bd
       0.31439605 -0.08663276 -0.007062347 -0.057577185
000230 d1 2d 39 3e 8e 4a a4 3e a5 c3 4b bb 10 93 00 bd
       0.18083884 0.3208813 -0.0031091955 -0.03139025
000240 bc fe 8f 3c 93 f6 70 be 4c fe 13 be 54 aa 43 bd
       0.017577522 -0.2353156 -0.14452475 -0.04776986
000250 45 c9 d0 3b 3d d7 0f bd 10 d0 74 3d 71 79 ec 3e
       0.0063716494 -0.035117377 0.059768736 0.46186402
000260 26 4e de 3d 54 dd ef bb 4f 59 a1 bc bd 6a 9e bd
       0.108547494 -0.0073200855 -0.019695906 -0.077352025
000270 7d 77 40 bd ce 28 cf bc 02 26 d0 38 68 9f 8a 3e
       -0.046988953 -0.025288012 9.9252924e-05 0.27074742
000280 7e 20 c4 3d 93 37 1b bf 84 ac 55 3d 51 d0 a8 bd
       0.0957651 -0.60631675 0.052166477 -0.08242858
000290 84 ef 04 bb 1c 3b 47 bd d9 d4 a0 bd ee 00 8b 3d
       -0.0020284364 -0.048640355 -0.078530975 0.06787287
0002a0 dc 16 02 3d d8 b1 56 be 7e 46 db 3c 49 ce 26 bd
       0.03176008 -0.2096628 0.026767012 -0.040724073
0002b0 b8 94 e9 3c 3f b6 82 3d 8b 2f 91 be 16 f9 1a be
       0.028513297 0.06382417 -0.28356585 -0.15134081
0002c0 64 30 b1 3d 74 5f 1d bd f8 04 e0 bd bf cc 12 be
       0.08651808 -0.03842111 -0.10938448 -0.14335917
0002d0 0c 8d e4 bd 5f f8 23 be f2 50 11 3e 0a 4a aa 3d
       -0.11159715 -0.16012715 0.14191034 0.08314903
0002e0 c8 43 1c bd e1 20 6c bc 6b 6b 96 bd fe 27 29 3d
       -0.03815058 -0.014412136 -0.07344707 0.041297905
0002f0 e4 87 4b bd 81 c7 ec 3c b3 84 b2 3b 75 64 d6 3d
       -0.049690142 0.028903725 0.005447948 0.104683794
000300 c0 f3 68 3d d7 67 9e 3d ed 8b 93 bd 22 69 dd bc
       0.056873083 0.0773465 -0.07204423 -0.02702767
000310 b9 ca 00 bb 50 c2 03 be 22 4a 05 bf 65 0a ff bc
       -0.0019652082 -0.12867093 -0.5206624 -0.031132886
000320 be 7e 92 bc 92 51 18 3d 31 de 98 bd d5 9f a9 3d
       -0.017882701 0.037187167 -0.07464255 0.08282439
000330 53 d0 af bd a3 14 ca 3b b0 34 e6 3d b1 a5 c6 bd
       -0.085846566 0.006167011 0.11240518 -0.09699572
000340 c8 fd 4b 3b 2d ba 83 bc 5a 53 b6 bd da b5 67 bd
       0.0031126607 -0.016079986 -0.08902617 -0.05656991
000350 2a cc 4f 3c d4 ff 78 3b 7a 14 2e bc fb b2 aa 3c
       0.012682954 0.0037994282 -0.010624999 0.020837298
000360 37 2a 4c 3d 9c f9 59 3b 1f f7 2b 3d 85 02 29 3d
       0.049844947 0.003326035 0.04198372 0.04126217
000370 4a d3 d1 3c 4a 59 aa bd 7a b2 4f 3c 0b 96 fe bd
       0.025613446 -0.08317812 0.0126768295 -0.12430962
000380 c3 a2 a4 3c 02 5a e2 bd 21 4d 45 be 67 e2 42 bd
       0.020097142 -0.11052324 -0.19267704 -0.047579195
000390 e6 04 58 3d 09 8f 82 3c 01 6c 2b be 31 d3 11 be
       0.052739047 0.015937345 -0.16740419 -0.1424072
0003a0 de 43 48 be da 48 15 3d c3 a0 73 3d 8f b6 e9 3d
       -0.1955714 0.03644643 0.059479486 0.114117734
0003b0 b7 9d 0a 3e 72 d6 2d bd e4 12 2e 3d 2a 7f 24 be
       0.13536726 -0.04244084 0.042498484 -0.16064134
0003c0 9c 3c 24 3d dd e6 2b 3c 11 95 06 3c 36 7d cf bd
       0.040096864 0.010492054 0.008214251 -0.10131304
0003d0 40 92 b3 bb b3 f9 db bd 82 5e 0e bd 64 9f ec bd
       -0.005480081 -0.10740986 -0.0347581 -0.11553839
0003e0 74 cb c2 bd 52 e2 12 be f4 76 29 3b 7c 9f 6d bd
       -0.09511462 -0.14344147 0.0025858255 -0.058013424
0003f0 a1 9e 1d be 6f 22 51 bd c3 fa e2 3d 8f bc 1d 3f
       -0.15392543 -0.05105823 0.11082985 0.6161584

model.2.bias f4 [64]
000000 52 a0 97 bd c2 18 42 bd 35 f3 31 3d a0 5c a1 bd
       -0.074036255 -0.047386892 0.04344483 -0.07878995
000010 cb 76 16 bd 64 62 44 3c c3 b9 8d ba 7f a0 03 3c
       -0.036734384 0.011986349 -0.0010812808 0.008033871
000020 e7 a4 99 bc 2a bd 83 3c 2d be 20 bd aa 70 f2 3c
       -0.01875539 0.016081411 -0.039243866 0.029594738
000030 fd 79 6e 3d 94 30 84 3d 89 aa a7 bd 34 8a 5b bd
       0.058221806 0.06454578 -0.08186824 -0.053598598
000040 3b c3 59 bd 41 3f 10 bd 36 d6 8d bc 78 2a ba 3d
       -0.053164702 -0.035216574 -0.017314058 0.090901315
000050 5f a3 21 bd 9b 00 2e 3d 65 be 19 bc 4e 32 34 bd
       -0.039462443 0.042481046 -0.0093837725 -0.043993287
000060 7d e1 b0 bd 75 a5 31 3d c0 0e a7 bd 83 97 3b 3d
       -0.086367585 0.043370683 -0.0815711 0.04579879
000070 8b 65 2e 3d a1 67 9c ba bf 55 a4 bd bd c2 1e bc
       0.042577308 -0.0011932739 -0.08024167 -0.009689984
000080 ce 42 90 3d 32 c1 31 3c 60 e1 bc bd 7d 24 c7 bd
       0.07043992 0.010849284 -0.09222674 -0.097237565
000090 26 ba 4a 3d cb a6 4d 3d 87 3e ba 3d fb ed 9f 3d
       0.04949393 0.050207894 0.090939574 0.07809063
0000a0 0e d1 9e bd ed dc 97 b8 d5 6a a9 3c 5a 92 9a bd
       -0.07754718 -7.241392e-05 0.020680824 -0.075474456
0000b0 02 fb 0d bd d7 4c 8e 3d ce fa 82 bd 6e d7 2a 3d
       -0.034663208 0.0694825 -0.063954934 0.041709356
0000c0 14 dd 72 3d 0c 66 00 3d 80 db 05 bd c2 ef 96 bd
       0.059292868 0.03134732 -0.032680035 -0.07369949
0000d0 08 a5 76 bd f9 1e d3 3b a6 26 bf bd e1 da c5 3c
       -0.06021598 0.006442901 -0.093335435 0.024152221
0000e0 67 04 6b bd 20 b2 a7 bd 7d 93 d7 3b 05 0e a6 bd
       -0.057377245 -0.081882715 0.0065788613 -0.08108143
0000f0 3e 64 f9 bc 08 ce 15 bd 4f 01 e2 3b c7 5e 7f 3d
       -0.030443307 -0.03657344 0.0068971287 0.062346246

model.4.weight f4 [4, 64]
000000 b0 a0 39 bc cb bd 01 bb b0 e1 6c bb b6 a9 a4 bd
       -0.011329815 -0.0019796963 -0.0036145262 -0.08040182
000010 55 21 42 3d 6a 23 ad 3e a7 e8 aa 3d 19 47 f1 3c
       0.04739507 0.3381608 0.08345156 0.029452847
000020 f8 f8 69 bd 9a 19 ac bd 18 0d 5b bc 3a cf 12 3d
       -0.0571222 -0.084033206 -0.013369821 0.035842158
000030 6e fb 15 bd 7e 2c 8b 3d 8e 06 ba 3d 26 3d e1 3d
       -0.036616735 0.067955956 0.090832815 0.10997991
000040 73 e4 f0 bc 80 de 9e 3d 39 07 88 3d db 66 ab 3d
       -0.029405808 0.07757282 0.066420026 0.083692275
000050 86 a0 ae bd 19 9f 5f 3e 27 db ee 3d e4 b0 ae 3d
       -0.08526711 0.21838035 0.11662894 0.08529833
000060 c0 6b e1 bc b5 a1 8a 3c 52 b8 f6 3d 9e aa 06 bd
       -0.0275172 0.016922811 0.12046875 -0.032877557
000070 1a a0 89 bc b4 78 0c 3d 08 08 19 bc 59 c9 26 bd
       -0.016799975 0.0342948 -0.009340294 -0.040719364
000080 46 4f c4 bc 4a ff 86 3d bf 2a 44 3d 98 18 98 bd
       -0.023963582 0.06591661 0.04789233 -0.07426566
000090 fd 74 5a bd 21 3d c9 bd 24 ab 42 bd b1 cb be 3d
       -0.053334225 -0.098261125 -0.047526494 0.09316195
0000a0 68 20 29 3d 8f 22 f8 bd 96 23 86 bd 9e 72 be 3d
       0.04129067 -0.121159665 -0.06549756 0.09299205
0000b0 29 1b d5 3d 59 97 80 3c 78 e9 d4 bd 95 1c 17 3d
       0.10405571 0.015697168 -0.10396093 0.036892492
0000c0 12 7c a0 3d 32 3c 37 bd 10 41 fa 3d 60 2c 30 3d
       0.078361645 -0.04473514 0.12219441 0.04301107
0000d0 8c 0f 71 bc 57 1d 5f 3e 60 8f cd 3d 04 02 48 bc
       -0.014713179 0.21788536 0.10037112 -0.012207512
0000e0 00 2d ac bd 5d 31 05 3d 04 28 a7 bd 6c 14 14 bd
       -0.084070206 0.03251778 -0.08161929 -0.03615229
0000f0 62 11 1d 3c e3 fd 84 bd ad 12 83 bd ca f3 9d bb
       0.009586664 -0.064937375 -0.064000465 -0.0048203217
000100 a0 39 dc 3c 41 4e ab 3c 92 9e 4e 3c d8 5e a2 3d
       0.026882946 0.020911338 0.012611048 0.07928246
000110 02 e5 b7 3b c3 03 d1 ba 98 9a a7 3d 6c fd a4 3c
       0.0056120167 -0.0015946556 0.08183783 0.020140372
000120 c4 95 98 bd c4 c7 95 bd fa 59 fb 3c 9a c4 a5 3d
       -0.074504405 -0.07313493 0.030682553 0.080941394
000130 6a d0 88 3d 65 cf d6 3d d0 5f 84 3c 50 0c 1e bc
       0.06680377 0.10488776 0.016158968 -0.00964649
000140 f9 c5 9b bd 03 f1 df 3d f2 7b 4a bd 53 d4 27 3d
       -0.0760612 0.10934641 -0.04943461 0.040973973
000150 40 e1 b1 bb e3 16 3e bc 1d 29 da 3e 42 d1 50 3d
       -0.005428463 -0.011602136 0.42609492 0.050980814
000160 d6 8c 85 bd a8 0a 5c bd 48 be e8 bc b0 82 87 3d
       -0.06521003 -0.0537211 -0.028411046 0.066167235
000170 08 a0 04 3e fd b4 57 bd d8 7e 8c bd 0d a8 6c bd
       0.12951672 -0.05266284 -0.06860131 -0.057777453
000180 a7 f0 cc bd 90 d4 c3 3d 1c 5a 75 3d aa 66 b7 bd
       -0.10006838 0.095620275 0.059900388 -0.089551285
000190 4d 65 6f 3e 03 2c 33 3d 8b 2c 41 3b 1a e8 ee 3d
       0.23378487 0.043743145 0.0029476013 0.116653636
0001a0 8a 45 c0 bd 03 c0 c5 bd 7d f4 9b 3d 84 c2 a8 3d
       -0.093882635 -0.09655764 0.07614992 0.08240226
0001b0 69 2e 1c bd 08 41 25 bc 01 09 97 bd 5d 79 a6 bd
       -0.038130198 -0.010086305 -0.07374764 -0.08128617
0001c0 08 bc 35 3c eb f2 07 bd b2 f3 cc 3d f0 bc 58 bd
       0.011092193 -0.03319065 0.10007419 -0.05291456
0001d0 1b cd a5 bd 12 eb cb bb a7 49 ee bd ce 27 c5 3d
       -0.080957614 -0.006223091 -0.11635142 0.09626733
0001e0 ee 40 b3 bd 09 05 b4 bd 50 48 36 3d a4 32 28 bd
       -0.08752619 -0.08790023 0.044502556 -0.04106392
0001f0 9f de 30 3d 3d 98 65 3d c5 cd 1b bd 04 68 37 bb
       0.043181058 0.05605339 -0.038038034 -0.0027985582
000200 fe 95 e0 3d bc e9 23 3d a2 75 a4 3c 56 57 87 3d
       0.10966109 0.04001783 0.020075623 0.06608455
000210 e2 81 cc 3d 16 0d 15 3e c8 37 96 bd 28 60 88 be
       0.09985711 0.14555773 -0.07334858 -0.2663586
000220 e4 cd b5 3d 4b 17 a8 bd 29 2e 01 be b9 d0 05 3d
       0.08877161 -0.08207568 -0.12615265 0.032669757
000230 76 c3 8b bd 77 6c 81 3d 54 5e 7c 3d 84 5a e0 3d
       -0.068243906 0.06319516 0.061613396 0.109547645
000240 1c bb dd 3b 10 36 e8 3d 64 8b 04 be 56 51 6e 3d
       0.00676669 0.113384366 -0.12943798 0.058183037
000250 00 c7 ca bd 97 a2 6b 3d 58 44 5e 3d 9b 90 82 bd
       -0.099012375 0.057528105 0.054264396 -0.063752376
000260 92 52 c4 bd 31 5c 7e bd ff 98 95 3d 48 f1 12 3c
       -0.095860615 -0.06209964 0.07304572 0.008968659
000270 98 b7 ad 3d a0 cd 7b bd 4e b5 80 3d e7 2d 1f bb
       0.08482283 -0.061475396 0.06284581 -0.0024288835
000280 ec 40 92 bd b0 e3 fe 3b ab 08 9b bd cc f3 80 3d
       -0.07141289 0.0077786073 -0.07570013 0.062965006
000290 f4 01 3b 3c 12 e9 8f bd d2 0f 45 be 12 7e bc 3b
       0.01141404 -0.070268765 -0.19244316 0.0057523334
0002a0 f8 6e dc bc bd 06 ea bc 4a e5 09 bd 4a f6 fa 3d
       -0.026908383 -0.028567666 -0.033665933 0.12254007
0002b0 6e d5 8b 3d e3 5f e5 3d 91 dd db bd 82 5b 30 bd
       0.06827818 0.111999296 -0.1073562 -0.04305602
0002c0 6d cf 32 bd db 84 7b 3b b0 fd e8 3e 69 39 e8 3d
       -0.043654848 0.0038378749 0.45506048 0.11339075
0002d0 1d 2e 0b 3c 1d 38 bc be 10 1d 48 bd 44 27 d3 3d
       0.008494881 -0.3676156 -0.04885584 0.10310224
0002e0 98 d2 58 bd d8 5c 8e bd d0 5c b5 3d 8a 6f 8e 3d
       -0.052935213 -0.06951302 0.08855593 0.06954868
0002f0 cc df 79 3d 0d 19 f9 bb 5e b1 43 3d 81 ed 75 bd
       0.061004445 -0.0076018632 0.047776572 -0.060040955
000300 20 1e 2a bd 64 9c a2 3e 3d 9a 3c 3d 14 85 6f 3d
       -0.041532636 0.31759942 0.04604553 0.058476523
000310 e9 03 43 3a 0e 99 53 bd f6 f9 92 3d 92 b7 78 bd
       0.00074392423 -0.051659636 0.071765825 -0.06072194
000320 14 f2 df bd 6d ba 1e bc 94 e2 c8 bd d0 56 9b bd
       -0.109348446 -0.009688002 -0.09808841 -0.075849175
000330 63 d0 8f 3c 76 4c bf bc 02 65 c7 3d 36 7b c1 bd
       0.017555421 -0.02335189 0.097360626 -0.09447329
000340 75 0c 14 3e 70 f0 12 3c d4 12 0a 3d 28 18 f5 3d
       0.14457877 0.008968458 0.033709362 0.11967498
000350 3b e2 6d bd 4c 7d 00 3d 6d 11 e1 bc 92 ea db 3d
       -0.05807708 0.031369492 -0.02747413 0.107381
000360 58 dc 72 bd 67 9e df 3d c0 38 25 3d e8 ad d7 3d
       -0.059292167 0.10918885 0.040337324 0.10531217
000370 f7 90 a8 3d 28 5c bb bd c3 0f 8e bd 63 9d 71 bd
       0.08230775 -0.09148437 -0.069366 -0.058987986
000380 a5 ed a5 bd e1 fb c5 3d 14 1f ba bd 5e f2 67 bd
       -0.08101968 0.09667183 -0.09087959 -0.056627624
000390 e5 71 cf be 3d 03 28 3c 56 e0 b6 bc c0 2c b8 3c
       -0.40516582 0.010254678 -0.022323769 0.022482276
0003a0 92 eb bd 3d b1 4f e2 3c d6 b8 b5 3d ce 74 c1 bd
       0.09273447 0.02762589 0.08873145 -0.09446107
0003b0 3d 81 c8 3d ff 6d 89 bc 6c d8 02 3d 48 e1 b4 bd
       0.09790275 -0.016776083 0.031944677 -0.088320315
0003c0 9b 5a 87 bd 0d b1 6b bc 78 4f 09 3e 9b bb 16 3d
       -0.066090785 -0.014385474 0.13409221 0.03680001
0003d0 8e a1 cb bd 3c 53 2e 3d 0f 38 5b 3d 5b 3f b6 3c
       -0.099429235 0.042559847 0.05352026 0.022247007
0003e0 d8 41 cd bc ea 3f 84 3d b4 ea ac bd e9 c4 69 bc
       -0.02505581 0.06457503 -0.084432036 -0.014268138
0003f0 1e 72 4b bd 70 1f 30 bd 2c 67 52 bd cf 31 ef 3b
       -0.049669378 -0.04299873 -0.051367924 0.007299639

model.4.bias f4 [4]
000000 fe cf db bc 9f 27 9c bb 99 3e b6 3d 77 84 8f 3d
       -0.026832577 -0.0047654654 0.08898658 0.070076875

model.0.weight f4 [128, 7]
000000 63 61 99 be 91 72 94 3e 8a a9 3e 3d 6e ef 27 be
       -0.29957113 0.28993657 0.046548404 -0.16399929
000010 34 c8 6c be 6d a7 51 3e 97 bb 6f be 6d c6 0b 3e
       -0.23123246 0.20474024 -0.23411404 0.13649912
000020 37 36 75 be 5f 22 85 bd c2 8a 4b 3e d2 bc a3 3e
       -0.23946463 -0.065006964 0.1987715 0.31979996
000030 40 89 9f be 62 e4 3b 3e d7 be 6a bc 4c 78 98 3e
       -0.311594 0.1834884 -0.014327726 0.2977928
000040 92 45 7a be b4 6d 2f 3e 8a 17 2c bd 34 66 36 be
       -0.24440601 0.17131692 -0.042014636 -0.17812425
000050 2f d0 a6 3e 6c 19 a0 3e 8c 63 28 bc 6e 93 6f 3e
       0.32580706 0.31269395 -0.01027764 0.23396084
000060 3b 5c 3d bd 82 59 7c 3e d4 08 b2 be 01 27 85 3e
       -0.046230536 0.2464352 -0.3477236 0.2600632
000070 43 e6 64 be e1 88 88 bd 47 e4 9c 3e 15 0e 13 be
       -0.22353463 -0.066667326 0.30642912 -0.1436084
000080 05 4c 74 3e 96 cd ad be af 02 73 bc 20 e8 83 be
       0.23857124 -0.33945912 -0.014832183 -0.25763035
000090 2d 51 37 be 1a ab 54 3e 89 52 9d be 86 13 b7 3d
       -0.1790206 0.20768395 -0.30727032 0.08939271
0000a0 6d aa 4f be f8 e3 10 bd fa 0f 63 bd f4 53 08 be
       -0.20279856 -0.035373658 -0.05543516 -0.13313276
0000b0 bb 4f 35 be 4c 36 35 3e e1 64 35 be 23 49 70 3e
       -0.17706196 0.17696494 -0.17714263 0.234654
0000c0 25 b3 46 3e 6f 9f 82 be 79 f5 2b bd 09 50 59 be
       0.19404276 -0.25512263 -0.041982148 -0.21221937
0000d0 e3 df a1 3e ea 81 8b be 2f 05 cc bd 10 30 f3 3d
       0.31616125 -0.27247554 -0.09961926 0.118744016
0000e0 4e dc 61 3e 81 d0 3d be 86 4e 67 be e6 87 b1 be
       0.22056696 -0.18536569 -0.22588548 -0.34673995
0000f0 a3 fc 67 be 54 a3 6a 3e 52 db 8c bd 06 a6 5a be
       -0.22654967 0.22913867 -0.068777695 -0.21352395
000100 02 4a 11 be c7 4d a0 be 3e 50 04 3e 46 cc 87 3d
       -0.14188388 -0.3130934 0.12921235 0.06630759
000110 70 5d 3a be f6 4c 45 be 5d d7 82 be 53 45 f8 bd
       -0.18199706 -0.1926764 -0.25554934 -0.121225975
000120 73 e9 a9 be 76 fd 4b bc f4 12 89 3d 0b 8d f7 bd
       -0.3318592 -0.0124505665 0.06693068 -0.12087449
000130 c3 3a 43 3e 40 e9 63 3e e5 d6 07 be d1 dd 85 3d
       0.19065385 0.22256947 -0.1326557 0.06536449
000140 e5 1b 73 bd 0c b0 8e bd 39 b9 a3 3e 03 75 8a bd
       -0.059352774 -0.06967172 0.3197725 -0.067605995
000150 71 c6 a3 be ff ca 0a be 69 07 96 be 80 bb 9b bc
       -0.31987336 -0.13554 -0.29302529 -0.019010305
000160 e7 c9 9c 3e 2d f7 3b 3d 3b 79 9b be a8 1b b3 3e
       0.3062279 0.045890022 -0.3036593 0.34982038
000170 85 f0 94 be 19 48 54 3e 30 c5 8f bd a1 d0 fa bd
       -0.29089752 0.20730628 -0.070200324 -0.12246824
000180 cd 33 04 3e bb 71 1f be b2 fb 96 3e c6 56 f0 bd
       0.12910385 -0.15570728 0.29488903 -0.11735301
000190 f5 20 9b be 08 e0 05 be 2e 72 a2 3d 04 d7 70 be
       -0.30298582 -0.13073742 0.07931934 -0.23519522
0001a0 ee 91 41 3d f4 e2 79 3e 46 53 46 3e 8f c0 aa 3e
       0.04725831 0.24402982 0.19367704 0.33350036
0001b0 17 ec 18 3e d2 87 df 3c 7a 8f 7f bd c9 82 0e bd
       0.14933811 0.027286444 -0.06239269 -0.034792695
0001c0 84 1d 99 be f2 97 74 be 0f 5a 11 3e 5f 6c d6 3d
       -0.2990533 -0.23886088 0.14194511 0.10469889
0001d0 9e 5c f3 bd 1e dd 86 3d 70 21 b2 3e 68 8c 8d 3d
       -0.118829 0.065851435 0.34791136 0.06911546
0001e0 5d f6 b1 3e 4f 48 24 be 50 ce 8f 3d 74 7c ae bd
       0.34758273 -0.16043209 0.07021773 -0.08519831
0001f0 12 3d a6 3e 92 e3 db 3d c6 77 e1 3e e9 95 bf 3e
       0.32468468 0.10736765 0.44036692 0.3741906
000200 aa 67 f5 3d 47 d2 a9 3d 77 3f 70 3e 6a 87 a1 3d
       0.11982663 0.0829206 0.2346171 0.07887156
000210 a7 b3 73 3e 6f 35 26 3e ca 3c 07 bc 8a f1 27 be
       0.23799 0.16231321 -0.008254239 -0.16400734
000220 ff 4c a4 3d ab 2b e8 bc 0c 20 57 be 99 b7 59 be
       0.08022498 -0.028341135 -0.21008319 -0.21261443
000230 57 d7 c2 3d ef 94 49 3d d5 06 88 be f2 4e 4a 3e
       0.09513729 0.0492143 -0.26567712 0.19756678
000240 69 0c 01 3d 79 ec 0c 3d 47 6e 89 3d 99 f4 89 bd
       0.031505976 0.034405205 0.06710487 -0.067361064
000250 90 e8 a4 be 26 dc 8e 3d 17 f7 9a 3e f8 ff fe bd
       -0.3220868 0.06975584 0.3026664 -0.12451166
000260 d0 6a 7e 3e 3c eb 3e be 0e c4 09 bc fd 7f 58 be
       0.24845433 -0.18644422 -0.0084085595 -0.21142574
000270 fd b3 8e 3e a6 4e 19 3d de e2 bf be 27 72 8c 3d
       0.27871695 0.03742852 -0.37477773 0.0685771
000280 5b 13 ab bd 71 37 a2 3e 60 d8 98 be 31 74 bf 3e
       -0.08353301 0.31682923 -0.2985258 0.37393335
000290 59 3f 4e be fb 94 8a 3e 90 6b a4 3d 41 96 dc bc
       -0.20141353 0.27066788 0.080283284 -0.026927115
0002a0 62 4a f7 3c 87 5a 85 3e a6 12 54 3e 30 20 55 be
       0.030186836 0.2604563 0.20710239 -0.2081306
0002b0 28 c4 a5 3e c5 51 c7 bd 69 28 f4 3d df 1c b5 be
       0.32376218 -0.09732393 0.1192177 -0.3537359
0002c0 f8 d8 a1 be 0a b4 a7 3d 6d e3 b9 bc 36 42 93 be
       -0.31610847 0.081886366 -0.022691453 -0.28761452
0002d0 90 3b 32 3e 79 bc 3d 3e fb 9e 53 be e6 63 39 3e
       0.17405534 0.18528928 -0.20666115 0.18104514
0002e0 ce 59 b3 be 80 cf 3a 3e 62 58 49 bd 0e 58 75 bc
       -0.35029453 0.18243217 -0.049156554 -0.014974607
0002f0 93 70 cf bc 29 85 8d bc a2 cb 9a 3e 84 75 b9 3e
       -0.025322234 -0.01727541 0.30233485 0.3622247
000300 4a 82 4e 3e 1f 5d 58 be 63 ba 71 be fa 70 bb 3e
       0.20166889 -0.21129273 -0.23606257 0.36609632
000310 bd 2e 36 3c 2a 8f b0 3d 14 c1 9a bd 97 00 bc be
       0.011119542 0.086210564 -0.07556358 -0.367192
000320 cc b1 b7 3e 85 ca 83 be 84 ef b3 be 30 7d 9c be
       0.35877836 -0.25740448 -0.35143673 -0.3056426
000330 57 22 f7 bd fb c7 e2 bd e5 ed 0f bd fb 3d af 3e
       -0.12067097 -0.110732995 -0.035138983 0.34226975
000340 1c 8a 96 be 05 b4 59 be 9e ef 36 3d 9a a4 7f 3d
       -0.29402244 -0.21260078 0.04466211 0.062412836
000350 df ff 63 3e 6f ea 14 3e 12 fd aa 3e a3 3e 41 3c
       0.22265576 0.14542554 0.33396202 0.011794719
000360 25 52 8a be 28 43 0d 3e e5 95 0b 3c 6d 3b 80 3e
       -0.27015796 0.1379515 0.008519624 0.25045338
000370 1f 12 6b be d5 94 08 3e f8 5f 83 be 4a b1 50 be
       -0.22956131 0.13338025 -0.25659156 -0.2038013
000380 dc 83 a8 be 14 1f b1 be f4 eb 03 3e 94 eb cc bd
       -0.329131 -0.34594023 0.12882978 -0.100058705
000390 1e f3 ec 3d 9a d1 92 be eb 18 22 3e 92 c3 00 3e
       0.115698084 -0.28675538 0.15829818 0.12574604
0003a0 59 33 a9 3e 17 34 dc bc 21 cb 52 be f5 51 08 be
       0.33046988 -0.026880307 -0.205853 -0.13312514
0003b0 d8 84 86 3e 4d fc 96 3d d5 f6 3a 3e 3a d9 d6 bd
       0.26273227 0.07372341 0.18258221 -0.104906514
0003c0 c9 76 c1 3e 50 4d a5 be 51 3a 6b be 89 42 d4 bd
       0.37785938 -0.32285547 -0.22971465 -0.10364253
0003d0 09 2d c2 3d 1f e9 55 be c6 cc bb be 55 c1 7f 3e
       0.09481246 -0.2088971 -0.36679667 0.24976094
0003e0 77 cb 88 be 70 a6 9f be d7 0f 5b 3e 4f dc 63 be
       -0.2671773 -0.3118167 0.21392761 -0.2225201
0003f0 bf 05 ef bd f9 af 99 3e a2 8e 18 3e 13 f9 b3 bd
       -0.11671018 0.3001707 0.1489816 -0.087877415

model.0.bias f4 [128]
000000 ea a3 9d 3e d5 a4 45 3d 61 b0 ac be 10 bd 89 3e
       0.3078912 0.0482529 -0.33728316 0.26902056
000010 83 eb cd 3d 69 fc 59 3e 60 f9 80 3d 90 2b 5a be
       0.10054686 0.21287693 0.062975645 -0.2130568
000020 fb cd a7 3c bb 81 b9 be e1 13 cb 3b 67 50 b7 3e
       0.020483961 -0.3623179 0.006197438 0.3580353
000030 7b 7c 72 3e 19 28 98 be c4 bc 2e 3d 35 f1 33 3e
       0.23680298 -0.29718092 0.04266049 0.17572482
000040 7e f9 66 be 6a 4a 92 3e 12 30 a7 bd 3f 0b 7d be
       -0.22556111 0.28572398 -0.081634656 -0.24711321
000050 20 02 1d 3e 6a e6 90 be 8c 84 5f be 4a 0a 9a ba
       0.15332842 -0.28300792 -0.21827906 -0.0011752334
000060 19 7d 84 be 67 a1 33 be e9 0c 3c be 77 fd f5 3c
       -0.25876692 -0.17542039 -0.183643 0.030028088
000070 9d 03 46 be 6a 6d dc 3d b4 88 98 3e ae f8 5a be
       -0.19337316 0.107630566 0.29791796 -0.21383926
000080 44 a4 ac 3e d2 eb d8 bc d1 6e a9 3e 03 fc 89 be
       0.33719075 -0.026479635 0.3309236 -0.26950082
000090 ed b7 4d be d5 8f 6f 3d 1b 59 60 be a7 81 33 3e
       -0.20089693 0.05848678 -0.21908991 0.17529927
0000a0 d0 30 8b 3e 20 0e 9d be b8 f5 8d 3e bc 90 ae 3e
       0.27185678 -0.3067484 0.2772653 0.340948
0000b0 3c 38 39 3e 20 0d ad be fb f5 37 3e 33 9b f6 3c
       0.18087858 -0.33799076 0.17964928 0.030103302
0000c0 af 84 93 3e cb fa 50 3c cf 3b a0 bd 16 e8 e0 bd
       0.28812167 0.012755106 -0.078239076 -0.10981767
0000d0 1e ec 11 3d 10 e0 2e bd 07 af 03 be 66 6f a2 be
       0.03562557 -0.04269415 -0.12859736 -0.31725615
0000e0 35 c8 67 3e a0 fc 6d be 8b f0 a1 be 75 0a 7b be
       0.22634967 -0.232409 -0.31628832 -0.24515708
0000f0 9b 26 80 be b8 73 4b bd 04 a3 3e 3e 63 35 35 3e
       -0.25029454 -0.049670905 0.18616873 0.17696147
000100 fe fa 81 be aa 32 bc be 43 08 bd be c7 3b 9a be
       -0.25386804 -0.36757404 -0.36920366 -0.30123731
000110 16 22 8a bb 33 36 41 3e 44 e2 79 3d 7d 43 a8 be
       -0.004215489 0.18868332 0.0610068 -0.3286399
000120 a0 e5 74 3e ed 68 90 3e b0 5f bc 3e f9 98 db bd
       0.2391572 0.28205052 0.36791754 -0.107225366
000130 77 1c b4 be 64 66 86 be 63 6c 07 3e 5e 03 5c 3d
       -0.35177967 -0.26249993 0.1322494 0.05371415
000140 65 76 0f be 51 75 52 be 21 3e 9e 3e 88 3d be be
       -0.14010008 -0.20552565 0.30906776 -0.3715632
000150 f7 19 95 3e 68 9c 81 3e b5 2f 5d be 09 ec 1e 3e
       0.29121372 0.2531464 -0.2160023 0.15519728
000160 a2 e1 66 3e 49 46 a2 3e cd d2 a7 be 54 6a 29 3d
       0.2254701 0.31694248 -0.32778016 0.041361168
000170 c6 f4 73 3e ec 04 ae 3e b0 ee ad 3e 7c 35 1f bc
       0.23823842 0.3398813 0.33971167 -0.0097173415
000180 9a 31 84 3e 56 98 8a 3e 1f c8 ba bd 3d e6 37 3e
       0.25819093 0.27069348 -0.09120201 0.17958923
000190 51 1c 9f be ed 46 90 be 48 4a 95 be ee f0 5b bd
       -0.3107629 -0.28179112 -0.29158235 -0.053696565
0001a0 21 fa a4 3b 93 5b 15 be 76 72 83 bd 48 03 ca bc
       0.0050347005 -0.14585714 -0.06418316 -0.024659768
0001b0 05 16 97 3d aa 1d 35 be e2 a9 91 bd 3c 57 bf 3d
       0.07377247 -0.17687097 -0.07112481 0.093428105
0001c0 9d fc 7f be e9 9f 5a 3e 2a b2 96 3e 6c 41 ff 3d
       -0.24998708 0.21350063 0.29432803 0.1246365
0001d0 80 f0 0f be eb 21 2b bd d9 b7 72 3e 8c df ba 3e
       -0.14056587 -0.041780394 0.23702945 0.36498678
0001e0 5d 2b 3f 3e 00 06 42 3e b1 29 e6 bd 1a 5f 78 3e
       0.18668886 0.18947601 -0.11238421 0.24255028
0001f0 de 7e e5 bc 5d 25 c4 3a 6b 81 76 be 61 aa ac 3d
       -0.028014597 0.0014964748 -0.24072807 0.08430935

model.2.weight f4 [64, 128]
000000 2e ea cb bc a9 d7 c7 bc ae a8 83 bd 29 17 93 bd
       -0.024891939 -0.024394827 -0.064286575 -0.07182152
000010 fd a2 72 3d fd cb 26 3d 30 85 1a 3c c1 8d 82 3a
       0.05923747 0.040721882 0.009431168 0.0009960459
000020 16 5a 18 bd 7d 53 da 3a 71 e9 4f bd c9 2b a3 3d
       -0.037195288 0.0016656962 -0.050759736 0.07967336
000030 63 32 71 3d 8c 8a ca 3c 4c 27 16 3d 59 20 29 bd
       0.058885943 0.024724267 0.03665857 -0.041290615
000040 28 13 be 3c 60 82 80 bd d9 f4 a0 bd 64 cc 02 3d
       0.023202494 -0.06274867 -0.07859201 0.031933203
000050 b4 ed 49 3d 82 4a c2 bb 7c bb 4e 3d a0 bf 90 bd
       0.049298957 -0.005929292 0.050471768 -0.070677996
000060 e2 83 1a 3d ba e8 0b bc 48 bc 0c bd 02 a8 96 3d
       0.03772343 -0.008539373 -0.034359246 0.07356264
000070 43 19 43 bd 02 2c 96 bd 5a 60 ab bc 8c 84 b1 3d
       -0.047631513 -0.073326126 -0.020919967 0.086678594
000080 f5 e0 42 bd a6 9e fa bc 1f 71 0a bc 6a e5 97 3d
       -0.047577817 -0.030593228 -0.008449822 0.07416804
000090 2a ac 9f 3c 21 a6 ab bd 6e 9d a6 bc 97 c4 1b 3d
       0.019491274 -0.08381296 -0.02033874 0.03802928
0000a0 7d e5 f2 3c ee 18 10 bd 74 61 6d 3d 7c 54 44 3d
       0.029650444 -0.035180025 0.057954267 0.047932133
0000b0 f9 70 85 3d 1c 74 11 3c 1b 38 93 bc 67 5c 28 bd
       0.065156884 0.00887778 -0.01797109 -0.041103747
0000c0 a0 f0 c8 3c db 2d 9f bb 9a c8 89 3d 82 46 36 3b
       0.024528801 -0.0048577613 0.06727715 0.0027813022
0000d0 48 5b 01 bd 9c e8 ae bc 27 03 41 3d 22 c6 9d 3d
       -0.031581193 -0.021351151 0.047122147 0.077038065
0000e0 08 c4 fb bc 65 f7 18 3c 56 ba 99 3d 1f 21 db bc
       -0.030733123 0.009336327 0.07506244 -0.026749192
0000f0 75 9e 9b bd 9d 61 4e 3d cf 25 b2 3d 32 98 96 3d
       -0.07598583 0.05038606 0.08698618 0.07353248
000100 32 38 9e bd d7 fb 61 3d 93 ff 33 3d ca a3 92 bd
       -0.07725562 0.055171814 0.043944906 -0.071601465
000110 aa 4e 8f 3c 98 f2 5f 3d 2d 0c a2 3d e5 6e 0f bd
       0.017493565 0.054674715 0.079124786 -0.035017867
000120 a1 81 40 3d 49 80 8f 3d e1 ed 0c 3d 8a 9b 9d bd
       0.046998624 0.0700689 0.034406547 -0.07695682
000130 a5 f8 82 bd 15 26 0b 3d da 70 98 bd 2d 60 d5 3b
       -0.063950814 0.033971865 -0.074434 0.006511709
000140 96 d7 83 bd 07 46 63 3c d4 f6 7c 3d 13 28 20 3d
       -0.06437604 0.013871676 0.06175883 0.039100718
000150 85 cd 92 bd 2b c8 26 bd c2 7c 20 bc 0b 67 90 3d
       -0.07168106 -0.04071824 -0.00979537 0.07050904
000160 fe f7 7d bb 5f 29 23 3c 5e dc 02 3d 63 fb c4 3c
       -0.0038752551 0.009958594 0.03194844 0.024045652
000170 77 4e c2 3c e4 7f 69 bc f7 14 b2 bd 39 c2 8c bd
       0.023719056 -0.014251683 -0.08695405 -0.068729825
000180 e0 fb 2e bc f6 50 c2 bc bb 03 b6 3c d9 01 15 bd
       -0.010680169 -0.023720246 0.022218576 -0.036378715
000190 e3 26 d3 3c 8a 67 81 bd 0c 82 5e bb e1 80 aa 3d
       0.025775379 -0.06318577 -0.0033952026 0.08325363
0001a0 69 79 0d 3d 4f 22 aa bd 68 c4 7f bc 2b 3d fc 3b
       0.034539614 -0.08307325 -0.015610792 0.0076977215
0001b0 2b ae 5f bc 40 77 54 3d 10 32 67 3d 09 67 be bc
       -0.013652365 0.05187154 0.056444228 -0.02324249
0001c0 01 83 37 3d 77 d1 16 bd e9 9b 08 3b 2a 50 ba 3c
       0.04480267 -0.036820855 0.0020844883 0.022743303
0001d0 26 73 93 3d 12 50 61 bd 83 dc 12 bd d6 aa e7 bc
       0.07199697 -0.055008 -0.035854828 -0.028279703
0001e0 52 9a dc 3b dd d2 ac bd 1c 02 88 bd 0f e6 75 3d
       0.0067322636 -0.084386565 -0.06641027 0.060033854
0001f0 3a f6 2f 3d 93 d1 8c 3d 18 b2 45 3d ed 3e 73 3d
       0.04295943 0.068759106 0.048265547 0.059386183
000200 61 b1 61 bc 43 af cb 3c d6 78 a9 bd b9 ab 6b 3d
       -0.013775201 0.024863845 -0.08275001 0.057536814
000210 ee ab 0f 3d b1 33 e8 3a 8a e5 e0 3c 6c 3e b5 3c
       0.035076074 0.00177156 0.027453203 0.022124492
000220 35 13 6b 3c 84 6c b1 bd 43 6b e7 bb 5b 70 57 bd
       0.014347841 -0.08663276 -0.007062347 -0.052597385
000230 b4 a3 90 3d cc 82 9f bb 87 00 8a bb ef 21 1e 3c
       0.07062474 -0.004867887 -0.0042114886 0.009651645
000240 bc fe 8f 3c 1a 1d ac bd 05 64 27 bd 54 aa 43 bd
       0.017577522 -0.08403988 -0.04086687 -0.04776986
000250 60 7d 27 bd 3d d7 0f bd 7c 2e 2c bd 6f 3d 11 bd
       -0.04089105 -0.035117377 -0.04203652 -0.03545898
000260 10 9f 43 bc 54 dd ef bb 4f 59 a1 bc 88 09 ae 3c
       -0.011939779 -0.0073200855 -0.019695906 0.02124478
000270 7d 77 40 bd 94 ba 46 bc 91 12 f0 3c cb 0a c8 bc
       -0.046988953 -0.012129445 0.029305728 -0.024419209
000280 10 d8 7c 3d c0 9f 90 bc 31 c5 70 3d 51 d0 a8 bd
       0.06172949 -0.0176543 0.058781806 -0.08242858
000290 80 ef 04 bb 5a 95 9b bd d9 d4 a0 bd e2 b8 1d 3d
       -0.0020284355 -0.07596846 -0.078530975 0.038506396
0002a0 4d 2e 8f 3d 88 97 32 3c 1e 07 53 3c dc 80 59 3b
       0.06991253 0.010900386 0.012880115 0.0033188378
0002b0 ba 48 cd bd 3f b6 82 3d 69 ae 79 3c 15 3d 3e bd
       -0.10023637 0.06382417 0.0152393365 -0.04644497
0002c0 7e 7f 74 3d 74 5f 1d bd 68 3a 1a 3c 27 c3 96 3d
       0.0596919 -0.03842111 0.009413339 0.07361441
0002d0 4c 5d 82 bd 5a 47 7e bd 6c 0e 8c bc 0a 4a aa 3d
       -0.06365451 -0.062079765 -0.01709672 0.08314903
0002e0 f7 0c e2 bc e1 20 6c bc 6b 6b 96 bd fe 27 29 3d
       -0.027594073 -0.014412136 -0.07344707 0.041297905
0002f0 e4 87 4b bd 8d b5 81 bc 43 24 3c bd ef 3f d3 3c
       -0.049690142 -0.01583364 -0.04593302 0.025787322
000300 c0 f3 68 3d 38 38 1b 3d ed 8b 93 bd 4f e5 8f bd
       0.056873083 0.03789541 -0.07204423 -0.07026159
000310 df 8b ff 3a a7 71 9b bd 5f f9 33 bc 65 0a ff bc
       0.0019496641 -0.07590037 -0.010984748 -0.031132886
000320 55 61 ac 3c bd 90 dc 3c 1d 40 8f bc 70 db 1b 3b
       0.021042505 0.026924485 -0.017486626 0.0023781918
000330 53 d0 af bd a3 14 ca 3b bf 27 2b 3d 03 ed 4a bc
       -0.085846566 0.006167011 0.04178595 -0.01238561
000340 c8 fd 4b 3b 2d ba 83 bc 26 4d 8d bd da b5 67 bd
       0.0031126607 -0.016079986 -0.068994805 -0.05656991
000350 f2 54 f7 3c 1d ff fd 3c 7a 14 2e bc 31 31 a0 3c
       0.030191872 0.031005437 -0.010624999 0.019554706
000360 c1 2b 2a 3b fe d7 80 3d 1f f7 2b 3d ee 32 b3 3b
       0.002596602 0.06291197 0.04198372 0.005468718
000370 21 5f 00 3c 6f 90 1a ba 18 28 34 3d 3b 50 a9 bd
       0.0078351805 -0.0005896156 0.04398355 -0.08267256
000380 1c 35 df 3c fc e4 70 bd 72 4a ac bc ef a5 48 3c
       0.027247004 -0.058812127 -0.021031592 0.012246593
000390 e6 04 58 3d 09 8f 82 3c 00 5d 5e bc 8a ed 27 bd
       0.052739047 0.015937345 -0.013571978 -0.04099802
0003a0 0a b6 19 3d fa fc d5 3c c3 a0 73 3d 29 d2 7f 3d
       0.03752712 0.026121605 0.059479486 0.062456284
0003b0 31 a1 89 3d a6 6e 89 3d a1 7c 40 bd 66 88 ad bd
       0.06720198 0.06710558 -0.046993855 -0.084732816
0003c0 20 68 67 3c 00 cd f2 bb 92 f1 44 3c 18 56 2b 3c
       0.014123946 -0.007409692 0.0120204855 0.010457538
0003d0 40 92 b3 bb 22 b7 66 bd a9 4d ba 3b 84 4c 1c 3d
       -0.005480081 -0.056326993 0.0056855273 0.03815891
0003e0 a1 26 b9 bd b0 73 33 bd 16 05 89 b9 54 d2 a5 3c
       -0.09040571 -0.0438115 -0.00026134466 0.020241894
0003f0 66 79 90 bd 87 1f de 3c 6c bb b0 3d 6c 53 33 3c
       -0.07054405 0.027114643 0.08629498 0.010945182

model.2.bias f4 [64]
000000 52 a0 97 bd c5 6d c7 bb 5b da 6d 3d 08 fe 45 bd
       -0.074036255 -0.0060860836 0.058069568 -0.048337966
000010 83 fb f3 bc f1 41 32 3c d1 46 83 3c f1 da 83 3d
       -0.029783016 0.0108799795 0.016024979 0.06438244
000020 e7 a4 99 bc 40 87 27 3d 3a 6c 74 bd 4a ad 1e 3d
       -0.01875539 0.04090047 -0.059673525 0.03873948
000030 e9 7d 96 3d 2b cc 84 3d 89 aa a7 bd 34 8a 5b bd
       0.07348234 0.064842544 -0.08186824 -0.053598598
000040 43 fa d4 bc 0c 2d ed bb 68 9c 2f bb e6 33 a6 3d
       -0.02599824 -0.007238036 -0.0026796106 0.081153676
000050 01 54 12 bc d1 fb 8c 3d 6c 4a cd bc 4e 32 34 bd
       -0.008931161 0.06883968 -0.025059901 -0.043993287
000060 7d e1 b0 bd e5 53 98 3d d5 e1 65 bd af 64 5e 3d
       -0.086367585 0.074378766 -0.056123573 0.054295238
000070 17 ac 7a 3d 9d 6f ca 3c 99 b9 a0 bd f5 e0 1e 3d
       0.061199274 0.024711424 -0.078479 0.038788754
000080 90 9f 9e 3d a9 d4 82 bb 21 c4 82 bd 33 dc 86 bd
       0.07745278 -0.003992636 -0.06385065 -0.065849684
000090 1f 2a 06 3d f3 4c 50 3d db 25 ba 3d 4e 11 4e 3d
       0.032755014 0.050854634 0.090892516 0.05030947
0000a0 0e d1 9e bd 29 c4 6e 3c dd 3f 00 3d 5a 92 9a bd
       -0.07754718 0.014573135 0.031310905 -0.075474456
0000b0 10 32 3b bd 53 53 96 3d 8b c9 81 bd 16 c8 76 3d
       -0.04570204 0.073401116 -0.063372694 0.06024941
0000c0 33 79 52 3d 86 c4 9a 3d 8b 6f f5 bb c2 ef 96 bd
       0.051385116 0.07557015 -0.0074901036 -0.07369949
0000d0 b6 42 28 bd 61 93 74 bc 27 32 91 bd e3 d6 30 3d
       -0.041079246 -0.014927716 -0.07089644 0.043173682
0000e0 67 04 6b bd 62 41 8d bd 65 96 d7 3b 56 b7 2f bd
       -0.057377245 -0.068972364 0.0065792077 -0.042899452
0000f0 0e fd ec 3a 08 ce 15 bd 5f 12 c7 39 c5 ea 98 3d
       0.0018080787 -0.03657344 0.00037969925 0.07466654
