checkpoints/checkpoint_ep0.pt (torch, 162885 bytes, 24 tensors)

model.0.weight f4 [128, 7]
000000 0b 8c ca bd f3 01 19 be f2 1e 86 3e e5 ce 60 be
       -0.09889992 -0.1494215 0.26195484 -0.21953924
000010 08 8f 01 be ea ff a8 3e 30 8e 73 3e f0 9f 39 3c
       -0.12652218 0.33007747 0.23784709 0.011329636
000020 89 28 2d be 47 64 05 be 32 04 6a 3c 85 d4 2e 3e
       -0.16909994 -0.13026534 0.014283227 0.17073257
000030 3e 7b 73 3e 4b d3 58 3e f5 c1 cc 3e f3 cf ca bc
       0.23777482 0.21174352 0.39991727 -0.024757361
000040 58 ae 8f 3d b5 7f 78 be 20 36 b9 be a8 e7 c4 bd
       0.07015675 -0.24267466 -0.36174107 -0.096144974
000050 a4 25 3d 3e 16 90 c2 bd 41 61 56 be 5f bb 91 3e
       0.1847139 -0.095001385 -0.20935537 0.28463265
000060 c5 39 67 3b 60 7f 3f 3e 7f d0 6b 3e 23 2f 31 3d
       0.0035282236 0.18700933 0.23028754 0.043257844
000070 20 6c 0f bf 31 7f 24 be 1d e0 a8 be ce a8 34 3e
       -0.5602436 -0.16064145 -0.32983485 0.17642519
000080 e4 d5 bb 3e a9 1e 8f 3e 93 64 e7 bc 13 be b3 be
       0.36686623 0.2795308 -0.0282462 -0.35105953
000090 31 25 a6 3c c5 a4 46 be 3a 21 48 be 0e cf 71 be
       0.020281406 -0.19398792 -0.19543925 -0.23614141
0000a0 f5 ee 41 3e 21 85 75 3d 50 91 33 3e 04 89 d6 be
       0.18938811 0.059941415 0.17535901 -0.4190141
0000b0 a8 7c 4b 3e 11 6f 55 3d 76 1f 88 3e cb e2 92 be
       0.19871771 0.052107874 0.26586503 -0.28688654
0000c0 51 9d 59 bc 72 15 19 3d cc f7 aa be ef 16 ae be
       -0.013282136 0.037373967 -0.3339218 -0.34001872
0000d0 ae 07 a0 3c 7e a7 10 be 86 b9 55 3d 3c b3 09 bb
       0.019534912 -0.14126393 0.052178882 -0.0021011373
0000e0 ee 24 90 be de 14 81 bc b1 a9 11 3d 0a 21 f2 3b
       -0.28153175 -0.01575702 0.03556222 0.0073891925
0000f0 94 50 5a be bc 96 bb 3e 09 ec 05 be f8 8d 25 be
       -0.213198 0.3663844 -0.13078322 -0.16167438
000100 f7 9f 84 be 62 bf 85 3e c7 4a 59 be ad df f4 3a
       -0.25903293 0.26122576 -0.21219932 0.0018682383
000110 f5 b2 b0 be 52 28 97 be 02 4c 79 bd 27 83 aa bd
       -0.34511533 -0.2952295 -0.060863502 -0.083257966
000120 b0 e6 82 be 84 5e b8 3e 68 30 ae be 55 ef 19 3d
       -0.25566626 0.3600961 -0.34021306 0.03758176
000130 df 38 dc bd 29 a3 4e 3e a1 88 1d 3e a6 38 b9 be
       -0.10753035 0.20179428 0.15384151 -0.36176032
000140 27 54 42 bd 77 5e 1e be 67 c8 b7 be 34 84 a7 bd
       -0.047443535 -0.15465723 -0.35895082 -0.081795126
000150 56 d2 0a bc 5e 60 cf be b9 5a 5b 3e 2f 8c 8d 3e
       -0.008473 -0.4050321 0.21421327 0.27646014
000160 c4 c4 50 3e 17 c1 9e be e7 2a 75 3e dd 00 39 be
       0.2038756 -0.3100669 0.23942147 -0.18066736
000170 29 9a c3 3d 57 b2 91 3e a6 f0 09 3e dc 15 1d bd
       0.09550888 0.28456375 0.13470706 -0.038350925
000180 51 fa b0 be 21 f0 b2 be c9 57 8c be 96 a6 41 3e
       -0.34565976 -0.3494883 -0.27410725 0.18911204
000190 ec a6 e5 3d 45 c2 89 3e f6 e7 1f 3e 53 08 80 3d
       0.112134784 0.26906028 0.1561583 0.06251588
0001a0 77 85 1e be 34 3c 92 3e 2a d1 32 bd 37 a2 97 3e
       -0.154806 0.28561556 -0.043656506 0.29615948
0001b0 38 dc 45 be aa 95 9c 3e f9 9e 7b be da 9b 4b bd
       -0.19322288 0.30582935 -0.24572362 -0.04970918
0001c0 69 0c 16 be b1 b1 54 be 85 dc 55 be dd d9 7d be
       -0.14653172 -0.20770909 -0.20884903 -0.2479014
0001d0 27 06 94 3c f9 5a 9a 3e 49 93 ab be 2e f2 92 be
       0.01806934 0.30147532 -0.33510807 -0.28700393
0001e0 27 9a 99 3c 5f 8d 5f 3e 94 66 22 3e 27 4b 96 3d
       0.018750263 0.21831273 0.15859443 0.07338553
0001f0 77 2a 8c 3e b1 8b 91 bd f2 d9 ab 3c b0 d7 d1 3d
       0.27376148 -0.07106722 0.020977948 0.10246217
000200 12 22 b0 be e0 55 0b 3e d9 7d 36 3e 50 f6 a3 be
       -0.34400994 0.13606977 0.17821445 -0.3202386
000210 22 ae 32 3e 81 19 6e 3e ee 3c 9a 3e f9 b1 8f 3d
       0.17449239 0.23251916 0.3012461 0.070163675
000220 95 1e 5c 3e 70 10 04 3e a5 4f d2 bd 9f 6a 33 3e
       0.21496041 0.12896895 -0.10269097 0.17521141
000230 57 4a 70 3d d9 df 50 be ae 2a 3a bc e4 f7 be bd
       0.058664646 -0.20397891 -0.011362715 -0.09324625
000240 63 3c 86 be e0 e9 24 3c ce fb 12 3e 1f e0 ab 3c
       -0.26217946 0.010065526 0.14353868 0.020980893
000250 32 15 8f 3e 3e 74 ac be 9b f3 31 3d 09 12 5f 3e
       0.27945858 -0.33682436 0.04344521 0.21784224
000260 de 44 80 3d eb 57 02 be f0 53 d2 3e a2 13 29 be
       0.062631354 -0.1272885 0.41079664 -0.16511396
000270 59 ee 3b 3d e9 ed 87 3d ac e5 d9 3d 05 2f 1c be
       0.045881603 0.06637175 0.106395096 -0.15252312
000280 e1 0a c1 be 13 43 8c 3e 48 20 85 be 37 8e 83 3e
       -0.37703612 0.27394924 -0.2600119 0.2569444
000290 49 d6 4b 3d 05 41 99 bd 55 d5 00 3e dc 09 80 bd
       0.049764905 -0.074831046 0.1258138 -0.062518805
0002a0 35 1d 18 3e d1 d1 58 be d1 f0 85 bd 9a a6 7e be
       0.14854892 -0.21173789 -0.06540073 -0.24868241
0002b0 8e 8f 51 3e 6b a4 b9 be 77 f8 59 3e ad 86 92 be
       0.20464918 -0.36258253 0.21286188 -0.28618374
0002c0 cd 2e b9 be 4d f7 b4 be 3d df 74 be e7 c5 63 bd
       -0.3616852 -0.35344926 -0.23913284 -0.055608656
0002d0 c3 f1 84 3e e3 8a 89 bc 5e dc d4 3d 2d c4 5b be
       0.259657 -0.01678986 0.10393594 -0.21461554
0002e0 30 8e 50 be fa e2 a1 bd 12 26 61 bc 3e 37 ec bd
       -0.2036674 -0.079046205 -0.013741987 -0.11533974
0002f0 d6 4d 1c be f6 0a 3e bd b0 a4 76 bd 15 37 aa 3e
       -0.15264067 -0.046397172 -0.060215652 0.3324515
000300 0f 67 2c 3e c5 9b 42 3e b5 a3 6d 3e b5 39 29 3e
       0.16836189 0.19004734 0.2320698 0.1652592
000310 88 a3 73 bf 54 8f a0 3e 4e 4d 85 bb 21 ce a2 3e
       -0.95171404 0.3135935 -0.0040680533 0.3179789
000320 98 83 ef 3d 30 68 41 be 69 ee 06 3e 26 28 b9 3e
       0.116950214 -0.188874 0.13176884 0.36163443
000330 7d 3e a9 bd 7a 8c 87 3e 89 f7 c6 be f6 5a 7e bb
       -0.08263872 0.26474363 -0.3886073 -0.003881154
000340 63 fb a8 be 9a 7a ad 3e 5b 7d 90 bf 2e 36 81 3e
       -0.33004293 0.338826 -1.1288255 0.25236648
000350 dc 2d b7 3e d2 f2 d7 3d e6 68 7b be 99 70 57 3e
       0.35777175 0.10544361 -0.24551734 0.21039046
000360 67 a7 d3 bd 41 c1 98 3e 5f 4d 7d 3e dd 98 67 bd
       -0.10334664 0.2983494 0.24736546 -0.056542266
000370 27 6f 61 3e e2 9e a1 3e fc 72 83 3e 03 ca 4d be
       0.22015058 0.3156653 0.25673664 -0.20096593
000380 1c 3f 43 bd 01 29 03 3e f0 9a 90 3e 1d b2 36 be
       -0.047667608 0.1280861 0.28243208 -0.17841382
000390 9b d6 bb be 66 90 94 3e 75 e8 2c 3e 63 9f 7b 3e
       -0.36687168 0.29016417 0.1688555 0.2457252
0003a0 bf 41 b8 bd 31 a7 fb bd 2e 7c 34 be 37 d4 cb 3d
       -0.08996915 -0.122877486 -0.17625496 0.09952586
0003b0 df f9 63 3c cd 4c 99 3e e2 29 65 3e 63 cd a1 3e
       0.013914554 0.29941407 0.22379258 0.3160201
0003c0 b2 b7 73 3e df 55 c7 be a7 3f da bd 15 4d 8d be
       0.23800543 -0.38932702 -0.10656672 -0.2759787
0003d0 dc 06 03 3e 86 86 90 3e 2d e1 a3 bd 4c e4 95 3d
       0.12795585 0.28227633 -0.08001933 0.07318935
0003e0 cc 0b 37 3e fe 94 b3 be 24 17 4f be 7f a1 1f 3e
       0.17875594 -0.3507461 -0.20223671 0.1558895
0003f0 a4 ed 01 3d 91 d3 c2 be 0c f8 d2 3d 0d 3c 6f be
       0.031720772 -0.38052037 0.103012174 -0.23362751

model.0.bias f4 [128]
000000 d6 49 35 3e e9 b1 22 3e c6 91 95 bd c0 72 80 be
       0.17703947 0.1588818 -0.07303195 -0.25087547
000010 4f 2b 25 3e c0 e1 af be 05 3b 0f be 03 86 23 3e
       0.16129802 -0.3435192 -0.13987358 0.1596909
000020 d3 c2 03 be 26 0d 6e be f6 9c eb bc bd c4 99 3e
       -0.12867288 -0.23247203 -0.028761368 0.30032912
000030 c2 78 d0 bd 95 cb 36 3e 36 53 3c 3d e9 43 22 be
       -0.10179283 0.17851098 0.045977794 -0.15846218
000040 a0 3c bc bd c9 fe e5 3d a6 cc 8f 3e e6 11 c7 be
       -0.09191251 0.11230237 0.28085822 -0.38880843
000050 c7 c2 8d 3e b3 b8 97 3d 8d 0b 53 be 06 59 c7 3c
       0.27687666 0.074082755 -0.20609875 0.024334442
000060 79 41 69 bd 76 80 6e 3e cd b4 b6 be 44 bd 0e be
       -0.056947205 0.23291191 -0.35684815 -0.13939387
000070 67 27 6e be 61 5d 01 3e 0a ee b2 be 3d aa 18 3e
       -0.23257218 0.12633277 -0.34947234 0.14908691
000080 22 e0 c0 be d3 b8 ae 3e 8c ed bc 3d e7 d7 9b 3e
       -0.37671 0.34125385 0.09224996 0.30438158
000090 3e 30 8a 3e 2f af 95 3e 71 a8 77 be 0e 6a 40 be
       0.2698993 0.29235217 -0.24185349 -0.18790457
0000a0 3e db c0 3c 6b bf 9e be f1 f1 00 3e 3a 68 51 bd
       0.023542043 -0.31005415 0.12592293 -0.05112479
0000b0 4d d3 6e 3e 9a 86 8c ba 8a 14 45 bd 56 b8 15 bd
       0.23322792 -0.0010721267 -0.04811529 -0.03655275
0000c0 a6 b7 52 3e e3 b4 35 bd 96 7d 0e 3e 5f f7 27 be
       0.20577869 -0.04436196 0.13915095 -0.16402958
0000d0 c8 25 bb 3e 44 ae 72 be e5 89 b0 3e 06 ce b7 bd
       0.36552262 -0.2369929 0.34480205 -0.08974843
0000e0 5c f5 47 be 8f 12 8f be e9 83 9c be 9b 25 18 3e
       -0.19527191 -0.27943847 -0.3056939 0.14858095
0000f0 c1 6c 8d 3e be 09 38 3e 31 f0 f6 3c 21 0f dc 3c
       0.27622035 0.17972466 0.030143829 0.026862683
000100 dd 35 73 be a9 37 8f be 98 16 b5 bd 3d fd 78 be
       -0.23751016 -0.27972153 -0.088422 -0.24315353
000110 94 4a 6d be 3f 2a 48 be 84 88 55 3e 12 40 b5 3d
       -0.2317298 -0.19547366 0.20852858 0.08850111
000120 75 c3 49 3e a1 fb 61 be a8 f0 d7 bc 57 4f ed bd
       0.19703467 -0.22068645 -0.026359871 -0.115873985
000130 39 29 7c be b6 8e fe bd a1 76 ec bc 46 ee 6d be
       -0.246251 -0.12429564 -0.02886516 -0.23235425
000140 41 a8 58 be dd 3b ce 3d e9 9b af be ff 67 ab bd
       -0.21157934 0.10070012 -0.34298638 -0.08369445
000150 0e 17 3e be d6 58 12 be c6 a4 63 3e ad 23 a2 bc
       -0.18563482 -0.142917 0.22230825 -0.019792402
000160 b0 6b 76 3d 83 80 8a be 96 3e ab 3c 05 85 50 bd
       0.060161293 -0.27051172 0.020903867 -0.050908107
000170 e0 fe 36 be 42 0f 1d 3d a3 39 6a 3e 9e c8 9f bd
       -0.17870665 0.03834463 0.22873549 -0.078019366
000180 c4 ca 92 be db b1 48 3e f1 0a 58 be 1a f4 7f be
       -0.28670323 0.19599096 -0.21097924 -0.24995461
000190 75 62 8c 3e c8 57 8a bd 98 38 bc be 8a a5 9d 3e
       0.27418867 -0.06755024 -0.36761928 0.3079036
0001a0 f7 58 4a be ca d5 0c be 3c 0b c1 3e e0 b6 82 3e
       -0.197605 -0.13753429 0.37703884 0.25530148
0001b0 c6 61 b8 be 65 5f a9 be 70 5b 92 bd aa 7d f0 bd
       -0.36012095 -0.33080593 -0.071463466 -0.117427185
0001c0 1a 40 42 3e 1f ef db ba 92 22 92 3e 38 13 87 3e
       0.18969765 -0.0016779638 0.28542 0.2638185
0001d0 2d fd 3b 3d 90 f3 ad 3e be 31 94 3d 88 66 87 bd
       0.045895744 0.33974886 0.0723605 -0.06611353
0001e0 51 83 b5 3e 40 e8 de 3c be 89 8d 3e 4d 6a 14 3e
       0.3545175 0.027210355 0.2764415 0.14493676
0001f0 89 3d e3 3d 33 86 10 be 04 69 a3 3e 69 4c ea bc
       0.11095721 -0.14113693 0.31916058 -0.028600888

model.2.weight f4 [64, 128]
000000 47 78 b2 bd ec 1b de bd a9 ad 81 bd 90 ca 1a bd
       -0.08714347 -0.108451694 -0.06331951 -0.037790835
000010 05 5b aa 3d 70 a9 9b bd 20 35 93 3d b2 96 e5 3d
       0.08318142 -0.07600677 0.07187867 0.112103835
000020 b7 20 9e 3c d7 ee d4 bc d3 0d 85 bb db db ed 3c
       0.019302709 -0.025992794 -0.004060486 0.0290355
000030 89 ac bf bb e9 d7 aa 3c 40 0c 2f 3d 28 19 89 3d
       -0.005849425 0.020854907 0.042736292 0.06694251
000040 8d 40 8e 3c b2 8a 59 bd bb 6d d9 bc dd a8 d0 3c
       0.017364765 -0.053110786 -0.026541581 0.025471145
000050 99 8d 58 bd 52 a1 ec 3d 06 d2 3a 3d 5a 50 08 bd
       -0.052869413 0.11554207 0.04561045 -0.033279754
000060 7e 8d 8f 3d 4d fd 82 3d 80 0e ae bd fd 3a 17 bd
       0.07009409 0.063959695 -0.084988594 -0.03692149
000070 3b 43 10 3e 44 e8 01 bd f5 0b 85 3e f4 b4 95 bd
       0.14088146 -0.031715646 0.25985685 -0.07309905
000080 ed 89 8c 3d c8 e1 3e bd 6d 68 18 3d 98 a4 b3 3d
       0.06862245 -0.04660204 0.037208963 0.08771628
000090 40 cd 9e bd 99 c7 98 3d 83 58 88 3d 54 95 a9 3c
       -0.07753992 0.07459945 0.06657507 0.020701088
0000a0 9a 43 0d bc 94 70 34 3c f1 66 8f 3d 8e bb de 3d
       -0.0086220745 0.011013169 0.070020564 0.10875617
0000b0 64 46 10 3c 29 d4 6c bc c7 cd 09 bd 61 a5 b3 3d
       0.008805845 -0.01445488 -0.03364351 0.08771778
0000c0 fc f2 6f 3d 76 9c e7 3e 1d ea 8a bc 1e ee 8f bc
       0.058581337 0.45236558 -0.016957337 -0.017569598
0000d0 0e 6d bd bc 3e 93 a2 bd 9e 8b 72 bd ee 09 99 bd
       -0.02312329 -0.079382405 -0.05921518 -0.07472597
0000e0 b6 c2 92 bd 45 7e 81 3d 84 07 fe bc d9 bf 2d bd
       -0.071660444 0.06322912 -0.031009443 -0.04241929
0000f0 be bd 97 bc 77 d8 1a bd 34 50 87 3d c3 10 71 3b
       -0.018523093 -0.037804093 0.066070944 0.0036783672
000100 3c 97 7e bd 01 a7 a4 3d 09 61 0c bd e1 ca 8a bc
       -0.062155947 0.08039666 -0.034272227 -0.016942443
000110 69 6b 6a 3d ce ae 02 3e e3 fd 91 3d 0f cf 15 bc
       0.05723134 0.12761995 0.07128503 -0.009143605
000120 9b e9 1c 3d 3e 28 9e 3c b9 b8 e6 bc c7 0d 76 3b
       0.03830872 0.019306298 -0.028164255 0.0037544833
000130 a9 f0 ab 3d 75 2b 1d bd 93 fe 4c 3d ad 52 33 3d
       0.08395512 -0.038371522 0.05004747 0.043780018
000140 fe 71 d0 3d e3 44 7f bd a0 b3 09 3d b9 4f 01 3d
       0.10177992 -0.062321555 0.03361857 0.03157017
000150 c0 1c 86 bd 6f 58 44 3e 30 25 54 3d 47 53 57 bb
       -0.065484524 0.1917436 0.051793277 -0.0032856034
000160 d5 9d 19 3e b8 d8 22 3c 79 ac 47 bd 03 47 d1 3c
       0.15001614 0.009939365 -0.048748467 0.025546556
000170 91 e6 f8 3c 70 da bd bd 3c f4 b0 3d f1 7e a5 bd
       0.03038338 -0.09270179 0.08640334 -0.08080853
000180 57 84 cd bd 31 98 46 bd 4a 71 8b bb 62 fd 5c 3d
       -0.100350074 -0.048484985 -0.0042554485 0.053952582
000190 e8 72 29 3d c0 8c 2c 3d 0d 70 a5 3c f7 23 4a 3c
       0.04136935 0.042126417 0.020195032 0.012337676
0001a0 1d 38 7b 3d 65 4e ce 3d 4a bc e1 b9 95 a6 1f bc
       0.06133281 0.10073546 -0.0004305563 -0.009744306
0001b0 3d 91 12 3d b0 4b 27 3d 9c 47 2e bd 12 fb d2 3c
       0.03578304 0.040843666 -0.04254876 0.025754485
0001c0 1c a2 d1 3b 3e 3c 23 3d 9d 0d 0e bd 0d 6b a8 3d
       0.006397499 0.039852373 -0.03468095 0.08223543
0001d0 2d 19 a8 bd ea c9 47 bd 3e 8b 92 bd 0d d4 8e 3c
       -0.08207927 -0.048776545 -0.071554646 0.017435098
0001e0 a5 ce de bc 7d 68 cb 3d 95 70 86 3c f0 ca 04 3d
       -0.027198145 0.09932039 0.016411105 0.0324201
0001f0 2d 41 cd 3d b2 bc c8 bc 27 b7 9c 3d b4 2c a8 bd
       0.10022197 -0.02450404 0.07652121 -0.082116514
000200 c1 67 8a 3d 52 07 c2 ba 31 b8 52 be d3 0e c2 bc
       0.06758071 -0.0014803207 -0.20578076 -0.02368871
000210 90 68 fe bd 42 73 df bb d6 05 8a bd 31 8a ec bc
       -0.124222875 -0.0068191597 -0.06739394 -0.028874489
000220 26 eb 1d bd 8f cd 76 bd ba 31 4d 3d 28 00 2d 3d
       -0.038554333 -0.06025463 0.05009625 0.042236477
000230 b7 ff 0b 3d 4d db b9 3d 79 59 9c bc 7e f3 0a be
       0.034179416 0.090750314 -0.019085633 -0.13569447
000240 c6 ce b4 bd eb 38 55 3b 3f 31 5b bc d1 e2 d3 bd
       -0.088285014 0.0032535146 -0.01337844 -0.10345996
000250 64 e2 9d 3a b9 ea 2b 3c 39 0c e6 bd 97 21 c0 bd
       0.0012045619 0.010492974 -0.112328 -0.09381407
000260 d5 37 d4 3c f6 7d 03 3d f2 a7 59 3d 95 39 9f 3d
       0.025905529 0.032102548 0.05313868 0.07774655
000270 5f 94 99 bd 6f 4e 17 3c ed 3a 85 be b3 b3 11 bc
       -0.07499003 0.009235009 -0.2602152 -0.008892941
000280 d4 c6 b3 bd e1 f2 81 3d 80 68 ac 3d 5c 61 4e bd
       -0.08778158 0.063451536 0.08418369 -0.050385818
000290 20 c0 11 3d 76 07 8d bd 84 a6 4d be 45 64 a4 bd
       0.035583615 -0.06886189 -0.20083052 -0.080269374
0002a0 2c 86 01 3d e2 e5 89 be 23 71 ce 3c d2 d2 22 be
       0.031622097 -0.269332 0.025200432 -0.15900734
0002b0 16 65 29 3d af 8e e1 3c f9 59 58 3d 7e 14 b7 bd
       0.04135617 0.027533857 0.05282018 -0.089394554
0002c0 8e 2d 22 3c f9 d5 ce be 82 83 73 bd 53 76 96 3d
       0.009898556 -0.40397623 -0.059451587 0.07346787
0002d0 9b ba 3e 3c 23 4c 35 bd e7 07 3a bd 22 25 ae 3d
       0.01164117 -0.044262063 -0.045417693 0.08503176
0002e0 80 4d 8e 3d a7 ce f0 bc c3 50 7e 3d b9 ec 5e bd
       0.06948376 -0.029395415 0.06208874 -0.054424975
0002f0 f5 5c 4b bd 3a 5e 97 3d f9 c2 a5 bd 57 cf 10 b8
       -0.049649198 0.07391019 -0.08093829 -3.4525376e-05
000300 39 10 ac bd 57 4b 69 3d f7 62 d4 3c 37 07 5d 3c
       -0.08401532 0.056956615 0.025926096 0.01349049
000310 bc e6 ba 3b 21 29 31 be d1 93 24 3d 78 a2 0e be
       0.005703775 -0.17300846 0.04018003 -0.13929164
000320 ab db 92 bd de ca f5 bd 25 6c b5 bd a4 e1 ab bd
       -0.071708046 -0.120015845 -0.088585176 -0.08392647
000330 39 64 13 bd 52 2f 31 3d a4 21 64 3d 76 73 2a 3d
       -0.03598425 0.04325802 0.055696145 0.04161402
000340 9c 07 01 bd c6 13 bc 3c 7c 6a ac bd c4 53 97 3d
       -0.031501397 0.022958647 -0.08418748 0.07389024
000350 ab 0d b4 3d 9c b6 62 be 30 7c 97 bd 13 a9 50 bd
       0.087916695 -0.22139972 -0.07396734 -0.05094249
000360 cb 75 8f bd 36 86 fe bb 37 07 87 3d ba 0f 10 be
       -0.07004889 -0.007767464 0.06593173 -0.14068499
000370 2e 4c 9c bd 3b 33 31 3d 8f f3 ee 3c 56 0c 82 3b
       -0.076317176 0.043261748 0.029168872 0.0039687557
000380 9f c4 3a bd 47 ad a1 3d 68 11 ab bd 1a fd 06 be
       -0.04559767 0.07894378 -0.08352929 -0.13182488
000390 2f 49 77 3a 01 22 93 bd 9d 4b 27 3d ce 0d 66 bd
       0.00094332075 -0.0718422 0.040843595 -0.05616551
0003a0 41 ff 31 3d 52 09 0b bd 8c df e4 3c 8b 04 a5 bb
       0.04345632 -0.033944435 0.027938627 -0.005035942
0003b0 2c eb 8c bc d6 61 cc bc e5 c1 76 bd fc 9e d7 3c
       -0.017201982 -0.024948996 -0.060243506 0.026320927
0003c0 75 ef 0c bd 1e 44 2e be d7 77 9e bc fc e5 3e 3d
       -0.03440805 -0.17018172 -0.019344253 0.04660605
0003d0 80 e3 1a bd 01 5e 53 bd 06 52 9b 3d c5 28 1e 3d
       -0.037814617 -0.05160332 0.07584004 0.0386131
0003e0 35 79 a5 3d 05 cc 42 be 6d f0 84 bb 29 24 40 bd
       0.08079759 -0.1902314 -0.0040569813 -0.046909485
0003f0 68 ca 29 be 40 a9 05 3b a7 2b 28 3d 06 10 78 3d
       -0.16581118 0.002039507 0.041057255 0.060562156

model.2.bias f4 [64]
000000 56 83 86 3d 8d ae 6f 3c 63 32 b5 3d c3 b0 a4 bd
       0.06568019 0.0146290185 0.08847501 -0.08041527
000010 ad 9e 16 bd f2 f6 04 bd 2f b0 a7 3d 14 8d aa bc
       -0.03677242 -0.032462068 0.08187901 -0.020819224
000020 a0 09 d4 bd b0 31 83 3d ef a0 db bc 91 f2 63 3d
       -0.10353398 0.064059615 -0.026810138 0.05565125
000030 cf 50 07 bb 25 f1 8e bd db ee 91 3d dc 8f ea 3a
       -0.002064753 -0.069795884 0.07125636 0.0017895657
000040 3e a4 80 3d bf da 8b 3b 3d cb 70 bd 92 83 86 3d
       0.06281327 0.00426802 -0.058787573 0.06568064
000050 5a 39 2a bd 56 02 9c bd 66 b0 eb bb ed 64 42 3d
       -0.0415586 -0.07617633 -0.007192659 0.04745953
000060 52 f1 87 3a 3a 67 97 bd 42 5d b0 bd ee 69 8e bd
       0.0010371602 -0.07392736 -0.086115375 -0.06953798
000070 38 cf 32 3c 89 e3 b9 3c 60 43 a6 bd a0 15 1e bd
       0.010913663 0.022691505 -0.081183195 -0.038594842
000080 6d 48 b1 bd 39 25 81 3d 51 46 1e 3d 87 2a 7f 3d
       -0.08656392 0.06305928 0.038641278 0.062296417
000090 e3 29 22 bd aa 3f 8d 3d ff 2e 4c 3d 00 04 26 3d
       -0.039590728 0.068969086 0.049849506 0.04053116
0000a0 68 3f 18 bd 5a de 9f bd d0 74 b3 bc 83 37 fe bb
       -0.037169844 -0.07806082 -0.021906286 -0.0077580824
0000b0 da 59 0d bd 98 d0 1c 3d 46 f2 13 3d a8 87 bd bc
       -0.034509517 0.038284868 0.03611972 -0.023135975
0000c0 98 48 79 bd 33 c8 0e 3d 06 07 58 3d 00 dc 77 bd
       -0.060860246 0.034858894 0.052741073 -0.060512543
0000d0 35 e2 a0 bc 12 14 59 3d 3c 1b 35 bc dd 3c 80 bd
       -0.019639114 0.052997656 -0.011053856 -0.06261609
0000e0 21 6a 2f bd b6 7a 2f bd a9 a1 ac 3c d4 f8 21 3d
       -0.04282582 -0.042841636 0.02107318 0.03954394
0000f0 48 c7 08 3d 1d f2 91 bd a7 51 4f bd f1 e3 c3 bc
       0.033393174 -0.071262576 -0.05061498 -0.023912402

model.4.weight f4 [4, 64]
000000 39 21 8b 3d 24 ff df 3d d4 c9 ec 3d fc 2f 22 3d
       0.06793446 0.10937336 0.11561933 0.039596543
000010 8e 6e 9d 3d 42 35 d4 3d 18 40 12 3d fe 1f 72 3d
       0.07687102 0.103617206 0.035705656 0.05911254
000020 cc 44 28 be 76 d6 88 3d 86 2f c9 3d 6e e3 bc 3d
       -0.16432494 0.0668153 0.098235175 0.09223066
000030 c8 a3 f4 bd c8 a5 87 bc 98 96 72 bd 0e f8 a1 bd
       -0.11945301 -0.016558543 -0.05922565 -0.07908641
000040 cd a9 87 3d 25 53 38 3d 98 82 84 3d ed cc 6d bd
       0.06624184 0.045001168 0.06470221 -0.05805676
000050 36 c9 b0 3d fc d3 6f 3d a7 47 ec bc 8e bf ae 3d
       0.08632128 0.058551773 -0.02884276 0.0853263
000060 e0 f2 a2 3d 4b 6b e5 3c ea 58 82 bd 83 ee a7 3c
       0.07956481 0.028005263 -0.06364615 0.020499473
000070 0c d5 4b 3d 1a 30 8e 3d a2 19 f9 3d de 61 9c 3d
       0.049763724 0.069427684 0.12163092 0.07635854
000080 dc 3a de bd 1b d2 42 3c fa 6e 00 bc 26 22 ea ba
       -0.1085107 0.011890913 -0.007838959 -0.001786296
000090 99 5d 8b bd ba 5c a0 bd 72 45 c6 3c 91 70 b3 3d
       -0.06804962 -0.07830186 0.024203036 0.08761705
0000a0 33 48 c9 3d 87 ca 6d 3d 52 82 a9 3d 35 c0 a4 bd
       0.09828224 0.058054473 0.0827681 -0.08044473
0000b0 ce 4d 0c 3e c2 6b b5 3d a2 fe 8e bd 18 ae 85 3d
       0.13701555 0.08858444 -0.06982161 0.065273464
0000c0 56 1e f5 bd d5 d1 ee 3c 91 e7 89 3c 83 eb ab 3d
       -0.11968677 0.02915279 0.016834052 0.0839453
0000d0 d0 b8 c5 bc c4 ce 0e bc b8 ae db 3d bc ec 39 3d
       -0.024135977 -0.008716289 0.10726684 0.045391783
0000e0 3a 59 d3 3d fc 87 f6 3a 55 6e ed bb 0a 7e 9b 3d
       0.10319753 0.0018808837 -0.0072458186 0.075923994
0000f0 5f b9 2d 3c 3c f1 0d bd 8b 4c e6 bd 7e 2f 98 bd
       0.010603278 -0.034653887 -0.11245068 -0.074309334
000100 6f ad c0 bd 02 d4 9f 3c ef 54 a9 bd 38 fb 35 3d
       -0.0940808 0.019510273 -0.08268153 0.044429034
000110 6f 6a b7 3d bd dc 85 bd 5b e3 d7 3d b5 71 68 bd
       0.089558475 -0.06536243 0.105414115 -0.056749064
000120 a4 31 78 3d ff f0 94 bd 0e 9b 47 bd 6e 19 15 bd
       0.060594216 -0.07272529 -0.048731856 -0.036401205
000130 ee 7f ce bd 0e 4b de bd b6 05 06 3e 10 f2 9f 3c
       -0.100829944 -0.10854159 0.13088116 0.019524604
000140 b0 d4 ff 3d 81 2c cb 3d 98 37 22 bd 7b b1 b6 bd
       0.12491739 0.09920598 -0.0396038 -0.089205705
000150 ad d2 d1 3d 48 ae ba 3c 4a 2d ad bd 00 2e 83 3a
       0.10245261 0.022788182 -0.08455904 0.0010008216
000160 dc e9 fe 3d 5e 1b 77 bd 0a ce de bd b0 0b b2 3c
       0.12446949 -0.060328834 -0.108791426 0.021734089
000170 70 38 75 3c dc 5a 30 3d 68 a8 59 bd 82 f9 e0 bd
       0.014967069 0.0430554 -0.05313912 -0.1098509
000180 cc 6d bd bd cd d7 02 3d 59 71 4e 3c af 54 9b 3d
       -0.09249458 0.031944085 0.012600266 0.075845115
000190 48 07 8f bd 21 85 b9 3c f8 5d 28 bd 40 3c 92 bc
       -0.06983811 0.022646489 -0.04110524 -0.017850995
0001a0 29 5c 4f ba 20 ac a3 3d 7f 3a 35 bd a0 fa 4b bd
       -0.0007910156 0.079918146 -0.04424524 -0.04979956
0001b0 c5 2d 85 bd 50 e2 61 bd f0 c8 bc 3d 10 81 d4 3c
       -0.065028705 -0.05514747 0.09218013 0.025940448
0001c0 9a fc c8 bd f4 c7 9d 3e 7c 92 b7 ba dd f7 91 bd
       -0.09813805 0.30816615 -0.0014005448 -0.07127354
0001d0 c6 49 e2 bd a0 b0 ae 3c 19 97 5e 3c 40 1b 05 bd
       -0.110492274 0.021324456 0.013585829 -0.03249669
0001e0 00 8d f1 ba 0a 6b 83 3d d0 62 b3 3c b0 25 6c 3c
       -0.0018428862 0.064169005 0.021897703 0.014413282
0001f0 c8 a8 45 3d b4 2f 9a bd d0 9d 86 3d 21 d1 09 3e
       0.048256665 -0.0752863 0.06573069 0.13458683
000200 55 f4 c6 3d 72 04 4a be 12 3c 6f 3d 98 1f 7f bd
       0.097145714 -0.19728258 0.058406897 -0.06228599
000210 6f e4 8d 3d 48 78 74 3d b4 a2 2e be 0e de 85 3a
       0.06928336 0.05968502 -0.17054254 0.0010213272
000220 81 d9 f3 bc 9b d4 ec bc c3 52 33 bd d9 8e d2 bd
       -0.0297668 -0.028909972 -0.0437801 -0.10281152
000230 ae f7 be bd 70 de ff bd 4e d7 35 3d 80 33 42 3c
       -0.09324585 -0.124935985 0.044394784 0.011853099
000240 a7 ae aa 3b 8f 62 93 bd be c2 9c 3d 03 7c bb 3c
       0.0052088085 -0.07196533 0.076543316 0.022886282
000250 28 1a 02 bd f0 c8 ab bd 30 aa cf bd 6e 94 b1 bd
       -0.031763226 -0.08387935 -0.101398826 -0.08670889
000260 e2 3a ab bd 46 1f 60 bc 8c e8 c9 3d b0 1d 68 bc
       -0.083608404 -0.013679331 0.09858808 -0.014167234
000270 1e ec e4 3d d6 2f 9a bd f8 e6 bc bd 22 ca 3e bd
       0.11177848 -0.07528655 -0.09223741 -0.046579488
000280 be 36 93 bd 0f 1a 8f bc 1d d0 17 bd f3 f1 1b 3d
       -0.071881756 -0.01746848 -0.037063707 0.038072538
000290 d6 b8 5b bd 10 af a7 bd 3c aa 97 bd 03 9e 49 bd
       -0.05364307 -0.081876874 -0.074055165 -0.049222957
0002a0 46 a4 cd bd e6 4c 76 bd 4a d6 24 bd e7 72 80 3d
       -0.10041098 -0.06013193 -0.040243424 0.06271916
0002b0 3b 7a 24 be b2 8f 98 3d 12 5e af 3d a8 d8 07 3d
       -0.16062252 0.07449283 0.08562864 0.033165604
0002c0 dc bf 11 bd 61 08 a9 bd 4f 6d 5e 3e 51 4a e7 3c
       -0.035583362 -0.08253551 0.21721385 0.028233679
0002d0 b4 63 2d bd ac b4 7e 3d 59 c7 a3 3d 88 e2 db bc
       -0.042331412 0.06218402 0.07997007 -0.026841417
0002e0 dc a5 fe 3d 85 4b 08 be ce 7b f7 3d f4 b8 04 bd
       0.12433979 -0.13310058 0.12084161 -0.032402948
0002f0 b4 80 5f 3c bc d7 9c 3d d0 f6 f7 bc 62 81 1f 3d
       0.013641525 0.076583356 -0.030269057 0.03894175
000300 3c bc c5 3d 25 3f bb bc 99 5a 04 3e 82 e2 e1 3d
       0.096550435 -0.022857258 0.12925185 0.11029531
000310 dd d9 8a 3d 4e 01 c1 bd b7 83 9a bd 4b a0 2f 3d
       0.067798354 -0.09424077 -0.07544654 0.042877477
000320 1d 6b 3f bc e5 8b 86 3d 50 07 e2 3d be 3a ae bd
       -0.011683253 0.065696515 0.11036551 -0.08507298
000330 78 69 5f bd 40 1b 7c bd 82 3e 93 bd 30 35 0f 3c
       -0.054543942 -0.061549425 -0.07189657 0.008740708
000340 61 89 16 bd a2 ea 15 bd be 4b aa bd e1 6b 97 3d
       -0.03675211 -0.036600716 -0.08315228 0.07393623
000350 62 f9 41 3d d0 75 32 3d bb 30 9e bd 31 b6 c8 bd
       0.04735697 0.043569386 -0.07724138 -0.09800375
000360 28 17 85 3d 8f 4d 10 3e 9e 44 9b 3d 60 4b 47 bd
       0.06498557 0.14092086 0.07581447 -0.048655868
000370 28 f0 d5 bc f0 46 8d bc bc 5b c3 3d f6 fa 0c 3d
       -0.026115492 -0.01724574 0.09538981 0.034419023
000380 28 dd 88 3c 5e 3d 06 3d 37 6e a3 3c 89 ce 2e bd
       0.016707018 0.032773368 0.019950015 -0.042677436
000390 ad 8a 3e 3d 20 fb d6 3c 9c 65 62 3d 88 a5 bd 3d
       0.04651897 0.026242793 0.055272684 0.09260088
0003a0 66 5b 39 bc e7 a2 e4 3d 80 b4 9e 3d 4a ec a9 bd
       -0.011313295 0.11163884 0.077492714 -0.08297022
0003b0 a8 e7 45 3d cc c3 b3 3d 90 b0 9a 3d 04 03 1d bd
       0.048316628 0.0877758 0.07553208 -0.038332954
0003c0 14 56 0a 3d 2a cf 58 be fa 95 2c 3b 9d 7b 00 3e
       0.033773497 -0.21172777 0.002633451 0.12547155
0003d0 ec 01 e2 3d 2e e9 e7 3d d6 a5 a1 3c a0 c4 bd bd
       0.11035523 0.11323772 0.019732397 -0.09266019
0003e0 ec 4b cb bd 70 2c b0 3d 88 dc c3 bd a0 d4 45 bd
       -0.0992659 0.08602226 -0.095635474 -0.048298478
0003f0 8f 81 26 3d 46 c1 b5 3d 74 0e d6 3d e5 09 16 bd
       0.0406509 0.088747546 0.104519755 -0.03663053

model.4.bias f4 [4]
000000 1e e1 92 bd 55 9b 70 bc 8b 3e 60 3d 59 e1 b1 bd
       -0.07171844 -0.014685472 0.054747146 -0.0868556

model.0.weight f4 [128, 7]
000000 0b 8c ca bd f3 01 19 be f2 1e 86 3e e5 ce 60 be
       -0.09889992 -0.1494215 0.26195484 -0.21953924
000010 08 8f 01 be ea ff a8 3e 30 8e 73 3e f0 9f 39 3c
       -0.12652218 0.33007747 0.23784709 0.011329636
000020 89 28 2d be 47 64 05 be 32 04 6a 3c 85 d4 2e 3e
       -0.16909994 -0.13026534 0.014283227 0.17073257
000030 3e 7b 73 3e 4b d3 58 3e f5 c1 cc 3e f3 cf ca bc
       0.23777482 0.21174352 0.39991727 -0.024757361
000040 58 ae 8f 3d b5 7f 78 be 20 36 b9 be a8 e7 c4 bd
       0.07015675 -0.24267466 -0.36174107 -0.096144974
000050 a4 25 3d 3e 16 90 c2 bd 41 61 56 be 5f bb 91 3e
       0.1847139 -0.095001385 -0.20935537 0.28463265
000060 c5 39 67 3b 60 7f 3f 3e 7f d0 6b 3e 23 2f 31 3d
       0.0035282236 0.18700933 0.23028754 0.043257844
000070 20 6c 0f bf 31 7f 24 be 1d e0 a8 be ce a8 34 3e
       -0.5602436 -0.16064145 -0.32983485 0.17642519
000080 e4 d5 bb 3e a9 1e 8f 3e 93 64 e7 bc 13 be b3 be
       0.36686623 0.2795308 -0.0282462 -0.35105953
000090 31 25 a6 3c c5 a4 46 be 3a 21 48 be 0e cf 71 be
       0.020281406 -0.19398792 -0.19543925 -0.23614141
0000a0 f5 ee 41 3e 21 85 75 3d 50 91 33 3e 04 89 d6 be
       0.18938811 0.059941415 0.17535901 -0.4190141
0000b0 a8 7c 4b 3e 11 6f 55 3d 76 1f 88 3e cb e2 92 be
       0.19871771 0.052107874 0.26586503 -0.28688654
0000c0 51 9d 59 bc 72 15 19 3d cc f7 aa be ef 16 ae be
       -0.013282136 0.037373967 -0.3339218 -0.34001872
0000d0 ae 07 a0 3c 7e a7 10 be 86 b9 55 3d 3c b3 09 bb
       0.019534912 -0.14126393 0.052178882 -0.0021011373
0000e0 ee 24 90 be de 14 81 bc b1 a9 11 3d 0a 21 f2 3b
       -0.28153175 -0.01575702 0.03556222 0.0073891925
0000f0 94 50 5a be bc 96 bb 3e 09 ec 05 be f8 8d 25 be
       -0.213198 0.3663844 -0.13078322 -0.16167438
000100 f7 9f 84 be 62 bf 85 3e c7 4a 59 be ad df f4 3a
       -0.25903293 0.26122576 -0.21219932 0.0018682383
000110 f5 b2 b0 be 52 28 97 be 02 4c 79 bd 27 83 aa bd
       -0.34511533 -0.2952295 -0.060863502 -0.083257966
000120 b0 e6 82 be 84 5e b8 3e 68 30 ae be 55 ef 19 3d
       -0.25566626 0.3600961 -0.34021306 0.03758176
000130 df 38 dc bd 29 a3 4e 3e a1 88 1d 3e a6 38 b9 be
       -0.10753035 0.20179428 0.15384151 -0.36176032
000140 27 54 42 bd 77 5e 1e be 67 c8 b7 be 34 84 a7 bd
       -0.047443535 -0.15465723 -0.35895082 -0.081795126
000150 56 d2 0a bc 5e 60 cf be b9 5a 5b 3e 2f 8c 8d 3e
       -0.008473 -0.4050321 0.21421327 0.27646014
000160 c4 c4 50 3e 17 c1 9e be e7 2a 75 3e dd 00 39 be
       0.2038756 -0.3100669 0.23942147 -0.18066736
000170 29 9a c3 3d 57 b2 91 3e a6 f0 09 3e dc 15 1d bd
       0.09550888 0.28456375 0.13470706 -0.038350925
000180 51 fa b0 be 21 f0 b2 be c9 57 8c be 96 a6 41 3e
       -0.34565976 -0.3494883 -0.27410725 0.18911204
000190 ec a6 e5 3d 45 c2 89 3e f6 e7 1f 3e 53 08 80 3d
       0.112134784 0.26906028 0.1561583 0.06251588
0001a0 77 85 1e be 34 3c 92 3e 2a d1 32 bd 37 a2 97 3e
       -0.154806 0.28561556 -0.043656506 0.29615948
0001b0 38 dc 45 be aa 95 9c 3e f9 9e 7b be da 9b 4b bd
       -0.19322288 0.30582935 -0.24572362 -0.04970918
0001c0 69 0c 16 be b1 b1 54 be 85 dc 55 be dd d9 7d be
       -0.14653172 -0.20770909 -0.20884903 -0.2479014
0001d0 27 06 94 3c f9 5a 9a 3e 49 93 ab be 2e f2 92 be
       0.01806934 0.30147532 -0.33510807 -0.28700393
0001e0 27 9a 99 3c 5f 8d 5f 3e 94 66 22 3e 27 4b 96 3d
       0.018750263 0.21831273 0.15859443 0.07338553
0001f0 77 2a 8c 3e b1 8b 91 bd f2 d9 ab 3c b0 d7 d1 3d
       0.27376148 -0.07106722 0.020977948 0.10246217
000200 12 22 b0 be e0 55 0b 3e d9 7d 36 3e 50 f6 a3 be
       -0.34400994 0.13606977 0.17821445 -0.3202386
000210 22 ae 32 3e 81 19 6e 3e ee 3c 9a 3e f9 b1 8f 3d
       0.17449239 0.23251916 0.3012461 0.070163675
000220 95 1e 5c 3e 70 10 04 3e a5 4f d2 bd 9f 6a 33 3e
       0.21496041 0.12896895 -0.10269097 0.17521141
000230 57 4a 70 3d d9 df 50 be ae 2a 3a bc e4 f7 be bd
       0.058664646 -0.20397891 -0.011362715 -0.09324625
000240 63 3c 86 be e0 e9 24 3c ce fb 12 3e 1f e0 ab 3c
       -0.26217946 0.010065526 0.14353868 0.020980893
000250 32 15 8f 3e 3e 74 ac be 9b f3 31 3d 09 12 5f 3e
       0.27945858 -0.33682436 0.04344521 0.21784224
000260 de 44 80 3d eb 57 02 be f0 53 d2 3e a2 13 29 be
       0.062631354 -0.1272885 0.41079664 -0.16511396
000270 59 ee 3b 3d e9 ed 87 3d ac e5 d9 3d 05 2f 1c be
       0.045881603 0.06637175 0.106395096 -0.15252312
000280 e1 0a c1 be 13 43 8c 3e 48 20 85 be 37 8e 83 3e
       -0.37703612 0.27394924 -0.2600119 0.2569444
000290 49 d6 4b 3d 05 41 99 bd 55 d5 00 3e dc 09 80 bd
       0.049764905 -0.074831046 0.1258138 -0.062518805
0002a0 35 1d 18 3e d1 d1 58 be d1 f0 85 bd 9a a6 7e be
       0.14854892 -0.21173789 -0.06540073 -0.24868241
0002b0 8e 8f 51 3e 6b a4 b9 be 77 f8 59 3e ad 86 92 be
       0.20464918 -0.36258253 0.21286188 -0.28618374
0002c0 cd 2e b9 be 4d f7 b4 be 3d df 74 be e7 c5 63 bd
       -0.3616852 -0.35344926 -0.23913284 -0.055608656
0002d0 c3 f1 84 3e e3 8a 89 bc 5e dc d4 3d 2d c4 5b be
       0.259657 -0.01678986 0.10393594 -0.21461554
0002e0 30 8e 50 be fa e2 a1 bd 12 26 61 bc 3e 37 ec bd
       -0.2036674 -0.079046205 -0.013741987 -0.11533974
0002f0 d6 4d 1c be f6 0a 3e bd b0 a4 76 bd 15 37 aa 3e
       -0.15264067 -0.046397172 -0.060215652 0.3324515
000300 0f 67 2c 3e c5 9b 42 3e b5 a3 6d 3e b5 39 29 3e
       0.16836189 0.19004734 0.2320698 0.1652592
000310 88 a3 73 bf 54 8f a0 3e 4e 4d 85 bb 21 ce a2 3e
       -0.95171404 0.3135935 -0.0040680533 0.3179789
000320 98 83 ef 3d 30 68 41 be 69 ee 06 3e 26 28 b9 3e
       0.116950214 -0.188874 0.13176884 0.36163443
000330 7d 3e a9 bd 7a 8c 87 3e 89 f7 c6 be f6 5a 7e bb
       -0.08263872 0.26474363 -0.3886073 -0.003881154
000340 63 fb a8 be 9a 7a ad 3e 5b 7d 90 bf 2e 36 81 3e
       -0.33004293 0.338826 -1.1288255 0.25236648
000350 dc 2d b7 3e d2 f2 d7 3d e6 68 7b be 99 70 57 3e
       0.35777175 0.10544361 -0.24551734 0.21039046
000360 67 a7 d3 bd 41 c1 98 3e 5f 4d 7d 3e dd 98 67 bd
       -0.10334664 0.2983494 0.24736546 -0.056542266
000370 27 6f 61 3e e2 9e a1 3e fc 72 83 3e 03 ca 4d be
       0.22015058 0.3156653 0.25673664 -0.20096593
000380 1c 3f 43 bd 01 29 03 3e f0 9a 90 3e 1d b2 36 be
       -0.047667608 0.1280861 0.28243208 -0.17841382
000390 9b d6 bb be 66 90 94 3e 75 e8 2c 3e 63 9f 7b 3e
       -0.36687168 0.29016417 0.1688555 0.2457252
0003a0 bf 41 b8 bd 31 a7 fb bd 2e 7c 34 be 37 d4 cb 3d
       -0.08996915 -0.122877486 -0.17625496 0.09952586
0003b0 df f9 63 3c cd 4c 99 3e e2 29 65 3e 63 cd a1 3e
       0.013914554 0.29941407 0.22379258 0.3160201
0003c0 b2 b7 73 3e df 55 c7 be a7 3f da bd 15 4d 8d be
       0.23800543 -0.38932702 -0.10656672 -0.2759787
0003d0 dc 06 03 3e 86 86 90 3e 2d e1 a3 bd 4c e4 95 3d
       0.12795585 0.28227633 -0.08001933 0.07318935
0003e0 cc 0b 37 3e fe 94 b3 be 24 17 4f be 7f a1 1f 3e
       0.17875594 -0.3507461 -0.20223671 0.1558895
0003f0 a4 ed 01 3d 91 d3 c2 be 0c f8 d2 3d 0d 3c 6f be
       0.031720772 -0.38052037 0.103012174 -0.23362751

model.0.bias f4 [128]
000000 d6 49 35 3e e9 b1 22 3e c6 91 95 bd c0 72 80 be
       0.17703947 0.1588818 -0.07303195 -0.25087547
000010 4f 2b 25 3e c0 e1 af be 05 3b 0f be 03 86 23 3e
       0.16129802 -0.3435192 -0.13987358 0.1596909
000020 d3 c2 03 be 26 0d 6e be f6 9c eb bc bd c4 99 3e
       -0.12867288 -0.23247203 -0.028761368 0.30032912
000030 c2 78 d0 bd 95 cb 36 3e 36 53 3c 3d e9 43 22 be
       -0.10179283 0.17851098 0.045977794 -0.15846218
000040 a0 3c bc bd c9 fe e5 3d a6 cc 8f 3e e6 11 c7 be
       -0.09191251 0.11230237 0.28085822 -0.38880843
000050 c7 c2 8d 3e b3 b8 97 3d 8d 0b 53 be 06 59 c7 3c
       0.27687666 0.074082755 -0.20609875 0.024334442
000060 79 41 69 bd 76 80 6e 3e cd b4 b6 be 44 bd 0e be
       -0.056947205 0.23291191 -0.35684815 -0.13939387
000070 67 27 6e be 61 5d 01 3e 0a ee b2 be 3d aa 18 3e
       -0.23257218 0.12633277 -0.34947234 0.14908691
000080 22 e0 c0 be d3 b8 ae 3e 8c ed bc 3d e7 d7 9b 3e
       -0.37671 0.34125385 0.09224996 0.30438158
000090 3e 30 8a 3e 2f af 95 3e 71 a8 77 be 0e 6a 40 be
       0.2698993 0.29235217 -0.24185349 -0.18790457
0000a0 3e db c0 3c 6b bf 9e be f1 f1 00 3e 3a 68 51 bd
       0.023542043 -0.31005415 0.12592293 -0.05112479
0000b0 4d d3 6e 3e 9a 86 8c ba 8a 14 45 bd 56 b8 15 bd
       0.23322792 -0.0010721267 -0.04811529 -0.03655275
0000c0 a6 b7 52 3e e3 b4 35 bd 96 7d 0e 3e 5f f7 27 be
       0.20577869 -0.04436196 0.13915095 -0.16402958
0000d0 c8 25 bb 3e 44 ae 72 be e5 89 b0 3e 06 ce b7 bd
       0.36552262 -0.2369929 0.34480205 -0.08974843
0000e0 5c f5 47 be 8f 12 8f be e9 83 9c be 9b 25 18 3e
       -0.19527191 -0.27943847 -0.3056939 0.14858095
0000f0 c1 6c 8d 3e be 09 38 3e 31 f0 f6 3c 21 0f dc 3c
       0.27622035 0.17972466 0.030143829 0.026862683
000100 dd 35 73 be a9 37 8f be 98 16 b5 bd 3d fd 78 be
       -0.23751016 -0.27972153 -0.088422 -0.24315353
000110 94 4a 6d be 3f 2a 48 be 84 88 55 3e 12 40 b5 3d
       -0.2317298 -0.19547366 0.20852858 0.08850111
000120 75 c3 49 3e a1 fb 61 be a8 f0 d7 bc 57 4f ed bd
       0.19703467 -0.22068645 -0.026359871 -0.115873985
000130 39 29 7c be b6 8e fe bd a1 76 ec bc 46 ee 6d be
       -0.246251 -0.12429564 -0.02886516 -0.23235425
000140 41 a8 58 be dd 3b ce 3d e9 9b af be ff 67 ab bd
       -0.21157934 0.10070012 -0.34298638 -0.08369445
000150 0e 17 3e be d6 58 12 be c6 a4 63 3e ad 23 a2 bc
       -0.18563482 -0.142917 0.22230825 -0.019792402
000160 b0 6b 76 3d 83 80 8a be 96 3e ab 3c 05 85 50 bd
       0.060161293 -0.27051172 0.020903867 -0.050908107
000170 e0 fe 36 be 42 0f 1d 3d a3 39 6a 3e 9e c8 9f bd
       -0.17870665 0.03834463 0.22873549 -0.078019366
000180 c4 ca 92 be db b1 48 3e f1 0a 58 be 1a f4 7f be
       -0.28670323 0.19599096 -0.21097924 -0.24995461
000190 75 62 8c 3e c8 57 8a bd 98 38 bc be 8a a5 9d 3e
       0.27418867 -0.06755024 -0.36761928 0.3079036
0001a0 f7 58 4a be ca d5 0c be 3c 0b c1 3e e0 b6 82 3e
       -0.197605 -0.13753429 0.37703884 0.25530148
0001b0 c6 61 b8 be 65 5f a9 be 70 5b 92 bd aa 7d f0 bd
       -0.36012095 -0.33080593 -0.071463466 -0.117427185
0001c0 1a 40 42 3e 1f ef db ba 92 22 92 3e 38 13 87 3e
       0.18969765 -0.0016779638 0.28542 0.2638185
0001d0 2d fd 3b 3d 90 f3 ad 3e be 31 94 3d 88 66 87 bd
       0.045895744 0.33974886 0.0723605 -0.06611353
0001e0 51 83 b5 3e 40 e8 de 3c be 89 8d 3e 4d 6a 14 3e
       0.3545175 0.027210355 0.2764415 0.14493676
0001f0 89 3d e3 3d 33 86 10 be 04 69 a3 3e 69 4c ea bc
       0.11095721 -0.14113693 0.31916058 -0.028600888

model.2.weight f4 [64, 128]
000000 47 78 b2 bd ec 1b de bd a9 ad 81 bd 90 ca 1a bd
       -0.08714347 -0.108451694 -0.06331951 -0.037790835
000010 05 5b aa 3d 70 a9 9b bd 20 35 93 3d b2 96 e5 3d
       0.08318142 -0.07600677 0.07187867 0.112103835
000020 b7 20 9e 3c d7 ee d4 bc d3 0d 85 bb db db ed 3c
       0.019302709 -0.025992794 -0.004060486 0.0290355
000030 89 ac bf bb e9 d7 aa 3c 40 0c 2f 3d 28 19 89 3d
       -0.005849425 0.020854907 0.042736292 0.06694251
000040 8d 40 8e 3c b2 8a 59 bd bb 6d d9 bc dd a8 d0 3c
       0.017364765 -0.053110786 -0.026541581 0.025471145
000050 99 8d 58 bd 52 a1 ec 3d 06 d2 3a 3d 5a 50 08 bd
       -0.052869413 0.11554207 0.04561045 -0.033279754
000060 7e 8d 8f 3d 4d fd 82 3d 80 0e ae bd fd 3a 17 bd
       0.07009409 0.063959695 -0.084988594 -0.03692149
000070 3b 43 10 3e 44 e8 01 bd f5 0b 85 3e f4 b4 95 bd
       0.14088146 -0.031715646 0.25985685 -0.07309905
000080 ed 89 8c 3d c8 e1 3e bd 6d 68 18 3d 98 a4 b3 3d
       0.06862245 -0.04660204 0.037208963 0.08771628
000090 40 cd 9e bd 99 c7 98 3d 83 58 88 3d 54 95 a9 3c
       -0.07753992 0.07459945 0.06657507 0.020701088
0000a0 9a 43 0d bc 94 70 34 3c f1 66 8f 3d 8e bb de 3d
       -0.0086220745 0.011013169 0.070020564 0.10875617
0000b0 64 46 10 3c 29 d4 6c bc c7 cd 09 bd 61 a5 b3 3d
       0.008805845 -0.01445488 -0.03364351 0.08771778
0000c0 fc f2 6f 3d 76 9c e7 3e 1d ea 8a bc 1e ee 8f bc
       0.058581337 0.45236558 -0.016957337 -0.017569598
0000d0 0e 6d bd bc 3e 93 a2 bd 9e 8b 72 bd ee 09 99 bd
       -0.02312329 -0.079382405 -0.05921518 -0.07472597
0000e0 b6 c2 92 bd 45 7e 81 3d 84 07 fe bc d9 bf 2d bd
       -0.071660444 0.06322912 -0.031009443 -0.04241929
0000f0 be bd 97 bc 77 d8 1a bd 34 50 87 3d c3 10 71 3b
       -0.018523093 -0.037804093 0.066070944 0.0036783672
000100 3c 97 7e bd 01 a7 a4 3d 09 61 0c bd e1 ca 8a bc
       -0.062155947 0.08039666 -0.034272227 -0.016942443
000110 69 6b 6a 3d ce ae 02 3e e3 fd 91 3d 0f cf 15 bc
       0.05723134 0.12761995 0.07128503 -0.009143605
000120 9b e9 1c 3d 3e 28 9e 3c b9 b8 e6 bc c7 0d 76 3b
       0.03830872 0.019306298 -0.028164255 0.0037544833
000130 a9 f0 ab 3d 75 2b 1d bd 93 fe 4c 3d ad 52 33 3d
       0.08395512 -0.038371522 0.05004747 0.043780018
000140 fe 71 d0 3d e3 44 7f bd a0 b3 09 3d b9 4f 01 3d
       0.10177992 -0.062321555 0.03361857 0.03157017
000150 c0 1c 86 bd 6f 58 44 3e 30 25 54 3d 47 53 57 bb
       -0.065484524 0.1917436 0.051793277 -0.0032856034
000160 d5 9d 19 3e b8 d8 22 3c 79 ac 47 bd 03 47 d1 3c
       0.15001614 0.009939365 -0.048748467 0.025546556
000170 91 e6 f8 3c 70 da bd bd 3c f4 b0 3d f1 7e a5 bd
       0.03038338 -0.09270179 0.08640334 -0.08080853
000180 57 84 cd bd 31 98 46 bd 4a 71 8b bb 62 fd 5c 3d
       -0.100350074 -0.048484985 -0.0042554485 0.053952582
000190 e8 72 29 3d c0 8c 2c 3d 0d 70 a5 3c f7 23 4a 3c
       0.04136935 0.042126417 0.020195032 0.012337676
0001a0 1d 38 7b 3d 65 4e ce 3d 4a bc e1 b9 95 a6 1f bc
       0.06133281 0.10073546 -0.0004305563 -0.009744306
0001b0 3d 91 12 3d b0 4b 27 3d 9c 47 2e bd 12 fb d2 3c
       0.03578304 0.040843666 -0.04254876 0.025754485
0001c0 1c a2 d1 3b 3e 3c 23 3d 9d 0d 0e bd 0d 6b a8 3d
       0.006397499 0.039852373 -0.03468095 0.08223543
0001d0 2d 19 a8 bd ea c9 47 bd 3e 8b 92 bd 0d d4 8e 3c
       -0.08207927 -0.048776545 -0.071554646 0.017435098
0001e0 a5 ce de bc 7d 68 cb 3d 95 70 86 3c f0 ca 04 3d
       -0.027198145 0.09932039 0.016411105 0.0324201
0001f0 2d 41 cd 3d b2 bc c8 bc 27 b7 9c 3d b4 2c a8 bd
       0.10022197 -0.02450404 0.07652121 -0.082116514
000200 c1 67 8a 3d 52 07 c2 ba 31 b8 52 be d3 0e c2 bc
       0.06758071 -0.0014803207 -0.20578076 -0.02368871
000210 90 68 fe bd 42 73 df bb d6 05 8a bd 31 8a ec bc
       -0.124222875 -0.0068191597 -0.06739394 -0.028874489
000220 26 eb 1d bd 8f cd 76 bd ba 31 4d 3d 28 00 2d 3d
       -0.038554333 -0.06025463 0.05009625 0.042236477
000230 b7 ff 0b 3d 4d db b9 3d 79 59 9c bc 7e f3 0a be
       0.034179416 0.090750314 -0.019085633 -0.13569447
000240 c6 ce b4 bd eb 38 55 3b 3f 31 5b bc d1 e2 d3 bd
       -0.088285014 0.0032535146 -0.01337844 -0.10345996
000250 64 e2 9d 3a b9 ea 2b 3c 39 0c e6 bd 97 21 c0 bd
       0.0012045619 0.010492974 -0.112328 -0.09381407
000260 d5 37 d4 3c f6 7d 03 3d f2 a7 59 3d 95 39 9f 3d
       0.025905529 0.032102548 0.05313868 0.07774655
000270 5f 94 99 bd 6f 4e 17 3c ed 3a 85 be b3 b3 11 bc
       -0.07499003 0.009235009 -0.2602152 -0.008892941
000280 d4 c6 b3 bd e1 f2 81 3d 80 68 ac 3d 5c 61 4e bd
       -0.08778158 0.063451536 0.08418369 -0.050385818
000290 20 c0 11 3d 76 07 8d bd 84 a6 4d be 45 64 a4 bd
       0.035583615 -0.06886189 -0.20083052 -0.080269374
0002a0 2c 86 01 3d e2 e5 89 be 23 71 ce 3c d2 d2 22 be
       0.031622097 -0.269332 0.025200432 -0.15900734
0002b0 16 65 29 3d af 8e e1 3c f9 59 58 3d 7e 14 b7 bd
       0.04135617 0.027533857 0.05282018 -0.089394554
0002c0 8e 2d 22 3c f9 d5 ce be 82 83 73 bd 53 76 96 3d
       0.009898556 -0.40397623 -0.059451587 0.07346787
0002d0 9b ba 3e 3c 23 4c 35 bd e7 07 3a bd 22 25 ae 3d
       0.01164117 -0.044262063 -0.045417693 0.08503176
0002e0 80 4d 8e 3d a7 ce f0 bc c3 50 7e 3d b9 ec 5e bd
       0.06948376 -0.029395415 0.06208874 -0.054424975
0002f0 f5 5c 4b bd 3a 5e 97 3d f9 c2 a5 bd 57 cf 10 b8
       -0.049649198 0.07391019 -0.08093829 -3.4525376e-05
000300 39 10 ac bd 57 4b 69 3d f7 62 d4 3c 37 07 5d 3c
       -0.08401532 0.056956615 0.025926096 0.01349049
000310 bc e6 ba 3b 21 29 31 be d1 93 24 3d 78 a2 0e be
       0.005703775 -0.17300846 0.04018003 -0.13929164
000320 ab db 92 bd de ca f5 bd 25 6c b5 bd a4 e1 ab bd
       -0.071708046 -0.120015845 -0.088585176 -0.08392647
000330 39 64 13 bd 52 2f 31 3d a4 21 64 3d 76 73 2a 3d
       -0.03598425 0.04325802 0.055696145 0.04161402
000340 9c 07 01 bd c6 13 bc 3c 7c 6a ac bd c4 53 97 3d
       -0.031501397 0.022958647 -0.08418748 0.07389024
000350 ab 0d b4 3d 9c b6 62 be 30 7c 97 bd 13 a9 50 bd
       0.087916695 -0.22139972 -0.07396734 -0.05094249
000360 cb 75 8f bd 36 86 fe bb 37 07 87 3d ba 0f 10 be
       -0.07004889 -0.007767464 0.06593173 -0.14068499
000370 2e 4c 9c bd 3b 33 31 3d 8f f3 ee 3c 56 0c 82 3b
       -0.076317176 0.043261748 0.029168872 0.0039687557
000380 9f c4 3a bd 47 ad a1 3d 68 11 ab bd 1a fd 06 be
       -0.04559767 0.07894378 -0.08352929 -0.13182488
000390 2f 49 77 3a 01 22 93 bd 9d 4b 27 3d ce 0d 66 bd
       0.00094332075 -0.0718422 0.040843595 -0.05616551
0003a0 41 ff 31 3d 52 09 0b bd 8c df e4 3c 8b 04 a5 bb
       0.04345632 -0.033944435 0.027938627 -0.005035942
0003b0 2c eb 8c bc d6 61 cc bc e5 c1 76 bd fc 9e d7 3c
       -0.017201982 -0.024948996 -0.060243506 0.026320927
0003c0 75 ef 0c bd 1e 44 2e be d7 77 9e bc fc e5 3e 3d
       -0.03440805 -0.17018172 -0.019344253 0.04660605
0003d0 80 e3 1a bd 01 5e 53 bd 06 52 9b 3d c5 28 1e 3d
       -0.037814617 -0.05160332 0.07584004 0.0386131
0003e0 35 79 a5 3d 05 cc 42 be 6d f0 84 bb 29 24 40 bd
       0.08079759 -0.1902314 -0.0040569813 -0.046909485
0003f0 68 ca 29 be 40 a9 05 3b a7 2b 28 3d 06 10 78 3d
       -0.16581118 0.002039507 0.041057255 0.060562156

model.2.bias f4 [64]
000000 56 83 86 3d 8d ae 6f 3c 63 32 b5 3d c3 b0 a4 bd
       0.06568019 0.0146290185 0.08847501 -0.08041527
000010 ad 9e 16 bd f2 f6 04 bd 2f b0 a7 3d 14 8d aa bc
       -0.03677242 -0.032462068 0.08187901 -0.020819224
000020 a0 09 d4 bd b0 31 83 3d ef a0 db bc 91 f2 63 3d
       -0.10353398 0.064059615 -0.026810138 0.05565125
000030 cf 50 07 bb 25 f1 8e bd db ee 91 3d dc 8f ea 3a
       -0.002064753 -0.069795884 0.07125636 0.0017895657
000040 3e a4 80 3d bf da 8b 3b 3d cb 70 bd 92 83 86 3d
       0.06281327 0.00426802 -0.058787573 0.06568064
000050 5a 39 2a bd 56 02 9c bd 66 b0 eb bb ed 64 42 3d
       -0.0415586 -0.07617633 -0.007192659 0.04745953
000060 52 f1 87 3a 3a 67 97 bd 42 5d b0 bd ee 69 8e bd
       0.0010371602 -0.07392736 -0.086115375 -0.06953798
000070 38 cf 32 3c 89 e3 b9 3c 60 43 a6 bd a0 15 1e bd
       0.010913663 0.022691505 -0.081183195 -0.038594842
000080 6d 48 b1 bd 39 25 81 3d 51 46 1e 3d 87 2a 7f 3d
       -0.08656392 0.06305928 0.038641278 0.062296417
000090 e3 29 22 bd aa 3f 8d 3d ff 2e 4c 3d 00 04 26 3d
       -0.039590728 0.068969086 0.049849506 0.04053116
0000a0 68 3f 18 bd 5a de 9f bd d0 74 b3 bc 83 37 fe bb
       -0.037169844 -0.07806082 -0.021906286 -0.0077580824
0000b0 da 59 0d bd 98 d0 1c 3d 46 f2 13 3d a8 87 bd bc
       -0.034509517 0.038284868 0.03611972 -0.023135975
0000c0 98 48 79 bd 33 c8 0e 3d 06 07 58 3d 00 dc 77 bd
       -0.060860246 0.034858894 0.052741073 -0.060512543
0000d0 35 e2 a0 bc 12 14 59 3d 3c 1b 35 bc dd 3c 80 bd
       -0.019639114 0.052997656 -0.011053856 -0.06261609
0000e0 21 6a 2f bd b6 7a 2f bd a9 a1 ac 3c d4 f8 21 3d
       -0.04282582 -0.042841636 0.02107318 0.03954394
0000f0 48 c7 08 3d 1d f2 91 bd a7 51 4f bd f1 e3 c3 bc
       0.033393174 -0.071262576 -0.05061498 -0.023912402
