checkpoints/checkpoint_ep1000.pt (torch, 163057 bytes, 24 tensors)

model.0.weight f4 [128, 7]
-1.7176664 0.35348296 -0.11260242 -0.10262938 -0.016390175 0.11813931 -0.21164748 0.47635937
-2.6955433 -0.43073088 0.13585654 0.5356004 -1.2640551 0.18344475 -0.04261538 0.30590907
-0.47317126 0.103262134 -0.11455938 -0.20669076 0.32741147 0.341587 -0.601732 -0.056338523
-0.84800756 0.48114255 -0.6516601 0.65903354 0.19204952 0.089499585 0.34009212 -0.28467283
-0.43089268 -1.4752588 0.28480005 -0.34359348 -0.11430737 0.13203083 -1.9310367 0.05046251
0.020864328 0.088945344 0.36567336 0.43257666 -0.9311494 0.23196857 -0.5567318 0.12589797
0.19990279 -1.2219845 -0.053212367 -0.7289345 0.36207145 -0.3783836 -0.10196442 -0.032241136
0.22851227 0.69381666 -0.17908238 -1.27593 -0.12385605 0.32618842 0.31924176 -0.21352395
-0.14188388 -0.3130934 0.12921235 0.06630759 -0.18199706 -0.1926764 -0.311091 -0.16162278
-0.32945746 -0.05073676 0.029484393 -0.16540132 0.14096798 0.4278648 -0.23301014 -0.59195536
-0.38680825 -0.5733996 0.48503262 -0.044002015 -1.263864 0.43613127 -0.21845691 0.49450335
-0.10149376 -0.19002725 -0.2465309 0.3899704 0.31697068 0.5868751 -0.4537279 -0.517797
-0.42804363 -0.18954992 0.8213898 -0.10800363 -0.48083305 -0.1758371 0.06858192 0.060909614
0.25514075 -0.88947046 0.20112066 0.5379321 -0.25686833 0.15265106 -0.37427062 0.17204788
-0.3432824 -0.26962823 0.09810262 0.06085766 -0.16219178 0.022030998 0.3041201 0.088784434
0.6568739 -1.4610525 -0.40947628 0.2178063 0.1302582 0.08292302 0.20713982 0.39900997
-0.047979504 -0.14387572 0.55415386 0.4191944 -0.10815815 0.16231321 -0.008254239 -0.16400734
0.08022498 -0.028341135 -0.21008319 -0.21261443 0.77385384 -0.20411041 -1.2452087 0.2894328
-0.1897761 -0.60510856 0.09407475 -0.083523795 -0.33198687 0.03412043 0.26140717 -0.1399835
0.22956242 -0.19297841 -0.013334393 -0.13784531 0.28490886 0.018745068 -0.37477773 0.0685771
-0.08353301 0.350126 -2.3006501 0.44955882 -0.15705733 -0.067803174 0.29597244 0.33483708
-0.12508978 0.91644365 -0.08502547 0.11941911 -0.1463779 -0.09089655 -0.03732206 -0.3537359
-0.31610847 0.081886366 -0.022691453 -0.28761452 0.17405534 0.18528928 0.154519 0.6921051
-1.0628418 0.25235033 -0.06785173 0.41530237 -0.09875391 -0.00747864 -0.0065845675 0.050632257
-0.020007087 -5.051201 0.026138742 0.90249586 0.011119542 0.086210564 -0.07556358 -0.367192
0.35877836 -0.25740448 -0.35143673 -4.7555833 0.15907593 -0.5309146 0.53582096 0.50444114
0.0032654637 -0.18735227 -0.3624765 -0.18477854 0.19019347 0.19465856 0.263587 0.37122935
-0.25928655 0.2382248 -0.094568186 0.10426684 -0.38585576 0.13338025 -0.25659156 -0.2038013
-0.6566964 -0.47836146 0.023685131 -0.9402511 0.48128828 0.14642344 0.14936347 -0.108053446
0.8651772 0.009123932 -0.8228389 0.034223787 0.1911113 0.15222618 -0.3017688 0.16117176
0.5195088 -0.37775564 -0.23807679 -0.5590338 0.14320719 -0.2088971 -0.36679667 0.24976094
-0.2671773 -0.3118167 0.21392761 -0.2225201 -1.442175 -0.18105453 0.22771698 -0.3529378
00000000: 7edc dbbf b8fb b43e 199c e6bd 5a2f d2bd
00000010: b044 86bc 06f3 f13d 1eba 58be 60e5 f33e
00000020: c883 2cc0 c288 dcbe fa1d 0b3e 1c1d 093f
00000030: 8fcc a1bf f1d8 3b3e 778d 2ebd 1da0 9c3e
00000040: 8143 f2be 197b d33d 1c9e eabd bea6 53be
00000050: 7aa2 a73e 7ee4 ae3e 1c0b 1abf 39c3 66bd
00000060: 0617 59bf 5158 f63e 32d3 26bf 6cb6 283f
00000070: a1a8 443e 8f4b b73d 8e20 ae3e a3c0 91be
00000080: f79d dcbe 48d5 bcbf 50d1 913e 7ceb afbe
00000090: fb19 eabd 1733 073e 362c f7bf c7b1 4e3d
000000a0: abeb aa3c fa28 b63d 8a39 bb3e b07a dd3e
000000b0: cf5f 6ebf 2b89 6d3e fa85 0ebf 66eb 003e
000000c0: 51b3 4c3e fd69 9cbf 36f5 59bd 749b 3abf
000000d0: 6e61 b93e 7fbb c1be b9d2 d0bd 480f 04bd
000000e0: 1fff 693e f89d 313f 5f61 37be ad51 a3bf
000000f0: 3ea8 fdbd 2b02 a73e a873 a33e 06a6 5abe
00000100: 024a 11be c74d a0be 3e50 043e 46cc 873d
00000110: 705d 3abe f64c 45be 5247 9fbe 7180 25be
00000120: a6ae a8be 59d1 4fbd 4189 f13c f75e 29be
00000130: e959 103e 1811 db3e 369a 6ebe 638a 17bf
00000140: bb0b c6be 51ca 12bf 3256 f83e 753b 34bd
00000150: 4cc6 a1bf 994c df3e 2bb3 5fbe 8b2f fd3e
00000160: f6db cfbd 8196 42be 9972 7cbe 33aa c73e
00000170: fb49 a23e 723d 163f 064f e8be 588e 04bf
00000180: 8928 dbbe 6019 42be 9a46 523f 0231 ddbd
00000190: c02f f6be a40e 34be ad74 8c3d 5c7c 793d
000001a0: cfa1 823e 56b4 63bf 93f2 4d3e ebb5 093f
000001b0: 3f84 83be 8f50 1c3e 66a0 bfbe 522d 303e
000001c0: b6c2 afbe b60c 8abe 07ea c83d e245 793d
000001d0: 9a15 26be 5a7a b43c a1b5 9b3e 9dd4 b53d
000001e0: e328 283f c503 bbbf e0a6 d1be 9d08 5f3e
000001f0: 6862 053e 8bd3 a93d 761c 543e 094b cc3e
00000200: 2886 44bd 2854 13be 07dd 0d3f a6a0 d63e
00000210: 0582 ddbd 6f35 263e ca3c 07bc 8af1 27be
00000220: ff4c a43d ab2b e8bc 0c20 57be 99b7 59be
00000230: 491b 463f 5202 51be 0063 9fbf 8930 943e
00000240: aa54 42be 65e8 1abf 43aa c03d 860e abbd
00000250: 2ffa a9be ddc1 0b3d 29d7 853e d657 0fbe
00000260: 6912 6b3e 229c 45be 7f78 5abc 5227 0dbe
00000270: 93df 913e 428f 993c dee2 bfbe 2772 8c3d
00000280: 5b13 abbd b743 b33e da3d 13c0 932c e63e
00000290: a3d3 20be 64dc 8abd b389 973e c46f ab3e
000002a0: 8917 00be 0d9c 6a3f d521 aebd 0292 f43d
000002b0: 17e4 15be f827 babd 04df 18bd df1c b5be
000002c0: f8d8 a1be 0ab4 a73d 6de3 b9bc 3642 93be
000002d0: 903b 323e 79bc 3d3e 3b3a 1e3e cd2d 313f
000002e0: 330b 88bf 1034 813e d9f5 8abd 83a2 d43e
000002f0: 7d3f cabd 610f f5bb 5bc3 d7bb c563 4f3d
00000300: e7e5 a3bc 70a3 a1c0 ea20 d63c f809 673f
00000310: bd2e 363c 2a8f b03d 14c1 9abd 9700 bcbe
00000320: ccb1 b73e 85ca 83be 84ef b3be bd2d 98c0
00000330: cde4 223e 05ea 07bf 902b 093f 0e23 013f
00000340: 6401 563b 46d9 3fbe 8596 b9be 9636 3dbe
00000350: 14c2 423e 9354 473e e0f4 863e c611 be3e
00000360: 35c1 84be 34f1 733e f7ac c1bd da89 d53d
00000370: e38e c5be d594 083e f85f 83be 4ab1 50be
00000380: 411d 28bf cbeb f4be 5207 c23c 4cb4 70bf
00000390: 6b6b f63e 07f0 153e bdf2 183e 204b ddbd
000003a0: 417c 5d3f 8b7c 153c 92a5 52bf 3e2e 0c3d
000003b0: aeb2 433e 2ee1 1b3e 7181 9abe 360a 253e
000003c0: 87fe 043f 3069 c1be 67ca 73be d71c 0fbf
000003d0: e8a4 123e 1fe9 55be c6cc bbbe 55c1 7f3e
000003e0: 77cb 88be 70a6 9fbe d70f 5b3e 4fdc 63be
000003f0: 3199 b8bf 5c66 39be a42e 693e 43b4 b4be

model.0.bias f4 [128]
0.23196381 0.0699302 -0.3760048 0.13011813 0.16745329 0.37825602 0.07850074 -0.22345528
0.14579265 -0.3623179 -0.040690456 0.48160225 0.36216962 -0.35197338 0.16891621 0.0035806508
-0.26940477 -0.060476195 -0.4852005 -0.24711321 0.14047685 -0.326015 -0.29325098 0.22126937
-0.29378173 -0.17542039 -0.4497727 -0.07277534 -0.19337316 -0.21071824 0.029025104 -0.32243705
0.5048976 0.051471043 0.3724434 -0.26950082 -0.1500958 -0.3254777 -0.3802649 0.3131358
0.032052673 -0.37733912 0.19522299 0.17612621 0.44857875 -0.33799076 0.3531949 0.10708026
0.27412102 0.012755106 -0.239414 -0.25589558 -0.047258627 -0.38628048 0.059318826 -0.39492568
0.19499081 -0.29643568 -0.42202297 -0.1833528 -0.42130053 -0.10801887 0.26788607 0.0590151
-0.25386804 -0.692733 -0.58718264 -0.432502 0.14610173 -0.0864544 0.17933656 -0.3286399
-0.17126879 0.2820674 0.23476799 -0.14927079 -0.3722522 -0.21351433 0.18418375 0.34914467
-0.14010008 -0.5374313 0.16101736 -0.3715632 0.3069489 0.2225989 -0.2160023 -0.17622696
0.24679288 0.31832293 -0.3509617 -0.18215731 0.1175201 0.4022844 0.30084568 -0.44483554
0.22892058 0.19937351 -0.39808127 -0.06214912 -0.38716075 -0.38011232 -0.29334927 -0.42245656
0.24078102 -0.3702003 -0.15104042 -0.078569256 -0.0106938 -0.32890445 -0.10146422 -0.071833484
-0.49248326 0.017318333 0.3116636 -0.16426662 -0.17077006 -0.26738682 0.121236704 0.111319035
-0.15422308 0.13605873 -0.33270696 0.41767737 -0.4947724 -0.07446997 -0.0907063 -0.07246867
00000000: ec87 6d3e 9137 8f3d b383 c0be b03d 053e
00000010: e078 2b3e c6aa c13e ffc4 a03d 76d1 64be
00000020: ab4a 153e bb81 b9be 09ab 26bd 9294 f63e
00000030: 4c6e b93e db35 b4be 5ff8 2c3e 5aa9 6a3b
00000040: 6cef 89be e3b5 77bd 336c f8be 3f0b 7dbe
00000050: 2ad9 0f3e 70eb a6be fe24 96be 7094 623e
00000060: 8f6a 96be 67a1 33be 9b48 e6be 3d0b 95bd
00000070: 9d03 46be 86c6 57be 0ec6 ed3c 7816 a5be
00000080: f840 013f 4dd3 523d e7b0 be3e 03fc 89be
00000090: b7b2 19be 03a5 a6be 15b2 c2be 5653 a03e
000000a0: aa49 033d 9832 c1be 89e8 473e 6e5a 343e
000000b0: 1dac e53e 200d adbe f6d5 b43e e54c db3d
000000c0: 9759 8c3e cbfa 503c f228 75be bf04 83be
000000d0: 4392 41bd 8ec6 c5be 4cf8 723d b333 cabe
000000e0: acab 473e 6bc6 97be 6513 d8be d6c0 3bbe
000000f0: b4b4 d7be ff38 ddbd 5d28 893e d1b9 713d
00000100: fefa 81be f356 31bf 9a51 16bf e770 ddbe
00000110: b19b 153e 010f b1bd 01a4 373e 7d43 a8be
00000120: 1661 2fbe 236b 903e 0567 703e 71da 18be
00000130: d797 bebe 80a3 5abe aa9a 3c3e 17c3 b23e
00000140: 6576 0fbe 1995 09bf bce1 243e 883d bebe
00000150: 6828 9d3e f7f0 633e b52f 5dbe d774 34be
00000160: 46b7 7c3e 39fb a23e 40b1 b3be 7287 3abe
00000170: 61ae f03d 39f8 cd3e 7208 9a3e 7cc1 e3be
00000180: 286a 6a3e 9228 4c3e 4fd1 cbbe 1390 7ebd
00000190: ef39 c6be 159e c2be e031 96be 3a4c d8be
000001a0: 4d8f 763e e58a bdbe 57aa 1abe ebe8 a0bd
000001b0: 0c35 2fbc 2a66 a8be 79cc cfbd 6f1d 93bd
000001c0: c426 fcbe 2ddf 8d3c 5f92 9f3e 8235 28be
000001d0: 59de 2ebe ede6 88be f34a f83d 3cfb e33d
000001e0: a8ec 1dbe fb52 0b3e 9158 aabe cfd9 d53e
000001f0: cf52 fdbe b683 98bd 3ac4 b9bd 746a 94bd

model.2.weight f4 [64, 128]
-0.06758144 -0.024394827 -0.064286575 -0.09550025 0.034020636 0.022127284 -0.021618657 0.0009960459
-0.037195288 0.0016656962 -0.050759736 0.0578107 0.029569317 0.024724267 0.0061940886 -0.06800522
0.023202494 -0.06555927 -0.08295387 0.031933203 0.018258225 -0.005929292 0.050471768 -0.081573494
0.027703864 -0.008539373 -0.06532053 0.05077399 -0.047631513 -0.073326126 -0.07792099 0.086678594
-0.06754771 -0.04250393 -0.03536802 0.07416804 0.016761186 -0.11071624 -0.02033874 0.031139696
0.006816979 -0.03909136 0.0096768 -0.0015683357 0.046175767 0.00887778 -0.02100892 -0.045834463
-0.03011754 -0.0048577613 0.060660068 -0.0015620897 -0.056414157 -0.026362864 0.047122147 0.077038065
-0.05630091 0.009336327 0.07191738 -0.026749192 -0.07598583 0.05038606 0.06282701 0.032446023
-0.07725562 0.055171814 0.043944906 -0.08230042 0.017493565 0.018904814 0.067339845 -0.035017867
-0.0016062458 0.05046721 -0.015301612 -0.11388107 -0.063950814 0.0041516717 -0.07441426 0.006511709
-0.06437604 0.008768857 0.034502603 0.039100718 -0.08272703 -0.06364991 -0.00979537 0.045572065
-0.038611043 -0.014272777 0.03194844 0.024045652 0.023719056 -0.043678176 -0.112078495 -0.119291164
-0.048571482 -0.07461866 0.002931588 -0.071884386 0.025775379 -0.06318577 -0.0033952026 0.07987812
0.034539614 -0.10520938 -0.015610792 -0.017855868 -0.03624133 0.05187154 0.03260555 -0.02178541
0.04480267 -0.05446166 0.0020844883 0.00938335 0.07199697 -0.05879619 -0.059702877 -0.061127163
-0.0009831113 -0.084386565 -0.091200836 0.041506324 0.038119573 0.068759106 0.020149095 0.059386183
-0.12114326 0.2353701 -0.08275001 0.30276418 -0.16256188 -0.31070498 -0.1775407 -0.27906787
-0.021977032 -0.08663276 -0.007062347 -0.39290908 -0.15003228 -0.18931074 -0.20991251 -0.0864837
0.017577522 -0.46471632 -0.67598003 -0.04776986 -0.020710064 -0.035117377 0.089467734 0.30651802
0.22657607 -0.0073200855 -0.21337672 -0.26640332 -0.046988953 -0.03746536 -0.38088414 0.27554348
-0.08487697 -0.62947404 -0.2644459 -0.08242858 -0.0020284364 -0.044655435 -0.06341088 0.8846426
-0.07325908 -0.08938873 -0.28519973 -0.41448066 -0.007317966 0.06382417 -0.6801199 -0.1765028
-0.33903152 -0.03842111 -0.11911073 -0.20897809 -0.46415886 -0.950622 -0.08633929 0.08314903
-0.15327421 -0.014412136 -0.10881361 0.15455718 -0.085218325 0.14289063 0.019760488 0.101624064
0.056873083 0.032645192 -0.23108432 -0.28977075 -0.0019652082 -0.5535185 -0.39482352 -0.031132886
-0.5081576 0.11232569 -0.31819355 -0.18416823 -0.085846566 0.023499426 0.20499817 -0.39240718
0.0031126607 -0.016079986 -0.41213024 -0.05656991 -0.0037547268 -0.1755858 -0.010624999 -0.15463072
-0.356953 -0.15241382 0.04198372 -0.033793498 0.16757989 -0.35361516 -0.48184818 -0.28602284
0.06721318 -0.105309226 -0.14932428 -0.1965237 0.052739047 -0.12233389 -0.070711866 -0.9379335
-0.5539987 0.28392306 0.059479486 0.013393174 0.031689778 -0.19578685 0.03299507 -0.16064134
-0.25720078 0.054174498 -0.07732891 -0.10374219 -0.005480081 0.16403852 -0.079689756 -0.25574136
-0.046144262 -0.51890814 -0.20830758 -0.1587153 0.07315125 -0.1629492 -0.03433861 0.57618254
00000000: 2368 8abd a9d7 c7bc aea8 83bd a395 c3bd
00000010: 3959 0b3d 4744 b53c 9c19 b1bc c18d 823a
00000020: 165a 18bd 7d53 da3a 71e9 4fbd eaca 6c3d
00000030: 5a3b f23c 8c8a ca3c c8f7 ca3b 5246 8bbd
00000040: 2813 be3c f043 86bd b8e3 a9bd 64cc 023d
00000050: 4692 953c 824a c2bb 7cbb 4e3d 0110 a7bd
00000060: 37f3 e23c bae8 0bbc c5c6 85bd 63f8 4f3d
00000070: 4319 43bd 022c 96bd 0a95 9fbd 8c84 b13d
00000080: 7456 8abd 9a18 2ebd 0fde 10bd 6ae5 973d
00000090: c14e 893c 32bf e2bd 6e9d a6bc ad18 ff3c
000000a0: f760 df3b 431e 20bd 718b 1e3c 9d90 cdba
000000b0: cd22 3d3d 1c74 113c e61a acbc ebbc 3bbd
000000c0: 0fb9 f6bc db2d 9fbb b176 783d 08bf ccba
000000d0: 8812 67bd eff6 d7bc 2703 413d 22c6 9d3d
000000e0: c89b 66bd 65f7 183c 6b49 933d 1f21 dbbc
000000f0: 759e 9bbd 9d61 4e3d 73ab 803d 1fe6 043d
00000100: 3238 9ebd d7fb 613d 93ff 333d 1f8d a8bd
00000110: aa4e 8f3c 45de 9a3c 79e9 893d e56e 0fbd
00000120: aa88 d2ba b5b6 4e3d 9db3 7abc 7a3a e9bd
00000130: a5f8 82bd bf0a 883b 8166 98bd 2d60 d53b
00000140: 96d7 83bd 41ab 0f3c 9a52 0d3d 1328 203d
00000150: ca6c a9bd e25a 82bd c27c 20bc c6a9 3a3d
00000160: 9d26 1ebd 5ed8 69bc 5edc 023d 63fb c43c
00000170: 774e c23c e3e7 32bd 6989 e5bd ed4e f4bd
00000180: e4f2 46bd abd1 98bd e31f 403b 1f38 93bd
00000190: e326 d33c 8a67 81bd 0c82 5ebb 2497 a33d
000001a0: 6979 0d3d 0478 d7bd 68c4 7fbc 7846 92bc
000001b0: ca71 14bd 4077 543d 668d 053d 5177 b2bc
000001c0: 0183 373d 3113 5fbd e99b 083b 9fbc 193c
000001d0: 2673 933d 46d4 70bd 018b 74bd 7a60 7abd
000001e0: bedb 80ba ddd2 acbd 81c7 babd 8902 2a3d
000001f0: 4523 1c3d 93d1 8c3d b70f a53c ed3e 733d
00000200: f519 f8bd dc04 713e d678 a9bd e803 9b3e
00000210: 9f76 26be b914 9fbe 3bcd 35be fce1 8ebe
00000220: 2d09 b4bc 846c b1bd 436b e7bb 612b c9be
00000230: 10a2 19be adda 41be 4ef3 56be 5e1e b1bd
00000240: bcfe 8f3c 4cef edbe 070d 2dbf 54aa 43bd
00000250: 27a8 a9bc 3dd7 0fbd dc3a b73d eeef 9c3e
00000260: 8f03 683e 54dd efbb 6d7f 5abe 0466 88be
00000270: 7d77 40bd 4775 19bd 3f03 c3be 0914 8d3e
00000280: fad3 adbd 3625 21bf 7465 87be 51d0 a8bd
00000290: 84ef 04bb 9ee8 36bd 90dd 81bd f077 623f
000002a0: db08 96bd 7011 b7bd b305 92be cf36 d4be
000002b0: 8ccb efbb 3fb6 823d 561c 2ebf 26bd 34be
000002c0: 8a95 adbe 745f 1dbd 54f0 f3bd 5afe 55be
000002d0: 3ba6 edbe f75b 73bf a7d2 b0bd 0a4a aa3d
000002e0: eaf3 1cbe e120 6cbc acd9 debd 3d44 1e3e
000002f0: f286 aebd ec51 123e bfe0 a13c 4720 d03d
00000300: c0f3 683d f7b6 053d 5ea1 6cbe d55c 94be
00000310: b9ca 00bb 63b3 0dbf 4f26 cabe 650a ffbc
00000320: 9e16 02bf 030b e63d 44ea a2be 9996 3cbe
00000330: 53d0 afbd de81 c03c 0aeb 513e 98e9 c8be
00000340: c8fd 4b3b 2dba 83bc bc02 d3be dab5 67bd
00000350: dd11 76bb c4cc 33be 7a14 2ebc 8457 1ebe
00000360: 8bc2 b6be 5e12 1cbe 1ff7 2b3d 0d6b 0abd
00000370: 109a 2b3e 0c0d b5be ceb4 f6be 9671 92be
00000380: 10a7 893d 5dac d7bd 77e8 18be 823d 49be
00000390: e604 583d 318a fabd 62d1 90bd 691c 70bf
000003a0: dcd2 0dbf 5d5e 913e c3a0 733d 0b6f 5b3c
000003b0: 24cd 013d 597c 48be d725 073d 2a7f 24be
000003c0: d2af 83be 14e6 5d3d 9f5e 9ebd c976 d4bd
000003d0: 4092 b3bb b7f9 273e 6234 a3bd 88f0 82be
000003e0: c401 3dbd 2ad7 04bf 954e 55be 4386 22be
000003f0: 53d0 953d 28dc 26be a4a6 0cbd b380 133f

model.2.bias f4 [64]
-0.1335702 -0.36190137 0.019817118 -0.07878995 -0.40706587 0.25953713 -0.055023428 -0.12268281
-0.039350536 0.016081411 -0.19699743 -0.36616537 0.09345936 -0.11683194 -0.11274027 -0.053598598
-0.08066116 -0.059715647 -0.075776525 0.17613475 -0.06690404 0.4188282 0.09204277 -0.07506195
-0.14540167 0.015613253 -0.113217674 0.20164324 0.0107027935 -0.032614443 -0.13861065 -0.057566427
0.036676206 0.33968925 -0.09222674 -0.097237565 0.26634192 -0.002809477 -0.12777098 0.31492543
-0.10927683 -0.031798355 -0.039960638 -0.09461362 0.17865616 0.01633447 -0.10104139 0.00010520171
-0.23129128 -0.14139909 -0.18377122 -0.10544681 -0.09178804 0.45505574 -0.093335435 -0.035988387
-0.13545077 -0.11344915 -0.04635996 -0.10785802 -0.05726632 -0.09438761 -0.0871748 0.023358757
00000000: a0c6 08be 234b b9be 8257 a23c a05c a1bd
00000010: f06a d0be 0de2 843e 3f60 61bd 2041 fbbd
00000020: 072e 21bd 2abd 833c b2b9 49be 077a bbbe
00000030: 9f67 bf3d 9645 efbd 5fe4 e6bd 348a 5bbd
00000040: ae31 a5bd 6598 74bd b930 9bbd ab5c 343e
00000050: fc04 89bd a670 d63e eb80 bc3d 14ba 99bd
00000060: 2de4 14be bbce 7f3c abde e7bd 917b 4e3e
00000070: c55a 2f3c b996 05bd f3ef 0dbe c6ca 6bbd
00000080: ca39 163d c0eb ad3e 60e1 bcbd 7d24 c7bd
00000090: f85d 883e 341f 38bb 65d6 02be e83d a13e
000000a0: 88cc dfbd fe3e 02bd c4ad 23bd c9c4 c1bd
000000b0: a4f1 363e decf 853c caee cebd bd9f dc38
000000c0: 9fd7 6cbe ecca 10be 862e 3cbe 7ff4 d7bd
000000d0: 5efb bbbd 11fd e83e a626 bfbd 8f68 13bd
000000e0: 9bb3 0abe 0758 e8bd f1e3 3dbd aae4 dcbd
000000f0: 1790 6abd 4b4e c1bd b488 b2bd dd5a bf3c

model.4.weight f4 [4, 64]
0.006515287 0.58675385 0.0421636 -0.08040182 -0.8113458 0.16949397 0.11956806 0.07554445
1.0955244 -0.084033206 -0.3399158 0.18195008 0.32410863 0.2520128 0.090832815 0.10997991
-0.028771214 0.07757282 0.030508135 -0.06549993 -0.08526711 -0.07394341 0.34343442 0.07404525
-0.023707537 0.0061535984 0.12046875 0.43596226 0.42756552 0.0342948 0.07979515 -0.18686566
-0.0376328 0.32934856 0.04789233 -0.07426566 -0.11059119 -0.058031626 -0.30403107 0.3092678
0.04129067 -0.121159665 -0.06549756 0.049912654 0.21939449 0.009199012 -0.07401163 0.036892492
0.26447222 -0.1565996 0.19646294 0.04301107 -0.014713179 -0.019440021 0.10037112 0.023856154
-0.061770614 0.03251778 -0.097341605 -0.018410323 0.042868637 -0.057698864 -0.23389533 0.048908263
-0.013723309 0.31927496 -0.043967433 0.07928246 -0.07567197 0.15335757 0.046462964 0.015385485
-0.34631205 -0.07313493 -1.1961235 0.3855105 0.21511292 0.36561656 -0.0042179152 -0.00964649
-0.0760612 0.10934641 -0.05706779 0.42650312 0.010581481 0.28410318 0.017010046 0.050980814
-0.015169953 -0.0537211 -0.028411046 0.1243971 0.31769186 -0.028700817 -0.09186474 0.24887419
-0.050543264 0.34073463 0.059900388 -0.089551285 0.18085778 0.023648184 -0.36684895 0.13837014
-0.093882635 -0.06961713 0.07614992 0.06546222 0.15757972 0.025431335 -0.034867976 -0.08128617
0.3650716 -0.6472766 0.31579664 -0.05291456 -0.061585292 -0.22368667 -0.11635142 0.09626733
-0.032512266 -0.08408778 0.06775248 0.004562089 -0.0022171729 0.02682558 -1.1318249 0.013251093
0.10966109 -0.53934324 -0.01774122 0.06608455 0.23551951 0.16816968 -0.027929615 -0.20938747
0.45854717 -0.08207568 0.10804367 0.009585267 -0.7006934 0.21221036 0.061613396 0.109547645
0.00676669 0.1131971 -0.13620734 0.33498746 -0.099012375 0.42801014 0.08117451 -0.063752376
-0.051161934 -0.06209964 0.056177594 0.18522175 0.33826786 -0.061475396 0.11671139 -0.23573887
-0.047776382 0.27065074 -0.07570013 0.062965006 -0.056550283 -0.03251752 0.11039078 0.254297
0.004745783 -0.028567666 -0.033665933 0.09239477 0.30961135 0.050453942 -0.055335812 -0.04305602
0.11399319 -0.20765746 0.3594022 0.10227617 0.008494881 -0.43761086 -0.04885584 0.10310224
-0.014392109 -0.06951302 0.010427833 0.06954868 0.020435125 -0.0076018632 -0.33541992 -0.023465136
-0.01756955 0.13180225 0.048505012 0.058476523 0.64328897 0.1531402 0.06890241 -0.01160001
0.01284362 -0.009688002 -0.23645443 -0.07237603 0.3115174 0.20729282 0.097360626 -0.09447329
0.14349128 0.008968458 -0.024295464 0.11096046 -0.05807708 0.2336237 0.20629823 0.107381
-0.0377888 0.10918885 0.040337324 0.3139145 0.27942583 -0.09148437 0.007424738 -1.1510664
-0.05075631 0.24630612 -0.09087959 -0.056627624 -0.15324627 0.0059953933 0.31146812 0.30925733
0.09273447 0.02762589 0.064240396 -0.123764336 0.29189 -0.0005398379 0.055859264 -0.08819962
0.17422801 -0.06474259 0.27518612 0.03680001 -0.099429235 -0.27970484 0.05352026 0.022247007
-0.02505581 0.06457503 -0.035889644 -0.050592806 0.002159989 -0.021920826 0.21419768 -0.033766557
00000000: 307e d53b 8035 163f bdb3 2c3d b6a9 a4bd
00000010: 5cb4 4fbf d48f 2d3e 19e0 f43d 0cb7 9a3d
00000020: 253a 8c3f 9a19 acbd 7209 aebe 1f51 3a3e
00000030: 91f1 a53e d207 813e 8e06 ba3d 263d e13d
00000040: 9cb1 ebbc 80de 9e3d 32ec f93c d424 86bd
00000050: 86a0 aebd a46f 97bd a3d6 af3e 09a5 973d
00000060: 4f36 c2bc 20a4 c93b 52b8 f63d 7236 df3e
00000070: dee9 da3e b478 0c3d a46b a33d b659 3fbe
00000080: da24 1abd 60a0 a83e bf2a 443d 9818 98bd
00000090: a27d e2bd 92b2 6dbd f6a9 9bbe 5958 9e3e
000000a0: 6820 293d 8f22 f8bd 9623 86bd 3671 4c3d
000000b0: f3a8 603e 74b7 163c 6993 97bd 951c 173d
000000c0: e768 873e a55b 20be 952d 493e 602c 303d
000000d0: 8c0f 71bc ae40 9fbc 608f cd3d fb6d c33c
000000e0: 2f03 7dbd 5d31 053d 095b c7bd 3fd1 96bc
000000f0: 0697 2f3d a555 6cbd 4282 6fbe 0854 483d
00000100: bbd7 60bc 0278 a33e 3217 34bd d85e a23d
00000110: e8f9 9abd c409 1d3e f34f 3e3d 6713 7c3c
00000120: d04f b1be c4c7 95bd 931a 99bf a261 c53e
00000130: 9046 5c3e 1832 bb3e 7036 8abb 500c 1ebc
00000140: f9c5 9bbd 03f1 df3d eabf 69bd 9e5e da3e
00000150: f35d 2d3c f975 913e a758 8b3c 42d1 503d
00000160: 658b 78bc a80a 5cbd 48be e8bc e8c3 fe3d
00000170: 82a8 a23e fa1d ebbc 9523 bcbd e0d8 7e3e
00000180: 7406 4fbd c574 ae3e 1c5a 753d aa66 b7bd
00000190: c832 393e d6b9 c13c a0d3 bbbe e7b0 0d3e
000001a0: 8a45 c0bd 6d93 8ebd 7df4 9b3d 0e11 863d
000001b0: 945c 213e 6055 d03c b9d1 0ebd 5d79 a6bd
000001c0: aaea ba3e ebb3 25bf 19b0 a13e f0bc 58bd
000001d0: dc40 7cbd 1e0e 65be a749 eebd ce27 c53d
000001e0: 952b 05bd 3736 acbd d0c1 8a3d 947d 953b
000001f0: fd4d 11bb 52c1 db3c a3df 90bf 1d1b 593c
00000200: fe95 e03d 6612 0abf 0956 91bc 5657 873d
00000210: 072c 713e ac34 2c3e a6cc e4bc ab69 56be
00000220: b2c6 ea3e 4b17 a8bd 0046 dd3d 860b 1d3c
00000230: a560 33bf ac4d 593e 545e 7c3d 845a e03d
00000240: 1cbb dd3b e2d3 e73d f079 0bbe 7a83 ab3e
00000250: 00c7 cabd 2524 db3e d23e a63d 9b90 82bd
00000260: 2d8f 51bd 315c 7ebd 7a1a 663d c5aa 3d3e
00000270: 7231 ad3e a0cd 7bbd 6206 ef3d 8865 71be
00000280: 2bb1 43bd bc92 8a3e ab08 9bbd ccf3 803d
00000290: 45a1 67bd 1731 05bd 9014 e23d 3733 823e
000002a0: 8382 9b3b bd06 eabc 4ae5 09bd 7839 bd3d
000002b0: 6185 9e3e cba8 4e3d cea7 62bd 825b 30bd
000002c0: 4375 e93d 28a4 54be 9103 b83e 2b76 d13d
000002d0: 1d2e 0b3c 880e e0be 101d 48bd 4427 d33d
000002e0: e1cc 6bbc d85c 8ebd 80d9 2a3c 8a6f 8e3d
000002f0: 9067 a73c 0d19 f9bb 29bc abbe f539 c0bc
00000300: 04ee 8fbc 2bf7 063e 31ad 463d 1485 6f3d
00000310: 96ae 243f c9d0 1c3e b51c 8d3d f80d 3ebc
00000320: 0c6e 523c 6dba 1ebc 1c21 72be e239 94bd
00000330: 357f 9f3e 9244 543e 0265 c73d 367b c1bd
00000340: 61ef 123e 70f0 123c 4807 c7bc 3d3f e33d
00000350: 3be2 6dbd 0d3b 6f3e d83f 533e 92ea db3d
00000360: 6ec8 1abd 679e df3d c038 253d 67b9 a03e
00000370: e710 8f3e 285c bbbd 374b f33b 2556 93bf
00000380: d9e5 4fbd ac37 7c3e 141f babd 5ef2 67bd
00000390: 97ec 1cbe 0175 c43b c078 9f3e fa56 9e3e
000003a0: 92eb bd3d b14f e23c 7890 833d 2878 fdbd
000003b0: 9b72 953e e983 0dba afcc 643d 01a2 b4bd
000003c0: d468 323e c397 84bd 32e5 8c3e 9bbb 163d
000003d0: 8ea1 cbbd 7935 8fbe 0f38 5b3d 5b3f b63c
000003e0: d841 cdbc ea3f 843d 0501 13bd 673a 4fbd
000003f0: 9a8e 0d3b 4e93 b3bc a356 5b3e cd4e 0abd

model.4.bias f4 [4]
0.033743184 0.104745016 0.0996256 0.10723456
00000000: 4b36 0a3d 8e84 d63d 8208 cc3d cb9d db3d

model.0.weight f4 [128, 7]
-1.7176664 0.35348296 -0.11260242 -0.10262938 -0.016390175 0.11813931 -0.21164748 0.47635937
-2.6955433 -0.43073088 0.13585654 0.5356004 -1.2640551 0.18344475 -0.04261538 0.30590907
-0.47317126 0.103262134 -0.11455938 -0.20669076 0.32741147 0.341587 -0.601732 -0.056338523
-0.84800756 0.48114255 -0.6516601 0.65903354 0.19204952 0.089499585 0.34009212 -0.28467283
-0.43089268 -1.4752588 0.28480005 -0.34359348 -0.11430737 0.13203083 -1.9310367 0.05046251
0.020864328 0.088945344 0.36567336 0.43257666 -0.9311494 0.23196857 -0.5567318 0.12589797
0.19990279 -1.2219845 -0.053212367 -0.7289345 0.36207145 -0.3783836 -0.10196442 -0.032241136
0.22851227 0.69381666 -0.17908238 -1.27593 -0.12385605 0.32618842 0.31924176 -0.21352395
-0.14188388 -0.3130934 0.12921235 0.06630759 -0.18199706 -0.1926764 -0.311091 -0.16162278
-0.32945746 -0.05073676 0.029484393 -0.16540132 0.14096798 0.4278648 -0.23301014 -0.59195536
-0.38680825 -0.5733996 0.48503262 -0.044002015 -1.263864 0.43613127 -0.21845691 0.49450335
-0.10149376 -0.19002725 -0.2465309 0.3899704 0.31697068 0.5868751 -0.4537279 -0.517797
-0.42804363 -0.18954992 0.8213898 -0.10800363 -0.48083305 -0.1758371 0.06858192 0.060909614
0.25514075 -0.88947046 0.20112066 0.5379321 -0.25686833 0.15265106 -0.37427062 0.17204788
-0.3432824 -0.26962823 0.09810262 0.06085766 -0.16219178 0.022030998 0.3041201 0.088784434
0.6568739 -1.4610525 -0.40947628 0.2178063 0.1302582 0.08292302 0.20713982 0.39900997
-0.047979504 -0.14387572 0.55415386 0.4191944 -0.10815815 0.16231321 -0.008254239 -0.16400734
0.08022498 -0.028341135 -0.21008319 -0.21261443 0.77385384 -0.20411041 -1.2452087 0.2894328
-0.1897761 -0.60510856 0.09407475 -0.083523795 -0.33198687 0.03412043 0.26140717 -0.1399835
0.22956242 -0.19297841 -0.013334393 -0.13784531 0.28490886 0.018745068 -0.37477773 0.0685771
-0.08353301 0.350126 -2.3006501 0.44955882 -0.15705733 -0.067803174 0.29597244 0.33483708
-0.12508978 0.91644365 -0.08502547 0.11941911 -0.1463779 -0.09089655 -0.03732206 -0.3537359
-0.31610847 0.081886366 -0.022691453 -0.28761452 0.17405534 0.18528928 0.154519 0.6921051
-1.0628418 0.25235033 -0.06785173 0.41530237 -0.09875391 -0.00747864 -0.0065845675 0.050632257
-0.020007087 -5.051201 0.026138742 0.90249586 0.011119542 0.086210564 -0.07556358 -0.367192
0.35877836 -0.25740448 -0.35143673 -4.7555833 0.15907593 -0.5309146 0.53582096 0.50444114
0.0032654637 -0.18735227 -0.3624765 -0.18477854 0.19019347 0.19465856 0.263587 0.37122935
-0.25928655 0.2382248 -0.094568186 0.10426684 -0.38585576 0.13338025 -0.25659156 -0.2038013
-0.6566964 -0.47836146 0.023685131 -0.9402511 0.48128828 0.14642344 0.14936347 -0.108053446
0.8651772 0.009123932 -0.8228389 0.034223787 0.1911113 0.15222618 -0.3017688 0.16117176
0.5195088 -0.37775564 -0.23807679 -0.5590338 0.14320719 -0.2088971 -0.36679667 0.24976094
-0.2671773 -0.3118167 0.21392761 -0.2225201 -1.442175 -0.18105453 0.22771698 -0.3529378
00000000: 7edc dbbf b8fb b43e 199c e6bd 5a2f d2bd
00000010: b044 86bc 06f3 f13d 1eba 58be 60e5 f33e
00000020: c883 2cc0 c288 dcbe fa1d 0b3e 1c1d 093f
00000030: 8fcc a1bf f1d8 3b3e 778d 2ebd 1da0 9c3e
00000040: 8143 f2be 197b d33d 1c9e eabd bea6 53be
00000050: 7aa2 a73e 7ee4 ae3e 1c0b 1abf 39c3 66bd
00000060: 0617 59bf 5158 f63e 32d3 26bf 6cb6 283f
00000070: a1a8 443e 8f4b b73d 8e20 ae3e a3c0 91be
00000080: f79d dcbe 48d5 bcbf 50d1 913e 7ceb afbe
00000090: fb19 eabd 1733 073e 362c f7bf c7b1 4e3d
000000a0: abeb aa3c fa28 b63d 8a39 bb3e b07a dd3e
000000b0: cf5f 6ebf 2b89 6d3e fa85 0ebf 66eb 003e
000000c0: 51b3 4c3e fd69 9cbf 36f5 59bd 749b 3abf
000000d0: 6e61 b93e 7fbb c1be b9d2 d0bd 480f 04bd
000000e0: 1fff 693e f89d 313f 5f61 37be ad51 a3bf
000000f0: 3ea8 fdbd 2b02 a73e a873 a33e 06a6 5abe
00000100: 024a 11be c74d a0be 3e50 043e 46cc 873d
00000110: 705d 3abe f64c 45be 5247 9fbe 7180 25be
00000120: a6ae a8be 59d1 4fbd 4189 f13c f75e 29be
00000130: e959 103e 1811 db3e 369a 6ebe 638a 17bf
00000140: bb0b c6be 51ca 12bf 3256 f83e 753b 34bd
00000150: 4cc6 a1bf 994c df3e 2bb3 5fbe 8b2f fd3e
00000160: f6db cfbd 8196 42be 9972 7cbe 33aa c73e
00000170: fb49 a23e 723d 163f 064f e8be 588e 04bf
00000180: 8928 dbbe 6019 42be 9a46 523f 0231 ddbd
00000190: c02f f6be a40e 34be ad74 8c3d 5c7c 793d
000001a0: cfa1 823e 56b4 63bf 93f2 4d3e ebb5 093f
000001b0: 3f84 83be 8f50 1c3e 66a0 bfbe 522d 303e
000001c0: b6c2 afbe b60c 8abe 07ea c83d e245 793d
000001d0: 9a15 26be 5a7a b43c a1b5 9b3e 9dd4 b53d
000001e0: e328 283f c503 bbbf e0a6 d1be 9d08 5f3e
000001f0: 6862 053e 8bd3 a93d 761c 543e 094b cc3e
00000200: 2886 44bd 2854 13be 07dd 0d3f a6a0 d63e
00000210: 0582 ddbd 6f35 263e ca3c 07bc 8af1 27be
00000220: ff4c a43d ab2b e8bc 0c20 57be 99b7 59be
00000230: 491b 463f 5202 51be 0063 9fbf 8930 943e
00000240: aa54 42be 65e8 1abf 43aa c03d 860e abbd
00000250: 2ffa a9be ddc1 0b3d 29d7 853e d657 0fbe
00000260: 6912 6b3e 229c 45be 7f78 5abc 5227 0dbe
00000270: 93df 913e 428f 993c dee2 bfbe 2772 8c3d
00000280: 5b13 abbd b743 b33e da3d 13c0 932c e63e
00000290: a3d3 20be 64dc 8abd b389 973e c46f ab3e
000002a0: 8917 00be 0d9c 6a3f d521 aebd 0292 f43d
000002b0: 17e4 15be f827 babd 04df 18bd df1c b5be
000002c0: f8d8 a1be 0ab4 a73d 6de3 b9bc 3642 93be
000002d0: 903b 323e 79bc 3d3e 3b3a 1e3e cd2d 313f
000002e0: 330b 88bf 1034 813e d9f5 8abd 83a2 d43e
000002f0: 7d3f cabd 610f f5bb 5bc3 d7bb c563 4f3d
00000300: e7e5 a3bc 70a3 a1c0 ea20 d63c f809 673f
00000310: bd2e 363c 2a8f b03d 14c1 9abd 9700 bcbe
00000320: ccb1 b73e 85ca 83be 84ef b3be bd2d 98c0
00000330: cde4 223e 05ea 07bf 902b 093f 0e23 013f
00000340: 6401 563b 46d9 3fbe 8596 b9be 9636 3dbe
00000350: 14c2 423e 9354 473e e0f4 863e c611 be3e
00000360: 35c1 84be 34f1 733e f7ac c1bd da89 d53d
00000370: e38e c5be d594 083e f85f 83be 4ab1 50be
00000380: 411d 28bf cbeb f4be 5207 c23c 4cb4 70bf
00000390: 6b6b f63e 07f0 153e bdf2 183e 204b ddbd
000003a0: 417c 5d3f 8b7c 153c 92a5 52bf 3e2e 0c3d
000003b0: aeb2 433e 2ee1 1b3e 7181 9abe 360a 253e
000003c0: 87fe 043f 3069 c1be 67ca 73be d71c 0fbf
000003d0: e8a4 123e 1fe9 55be c6cc bbbe 55c1 7f3e
000003e0: 77cb 88be 70a6 9fbe d70f 5b3e 4fdc 63be
000003f0: 3199 b8bf 5c66 39be a42e 693e 43b4 b4be

model.0.bias f4 [128]
0.23196381 0.0699302 -0.3760048 0.13011813 0.16745329 0.37825602 0.07850074 -0.22345528
0.14579265 -0.3623179 -0.040690456 0.48160225 0.36216962 -0.35197338 0.16891621 0.0035806508
-0.26940477 -0.060476195 -0.4852005 -0.24711321 0.14047685 -0.326015 -0.29325098 0.22126937
-0.29378173 -0.17542039 -0.4497727 -0.07277534 -0.19337316 -0.21071824 0.029025104 -0.32243705
0.5048976 0.051471043 0.3724434 -0.26950082 -0.1500958 -0.3254777 -0.3802649 0.3131358
0.032052673 -0.37733912 0.19522299 0.17612621 0.44857875 -0.33799076 0.3531949 0.10708026
0.27412102 0.012755106 -0.239414 -0.25589558 -0.047258627 -0.38628048 0.059318826 -0.39492568
0.19499081 -0.29643568 -0.42202297 -0.1833528 -0.42130053 -0.10801887 0.26788607 0.0590151
-0.25386804 -0.692733 -0.58718264 -0.432502 0.14610173 -0.0864544 0.17933656 -0.3286399
-0.17126879 0.2820674 0.23476799 -0.14927079 -0.3722522 -0.21351433 0.18418375 0.34914467
-0.14010008 -0.5374313 0.16101736 -0.3715632 0.3069489 0.2225989 -0.2160023 -0.17622696
0.24679288 0.31832293 -0.3509617 -0.18215731 0.1175201 0.4022844 0.30084568 -0.44483554
0.22892058 0.19937351 -0.39808127 -0.06214912 -0.38716075 -0.38011232 -0.29334927 -0.42245656
0.24078102 -0.3702003 -0.15104042 -0.078569256 -0.0106938 -0.32890445 -0.10146422 -0.071833484
-0.49248326 0.017318333 0.3116636 -0.16426662 -0.17077006 -0.26738682 0.121236704 0.111319035
-0.15422308 0.13605873 -0.33270696 0.41767737 -0.4947724 -0.07446997 -0.0907063 -0.07246867
00000000: ec87 6d3e 9137 8f3d b383 c0be b03d 053e
00000010: e078 2b3e c6aa c13e ffc4 a03d 76d1 64be
00000020: ab4a 153e bb81 b9be 09ab 26bd 9294 f63e
00000030: 4c6e b93e db35 b4be 5ff8 2c3e 5aa9 6a3b
00000040: 6cef 89be e3b5 77bd 336c f8be 3f0b 7dbe
00000050: 2ad9 0f3e 70eb a6be fe24 96be 7094 623e
00000060: 8f6a 96be 67a1 33be 9b48 e6be 3d0b 95bd
00000070: 9d03 46be 86c6 57be 0ec6 ed3c 7816 a5be
00000080: f840 013f 4dd3 523d e7b0 be3e 03fc 89be
00000090: b7b2 19be 03a5 a6be 15b2 c2be 5653 a03e
000000a0: aa49 033d 9832 c1be 89e8 473e 6e5a 343e
000000b0: 1dac e53e 200d adbe f6d5 b43e e54c db3d
000000c0: 9759 8c3e cbfa 503c f228 75be bf04 83be
000000d0: 4392 41bd 8ec6 c5be 4cf8 723d b333 cabe
000000e0: acab 473e 6bc6 97be 6513 d8be d6c0 3bbe
000000f0: b4b4 d7be ff38 ddbd 5d28 893e d1b9 713d
00000100: fefa 81be f356 31bf 9a51 16bf e770 ddbe
00000110: b19b 153e 010f b1bd 01a4 373e 7d43 a8be
00000120: 1661 2fbe 236b 903e 0567 703e 71da 18be
00000130: d797 bebe 80a3 5abe aa9a 3c3e 17c3 b23e
00000140: 6576 0fbe 1995 09bf bce1 243e 883d bebe
00000150: 6828 9d3e f7f0 633e b52f 5dbe d774 34be
00000160: 46b7 7c3e 39fb a23e 40b1 b3be 7287 3abe
00000170: 61ae f03d 39f8 cd3e 7208 9a3e 7cc1 e3be
00000180: 286a 6a3e 9228 4c3e 4fd1 cbbe 1390 7ebd
00000190: ef39 c6be 159e c2be e031 96be 3a4c d8be
000001a0: 4d8f 763e e58a bdbe 57aa 1abe ebe8 a0bd
000001b0: 0c35 2fbc 2a66 a8be 79cc cfbd 6f1d 93bd
000001c0: c426 fcbe 2ddf 8d3c 5f92 9f3e 8235 28be
000001d0: 59de 2ebe ede6 88be f34a f83d 3cfb e33d
000001e0: a8ec 1dbe fb52 0b3e 9158 aabe cfd9 d53e
000001f0: cf52 fdbe b683 98bd 3ac4 b9bd 746a 94bd

model.2.weight f4 [64, 128]
-0.06758144 -0.024394827 -0.064286575 -0.09550025 0.034020636 0.022127284 -0.021618657 0.0009960459
-0.037195288 0.0016656962 -0.050759736 0.0578107 0.029569317 0.024724267 0.0061940886 -0.06800522
0.023202494 -0.06555927 -0.08295387 0.031933203 0.018258225 -0.005929292 0.050471768 -0.081573494
0.027703864 -0.008539373 -0.06532053 0.05077399 -0.047631513 -0.073326126 -0.07792099 0.086678594
-0.06754771 -0.04250393 -0.03536802 0.07416804 0.016761186 -0.11071624 -0.02033874 0.031139696
0.006816979 -0.03909136 0.0096768 -0.0015683357 0.046175767 0.00887778 -0.02100892 -0.045834463
-0.03011754 -0.0048577613 0.060660068 -0.0015620897 -0.056414157 -0.026362864 0.047122147 0.077038065
-0.05630091 0.009336327 0.07191738 -0.026749192 -0.07598583 0.05038606 0.06282701 0.032446023
-0.07725562 0.055171814 0.043944906 -0.08230042 0.017493565 0.018904814 0.067339845 -0.035017867
-0.0016062458 0.05046721 -0.015301612 -0.11388107 -0.063950814 0.0041516717 -0.07441426 0.006511709
-0.06437604 0.008768857 0.034502603 0.039100718 -0.08272703 -0.06364991 -0.00979537 0.045572065
-0.038611043 -0.014272777 0.03194844 0.024045652 0.023719056 -0.043678176 -0.112078495 -0.119291164
-0.048571482 -0.07461866 0.002931588 -0.071884386 0.025775379 -0.06318577 -0.0033952026 0.07987812
0.034539614 -0.10520938 -0.015610792 -0.017855868 -0.03624133 0.05187154 0.03260555 -0.02178541
0.04480267 -0.05446166 0.0020844883 0.00938335 0.07199697 -0.05879619 -0.059702877 -0.061127163
-0.0009831113 -0.084386565 -0.091200836 0.041506324 0.038119573 0.068759106 0.020149095 0.059386183
-0.12114326 0.2353701 -0.08275001 0.30276418 -0.16256188 -0.31070498 -0.1775407 -0.27906787
-0.021977032 -0.08663276 -0.007062347 -0.39290908 -0.15003228 -0.18931074 -0.20991251 -0.0864837
0.017577522 -0.46471632 -0.67598003 -0.04776986 -0.020710064 -0.035117377 0.089467734 0.30651802
0.22657607 -0.0073200855 -0.21337672 -0.26640332 -0.046988953 -0.03746536 -0.38088414 0.27554348
-0.08487697 -0.62947404 -0.2644459 -0.08242858 -0.0020284364 -0.044655435 -0.06341088 0.8846426
-0.07325908 -0.08938873 -0.28519973 -0.41448066 -0.007317966 0.06382417 -0.6801199 -0.1765028
-0.33903152 -0.03842111 -0.11911073 -0.20897809 -0.46415886 -0.950622 -0.08633929 0.08314903
-0.15327421 -0.014412136 -0.10881361 0.15455718 -0.085218325 0.14289063 0.019760488 0.101624064
0.056873083 0.032645192 -0.23108432 -0.28977075 -0.0019652082 -0.5535185 -0.39482352 -0.031132886
-0.5081576 0.11232569 -0.31819355 -0.18416823 -0.085846566 0.023499426 0.20499817 -0.39240718
0.0031126607 -0.016079986 -0.41213024 -0.05656991 -0.0037547268 -0.1755858 -0.010624999 -0.15463072
-0.356953 -0.15241382 0.04198372 -0.033793498 0.16757989 -0.35361516 -0.48184818 -0.28602284
0.06721318 -0.105309226 -0.14932428 -0.1965237 0.052739047 -0.12233389 -0.070711866 -0.9379335
-0.5539987 0.28392306 0.059479486 0.013393174 0.031689778 -0.19578685 0.03299507 -0.16064134
-0.25720078 0.054174498 -0.07732891 -0.10374219 -0.005480081 0.16403852 -0.079689756 -0.25574136
-0.046144262 -0.51890814 -0.20830758 -0.1587153 0.07315125 -0.1629492 -0.03433861 0.57618254
00000000: 2368 8abd a9d7 c7bc aea8 83bd a395 c3bd
00000010: 3959 0b3d 4744 b53c 9c19 b1bc c18d 823a
00000020: 165a 18bd 7d53 da3a 71e9 4fbd eaca 6c3d
00000030: 5a3b f23c 8c8a ca3c c8f7 ca3b 5246 8bbd
00000040: 2813 be3c f043 86bd b8e3 a9bd 64cc 023d
00000050: 4692 953c 824a c2bb 7cbb 4e3d 0110 a7bd
00000060: 37f3 e23c bae8 0bbc c5c6 85bd 63f8 4f3d
00000070: 4319 43bd 022c 96bd 0a95 9fbd 8c84 b13d
00000080: 7456 8abd 9a18 2ebd 0fde 10bd 6ae5 973d
00000090: c14e 893c 32bf e2bd 6e9d a6bc ad18 ff3c
000000a0: f760 df3b 431e 20bd 718b 1e3c 9d90 cdba
000000b0: cd22 3d3d 1c74 113c e61a acbc ebbc 3bbd
000000c0: 0fb9 f6bc db2d 9fbb b176 783d 08bf ccba
000000d0: 8812 67bd eff6 d7bc 2703 413d 22c6 9d3d
000000e0: c89b 66bd 65f7 183c 6b49 933d 1f21 dbbc
000000f0: 759e 9bbd 9d61 4e3d 73ab 803d 1fe6 043d
00000100: 3238 9ebd d7fb 613d 93ff 333d 1f8d a8bd
00000110: aa4e 8f3c 45de 9a3c 79e9 893d e56e 0fbd
00000120: aa88 d2ba b5b6 4e3d 9db3 7abc 7a3a e9bd
00000130: a5f8 82bd bf0a 883b 8166 98bd 2d60 d53b
00000140: 96d7 83bd 41ab 0f3c 9a52 0d3d 1328 203d
00000150: ca6c a9bd e25a 82bd c27c 20bc c6a9 3a3d
00000160: 9d26 1ebd 5ed8 69bc 5edc 023d 63fb c43c
00000170: 774e c23c e3e7 32bd 6989 e5bd ed4e f4bd
00000180: e4f2 46bd abd1 98bd e31f 403b 1f38 93bd
00000190: e326 d33c 8a67 81bd 0c82 5ebb 2497 a33d
000001a0: 6979 0d3d 0478 d7bd 68c4 7fbc 7846 92bc
000001b0: ca71 14bd 4077 543d 668d 053d 5177 b2bc
000001c0: 0183 373d 3113 5fbd e99b 083b 9fbc 193c
000001d0: 2673 933d 46d4 70bd 018b 74bd 7a60 7abd
000001e0: bedb 80ba ddd2 acbd 81c7 babd 8902 2a3d
000001f0: 4523 1c3d 93d1 8c3d b70f a53c ed3e 733d
00000200: f519 f8bd dc04 713e d678 a9bd e803 9b3e
00000210: 9f76 26be b914 9fbe 3bcd 35be fce1 8ebe
00000220: 2d09 b4bc 846c b1bd 436b e7bb 612b c9be
00000230: 10a2 19be adda 41be 4ef3 56be 5e1e b1bd
00000240: bcfe 8f3c 4cef edbe 070d 2dbf 54aa 43bd
00000250: 27a8 a9bc 3dd7 0fbd dc3a b73d eeef 9c3e
00000260: 8f03 683e 54dd efbb 6d7f 5abe 0466 88be
00000270: 7d77 40bd 4775 19bd 3f03 c3be 0914 8d3e
00000280: fad3 adbd 3625 21bf 7465 87be 51d0 a8bd
00000290: 84ef 04bb 9ee8 36bd 90dd 81bd f077 623f
000002a0: db08 96bd 7011 b7bd b305 92be cf36 d4be
000002b0: 8ccb efbb 3fb6 823d 561c 2ebf 26bd 34be
000002c0: 8a95 adbe 745f 1dbd 54f0 f3bd 5afe 55be
000002d0: 3ba6 edbe f75b 73bf a7d2 b0bd 0a4a aa3d
000002e0: eaf3 1cbe e120 6cbc acd9 debd 3d44 1e3e
000002f0: f286 aebd ec51 123e bfe0 a13c 4720 d03d
00000300: c0f3 683d f7b6 053d 5ea1 6cbe d55c 94be
00000310: b9ca 00bb 63b3 0dbf 4f26 cabe 650a ffbc
00000320: 9e16 02bf 030b e63d 44ea a2be 9996 3cbe
00000330: 53d0 afbd de81 c03c 0aeb 513e 98e9 c8be
00000340: c8fd 4b3b 2dba 83bc bc02 d3be dab5 67bd
00000350: dd11 76bb c4cc 33be 7a14 2ebc 8457 1ebe
00000360: 8bc2 b6be 5e12 1cbe 1ff7 2b3d 0d6b 0abd
00000370: 109a 2b3e 0c0d b5be ceb4 f6be 9671 92be
00000380: 10a7 893d 5dac d7bd 77e8 18be 823d 49be
00000390: e604 583d 318a fabd 62d1 90bd 691c 70bf
000003a0: dcd2 0dbf 5d5e 913e c3a0 733d 0b6f 5b3c
000003b0: 24cd 013d 597c 48be d725 073d 2a7f 24be
000003c0: d2af 83be 14e6 5d3d 9f5e 9ebd c976 d4bd
000003d0: 4092 b3bb b7f9 273e 6234 a3bd 88f0 82be
000003e0: c401 3dbd 2ad7 04bf 954e 55be 4386 22be
000003f0: 53d0 953d 28dc 26be a4a6 0cbd b380 133f

model.2.bias f4 [64]
-0.1335702 -0.36190137 0.019817118 -0.07878995 -0.40706587 0.25953713 -0.055023428 -0.12268281
-0.039350536 0.016081411 -0.19699743 -0.36616537 0.09345936 -0.11683194 -0.11274027 -0.053598598
-0.08066116 -0.059715647 -0.075776525 0.17613475 -0.06690404 0.4188282 0.09204277 -0.07506195
-0.14540167 0.015613253 -0.113217674 0.20164324 0.0107027935 -0.032614443 -0.13861065 -0.057566427
0.036676206 0.33968925 -0.09222674 -0.097237565 0.26634192 -0.002809477 -0.12777098 0.31492543
-0.10927683 -0.031798355 -0.039960638 -0.09461362 0.17865616 0.01633447 -0.10104139 0.00010520171
-0.23129128 -0.14139909 -0.18377122 -0.10544681 -0.09178804 0.45505574 -0.093335435 -0.035988387
-0.13545077 -0.11344915 -0.04635996 -0.10785802 -0.05726632 -0.09438761 -0.0871748 0.023358757
00000000: a0c6 08be 234b b9be 8257 a23c a05c a1bd
00000010: f06a d0be 0de2 843e 3f60 61bd 2041 fbbd
00000020: 072e 21bd 2abd 833c b2b9 49be 077a bbbe
00000030: 9f67 bf3d 9645 efbd 5fe4 e6bd 348a 5bbd
00000040: ae31 a5bd 6598 74bd b930 9bbd ab5c 343e
00000050: fc04 89bd a670 d63e eb80 bc3d 14ba 99bd
00000060: 2de4 14be bbce 7f3c abde e7bd 917b 4e3e
00000070: c55a 2f3c b996 05bd f3ef 0dbe c6ca 6bbd
00000080: ca39 163d c0eb ad3e 60e1 bcbd 7d24 c7bd
00000090: f85d 883e 341f 38bb 65d6 02be e83d a13e
000000a0: 88cc dfbd fe3e 02bd c4ad 23bd c9c4 c1bd
000000b0: a4f1 363e decf 853c caee cebd bd9f dc38
000000c0: 9fd7 6cbe ecca 10be 862e 3cbe 7ff4 d7bd
000000d0: 5efb bbbd 11fd e83e a626 bfbd 8f68 13bd
000000e0: 9bb3 0abe 0758 e8bd f1e3 3dbd aae4 dcbd
000000f0: 1790 6abd 4b4e c1bd b488 b2bd dd5a bf3c

model.4.weight f4 [4, 64]
0.006515287 0.58675385 0.0421636 -0.08040182 -0.8113458 0.16949397 0.11956806 0.07554445
1.0955244 -0.084033206 -0.3399158 0.18195008 0.32410863 0.2520128 0.090832815 0.10997991
-0.028771214 0.07757282 0.030508135 -0.06549993 -0.08526711 -0.07394341 0.34343442 0.07404525
-0.023707537 0.0061535984 0.12046875 0.43596226 0.42756552 0.0342948 0.07979515 -0.18686566
-0.0376328 0.32934856 0.04789233 -0.07426566 -0.11059119 -0.058031626 -0.30403107 0.3092678
0.04129067 -0.121159665 -0.06549756 0.049912654 0.21939449 0.009199012 -0.07401163 0.036892492
0.26447222 -0.1565996 0.19646294 0.04301107 -0.014713179 -0.019440021 0.10037112 0.023856154
-0.061770614 0.03251778 -0.097341605 -0.018410323 0.042868637 -0.057698864 -0.23389533 0.048908263
-0.013723309 0.31927496 -0.043967433 0.07928246 -0.07567197 0.15335757 0.046462964 0.015385485
-0.34631205 -0.07313493 -1.1961235 0.3855105 0.21511292 0.36561656 -0.0042179152 -0.00964649
-0.0760612 0.10934641 -0.05706779 0.42650312 0.010581481 0.28410318 0.017010046 0.050980814
-0.015169953 -0.0537211 -0.028411046 0.1243971 0.31769186 -0.028700817 -0.09186474 0.24887419
-0.050543264 0.34073463 0.059900388 -0.089551285 0.18085778 0.023648184 -0.36684895 0.13837014
-0.093882635 -0.06961713 0.07614992 0.06546222 0.15757972 0.025431335 -0.034867976 -0.08128617
0.3650716 -0.6472766 0.31579664 -0.05291456 -0.061585292 -0.22368667 -0.11635142 0.09626733
-0.032512266 -0.08408778 0.06775248 0.004562089 -0.0022171729 0.02682558 -1.1318249 0.013251093
0.10966109 -0.53934324 -0.01774122 0.06608455 0.23551951 0.16816968 -0.027929615 -0.20938747
0.45854717 -0.08207568 0.10804367 0.009585267 -0.7006934 0.21221036 0.061613396 0.109547645
0.00676669 0.1131971 -0.13620734 0.33498746 -0.099012375 0.42801014 0.08117451 -0.063752376
-0.051161934 -0.06209964 0.056177594 0.18522175 0.33826786 -0.061475396 0.11671139 -0.23573887
-0.047776382 0.27065074 -0.07570013 0.062965006 -0.056550283 -0.03251752 0.11039078 0.254297
0.004745783 -0.028567666 -0.033665933 0.09239477 0.30961135 0.050453942 -0.055335812 -0.04305602
0.11399319 -0.20765746 0.3594022 0.10227617 0.008494881 -0.43761086 -0.04885584 0.10310224
-0.014392109 -0.06951302 0.010427833 0.06954868 0.020435125 -0.0076018632 -0.33541992 -0.023465136
-0.01756955 0.13180225 0.048505012 0.058476523 0.64328897 0.1531402 0.06890241 -0.01160001
0.01284362 -0.009688002 -0.23645443 -0.07237603 0.3115174 0.20729282 0.097360626 -0.09447329
0.14349128 0.008968458 -0.024295464 0.11096046 -0.05807708 0.2336237 0.20629823 0.107381
-0.0377888 0.10918885 0.040337324 0.3139145 0.27942583 -0.09148437 0.007424738 -1.1510664
-0.05075631 0.24630612 -0.09087959 -0.056627624 -0.15324627 0.0059953933 0.31146812 0.30925733
0.09273447 0.02762589 0.064240396 -0.123764336 0.29189 -0.0005398379 0.055859264 -0.08819962
0.17422801 -0.06474259 0.27518612 0.03680001 -0.099429235 -0.27970484 0.05352026 0.022247007
-0.02505581 0.06457503 -0.035889644 -0.050592806 0.002159989 -0.021920826 0.21419768 -0.033766557
00000000: 307e d53b 8035 163f bdb3 2c3d b6a9 a4bd
00000010: 5cb4 4fbf d48f 2d3e 19e0 f43d 0cb7 9a3d
00000020: 253a 8c3f 9a19 acbd 7209 aebe 1f51 3a3e
00000030: 91f1 a53e d207 813e 8e06 ba3d 263d e13d
00000040: 9cb1 ebbc 80de 9e3d 32ec f93c d424 86bd
00000050: 86a0 aebd a46f 97bd a3d6 af3e 09a5 973d
00000060: 4f36 c2bc 20a4 c93b 52b8 f63d 7236 df3e
00000070: dee9 da3e b478 0c3d a46b a33d b659 3fbe
00000080: da24 1abd 60a0 a83e bf2a 443d 9818 98bd
00000090: a27d e2bd 92b2 6dbd f6a9 9bbe 5958 9e3e
000000a0: 6820 293d 8f22 f8bd 9623 86bd 3671 4c3d
000000b0: f3a8 603e 74b7 163c 6993 97bd 951c 173d
000000c0: e768 873e a55b 20be 952d 493e 602c 303d
000000d0: 8c0f 71bc ae40 9fbc 608f cd3d fb6d c33c
000000e0: 2f03 7dbd 5d31 053d 095b c7bd 3fd1 96bc
000000f0: 0697 2f3d a555 6cbd 4282 6fbe 0854 483d
00000100: bbd7 60bc 0278 a33e 3217 34bd d85e a23d
00000110: e8f9 9abd c409 1d3e f34f 3e3d 6713 7c3c
00000120: d04f b1be c4c7 95bd 931a 99bf a261 c53e
00000130: 9046 5c3e 1832 bb3e 7036 8abb 500c 1ebc
00000140: f9c5 9bbd 03f1 df3d eabf 69bd 9e5e da3e
00000150: f35d 2d3c f975 913e a758 8b3c 42d1 503d
00000160: 658b 78bc a80a 5cbd 48be e8bc e8c3 fe3d
00000170: 82a8 a23e fa1d ebbc 9523 bcbd e0d8 7e3e
00000180: 7406 4fbd c574 ae3e 1c5a 753d aa66 b7bd
00000190: c832 393e d6b9 c13c a0d3 bbbe e7b0 0d3e
000001a0: 8a45 c0bd 6d93 8ebd 7df4 9b3d 0e11 863d
000001b0: 945c 213e 6055 d03c b9d1 0ebd 5d79 a6bd
000001c0: aaea ba3e ebb3 25bf 19b0 a13e f0bc 58bd
000001d0: dc40 7cbd 1e0e 65be a749 eebd ce27 c53d
000001e0: 952b 05bd 3736 acbd d0c1 8a3d 947d 953b
000001f0: fd4d 11bb 52c1 db3c a3df 90bf 1d1b 593c
00000200: fe95 e03d 6612 0abf 0956 91bc 5657 873d
00000210: 072c 713e ac34 2c3e a6cc e4bc ab69 56be
00000220: b2c6 ea3e 4b17 a8bd 0046 dd3d 860b 1d3c
00000230: a560 33bf ac4d 593e 545e 7c3d 845a e03d
00000240: 1cbb dd3b e2d3 e73d f079 0bbe 7a83 ab3e
00000250: 00c7 cabd 2524 db3e d23e a63d 9b90 82bd
00000260: 2d8f 51bd 315c 7ebd 7a1a 663d c5aa 3d3e
00000270: 7231 ad3e a0cd 7bbd 6206 ef3d 8865 71be
00000280: 2bb1 43bd bc92 8a3e ab08 9bbd ccf3 803d
00000290: 45a1 67bd 1731 05bd 9014 e23d 3733 823e
000002a0: 8382 9b3b bd06 eabc 4ae5 09bd 7839 bd3d
000002b0: 6185 9e3e cba8 4e3d cea7 62bd 825b 30bd
000002c0: 4375 e93d 28a4 54be 9103 b83e 2b76 d13d
000002d0: 1d2e 0b3c 880e e0be 101d 48bd 4427 d33d
000002e0: e1cc 6bbc d85c 8ebd 80d9 2a3c 8a6f 8e3d
000002f0: 9067 a73c 0d19 f9bb 29bc abbe f539 c0bc
00000300: 04ee 8fbc 2bf7 063e 31ad 463d 1485 6f3d
00000310: 96ae 243f c9d0 1c3e b51c 8d3d f80d 3ebc
00000320: 0c6e 523c 6dba 1ebc 1c21 72be e239 94bd
00000330: 357f 9f3e 9244 543e 0265 c73d 367b c1bd
00000340: 61ef 123e 70f0 123c 4807 c7bc 3d3f e33d
00000350: 3be2 6dbd 0d3b 6f3e d83f 533e 92ea db3d
00000360: 6ec8 1abd 679e df3d c038 253d 67b9 a03e
00000370: e710 8f3e 285c bbbd 374b f33b 2556 93bf
00000380: d9e5 4fbd ac37 7c3e 141f babd 5ef2 67bd
00000390: 97ec 1cbe 0175 c43b c078 9f3e fa56 9e3e
000003a0: 92eb bd3d b14f e23c 7890 833d 2878 fdbd
000003b0: 9b72 953e e983 0dba afcc 643d 01a2 b4bd
000003c0: d468 323e c397 84bd 32e5 8c3e 9bbb 163d
000003d0: 8ea1 cbbd 7935 8fbe 0f38 5b3d 5b3f b63c
000003e0: d841 cdbc ea3f 843d 0501 13bd 673a 4fbd
000003f0: 9a8e 0d3b 4e93 b3bc a356 5b3e cd4e 0abd

model.4.bias f4 [4]
0.033743184 0.104745016 0.0996256 0.10723456
00000000: 4b36 0a3d 8e84 d63d 8208 cc3d cb9d db3d
