checkpoints/checkpoint_ep800.pt (torch, 163021 bytes, 24 tensors)

model.0.weight f4 [128, 7]
0	0xbf97efd3	-1.1870064
1	0x3ea4b10c	0.32166326
2	0xbe711bfe	-0.23545834
3	0xbe5c32b2	-0.21503714
4	0x3dd42352	0.10358299
5	0xbdfc3ecf	-0.12316667
6	0xbd40ef96	-0.047103487
7	0x3e932e68	0.28746343
8	0xbf5b06e7	-0.8555741
9	0xbf264669	-0.6495119
10	0x3e4ca04a	0.1998302
11	0x3eccde0f	0.40013167
12	0xbf8329da	-1.0247147
13	0x3c7f0d60	0.015567154
14	0xbd656e7b	-0.056013566
15	0x3e843056	0.25818127
16	0xbe7eda3c	-0.24887937
17	0x3e06e9e7	0.13175164
18	0xbd2c178a	-0.042014636
19	0xbe366634	-0.17812425
20	0x3ea6d02f	0.32580706
21	0x3e8de88c	0.27716482
22	0xbf50a7a8	-0.81505823
23	0xbdc39b6f	-0.09551131
24	0xbf095413	-0.5364391
25	0x3ed99459	0.42495993
26	0xbf4b6ebe	-0.79465854
27	0x3f253e5f	0.64548296
28	0xbcfddb1b	-0.030988267
29	0x3da2553a	0.07926412
30	0x3ea4f941	0.32221416
31	0xbe2e9d21	-0.17052127
32	0xbf02431b	-0.50883645
33	0xbf82349c	-1.0172305
34	0x3e9f4d27	0.3111355
35	0xbe744242	-0.238534
36	0xbe3981e3	-0.18115954
37	0x3e857041	0.26062205
38	0xc011e7e5	-2.2797787
39	0xbcc7add4	-0.02437488
40	0xbe0ee6fb	-0.139553
41	0x3a741cf9	0.00093121786
42	0x3d70ccd8	0.058789104
43	0x3eb9ba36	0.3627488
44	0xbf7f6d0c	-0.9977577
45	0x3e939a57	0.2882869
46	0xbec70891	-0.38873723
47	0xbd81d3fa	-0.063392594
48	0x3e38d09f	0.18048333
49	0xbf9c69fd	-1.2219845
50	0xbd59f536	-0.053212367
51	0xbf3a9b74	-0.7289345
52	0x3eb9616e	0.36207145
53	0xbec1bb7f	-0.3783836
54	0xbdd0d2b9	-0.10196442
55	0xbd040f48	-0.032241136
56	0x3e86710a	0.26258117
57	0x3e8bc2d6	0.27297086
58	0xbe01ab6a	-0.12663046
59	0xbfbdd88d	-1.4831711
60	0xbece6c3e	-0.40316957
61	0x3ebaded4	0.3649813
62	0x3e978f5a	0.29601556
63	0xbe5aa606	-0.21352395
64	0xbe114a02	-0.14188388
65	0xbea04dc7	-0.3130934
66	0x3e04503e	0.12921235
67	0x3d87cc46	0.06630759
68	0xbe3a5d70	-0.18199706
69	0xbe454cf6	-0.1926764
70	0xbe9f4752	-0.311091
71	0xbe258071	-0.16162278
72	0xbea8aea6	-0.32945746
73	0xbd4fd159	-0.05073676
74	0x3cf18941	0.029484393
75	0xbe295ef7	-0.16540132
76	0x3e1059e9	0.14096798
77	0x3ec19b40	0.3781376
78	0xbeef2186	-0.46705264
79	0xbeeb7938	-0.4599092
80	0xbf3cdd26	-0.73774946
81	0xbe281144	-0.16412836
82	0x3ec18f6d	0.37804738
83	0xbc17bcb2	-0.009261297
84	0xbf980509	-1.1876537
85	0x3e9cec17	0.30648872
86	0xbeae45af	-0.3403754
87	0x3ee2b07c	0.44275272
88	0xbdfbfc6c	-0.12304005
89	0xbee6a7b7	-0.4504983
90	0xbe37c102	-0.1794472
91	0x3ee4fc77	0.44723865
92	0x3df424e1	0.119210966
93	0x3f19b2b9	0.60038334
94	0xbf07a168	-0.5298066
95	0xbe8da7a6	-0.27666968
96	0x3dca783b	0.098862134
97	0xbe37fd90	-0.1796782
98	0x3f45034c	0.76958156
99	0xbdab35b8	-0.083598554
100	0xbf14df0e	-0.58152854
101	0xbe1e37f1	-0.15451027
102	0x3d2e9897	0.04262599
103	0xbe07e1be	-0.13269708
104	0x3e9d3030	0.30700827
105	0xbf143482	-0.5789262
106	0x3e808111	0.2509847
107	0x3ee95c63	0.45578298
108	0xbecb42df	-0.39699456
109	0xbe0e67e4	-0.13906819
110	0xbefe89e0	-0.49714565
111	0x3e7fc186	0.24976167
112	0xbeafc2b6	-0.3432824
113	0xbe8a0cb6	-0.26962823
114	0x3dc8ea07	0.09810262
115	0x3d7945e2	0.06085766
116	0xbe26159a	-0.16219178
117	0x3cb47a5a	0.022030998
118	0x3e9bb5a1	0.3041201
119	0x3e58e2f3	0.21180324
120	0x3f185c57	0.595159
121	0xbfbde4d4	-1.4835458
122	0xbeb8d288	-0.36098123
123	0x3dab1ddd	0.08355305
124	0x3de02d7f	0.10946178
125	0x3d832501	0.06403542
126	0x3e99a6d8	0.30010104
127	0x3ed57d80	0.4169731
128	0x3c1b2822	0.009470018
129	0xbd4a6270	-0.049410284
130	0x3eb893c8	0.36050248
131	0x3ee7df8b	0.45287737
132	0xbdbd1f08	-0.09234434
133	0x3e26356f	0.16231321
134	0xbc073cca	-0.008254239
135	0xbe27f18a	-0.16400734
136	0x3da44cff	0.08022498
137	0xbce82bab	-0.028341135
138	0xbe57200c	-0.21008319
139	0xbe59b799	-0.21261443
140	0x3f0d99eb	0.55312985
141	0xbe09d75a	-0.13461056
142	0xbf81a660	-1.0128899
143	0x3e91db80	0.28487778
144	0xbe1da664	-0.15395504
145	0xbee7101f	-0.45129487
146	0x3e0b4ed5	0.13604291
147	0xbdab0e86	-0.083523795
148	0xbea9fa2f	-0.33198687
149	0x3d0bc1dd	0.03412043
150	0x3e85d729	0.26140717
151	0xbe0f57d6	-0.1399835
152	0x3e6b1269	0.22956242
153	0xbe459c22	-0.19297841
154	0xbc5a787f	-0.013334393
155	0xbe0d2752	-0.13784531
156	0x3e91df93	0.28490886
157	0x3c998f42	0.018745068
158	0xbebfe2de	-0.37477773
159	0x3d8c7227	0.0685771
160	0xbdab135b	-0.08353301
161	0x3e82569a	0.25456697
162	0xc016e4cc	-2.3577147
163	0x3ede80c9	0.4345763
164	0xbe0144a6	-0.12623844
165	0xbe177900	-0.14792252
166	0x3ea6035b	0.32424435
167	0x3e55cf5c	0.20879883
168	0xbe004a15	-0.1252826
169	0x3f2de791	0.6793147
170	0xbd95a519	-0.073068805
171	0x3d8fd91f	0.070238344
172	0x3ec51905	0.3849565
173	0xbec78e44	-0.38975728
174	0x3da6d97e	0.08146952
175	0xbeb51cdf	-0.3537359
176	0xbea1d8f8	-0.31610847
177	0x3da7b40a	0.081886366
178	0xbcb9e36d	-0.022691453
179	0xbe934236	-0.28761452
180	0x3e323b90	0.17405534
181	0x3e3dbc79	0.18528928
182	0x3eaa49f8	0.3325956
183	0x3eda0e00	0.42588806
184	0xbf65b408	-0.8972783
185	0x3ec5ee11	0.38658193
186	0xbe5bf8f6	-0.2148169
187	0x3ee641a6	0.4497196
188	0xbd0c86de	-0.034308307
189	0xbdbebc51	-0.09313262
190	0xbe89c6b3	-0.26909408
191	0xbd09e344	-0.033664003
192	0x3daa5e5b	0.08318778
193	0xc07e8871	-3.9770777
194	0xbe24dfe5	-0.16101034
195	0x3f7a4eb7	0.9777636
196	0x3c362ebd	0.011119542
197	0x3db08f2a	0.086210564
198	0xbd9ac114	-0.07556358
199	0xbebc0097	-0.367192
200	0x3eb7b1cc	0.35877836
201	0xbe83ca85	-0.25740448
202	0xbeb3ef84	-0.35143673
203	0xc0a3623a	-5.1057405
204	0x3ec21f9a	0.37914735
205	0xbe748d14	-0.23881942
206	0x3ead29ee	0.33821052
207	0x3e529425	0.20564325
208	0xbe0f4933	-0.13992767
209	0xbdbcb03d	-0.09213302
210	0xbe3965e5	-0.18105276
211	0xbeb30c9f	-0.34970567
212	0x3e41d6cf	0.18929599
213	0x3db77815	0.08958451
214	0x3f02ca12	0.51089585
215	0x3ebbcbf3	0.36679038
216	0xbe7357f9	-0.23764028
217	0x3e73f134	0.2382248
218	0xbdc1acf7	-0.094568186
219	0x3dd589da	0.10426684
220	0xbec58ee3	-0.38585576
221	0x3e0894d5	0.13338025
222	0xbe835ff8	-0.25659156
223	0xbe50b14a	-0.2038013
224	0xbf2617a4	-0.6487982
225	0xbed299c8	-0.4113295
226	0xbd356bc0	-0.04429221
227	0xbf3b3a3d	-0.7313574
228	0x3ee03e88	0.43797708
229	0xbd05f416	-0.03270348
230	0x3dd9a903	0.106279396
231	0xbe3bf351	-0.18354537
232	0x3f3a60e7	0.7280411
233	0x3dc2f3ac	0.09519133
234	0xbf3394fb	-0.701492
235	0xbe291221	-0.16510822
236	0x3d83e886	0.06440835
237	0x3e4735fe	0.1945419
238	0xbd857db7	-0.06518119
239	0x3d334a8a	0.043772258
240	0x3f276371	0.6538611
241	0xbee52ab7	-0.4475915
242	0xbede878b	-0.43462786
243	0xbee976a4	-0.45598328
244	0x3e1fac17	0.15592991
245	0xbe55e91f	-0.2088971
246	0xbebbccc6	-0.36679667
247	0x3e7fc155	0.24976094
248	0xbe88cb77	-0.2671773
249	0xbe9fa670	-0.3118167
250	0x3e5b0fd7	0.21392761
251	0xbe63dc4f	-0.2225201
252	0xbfb977e7	-1.4489716
253	0x3d936ea5	0.07198838
254	0x3e930236	0.28712624
255	0x3d8c7885	0.06858925

model.0.bias f4 [128]
0	0x3ecb03e7	0.39651415
1	0xbdc8a136	-0.097963735
2	0xbec1b895	-0.37836137
3	0x3deebb0f	0.11656772
4	0x3e46703c	0.19378752
5	0x3e949a51	0.29023984
6	0x3d71fe1e	0.059080236
7	0xbe64d176	-0.22345528
8	0x3dfb02be	0.122563824
9	0xbeb981bb	-0.3623179
10	0xbd26ab09	-0.040690456
11	0x3f042ec7	0.51633877
12	0x3edbc713	0.4292532
13	0xbeaf2790	-0.3420987
14	0x3e621496	0.22078165
15	0x3da67e37	0.08129542
16	0xbe89ef6c	-0.26940477
17	0xbda28b2d	-0.07936702
18	0xbef05389	-0.46938732
19	0xbe7d0b3f	-0.24711321
20	0x3e3ad2c1	0.18244459
21	0xbea6eb70	-0.326015
22	0xbe9624fe	-0.29325098
23	0x3dc30750	0.09522879
24	0xbe332fc0	-0.17498684
25	0xbe33a167	-0.17542039
26	0xbec549f9	-0.38533
27	0x3b235a70	0.002492573
28	0xbe46039d	-0.19337316
29	0xbdec896d	-0.115496494
30	0x3d4f8ae6	0.050669573
31	0xbea51678	-0.32243705
32	0x3eec7300	0.46181488
33	0x3dc011bb	0.09378382
34	0x3ec5350a	0.38517028
35	0xbe89fc03	-0.26950082
36	0xbe689e89	-0.22716726
37	0xbeafb171	-0.34315065
38	0xbec2b215	-0.3802649
39	0x3ea27450	0.31729364
40	0x3cce2dbf	0.025168298
41	0xbec13298	-0.37733912
42	0x3e4b30fd	0.19842906
43	0x3e6f0eee	0.23345539
44	0x3ef0e862	0.47052294
45	0xbead0d20	-0.33799076
46	0x3e44baf3	0.1921194
47	0xbd4cc368	-0.04999104
48	0x3e5c79b2	0.21530798
49	0x3c50facb	0.012755106
50	0xbe7528f2	-0.239414
51	0xbe8304bf	-0.25589558
52	0xbd3821f8	-0.04495427
53	0xbe8b4d26	-0.27207297
54	0xbcf9251a	-0.0304132
55	0xbeca33b3	-0.39492568
56	0x3eaabfff	0.33349606
57	0xbe97c66b	-0.29643568
58	0xbed81365	-0.42202297
59	0xbe3bc0d6	-0.1833528
60	0xbed7b4b4	-0.42130053
61	0xbddd38ff	-0.10801887
62	0x3e571af3	0.21006374
63	0x3dd92d82	0.10604383
64	0xbe81fafe	-0.25386804
65	0xbf24bacd	-0.64347535
66	0xbf16519a	-0.58718264
67	0xbeef26f1	-0.46709397
68	0x3e3a3e65	0.18187864
69	0x3d73324e	0.059374146
70	0x3e0625d1	0.13100363
71	0xbea8437d	-0.3286399
72	0xbddfc92f	-0.109270446
73	0x3e906b23	0.2820674
74	0x3e262128	0.16223586
75	0xbdb2dec6	-0.08733897
76	0xbebe97d7	-0.3722522
77	0xbe661de2	-0.22472337
78	0x3e3c9aaa	0.18418375
79	0x3e937d3e	0.2880649
80	0xbe0f7665	-0.14010008
81	0xbf02f6af	-0.5115766
82	0x3e63c4ed	0.2224309
83	0xbebe3d88	-0.3715632
84	0x3eabe9a6	0.33576697
85	0x3e627c83	0.2211781
86	0xbe5d2fb5	-0.2160023
87	0xbe3474d7	-0.17622696
88	0x3e8b2685	0.27177826
89	0x3edcbe11	0.4311376
90	0xbeb3b140	-0.3509617
91	0xbe3a8772	-0.18215731
92	0x3dd9289d	0.106034495
93	0x3e9320ae	0.2873587
94	0x3e8c5cb3	0.27414474
95	0xbee3798c	-0.4442867
96	0x3e3ab15a	0.18231717
97	0x3e2ca9aa	0.16861597
98	0xbeb5cb33	-0.3550659
99	0x3d0a50c3	0.033768427
100	0xbec639ef	-0.38716075
101	0xbec9a993	-0.39387187
102	0xbe9631e0	-0.29334927
103	0xbed84c3a	-0.42245656
104	0x3e9b4d2e	0.3033232
105	0xbe7a909e	-0.2446923
106	0xbe1aaa57	-0.15104042
107	0xbd9fe19b	-0.07806703
108	0xbcba44dd	-0.022737915
109	0xbea8662a	-0.32890445
110	0xbd9441cb	-0.072391115
111	0xbd931d6f	-0.071833484
112	0xbf0260e9	-0.50929123
113	0xbca882a5	-0.020570109
114	0x3e830311	0.25588277
115	0xbe07b0e8	-0.13251078
116	0xbe2ede59	-0.17077006
117	0xbe90136c	-0.28139818
118	0x3df84af3	0.121236704
119	0x3e788509	0.24269499
120	0xbd7ca743	-0.06168295
121	0x3da92cf0	0.08260524
122	0xbe86a300	-0.26296234
123	0x3ee66aab	0.45003256
124	0xbefd52cf	-0.4947724
125	0xbd9883b6	-0.07446997
126	0xbd8a3600	-0.06748581
127	0xbd946a74	-0.07246867

model.2.weight f4 [64, 128]
0	0xbd8a6823	-0.06758144
1	0xbcc7d7a9	-0.024394827
2	0xbd83a8ae	-0.064286575
3	0xbdc395a3	-0.09550025
4	0x3d0b5939	0.034020636
5	0x3cb54447	0.022127284
6	0xbcb1199c	-0.021618657
7	0x3a828dc1	0.0009960459
8	0xbd185a16	-0.037195288
9	0x3ada537d	0.0016656962
10	0xbd4fe971	-0.050759736
11	0x3d6ccaea	0.0578107
12	0x3cf23b5a	0.029569317
13	0x3cca8a8c	0.024724267
14	0x3bcaf7c8	0.0061940886
15	0xbd8b4652	-0.06800522
16	0x3cbe1328	0.023202494
17	0xbd8643f0	-0.06555927
18	0xbda9e3b8	-0.08295387
19	0x3d02cc64	0.031933203
20	0x3c959246	0.018258225
21	0xbbc24a82	-0.005929292
22	0x3d4ebb7c	0.050471768
23	0xbda71001	-0.081573494
24	0x3ce2f337	0.027703864
25	0xbc0be8ba	-0.008539373
26	0xbd85c6c5	-0.06532053
27	0x3d4ff863	0.05077399
28	0xbd431943	-0.047631513
29	0xbd962c02	-0.073326126
30	0xbd9f950a	-0.07792099
31	0x3db1848c	0.086678594
32	0xbd8a5674	-0.06754771
33	0xbd2e189a	-0.04250393
34	0xbd10de0f	-0.03536802
35	0x3d97e56a	0.07416804
36	0x3c894ec1	0.016761186
37	0xbde2bf32	-0.11071624
38	0xbca69d6e	-0.02033874
39	0x3cff18ad	0.031139696
40	0x3bdf60f7	0.006816979
41	0xbd201e43	-0.03909136
42	0x3c1e8b71	0.0096768
43	0xbacd909d	-0.0015683357
44	0x3d3d22cd	0.046175767
45	0x3c11741c	0.00887778
46	0xbcac1ae6	-0.02100892
47	0xbd3bbceb	-0.045834463
48	0xbcf6b90f	-0.03011754
49	0xbb9f2ddb	-0.0048577613
50	0x3d7876b1	0.060660068
51	0xbaccbf08	-0.0015620897
52	0xbd671288	-0.056414157
53	0xbcd7f6ef	-0.026362864
54	0x3d410327	0.047122147
55	0x3d9dc622	0.077038065
56	0xbd669bc8	-0.05630091
57	0x3c18f765	0.009336327
58	0x3d93496b	0.07191738
59	0xbcdb211f	-0.026749192
60	0xbd9b9e75	-0.07598583
61	0x3d4e619d	0.05038606
62	0x3d80ab73	0.06282701
63	0x3d04e61f	0.032446023
64	0xbd9e3832	-0.07725562
65	0x3d61fbd7	0.055171814
66	0x3d33ff93	0.043944906
67	0xbda88d1f	-0.08230042
68	0x3c8f4eaa	0.017493565
69	0x3c9ade45	0.018904814
70	0x3d89e979	0.067339845
71	0xbd0f6ee5	-0.035017867
72	0xbad288aa	-0.0016062458
73	0x3d4eb6b5	0.05046721
74	0xbc7ab39d	-0.015301612
75	0xbde93a7a	-0.11388107
76	0xbd82f8a5	-0.063950814
77	0x3b880abf	0.0041516717
78	0xbd986681	-0.07441426
79	0x3bd5602d	0.006511709
80	0xbd83d796	-0.06437604
81	0x3c0fab41	0.008768857
82	0x3d0d529a	0.034502603
83	0x3d202813	0.039100718
84	0xbda96cca	-0.08272703
85	0xbd825ae2	-0.06364991
86	0xbc207cc2	-0.00979537
87	0x3d3aa9c6	0.045572065
88	0xbd1e269d	-0.038611043
89	0xbc69d85e	-0.014272777
90	0x3d02dc5e	0.03194844
91	0x3cc4fb63	0.024045652
92	0x3cc24e77	0.023719056
93	0xbd32e7e3	-0.043678176
94	0xbde58969	-0.112078495
95	0xbdf44eed	-0.119291164
96	0xbd46f2e4	-0.048571482
97	0xbd98d1ab	-0.07461866
98	0x3b401fe3	0.002931588
99	0xbd93381f	-0.071884386
100	0x3cd326e3	0.025775379
101	0xbd81678a	-0.06318577
102	0xbb5e820c	-0.0033952026
103	0x3da39724	0.07987812
104	0x3d0d7969	0.034539614
105	0xbdd77804	-0.10520938
106	0xbc7fc468	-0.015610792
107	0xbc924678	-0.017855868
108	0xbd1471ca	-0.03624133
109	0x3d547740	0.05187154
110	0x3d058d66	0.03260555
111	0xbcb27751	-0.02178541
112	0x3d378301	0.04480267
113	0xbd5f1331	-0.05446166
114	0x3b089be9	0.0020844883
115	0x3c19bc9f	0.00938335
116	0x3d937326	0.07199697
117	0xbd70d446	-0.05879619
118	0xbd748b01	-0.059702877
119	0xbd7a607a	-0.061127163
120	0xba80dbbe	-0.0009831113
121	0xbdacd2dd	-0.084386565
122	0xbdbac781	-0.091200836
123	0x3d2a0289	0.041506324
124	0x3d1c2345	0.038119573
125	0x3d8cd193	0.068759106
126	0x3ca50fb7	0.020149095
127	0x3d733eed	0.059386183
128	0xbdf819f5	-0.12114326
129	0x3e99018e	0.29884
130	0xbda978d6	-0.08275001
131	0x3ecbb310	0.3978505
132	0xbdccc1f0	-0.09997928
133	0xbe8f1166	-0.2794296
134	0xbe35cd3b	-0.1775407
135	0xbe8ee1fc	-0.27906787
136	0x3c1d5bf8	0.009604447
137	0xbdb16c84	-0.08663276
138	0xbbe76b43	-0.007062347
139	0xbe987daf	-0.2978339
140	0xbe19a210	-0.15003228
141	0xbe221297	-0.15827404
142	0xbdeb27bd	-0.11482189
143	0xbdb11e5e	-0.0864837
144	0x3c8ffebc	0.017577522
145	0xbeedef4c	-0.46471632
146	0xbf2d0d07	-0.67598003
147	0xbd43aa54	-0.04776986
148	0x3d2560a5	0.04037537
149	0xbd0fd73d	-0.035117377
150	0x3db73adc	0.089467734
151	0x3ecda84f	0.40167472
152	0x3e68038f	0.22657607
153	0xbbefdd54	-0.0073200855
154	0xbe5a7f6d	-0.21337672
155	0xbe886604	-0.26640332
156	0xbd40777d	-0.046988953
157	0xbd197547	-0.03746536
158	0xbea2c825	-0.31793323
159	0x3e8d1409	0.27554348
160	0xbd5abf6b	-0.053405207
161	0xbf19c768	-0.60069895
162	0xbe2d6468	-0.16932833
163	0xbda8d051	-0.08242858
164	0xbb04ef84	-0.0020284364
165	0xbd36e89e	-0.044655435
166	0xbd81dd90	-0.06341088
167	0x3f7ad2b1	0.9797774
168	0xbd9608db	-0.07325908
169	0xbdb71170	-0.08938873
170	0xbe42afb0	-0.19012332
171	0xbed436cf	-0.41448066
172	0x3db3bba0	0.08776021
173	0x3d82b63f	0.06382417
174	0xbf25fdff	-0.6484069
175	0xbe34bd26	-0.1765028
176	0xbe79cbd6	-0.24394163
177	0xbd1d5f74	-0.03842111
178	0xbdf3f054	-0.11911073
179	0xbe55fe5a	-0.20897809
180	0xbedd7bde	-0.43258566
181	0xbf735bf7	-0.950622
182	0xbdb0d2a7	-0.08633929
183	0x3daa4a0a	0.08314903
184	0xbe1cf3ea	-0.15327421
185	0xbc6c20e1	-0.014412136
186	0xbdded9ac	-0.10881361
187	0x3e1e443d	0.15455718
188	0xbdae86f2	-0.085218325
189	0x3e1251ec	0.14289063
190	0x3ca1e0bf	0.019760488
191	0x3dd02047	0.101624064
192	0x3d68f3c0	0.056873083
193	0x3d05b6f7	0.032645192
194	0xbe6ca15e	-0.23108432
195	0xbe945cd5	-0.28977075
196	0xbb00cab9	-0.0019652082
197	0xbf0db363	-0.5535185
198	0xbeca264f	-0.39482352
199	0xbcff0a65	-0.031132886
200	0xbf02169e	-0.5081576
201	0x3de60b03	0.11232569
202	0xbea2ea44	-0.31819355
203	0xbdb77ab7	-0.08958953
204	0xbdafd053	-0.085846566
205	0x3cc081de	0.023499426
206	0x3e51eb0a	0.20499817
207	0xbec8e998	-0.39240718
208	0x3b4bfdc8	0.0031126607
209	0xbc83ba2d	-0.016079986
210	0xbed302bc	-0.41213024
211	0xbd67b5da	-0.05656991
212	0xbb7611dd	-0.0037547268
213	0xbe150c2c	-0.14555424
214	0xbc2e147a	-0.010624999
215	0xbe1e5784	-0.15463072
216	0xbeb6c28b	-0.356953
217	0xbe1c125e	-0.15241382
218	0x3d2bf71f	0.04198372
219	0xbd0a6b0d	-0.033793498
220	0x3e2b9a10	0.16757989
221	0xbeb50d0c	-0.35361516
222	0xbec63520	-0.38712406
223	0xbe927196	-0.28602284
224	0x3d89a710	0.06721318
225	0xbdd7ac5d	-0.105309226
226	0xbe18e877	-0.14932428
227	0xbe493d82	-0.1965237
228	0x3d5804e6	0.052739047
229	0xbdfa8a31	-0.12233389
230	0xbd90d162	-0.070711866
231	0xbf701c69	-0.9379335
232	0xbeeb0786	-0.45904177
233	0x3eb1d782	0.34734732
234	0x3d73a0c3	0.059479486
235	0x3c5b6f0b	0.013393174
236	0x3d01cd24	0.031689778
237	0xbe487c59	-0.19578685
238	0x3d0725d7	0.03299507
239	0xbe247f2a	-0.16064134
240	0xbe83afd2	-0.25720078
241	0x3d5de614	0.054174498
242	0x3c910979	0.017704712
243	0xbdd476c9	-0.10374219
244	0xbbb39240	-0.005480081
245	0x3e68f6cf	0.227504
246	0xbda33462	-0.079689756
247	0xbe82f088	-0.25574136
248	0xbd3d01c4	-0.046144262
249	0xbf04d72a	-0.51890814
250	0xbe554e95	-0.20830758
251	0xbd826451	-0.0636679
252	0x3d95d053	0.07315125
253	0xbe26dc28	-0.1629492
254	0x3d78d34d	0.060748387
255	0x3f1380b3	0.57618254

model.2.bias f4 [64]
0	0xbe08c6a0	-0.1335702
1	0xbe889374	-0.26674998
2	0x3ca25782	0.019817118
3	0xbda15ca0	-0.07878995
4	0xbed06af0	-0.40706587
5	0x3ea03bc5	0.312956
6	0xbccd0f6b	-0.025031766
7	0xbdbcb486	-0.092141196
8	0xbd8b542e	-0.068031654
9	0x3c83bd2a	0.016081411
10	0xbe232a28	-0.1593405
11	0xbea24801	-0.3169556
12	0x3dbf679f	0.09345936
13	0xbe03caa2	-0.12870267
14	0xbde6e45f	-0.11274027
15	0xbd5b8a34	-0.053598598
16	0xbda531ae	-0.08066116
17	0xbd103f41	-0.035216574
18	0xbd9b30b9	-0.075776525
19	0x3e1c2e73	0.15252094
20	0xbd8904fc	-0.06690404
21	0x3ed96ef8	0.42467475
22	0x3e07e4d9	0.13270892
23	0xbd99ba14	-0.07506195
24	0xbe14e42d	-0.14540167
25	0x3c7fcebb	0.015613253
26	0xbde7deab	-0.113217674
27	0x3e3f4f50	0.18682599
28	0x3e05a7a3	0.1305223
29	0xbd0596b9	-0.032614443
30	0xbe0deff3	-0.13861065
31	0xbd6bcac6	-0.057566427
32	0x3d1639ca	0.036676206
33	0x3e8e4ee4	0.27794564
34	0xbdbce160	-0.09222674
35	0xbdc7247d	-0.097237565
36	0x3ea83359	0.32851675
37	0xbb381f34	-0.002809477
38	0xba2a9c56	-0.0006508281
39	0x3ea7e952	0.32795197
40	0xbddfcc88	-0.10927683
41	0xbd023efe	-0.031798355
42	0xbd23adc4	-0.039960638
43	0xbdc1c4c9	-0.09461362
44	0x3e1bb1ab	0.15204494
45	0x3c85cfde	0.01633447
46	0xbdceeeca	-0.10104139
47	0x38dc9fbd	0.00010520171
48	0xbe4f01b3	-0.20215492
49	0xbdc56622	-0.09638621
50	0xbe18b3e5	-0.14912374
51	0xbdd7f47f	-0.10544681
52	0xbdbbfb5e	-0.09178804
53	0x3ef25627	0.47331354
54	0xbdbf26a6	-0.093335435
55	0xbd13688f	-0.035988387
56	0xbe0ab39b	-0.13545077
57	0xbda7b220	-0.081882715
58	0xbd3de3f1	-0.04635996
59	0xbddce4aa	-0.10785802
60	0xbd6a9017	-0.05726632
61	0xbdc14e4b	-0.09438761
62	0xbdb288b4	-0.0871748
63	0x3cbf5add	0.023358757

model.4.weight f4 [4, 64]
0	0x3bd57e30	0.006515287
1	0x3f163580	0.58675385
2	0x3d2cb3bd	0.0421636
3	0xbda4a9b6	-0.08040182
4	0xbf4fb45c	-0.8113458
5	0x3e1d5eee	0.15368244
6	0x3df4e019	0.11956806
7	0x3d9ab70c	0.07554445
8	0x3f0372bc	0.51346946
9	0xbdac199a	-0.084033206
10	0xbee7757d	-0.45206824
11	0x3e3a50bd	0.18194862
12	0x3ea5f191	0.32410863
13	0x3ee1fcbf	0.44138142
14	0x3dba068e	0.090832815
15	0x3de13d26	0.10997991
16	0xbcebb19c	-0.028771214
17	0x3d9ede80	0.07757282
18	0x3cf9ec32	0.030508135
19	0xbc52640c	-0.012841236
20	0xbdaea086	-0.08526711
21	0xbc51e7b3	-0.012811589
22	0x3e857356	0.26064557
23	0x3d97a509	0.07404525
24	0xbcc2364f	-0.023707537
25	0x3bc9a420	0.0061535984
26	0x3df6b852	0.12046875
27	0x3ecebd6a	0.40378886
28	0x3eb31565	0.3497726
29	0x3d0c78b4	0.0342948
30	0x3da36ba4	0.07979515
31	0xbe3f59b6	-0.18686566
32	0xbd1a24da	-0.0376328
33	0x3ea86bd5	0.3289477
34	0x3d442abf	0.04789233
35	0xbd981898	-0.07426566
36	0xbe7a7495	-0.24458535
37	0xbd6db292	-0.058031626
38	0xbed50200	-0.41603088
39	0x3eb46934	0.35236514
40	0x3d292068	0.04129067
41	0xbdf8228f	-0.121159665
42	0xbd862396	-0.06549756
43	0x3d4c7136	0.049912654
44	0x3e5a0cbb	0.21293919
45	0x3c16b774	0.009199012
46	0xbd979369	-0.07401163
47	0x3d171c95	0.036892492
48	0x3e988d5a	0.29795343
49	0xbe205ba5	-0.1565996
50	0x3eb50268	0.35353398
51	0x3d302c60	0.04301107
52	0xbc710f8c	-0.014713179
53	0x3c41c7f7	0.0118274605
54	0x3dcd8f60	0.10037112
55	0x3cc36dfb	0.023856154
56	0xbd7d032f	-0.061770614
57	0x3d05315d	0.03251778
58	0xbdc75b09	-0.097341605
59	0xbc96d13f	-0.018410323
60	0x3d2f9706	0.042868637
61	0xbd6c55a5	-0.057698864
62	0xbe6f8242	-0.23389533
63	0x3d485408	0.048908263
64	0xbc60d7bb	-0.013723309
65	0x3ed328e7	0.41242144
66	0xbd341732	-0.043967433
67	0x3da25ed8	0.07928246
68	0xbd9af9e8	-0.07567197
69	0x3e0e99e3	0.1392589
70	0x3d3e4ff3	0.046462964
71	0x3d0583ac	0.032596275
72	0x3ef66672	0.48125035
73	0xbd95c7c4	-0.07313493
74	0xbfac746b	-1.3473028
75	0x3ecf09fb	0.40437302
76	0x3e5c4690	0.21511292
77	0x3eb207de	0.34771627
78	0xbb8a3670	-0.0042179152
79	0xbc1e0c50	-0.00964649
80	0xbd9bc5f9	-0.0760612
81	0x3ddff103	0.10934641
82	0xbd69bfea	-0.05706779
83	0x3e772b33	0.24137573
84	0x3c2d5df3	0.010581481
85	0x3e74249d	0.23842092
86	0x3e1e1f2a	0.15441576
87	0x3d50d142	0.050980814
88	0xbc788b65	-0.015169953
89	0xbd5c0aa8	-0.0537211
90	0xbce8be48	-0.028411046
91	0x3e8d4e8a	0.27598983
92	0x3e9212a0	0.28529835
93	0xbceb1dfa	-0.028700817
94	0xbdbc2395	-0.09186474
95	0x3e7ed8e0	0.24887419
96	0xbd4f0674	-0.050543264
97	0x3ec30af1	0.38094285
98	0x3d755a1c	0.059900388
99	0xbdb766aa	-0.089551285
100	0x3d5decfd	0.054181088
101	0x3cc1b9d6	0.023648184
102	0xbf23adac	-0.6393688
103	0x3dbca8d7	0.09211891
104	0xbdc0458a	-0.093882635
105	0xbd8e936d	-0.06961713
106	0x3d9bf47d	0.07614992
107	0x3d86110e	0.06546222
108	0x3ca66477	0.020311577
109	0x3cd05560	0.025431335
110	0xbd0ed1b9	-0.034867976
111	0xbda6795d	-0.08128617
112	0x3ecb6cc5	0.39731422
113	0xbf2db969	-0.6786104
114	0x3ee87edd	0.4540929
115	0xbd58bcf0	-0.05291456
116	0xbd7c40dc	-0.061585292
117	0xbe0eb4bd	-0.13936134
118	0xbdee49a7	-0.11635142
119	0x3dc527ce	0.09626733
120	0xbd052b95	-0.032512266
121	0xbdb40509	-0.08790023
122	0x3d8ac1d0	0.06775248
123	0x3b957d94	0.004562089
124	0xbb114dfd	-0.0022171729
125	0x3cdbc152	0.02682558
126	0xbf90dfa3	-1.1318249
127	0x3c591b1d	0.013251093
128	0x3de095fe	0.10966109
129	0xbf0a1266	-0.53934324
130	0xbc915609	-0.01774122
131	0x3d875756	0.06608455
132	0x3e712c07	0.23551951
133	0x3e6c3e39	0.23070611
134	0xbd3431ff	-0.043992992
135	0xbe5669ab	-0.20938747
136	0x3f13ab1b	0.5768296
137	0xbda8174b	-0.08207568
138	0x3e7c9e4b	0.24669759
139	0x3c1cbb7f	0.009566187
140	0xbf3360a5	-0.7006934
141	0x3f19dc01	0.60101324
142	0x3d7c5e54	0.061613396
143	0x3de05a84	0.109547645
144	0x3bddbb1c	0.00676669
145	0x3de83610	0.113384366
146	0xbe0b79f0	-0.13620734
147	0x3e85cbea	0.26132137
148	0xbdcac700	-0.099012375
149	0x3f092a27	0.53579944
150	0x3e8c7794	0.2743498
151	0xbd82909b	-0.063752376
152	0xbd518f2d	-0.051161934
153	0xbd7e5c31	-0.06209964
154	0x3d661a7a	0.056177594
155	0x3e795f20	0.24352694
156	0x3e269128	0.1626631
157	0xbd7bcda0	-0.061475396
158	0x3def0662	0.11671139
159	0xbe716588	-0.23573887
160	0xbd43b12b	-0.047776382
161	0x3e9b8bba	0.3038004
162	0xbd9b08ab	-0.07570013
163	0x3d80f3cc	0.062965006
164	0xbd42d323	-0.047564637
165	0xbd053117	-0.03251752
166	0x3ebd5911	0.36982015
167	0x3dec2865	0.11531142
168	0x3b9b8283	0.004745783
169	0xbcea06bd	-0.028567666
170	0xbd09e54a	-0.033665933
171	0x3dbd3978	0.09239477
172	0x3e8ecabd	0.27889052
173	0x3d4ea8cb	0.050453942
174	0xbd62a7ce	-0.055335812
175	0xbd305b82	-0.04305602
176	0x3de97543	0.11399319
177	0xbe745a65	-0.23862608
178	0x3e2bc010	0.16772485
179	0x3dd1762b	0.10227617
180	0x3c0b2e1d	0.008494881
181	0xbf069b46	-0.5258068
182	0xbd481d10	-0.04885584
183	0x3dd32744	0.10310224
184	0xbc6bcce1	-0.014392109
185	0xbd8e5cd8	-0.06951302
186	0x3c2ad980	0.010427833
187	0x3d8e6f8a	0.06954868
188	0x3ca76790	0.020435125
189	0xbbf9190d	-0.0076018632
190	0xbeabbc29	-0.33541992
191	0xbcc039f5	-0.023465136
192	0xbc8fee04	-0.01756955
193	0x3e06f72b	0.13180225
194	0x3d46ad31	0.048505012
195	0x3d6f8514	0.058476523
196	0x3f24ae96	0.64328897
197	0x3e6657a4	0.2249437
198	0x3d8d1cb5	0.06890241
199	0xbc3e0df8	-0.01160001
200	0x3f1e7626	0.6189903
201	0xbc1eba6d	-0.009688002
202	0xbe2c3bdf	-0.16819714
203	0xbd9439e1	-0.07237602
204	0x3e9f7f35	0.3115174
205	0x3f0bea11	0.5465403
206	0x3dc76502	0.097360626
207	0xbdc17b36	-0.09447329
208	0x3e12ef61	0.14349128
209	0x3c12f070	0.008968458
210	0xbcc70748	-0.024295464
211	0x3c8b9970	0.017040938
212	0xbd6de23b	-0.05807708
213	0x3e5fefdf	0.21868847
214	0x3eb652fd	0.3561019
215	0x3ddbea92	0.107381
216	0xbd1ac86e	-0.0377888
217	0x3ddf9e67	0.10918885
218	0x3d2538c0	0.040337324
219	0x3ec54631	0.38530114
220	0x3e92ea0d	0.28694192
221	0xbdbb5c28	-0.09148437
222	0x3bf34b37	0.007424738
223	0xbf935625	-1.1510664
224	0xbd4fe5d9	-0.05075631
225	0x3ea2e6f0	0.31816816
226	0xbdba1f14	-0.09087959
227	0xbd67f25e	-0.056627624
228	0xbea64e4a	-0.32481605
229	0x3bc47501	0.0059953933
230	0x3e1223bc	0.14271444
231	0x3ea9f999	0.3319824
232	0x3dbdeb92	0.09273447
233	0x3ce24fb1	0.02762589
234	0x3d839078	0.064240396
235	0xbdfd7828	-0.123764336
236	0x3eb968ba	0.36212713
237	0xba0d83e9	-0.0005398379
238	0x3d64ccaf	0.055859264
239	0xbdb4a201	-0.08819962
240	0x3de613a4	0.11234215
241	0xbd8497c3	-0.06474259
242	0xbdab42f0	-0.08362377
243	0x3d16bb9b	0.03680001
244	0xbdcba18e	-0.099429235
245	0xbe912309	-0.28347042
246	0x3d5b380f	0.05352026
247	0x3cb63f5b	0.022247007
248	0xbccd41d8	-0.02505581
249	0x3d843fea	0.06457503
250	0xbd130105	-0.035889644
251	0xbd4f3a67	-0.050592806
252	0x3b0d8e9a	0.002159989
253	0xbcb3934e	-0.021920826
254	0x3e5b56a3	0.21419768
255	0xbd0a4ecd	-0.033766557

model.4.bias f4 [4]
0	0x3da64cf5	0.08120147
1	0x3dc28998	0.094989
2	0x3dec0f17	0.11526316
3	0x3dc558b6	0.09636061

model.0.weight f4 [128, 7]
0	0xbf97efd3	-1.1870064
1	0x3ea4b10c	0.32166326
2	0xbe711bfe	-0.23545834
3	0xbe5c32b2	-0.21503714
4	0x3dd42352	0.10358299
5	0xbdfc3ecf	-0.12316667
6	0xbd40ef96	-0.047103487
7	0x3e932e68	0.28746343
8	0xbf5b06e7	-0.8555741
9	0xbf264669	-0.6495119
10	0x3e4ca04a	0.1998302
11	0x3eccde0f	0.40013167
12	0xbf8329da	-1.0247147
13	0x3c7f0d60	0.015567154
14	0xbd656e7b	-0.056013566
15	0x3e843056	0.25818127
16	0xbe7eda3c	-0.24887937
17	0x3e06e9e7	0.13175164
18	0xbd2c178a	-0.042014636
19	0xbe366634	-0.17812425
20	0x3ea6d02f	0.32580706
21	0x3e8de88c	0.27716482
22	0xbf50a7a8	-0.81505823
23	0xbdc39b6f	-0.09551131
24	0xbf095413	-0.5364391
25	0x3ed99459	0.42495993
26	0xbf4b6ebe	-0.79465854
27	0x3f253e5f	0.64548296
28	0xbcfddb1b	-0.030988267
29	0x3da2553a	0.07926412
30	0x3ea4f941	0.32221416
31	0xbe2e9d21	-0.17052127
32	0xbf02431b	-0.50883645
33	0xbf82349c	-1.0172305
34	0x3e9f4d27	0.3111355
35	0xbe744242	-0.238534
36	0xbe3981e3	-0.18115954
37	0x3e857041	0.26062205
38	0xc011e7e5	-2.2797787
39	0xbcc7add4	-0.02437488
40	0xbe0ee6fb	-0.139553
41	0x3a741cf9	0.00093121786
42	0x3d70ccd8	0.058789104
43	0x3eb9ba36	0.3627488
44	0xbf7f6d0c	-0.9977577
45	0x3e939a57	0.2882869
46	0xbec70891	-0.38873723
47	0xbd81d3fa	-0.063392594
48	0x3e38d09f	0.18048333
49	0xbf9c69fd	-1.2219845
50	0xbd59f536	-0.053212367
51	0xbf3a9b74	-0.7289345
52	0x3eb9616e	0.36207145
53	0xbec1bb7f	-0.3783836
54	0xbdd0d2b9	-0.10196442
55	0xbd040f48	-0.032241136
56	0x3e86710a	0.26258117
57	0x3e8bc2d6	0.27297086
58	0xbe01ab6a	-0.12663046
59	0xbfbdd88d	-1.4831711
60	0xbece6c3e	-0.40316957
61	0x3ebaded4	0.3649813
62	0x3e978f5a	0.29601556
63	0xbe5aa606	-0.21352395
64	0xbe114a02	-0.14188388
65	0xbea04dc7	-0.3130934
66	0x3e04503e	0.12921235
67	0x3d87cc46	0.06630759
68	0xbe3a5d70	-0.18199706
69	0xbe454cf6	-0.1926764
70	0xbe9f4752	-0.311091
71	0xbe258071	-0.16162278
72	0xbea8aea6	-0.32945746
73	0xbd4fd159	-0.05073676
74	0x3cf18941	0.029484393
75	0xbe295ef7	-0.16540132
76	0x3e1059e9	0.14096798
77	0x3ec19b40	0.3781376
78	0xbeef2186	-0.46705264
79	0xbeeb7938	-0.4599092
80	0xbf3cdd26	-0.73774946
81	0xbe281144	-0.16412836
82	0x3ec18f6d	0.37804738
83	0xbc17bcb2	-0.009261297
84	0xbf980509	-1.1876537
85	0x3e9cec17	0.30648872
86	0xbeae45af	-0.3403754
87	0x3ee2b07c	0.44275272
88	0xbdfbfc6c	-0.12304005
89	0xbee6a7b7	-0.4504983
90	0xbe37c102	-0.1794472
91	0x3ee4fc77	0.44723865
92	0x3df424e1	0.119210966
93	0x3f19b2b9	0.60038334
94	0xbf07a168	-0.5298066
95	0xbe8da7a6	-0.27666968
96	0x3dca783b	0.098862134
97	0xbe37fd90	-0.1796782
98	0x3f45034c	0.76958156
99	0xbdab35b8	-0.083598554
100	0xbf14df0e	-0.58152854
101	0xbe1e37f1	-0.15451027
102	0x3d2e9897	0.04262599
103	0xbe07e1be	-0.13269708
104	0x3e9d3030	0.30700827
105	0xbf143482	-0.5789262
106	0x3e808111	0.2509847
107	0x3ee95c63	0.45578298
108	0xbecb42df	-0.39699456
109	0xbe0e67e4	-0.13906819
110	0xbefe89e0	-0.49714565
111	0x3e7fc186	0.24976167
112	0xbeafc2b6	-0.3432824
113	0xbe8a0cb6	-0.26962823
114	0x3dc8ea07	0.09810262
115	0x3d7945e2	0.06085766
116	0xbe26159a	-0.16219178
117	0x3cb47a5a	0.022030998
118	0x3e9bb5a1	0.3041201
119	0x3e58e2f3	0.21180324
120	0x3f185c57	0.595159
121	0xbfbde4d4	-1.4835458
122	0xbeb8d288	-0.36098123
123	0x3dab1ddd	0.08355305
124	0x3de02d7f	0.10946178
125	0x3d832501	0.06403542
126	0x3e99a6d8	0.30010104
127	0x3ed57d80	0.4169731
128	0x3c1b2822	0.009470018
129	0xbd4a6270	-0.049410284
130	0x3eb893c8	0.36050248
131	0x3ee7df8b	0.45287737
132	0xbdbd1f08	-0.09234434
133	0x3e26356f	0.16231321
134	0xbc073cca	-0.008254239
135	0xbe27f18a	-0.16400734
136	0x3da44cff	0.08022498
137	0xbce82bab	-0.028341135
138	0xbe57200c	-0.21008319
139	0xbe59b799	-0.21261443
140	0x3f0d99eb	0.55312985
141	0xbe09d75a	-0.13461056
142	0xbf81a660	-1.0128899
143	0x3e91db80	0.28487778
144	0xbe1da664	-0.15395504
145	0xbee7101f	-0.45129487
146	0x3e0b4ed5	0.13604291
147	0xbdab0e86	-0.083523795
148	0xbea9fa2f	-0.33198687
149	0x3d0bc1dd	0.03412043
150	0x3e85d729	0.26140717
151	0xbe0f57d6	-0.1399835
152	0x3e6b1269	0.22956242
153	0xbe459c22	-0.19297841
154	0xbc5a787f	-0.013334393
155	0xbe0d2752	-0.13784531
156	0x3e91df93	0.28490886
157	0x3c998f42	0.018745068
158	0xbebfe2de	-0.37477773
159	0x3d8c7227	0.0685771
160	0xbdab135b	-0.08353301
161	0x3e82569a	0.25456697
162	0xc016e4cc	-2.3577147
163	0x3ede80c9	0.4345763
164	0xbe0144a6	-0.12623844
165	0xbe177900	-0.14792252
166	0x3ea6035b	0.32424435
167	0x3e55cf5c	0.20879883
168	0xbe004a15	-0.1252826
169	0x3f2de791	0.6793147
170	0xbd95a519	-0.073068805
171	0x3d8fd91f	0.070238344
172	0x3ec51905	0.3849565
173	0xbec78e44	-0.38975728
174	0x3da6d97e	0.08146952
175	0xbeb51cdf	-0.3537359
176	0xbea1d8f8	-0.31610847
177	0x3da7b40a	0.081886366
178	0xbcb9e36d	-0.022691453
179	0xbe934236	-0.28761452
180	0x3e323b90	0.17405534
181	0x3e3dbc79	0.18528928
182	0x3eaa49f8	0.3325956
183	0x3eda0e00	0.42588806
184	0xbf65b408	-0.8972783
185	0x3ec5ee11	0.38658193
186	0xbe5bf8f6	-0.2148169
187	0x3ee641a6	0.4497196
188	0xbd0c86de	-0.034308307
189	0xbdbebc51	-0.09313262
190	0xbe89c6b3	-0.26909408
191	0xbd09e344	-0.033664003
192	0x3daa5e5b	0.08318778
193	0xc07e8871	-3.9770777
194	0xbe24dfe5	-0.16101034
195	0x3f7a4eb7	0.9777636
196	0x3c362ebd	0.011119542
197	0x3db08f2a	0.086210564
198	0xbd9ac114	-0.07556358
199	0xbebc0097	-0.367192
200	0x3eb7b1cc	0.35877836
201	0xbe83ca85	-0.25740448
202	0xbeb3ef84	-0.35143673
203	0xc0a3623a	-5.1057405
204	0x3ec21f9a	0.37914735
205	0xbe748d14	-0.23881942
206	0x3ead29ee	0.33821052
207	0x3e529425	0.20564325
208	0xbe0f4933	-0.13992767
209	0xbdbcb03d	-0.09213302
210	0xbe3965e5	-0.18105276
211	0xbeb30c9f	-0.34970567
212	0x3e41d6cf	0.18929599
213	0x3db77815	0.08958451
214	0x3f02ca12	0.51089585
215	0x3ebbcbf3	0.36679038
216	0xbe7357f9	-0.23764028
217	0x3e73f134	0.2382248
218	0xbdc1acf7	-0.094568186
219	0x3dd589da	0.10426684
220	0xbec58ee3	-0.38585576
221	0x3e0894d5	0.13338025
222	0xbe835ff8	-0.25659156
223	0xbe50b14a	-0.2038013
224	0xbf2617a4	-0.6487982
225	0xbed299c8	-0.4113295
226	0xbd356bc0	-0.04429221
227	0xbf3b3a3d	-0.7313574
228	0x3ee03e88	0.43797708
229	0xbd05f416	-0.03270348
230	0x3dd9a903	0.106279396
231	0xbe3bf351	-0.18354537
232	0x3f3a60e7	0.7280411
233	0x3dc2f3ac	0.09519133
234	0xbf3394fb	-0.701492
235	0xbe291221	-0.16510822
236	0x3d83e886	0.06440835
237	0x3e4735fe	0.1945419
238	0xbd857db7	-0.06518119
239	0x3d334a8a	0.043772258
240	0x3f276371	0.6538611
241	0xbee52ab7	-0.4475915
242	0xbede878b	-0.43462786
243	0xbee976a4	-0.45598328
244	0x3e1fac17	0.15592991
245	0xbe55e91f	-0.2088971
246	0xbebbccc6	-0.36679667
247	0x3e7fc155	0.24976094
248	0xbe88cb77	-0.2671773
249	0xbe9fa670	-0.3118167
250	0x3e5b0fd7	0.21392761
251	0xbe63dc4f	-0.2225201
252	0xbfb977e7	-1.4489716
253	0x3d936ea5	0.07198838
254	0x3e930236	0.28712624
255	0x3d8c7885	0.06858925

model.0.bias f4 [128]
0	0x3ecb03e7	0.39651415
1	0xbdc8a136	-0.097963735
2	0xbec1b895	-0.37836137
3	0x3deebb0f	0.11656772
4	0x3e46703c	0.19378752
5	0x3e949a51	0.29023984
6	0x3d71fe1e	0.059080236
7	0xbe64d176	-0.22345528
8	0x3dfb02be	0.122563824
9	0xbeb981bb	-0.3623179
10	0xbd26ab09	-0.040690456
11	0x3f042ec7	0.51633877
12	0x3edbc713	0.4292532
13	0xbeaf2790	-0.3420987
14	0x3e621496	0.22078165
15	0x3da67e37	0.08129542
16	0xbe89ef6c	-0.26940477
17	0xbda28b2d	-0.07936702
18	0xbef05389	-0.46938732
19	0xbe7d0b3f	-0.24711321
20	0x3e3ad2c1	0.18244459
21	0xbea6eb70	-0.326015
22	0xbe9624fe	-0.29325098
23	0x3dc30750	0.09522879
24	0xbe332fc0	-0.17498684
25	0xbe33a167	-0.17542039
26	0xbec549f9	-0.38533
27	0x3b235a70	0.002492573
28	0xbe46039d	-0.19337316
29	0xbdec896d	-0.115496494
30	0x3d4f8ae6	0.050669573
31	0xbea51678	-0.32243705
32	0x3eec7300	0.46181488
33	0x3dc011bb	0.09378382
34	0x3ec5350a	0.38517028
35	0xbe89fc03	-0.26950082
36	0xbe689e89	-0.22716726
37	0xbeafb171	-0.34315065
38	0xbec2b215	-0.3802649
39	0x3ea27450	0.31729364
40	0x3cce2dbf	0.025168298
41	0xbec13298	-0.37733912
42	0x3e4b30fd	0.19842906
43	0x3e6f0eee	0.23345539
44	0x3ef0e862	0.47052294
45	0xbead0d20	-0.33799076
46	0x3e44baf3	0.1921194
47	0xbd4cc368	-0.04999104
48	0x3e5c79b2	0.21530798
49	0x3c50facb	0.012755106
50	0xbe7528f2	-0.239414
51	0xbe8304bf	-0.25589558
52	0xbd3821f8	-0.04495427
53	0xbe8b4d26	-0.27207297
54	0xbcf9251a	-0.0304132
55	0xbeca33b3	-0.39492568
56	0x3eaabfff	0.33349606
57	0xbe97c66b	-0.29643568
58	0xbed81365	-0.42202297
59	0xbe3bc0d6	-0.1833528
60	0xbed7b4b4	-0.42130053
61	0xbddd38ff	-0.10801887
62	0x3e571af3	0.21006374
63	0x3dd92d82	0.10604383
64	0xbe81fafe	-0.25386804
65	0xbf24bacd	-0.64347535
66	0xbf16519a	-0.58718264
67	0xbeef26f1	-0.46709397
68	0x3e3a3e65	0.18187864
69	0x3d73324e	0.059374146
70	0x3e0625d1	0.13100363
71	0xbea8437d	-0.3286399
72	0xbddfc92f	-0.109270446
73	0x3e906b23	0.2820674
74	0x3e262128	0.16223586
75	0xbdb2dec6	-0.08733897
76	0xbebe97d7	-0.3722522
77	0xbe661de2	-0.22472337
78	0x3e3c9aaa	0.18418375
79	0x3e937d3e	0.2880649
80	0xbe0f7665	-0.14010008
81	0xbf02f6af	-0.5115766
82	0x3e63c4ed	0.2224309
83	0xbebe3d88	-0.3715632
84	0x3eabe9a6	0.33576697
85	0x3e627c83	0.2211781
86	0xbe5d2fb5	-0.2160023
87	0xbe3474d7	-0.17622696
88	0x3e8b2685	0.27177826
89	0x3edcbe11	0.4311376
90	0xbeb3b140	-0.3509617
91	0xbe3a8772	-0.18215731
92	0x3dd9289d	0.106034495
93	0x3e9320ae	0.2873587
94	0x3e8c5cb3	0.27414474
95	0xbee3798c	-0.4442867
96	0x3e3ab15a	0.18231717
97	0x3e2ca9aa	0.16861597
98	0xbeb5cb33	-0.3550659
99	0x3d0a50c3	0.033768427
100	0xbec639ef	-0.38716075
101	0xbec9a993	-0.39387187
102	0xbe9631e0	-0.29334927
103	0xbed84c3a	-0.42245656
104	0x3e9b4d2e	0.3033232
105	0xbe7a909e	-0.2446923
106	0xbe1aaa57	-0.15104042
107	0xbd9fe19b	-0.07806703
108	0xbcba44dd	-0.022737915
109	0xbea8662a	-0.32890445
110	0xbd9441cb	-0.072391115
111	0xbd931d6f	-0.071833484
112	0xbf0260e9	-0.50929123
113	0xbca882a5	-0.020570109
114	0x3e830311	0.25588277
115	0xbe07b0e8	-0.13251078
116	0xbe2ede59	-0.17077006
117	0xbe90136c	-0.28139818
118	0x3df84af3	0.121236704
119	0x3e788509	0.24269499
120	0xbd7ca743	-0.06168295
121	0x3da92cf0	0.08260524
122	0xbe86a300	-0.26296234
123	0x3ee66aab	0.45003256
124	0xbefd52cf	-0.4947724
125	0xbd9883b6	-0.07446997
126	0xbd8a3600	-0.06748581
127	0xbd946a74	-0.07246867

model.2.weight f4 [64, 128]
0	0xbd8a6823	-0.06758144
1	0xbcc7d7a9	-0.024394827
2	0xbd83a8ae	-0.064286575
3	0xbdc395a3	-0.09550025
4	0x3d0b5939	0.034020636
5	0x3cb54447	0.022127284
6	0xbcb1199c	-0.021618657
7	0x3a828dc1	0.0009960459
8	0xbd185a16	-0.037195288
9	0x3ada537d	0.0016656962
10	0xbd4fe971	-0.050759736
11	0x3d6ccaea	0.0578107
12	0x3cf23b5a	0.029569317
13	0x3cca8a8c	0.024724267
14	0x3bcaf7c8	0.0061940886
15	0xbd8b4652	-0.06800522
16	0x3cbe1328	0.023202494
17	0xbd8643f0	-0.06555927
18	0xbda9e3b8	-0.08295387
19	0x3d02cc64	0.031933203
20	0x3c959246	0.018258225
21	0xbbc24a82	-0.005929292
22	0x3d4ebb7c	0.050471768
23	0xbda71001	-0.081573494
24	0x3ce2f337	0.027703864
25	0xbc0be8ba	-0.008539373
26	0xbd85c6c5	-0.06532053
27	0x3d4ff863	0.05077399
28	0xbd431943	-0.047631513
29	0xbd962c02	-0.073326126
30	0xbd9f950a	-0.07792099
31	0x3db1848c	0.086678594
32	0xbd8a5674	-0.06754771
33	0xbd2e189a	-0.04250393
34	0xbd10de0f	-0.03536802
35	0x3d97e56a	0.07416804
36	0x3c894ec1	0.016761186
37	0xbde2bf32	-0.11071624
38	0xbca69d6e	-0.02033874
39	0x3cff18ad	0.031139696
40	0x3bdf60f7	0.006816979
41	0xbd201e43	-0.03909136
42	0x3c1e8b71	0.0096768
43	0xbacd909d	-0.0015683357
44	0x3d3d22cd	0.046175767
45	0x3c11741c	0.00887778
46	0xbcac1ae6	-0.02100892
47	0xbd3bbceb	-0.045834463
48	0xbcf6b90f	-0.03011754
49	0xbb9f2ddb	-0.0048577613
50	0x3d7876b1	0.060660068
51	0xbaccbf08	-0.0015620897
52	0xbd671288	-0.056414157
53	0xbcd7f6ef	-0.026362864
54	0x3d410327	0.047122147
55	0x3d9dc622	0.077038065
56	0xbd669bc8	-0.05630091
57	0x3c18f765	0.009336327
58	0x3d93496b	0.07191738
59	0xbcdb211f	-0.026749192
60	0xbd9b9e75	-0.07598583
61	0x3d4e619d	0.05038606
62	0x3d80ab73	0.06282701
63	0x3d04e61f	0.032446023
64	0xbd9e3832	-0.07725562
65	0x3d61fbd7	0.055171814
66	0x3d33ff93	0.043944906
67	0xbda88d1f	-0.08230042
68	0x3c8f4eaa	0.017493565
69	0x3c9ade45	0.018904814
70	0x3d89e979	0.067339845
71	0xbd0f6ee5	-0.035017867
72	0xbad288aa	-0.0016062458
73	0x3d4eb6b5	0.05046721
74	0xbc7ab39d	-0.015301612
75	0xbde93a7a	-0.11388107
76	0xbd82f8a5	-0.063950814
77	0x3b880abf	0.0041516717
78	0xbd986681	-0.07441426
79	0x3bd5602d	0.006511709
80	0xbd83d796	-0.06437604
81	0x3c0fab41	0.008768857
82	0x3d0d529a	0.034502603
83	0x3d202813	0.039100718
84	0xbda96cca	-0.08272703
85	0xbd825ae2	-0.06364991
86	0xbc207cc2	-0.00979537
87	0x3d3aa9c6	0.045572065
88	0xbd1e269d	-0.038611043
89	0xbc69d85e	-0.014272777
90	0x3d02dc5e	0.03194844
91	0x3cc4fb63	0.024045652
92	0x3cc24e77	0.023719056
93	0xbd32e7e3	-0.043678176
94	0xbde58969	-0.112078495
95	0xbdf44eed	-0.119291164
96	0xbd46f2e4	-0.048571482
97	0xbd98d1ab	-0.07461866
98	0x3b401fe3	0.002931588
99	0xbd93381f	-0.071884386
100	0x3cd326e3	0.025775379
101	0xbd81678a	-0.06318577
102	0xbb5e820c	-0.0033952026
103	0x3da39724	0.07987812
104	0x3d0d7969	0.034539614
105	0xbdd77804	-0.10520938
106	0xbc7fc468	-0.015610792
107	0xbc924678	-0.017855868
108	0xbd1471ca	-0.03624133
109	0x3d547740	0.05187154
110	0x3d058d66	0.03260555
111	0xbcb27751	-0.02178541
112	0x3d378301	0.04480267
113	0xbd5f1331	-0.05446166
114	0x3b089be9	0.0020844883
115	0x3c19bc9f	0.00938335
116	0x3d937326	0.07199697
117	0xbd70d446	-0.05879619
118	0xbd748b01	-0.059702877
119	0xbd7a607a	-0.061127163
120	0xba80dbbe	-0.0009831113
121	0xbdacd2dd	-0.084386565
122	0xbdbac781	-0.091200836
123	0x3d2a0289	0.041506324
124	0x3d1c2345	0.038119573
125	0x3d8cd193	0.068759106
126	0x3ca50fb7	0.020149095
127	0x3d733eed	0.059386183
128	0xbdf819f5	-0.12114326
129	0x3e99018e	0.29884
130	0xbda978d6	-0.08275001
131	0x3ecbb310	0.3978505
132	0xbdccc1f0	-0.09997928
133	0xbe8f1166	-0.2794296
134	0xbe35cd3b	-0.1775407
135	0xbe8ee1fc	-0.27906787
136	0x3c1d5bf8	0.009604447
137	0xbdb16c84	-0.08663276
138	0xbbe76b43	-0.007062347
139	0xbe987daf	-0.2978339
140	0xbe19a210	-0.15003228
141	0xbe221297	-0.15827404
142	0xbdeb27bd	-0.11482189
143	0xbdb11e5e	-0.0864837
144	0x3c8ffebc	0.017577522
145	0xbeedef4c	-0.46471632
146	0xbf2d0d07	-0.67598003
147	0xbd43aa54	-0.04776986
148	0x3d2560a5	0.04037537
149	0xbd0fd73d	-0.035117377
150	0x3db73adc	0.089467734
151	0x3ecda84f	0.40167472
152	0x3e68038f	0.22657607
153	0xbbefdd54	-0.0073200855
154	0xbe5a7f6d	-0.21337672
155	0xbe886604	-0.26640332
156	0xbd40777d	-0.046988953
157	0xbd197547	-0.03746536
158	0xbea2c825	-0.31793323
159	0x3e8d1409	0.27554348
160	0xbd5abf6b	-0.053405207
161	0xbf19c768	-0.60069895
162	0xbe2d6468	-0.16932833
163	0xbda8d051	-0.08242858
164	0xbb04ef84	-0.0020284364
165	0xbd36e89e	-0.044655435
166	0xbd81dd90	-0.06341088
167	0x3f7ad2b1	0.9797774
168	0xbd9608db	-0.07325908
169	0xbdb71170	-0.08938873
170	0xbe42afb0	-0.19012332
171	0xbed436cf	-0.41448066
172	0x3db3bba0	0.08776021
173	0x3d82b63f	0.06382417
174	0xbf25fdff	-0.6484069
175	0xbe34bd26	-0.1765028
176	0xbe79cbd6	-0.24394163
177	0xbd1d5f74	-0.03842111
178	0xbdf3f054	-0.11911073
179	0xbe55fe5a	-0.20897809
180	0xbedd7bde	-0.43258566
181	0xbf735bf7	-0.950622
182	0xbdb0d2a7	-0.08633929
183	0x3daa4a0a	0.08314903
184	0xbe1cf3ea	-0.15327421
185	0xbc6c20e1	-0.014412136
186	0xbdded9ac	-0.10881361
187	0x3e1e443d	0.15455718
188	0xbdae86f2	-0.085218325
189	0x3e1251ec	0.14289063
190	0x3ca1e0bf	0.019760488
191	0x3dd02047	0.101624064
192	0x3d68f3c0	0.056873083
193	0x3d05b6f7	0.032645192
194	0xbe6ca15e	-0.23108432
195	0xbe945cd5	-0.28977075
196	0xbb00cab9	-0.0019652082
197	0xbf0db363	-0.5535185
198	0xbeca264f	-0.39482352
199	0xbcff0a65	-0.031132886
200	0xbf02169e	-0.5081576
201	0x3de60b03	0.11232569
202	0xbea2ea44	-0.31819355
203	0xbdb77ab7	-0.08958953
204	0xbdafd053	-0.085846566
205	0x3cc081de	0.023499426
206	0x3e51eb0a	0.20499817
207	0xbec8e998	-0.39240718
208	0x3b4bfdc8	0.0031126607
209	0xbc83ba2d	-0.016079986
210	0xbed302bc	-0.41213024
211	0xbd67b5da	-0.05656991
212	0xbb7611dd	-0.0037547268
213	0xbe150c2c	-0.14555424
214	0xbc2e147a	-0.010624999
215	0xbe1e5784	-0.15463072
216	0xbeb6c28b	-0.356953
217	0xbe1c125e	-0.15241382
218	0x3d2bf71f	0.04198372
219	0xbd0a6b0d	-0.033793498
220	0x3e2b9a10	0.16757989
221	0xbeb50d0c	-0.35361516
222	0xbec63520	-0.38712406
223	0xbe927196	-0.28602284
224	0x3d89a710	0.06721318
225	0xbdd7ac5d	-0.105309226
226	0xbe18e877	-0.14932428
227	0xbe493d82	-0.1965237
228	0x3d5804e6	0.052739047
229	0xbdfa8a31	-0.12233389
230	0xbd90d162	-0.070711866
231	0xbf701c69	-0.9379335
232	0xbeeb0786	-0.45904177
233	0x3eb1d782	0.34734732
234	0x3d73a0c3	0.059479486
235	0x3c5b6f0b	0.013393174
236	0x3d01cd24	0.031689778
237	0xbe487c59	-0.19578685
238	0x3d0725d7	0.03299507
239	0xbe247f2a	-0.16064134
240	0xbe83afd2	-0.25720078
241	0x3d5de614	0.054174498
242	0x3c910979	0.017704712
243	0xbdd476c9	-0.10374219
244	0xbbb39240	-0.005480081
245	0x3e68f6cf	0.227504
246	0xbda33462	-0.079689756
247	0xbe82f088	-0.25574136
248	0xbd3d01c4	-0.046144262
249	0xbf04d72a	-0.51890814
250	0xbe554e95	-0.20830758
251	0xbd826451	-0.0636679
252	0x3d95d053	0.07315125
253	0xbe26dc28	-0.1629492
254	0x3d78d34d	0.060748387
255	0x3f1380b3	0.57618254

model.2.bias f4 [64]
0	0xbe08c6a0	-0.1335702
1	0xbe889374	-0.26674998
2	0x3ca25782	0.019817118
3	0xbda15ca0	-0.07878995
4	0xbed06af0	-0.40706587
5	0x3ea03bc5	0.312956
6	0xbccd0f6b	-0.025031766
7	0xbdbcb486	-0.092141196
8	0xbd8b542e	-0.068031654
9	0x3c83bd2a	0.016081411
10	0xbe232a28	-0.1593405
11	0xbea24801	-0.3169556
12	0x3dbf679f	0.09345936
13	0xbe03caa2	-0.12870267
14	0xbde6e45f	-0.11274027
15	0xbd5b8a34	-0.053598598
16	0xbda531ae	-0.08066116
17	0xbd103f41	-0.035216574
18	0xbd9b30b9	-0.075776525
19	0x3e1c2e73	0.15252094
20	0xbd8904fc	-0.06690404
21	0x3ed96ef8	0.42467475
22	0x3e07e4d9	0.13270892
23	0xbd99ba14	-0.07506195
24	0xbe14e42d	-0.14540167
25	0x3c7fcebb	0.015613253
26	0xbde7deab	-0.113217674
27	0x3e3f4f50	0.18682599
28	0x3e05a7a3	0.1305223
29	0xbd0596b9	-0.032614443
30	0xbe0deff3	-0.13861065
31	0xbd6bcac6	-0.057566427
32	0x3d1639ca	0.036676206
33	0x3e8e4ee4	0.27794564
34	0xbdbce160	-0.09222674
35	0xbdc7247d	-0.097237565
36	0x3ea83359	0.32851675
37	0xbb381f34	-0.002809477
38	0xba2a9c56	-0.0006508281
39	0x3ea7e952	0.32795197
40	0xbddfcc88	-0.10927683
41	0xbd023efe	-0.031798355
42	0xbd23adc4	-0.039960638
43	0xbdc1c4c9	-0.09461362
44	0x3e1bb1ab	0.15204494
45	0x3c85cfde	0.01633447
46	0xbdceeeca	-0.10104139
47	0x38dc9fbd	0.00010520171
48	0xbe4f01b3	-0.20215492
49	0xbdc56622	-0.09638621
50	0xbe18b3e5	-0.14912374
51	0xbdd7f47f	-0.10544681
52	0xbdbbfb5e	-0.09178804
53	0x3ef25627	0.47331354
54	0xbdbf26a6	-0.093335435
55	0xbd13688f	-0.035988387
56	0xbe0ab39b	-0.13545077
57	0xbda7b220	-0.081882715
58	0xbd3de3f1	-0.04635996
59	0xbddce4aa	-0.10785802
60	0xbd6a9017	-0.05726632
61	0xbdc14e4b	-0.09438761
62	0xbdb288b4	-0.0871748
63	0x3cbf5add	0.023358757
