checkpoints/checkpoint_ep20.pt (torch, 162921 bytes, 24 tensors)

model.0.weight f4 [128, 7]
00000000: 34dc c7be 0ead 9cbd 397d da3d c207 94be
00000010: 088f 01be eaff a83e 308e 733e 4fd7 e83b
00000020: 6d8d e0be 5972 85bd 23f0 e33d 85d4 2e3e
00000030: 3e7b 733e 4bd3 583e f026 093f aa7c dbb9
00000040: 31b4 4ebe 9ea7 5abe 2036 b9be a8e7 c4bd
00000050: a425 3d3e 93d7 d7bd 4161 56be 0d2f 853e
00000060: 8572 adbc 607f 3f3e 7fd0 6b3e 232f 313d
00000070: 1ceb efbf 9b64 adbd 9893 95be f4fc 653e
00000080: e4d5 bb3e a91e 8f3e 9364 e7bc 13be b3be
00000090: 3125 a63c c5a4 46be 3a21 48be 0ecf 71be
000000a0: f5ee 413e 2185 753d b811 7a3e b506 06bf
000000b0: c960 543e f771 583d 761f 883e cbe2 92be
000000c0: 519d 59bc 5c2c b13c 9403 e9bf 1e7e a4be
000000d0: 85fd cc3d 7ea7 10be 86b9 553d 3cb3 09bb
000000e0: ee24 90be de14 81bc b1a9 113d 0a21 f23b
000000f0: 9450 5abe bc96 bb3e 09ec 05be f88d 25be
00000100: f79f 84be 62bf 853e c74a 59be addf f43a
00000110: f5b2 b0be 5228 97be ae0e 7fbc 2ac4 9fbe
00000120: 88c7 f4bd 74a7 093f 6830 aebe 55ef 193d
00000130: df38 dcbd 1db7 f23d b589 823d 9771 c6be
00000140: 73d4 17bc 775e 1ebe 67c8 b7be 3484 a7bd
00000150: 37d7 403d a721 1fbf a87a 793e afcb 643e
00000160: c4c4 503e 17c1 9ebe e72a 753e 890a 91be
00000170: 11fb ccbc 9899 493e 7616 0d3d dc15 1dbd
00000180: 51fa b0be 21f0 b2be f489 94be cd2d 2f3d
00000190: debf a23d acdb 713e f6e7 1f3e 5308 803d
000001a0: 7785 1ebe f770 143e 5064 0d3d b51e b03e
000001b0: 9886 c8bd aa95 9c3e f99e 7bbe da9b 4bbd
000001c0: 690c 16be b1b1 54be 85dc 55be ddd9 7dbe
000001d0: 2706 943c f95a 9a3e 4993 abbe 2698 83be
000001e0: c9d1 81bd 21b5 513e b351 3d3d 274b 963d
000001f0: 772a 8c3e b18b 91bd 7449 6c3d 1eab 47bc
00000200: 870b 17bf 84f8 c23d d97d 363e 50f6 a3be
00000210: 22ae 323e f85b 843e 1166 e63d 53a2 e93d
00000220: 1919 7b3e 7010 043e a54f d2bd 9f6a 333e
00000230: 0c7c f0bb 43e8 3fbe fc44 4dbd edea fbbc
00000240: 633c 86be e0e9 243c cefb 123e d720 d23d
00000250: bdfe 993e 3c90 dfbe 5157 71bd 0912 5f3e
00000260: de44 803d eb57 02be ae4c 083f a983 30be
00000270: 489b 3abe fbb1 a8bb ace5 d93d 052f 1cbe
00000280: e10a c1be 2a90 5f3e dc2b 95be 91ac 493e
00000290: b2af 523d 0541 99bd 55d5 003e dc09 80bd
000002a0: b917 993e a821 d4be df78 19be 369c 50be
000002b0: 8e8f 513e 6ba4 b9be 77f8 593e f4d2 9bbe
000002c0: 80c5 87be 3dd4 77be 998e 15bf e7c5 63bd
000002d0: c3f1 843e e38a 89bc 5edc d43d 2dc4 5bbe
000002e0: 308e 50be fae2 a1bd 1226 61bc 3e37 ecbd
000002f0: d64d 1cbe e8ba eaba 7e47 4bbe d8ea a13e
00000300: 57df 613e c59b 423e b5a3 6d3e b539 293e
00000310: b5bc 2bbf 9b68 b43e 89c8 dd3c 5f12 a03e
00000320: 9883 ef3d 3068 41be 69ee 063e bea1 a13e
00000330: 67af 7bbd ca54 5e3e 679e b1be f65a 7ebb
00000340: 63fb a8be 9a7a ad3e 1173 d4bf 3e47 823e
00000350: 86b6 a63e 3619 0f3e e668 7bbe 9970 573e
00000360: 67a7 d3bd 944f 5e3e cea2 1d3e b679 12be
00000370: 8943 0c3e e29e a13e fc72 833e 03ca 4dbe
00000380: 1c3f 43bd 0129 033e f09a 903e 1db2 36be
00000390: 9bd6 bbbe 6690 943e 75e8 2c3e b150 613e
000003a0: 3a29 25be b334 57be 7098 05be 37d4 cb3d
000003b0: dff9 633c cd4c 993e 118c ed3d fe7b 8d3e
000003c0: 5406 4f3e f2e9 e5be a73f dabd 154d 8dbe
000003d0: dc06 033e 32bd 6a3d 38c5 46be 8388 bcbd
000003e0: f2bf fb3d fe94 b3be 2417 4fbe 7fa1 1f3e
000003f0: 3a19 f43c 3ca1 33bf 1d63 c23d 9a70 a5bd
-0.3903519 -0.07650195 0.106684156 -0.2891217 -0.12652218 0.33007747 0.23784709 0.007105745
-0.438579 -0.06515951 0.11129787 0.17073257 0.23777482 0.21174352 0.5357504 -0.00041863817
-0.20185925 -0.21353003 -0.36174107 -0.096144974 0.1847139 -0.105391644 -0.20935537 0.2601246
-0.021172771 0.18700933 0.23028754 0.043257844 -1.8743625 -0.084664546 -0.29214168 0.22459775
0.36686623 0.2795308 -0.0282462 -0.35105953 0.020281406 -0.19398792 -0.19543925 -0.23614141
0.18938811 0.059941415 0.24420822 -0.52353984 0.20740046 0.05284306 0.26586503 -0.28688654
-0.013282136 0.021627598 -1.8204217 -0.3212747 0.100092925 -0.14126393 0.052178882 -0.0021011373
-0.28153175 -0.01575702 0.03556222 0.0073891925 -0.213198 0.3663844 -0.13078322 -0.16167438
-0.25903293 0.26122576 -0.21219932 0.0018682383 -0.34511533 -0.2952295 -0.015567465 -0.3120435
-0.1195212 0.5377114 -0.34021306 0.03758176 -0.10753035 0.11851332 0.06373922 -0.38758537
-0.00926696 -0.15465723 -0.35895082 -0.081795126 0.047080245 -0.62160724 0.24363196 0.22343324
0.2038756 -0.3100669 0.23942147 -0.2832835 -0.025022062 0.19687498 0.03444525 -0.038350925
-0.34565976 -0.3494883 -0.290115 0.04276829 0.07946752 0.23618954 0.1561583 0.06251588
-0.154806 0.14496218 0.034519494 0.34398428 -0.09791297 0.30582935 -0.24572362 -0.04970918
-0.14653172 -0.20770909 -0.20884903 -0.2479014 0.01806934 0.30147532 -0.33510807 -0.25702018
-0.063388415 0.20479251 0.046220493 0.07338553 0.27376148 -0.07106722 0.057687238 -0.012186794
-0.59001964 0.09520057 0.17821445 -0.3202386 0.17449239 0.25851417 0.11249936 0.11407914
0.24521293 0.12896895 -0.10269097 0.17521141 -0.0073390063 -0.18740945 -0.050114617 -0.03075167
-0.26217946 0.010065526 0.14353868 0.1026017 0.30077162 -0.4366473 -0.058921162 0.21784224
0.062631354 -0.1272885 0.53242004 -0.17237724 -0.18223298 -0.00514817 0.106395096 -0.15252312
-0.37703612 0.21832338 -0.29135025 0.19694735 0.051437087 -0.074831046 0.1258138 -0.062518805
0.2990091 -0.41431928 -0.14987515 -0.2037209 0.20464918 -0.36258253 0.21286188 -0.30434382
-0.26517868 -0.24202056 -0.5842071 -0.055608656 0.259657 -0.01678986 0.10393594 -0.21461554
-0.2036674 -0.079046205 -0.013741987 -0.11533974 -0.15264067 -0.0017908486 -0.19851491 0.31624484
0.22057854 0.19004734 0.2320698 0.1652592 -0.6708482 0.35236058 0.027073162 0.31264016
0.116950214 -0.188874 0.13176884 0.31568712 -0.061446574 0.21712032 -0.34691164 -0.003881154
-0.33004293 0.338826 -1.6597615 0.25444978 0.3256113 0.13974461 -0.24551734 0.21039046
-0.10334664 0.21710044 0.15394136 -0.14304242 0.13697638 0.3156653 0.25673664 -0.20096593
-0.047667608 0.1280861 0.28243208 -0.17841382 -0.36687168 0.29016417 0.1688555 0.22003438
-0.16129008 -0.21016197 -0.13046432 0.09952586 0.013914554 0.29941407 0.11598981 0.2763366
0.20217258 -0.4490505 -0.10656672 -0.2759787 0.12795585 0.057309337 -0.1941117 -0.09205725
0.1229247 -0.3507461 -0.20223671 0.1558895 0.029797185 -0.701679 0.094915606 -0.08078118

model.0.bias f4 [128]
00000000: 7158 163e cdd4 1f3e 887a a5bd 5430 8dbe
00000010: 1924 0e3e c0e1 afbe 6ffb 45be 60be da3d
00000020: d3c2 03be 260d 6ebe 16f1 583c 0348 5c3e
00000030: 70c6 52be 3f3f bc3d 8de5 28bd fccd 6fbe
00000040: a03c bcbd 126c b73d 0a46 2a3e 8e8d 03bf
00000050: 5c77 4c3e 5fd2 313d 2827 19be 40bb 49bd
00000060: 2ff8 113d b930 a63e cdb4 b6be adb5 44be
00000070: 8910 73be e3b3 ae3d 41d6 b2be c9dd bf3c
00000080: 22e0 c0be 5ebe 6e3e 6cf3 d33c 1fb3 b03d
00000090: cde2 6d3e 0533 823d 7283 7cbe af10 5abe
000000a0: 44e1 b0bc f29d 86be aad5 2a3e 1dc2 a3bd
000000b0: 71ae 573e c5fa 8bbc 8a14 45bd 7d7a 853d
000000c0: 5a93 0d3e 925a 66bd 1420 0b3e f8a2 45be
000000d0: 5724 753e 44ae 72be b2b3 4c3e 01a0 15be
000000e0: 287e 67bd 655f 94be 7ef6 b1be f4d4 1a3e
000000f0: 47b6 053e 7582 c93d 8d92 d7bd be56 99bd
00000100: dd35 73be 207f b7be 7f9c 0dbe 3dfd 78be
00000110: 6ce8 6bbe 6c51 0fbe ef8e ad3d ab6e eb3d
00000120: fb61 093e 0de1 8fbe a58a 333c b7ea 08be
00000130: a5df a5be 08f7 14be 9fb9 33bd 46ee 6dbe
00000140: aeea 84be 7144 40bd e99b afbe fbc4 18be
00000150: 0e17 3ebe a2e2 5cbd dd77 2e3e c3c4 8dbc
00000160: 5f91 f83d 8380 8abe fffe 77bc 8d1c 703c
00000170: f019 4bbe 9d16 da3c 5e27 f63d da74 48be
00000180: c4ca 92be d881 f63d 6864 45be 668d 81be
00000190: ef04 073d d52f 96bd 9838 bcbe a277 253e
000001a0: f758 4abe 175f 01be 01ea aa3e 9e19 813e
000001b0: c661 b8be a5ab 8abe c61b 17be aa7d f0bd
000001c0: 4363 233e 8200 9fbc 9bde f03c b689 e53d
000001d0: de07 053e 6506 7c3e e46e d33c b89d 223d
000001e0: 0447 953e 28ff 963d 0474 8a3e 74f3 a03c
000001f0: 4983 ca3d 3386 10be a317 3a3e 54e3 b7bd
0.14682175 0.15608521 -0.080800116 -0.27575934 0.13880958 -0.3435192 -0.19334196 0.106808424
-0.12867288 -0.23247203 0.013241073 0.21511845 -0.2058351 0.09191751 -0.04123454 -0.2341842
-0.09191251 0.0895616 0.1662828 -0.5138787 0.19967407 0.043413516 -0.14956343 -0.04925084
0.035637077 0.32459047 -0.35684815 -0.19209929 -0.23736776 0.085304044 -0.34929088 0.023421185
-0.37671 0.23314807 0.025872909 0.08627915 0.23231049 0.063573875 -0.24659517 -0.21295427
-0.02159179 -0.26292378 0.16683069 -0.079960085 0.21062638 -0.01708735 -0.04811529 0.065175034
0.13825741 -0.05623872 0.13586456 -0.19300449 0.23939644 -0.2369929 0.19990423 -0.14611818
-0.056516796 -0.2897903 -0.3475837 0.15120298 0.13057815 0.09839336 -0.10525999 -0.07487248
-0.23751016 -0.35839176 -0.1382923 -0.24315353 -0.2303788 -0.13995904 0.08474528 0.114957176
0.13416283 -0.28101388 0.010958348 -0.13370787 -0.3239719 -0.1454736 -0.043878194 -0.23235425
-0.25960296 -0.04694027 -0.34298638 -0.14918892 -0.18563482 -0.05392707 0.17037912 -0.017305737
0.12137102 -0.27051172 -0.015136479 0.014655245 -0.19834113 0.026622111 0.120192274 -0.19575825
-0.28670323 0.120364845 -0.19276583 -0.2530319 0.03296369 -0.07333342 -0.36761928 0.16158918
-0.197605 -0.1263393 0.33381656 0.25214857 -0.36012095 -0.2708408 -0.14756688 -0.117427185
0.15955834 -0.019409422 0.029403022 0.11207907 0.12991282 0.24611814 0.025809713 0.039701194
0.29155743 0.07372886 0.27041638 0.019647337 0.09888322 -0.14113693 0.18173079 -0.08978906

model.2.weight f4 [64, 128]
00000000: c4f7 25be 37d9 55bd c05d 98bc f59c 13bd
00000010: d25b 5cbe 70a9 9bbd 1a34 e73d 4256 c93d
00000020: b720 9e3c d7ee d4bc 8ab7 2bbd d397 92bc
00000030: 2c8b b23d 5f49 863c 821b 8f3c 8a34 3fbb
00000040: 8d40 8e3c bf60 81bd 517c 00bd 3086 673e
00000050: bb2e f2bc 11cc 8b3d cc74 123e cf92 cabd
00000060: 8dd3 5ebd f732 733e 800e aebd 27f6 40bd
00000070: 2662 39bd 8de4 6cbd 6c40 da3d a4f0 a3bd
00000080: ed89 8c3d 6203 93bd 86f5 143d 9443 b43d
00000090: 85ef 74bc f084 7a3d d253 b63c 2c39 263d
000000a0: 8bea 70bd 6b93 703a 6676 4d3e 2c31 203e
000000b0: 06df 15bd 5e9f 70bd c7cd 09bd 182e a33c
000000c0: dd98 fa3c 20a6 ef3e a0d0 20bd 83e8 0ebd
000000d0: 0fbd d6bc 3e93 a2bd 1965 9abd de40 a2bd
000000e0: 43c7 4a3e 1ecc 8a3d 8e31 613d eb98 32bd
000000f0: f7bf 41bd a306 06bd 2611 063d 9d23 d1bb
00000100: 3c97 7ebd 8090 5a3d c5f2 01bd e1ca 8abc
00000110: 129d 353e a26d 323c 6faf 603d 6af4 a4bd
00000120: 6494 cd3e 3c97 1cbd b563 26bc 48ad 283c
00000130: 086f 133e ba7b 49bd 17fd 0d3d ad52 333d
00000140: 055d bd3d f32a b4bd a0b3 093d 4ead 483d
00000150: c01c 86bd 6d5f 1a3e 2d32 363d 17c3 62bd
00000160: 4f9f a53d b8d8 223c 5fdc e0bd 082a 0ebd
00000170: 7717 873d 5d77 1ebd 4e9e c03d 25e3 75bd
00000180: 5784 cdbd 1d32 6fbd d7f2 993c a45e 583d
00000190: 04c2 223d 40ce c23d 0d70 a53c 3c4d b2ba
000001a0: 1d38 7b3d a37e 9f3d 10af b3bd 3b7b 56bd
000001b0: 3d91 123d b1c1 c53e da71 aabd 12fb d23c
000001c0: 1f56 37bd dd68 213e 0225 6dbd 2ac1 a53d
000001d0: 0695 1abf 4e1f 5cbd 3776 9abd 37cd 17ba
000001e0: 3f55 2abd a16b e33e 1364 4c3d ac3d 0c3d
000001f0: 7527 fa3d b2bc c8bc 94be 8b3d d2d0 f0bd
00000200: 5473 df3d c2c4 deba 24ca 7dbf 0dc1 cabc
00000210: c95d a3be 4273 dfbb 84ba c5bd 2013 313d
00000220: 26eb 1dbd 8fcd 76bd 0b25 103e ce6d ca3c
00000230: 513e c8bd 1093 093e 67fe dc3d 3f60 3cbe
00000240: c6ce b4bd 8892 963d 703d 91be 8feb 9dbe
00000250: e7e6 51bd 44d5 0b3c 1787 34bf eba9 a9bd
00000260: ab47 473e 07e7 78bd f2a7 593d e03a 8c3d
00000270: 2039 ed3d 6327 5dbd f61e e3be a4cb 71bd
00000280: d4c6 b3bd 13aa f4b9 1e37 043d 8fb1 d2bd
00000290: 700d 1d3d a3a8 89bd e9b7 36bf 2517 8abd
000002a0: 27f8 703e 1cca d0bf 179e 803e ce38 6ebd
000002b0: a76c bc3d ada1 36bd f959 583d 2fad 48bf
000002c0: 759d b73c 5791 31bf 4a78 babd 054d 493d
000002d0: 9dd8 aa3c 234c 35bd bd05 c5bd cfd9 073e
000002e0: 1cfd 3c3e a7ce f0bc 7bfa aa3c a3cc c1bc
000002f0: fcc2 013d e296 a33c 3a25 fdbd 9e70 2cbd
00000300: 3910 acbd 71b9 a8bd 6a45 223d 3707 5d3c
00000310: d24b 78bc d532 bcbe 7b57 e33c 14a2 b1bd
00000320: 9bf8 71be e2d4 4ebe 40af 61bc a4e1 abbd
00000330: 4cc6 c5bc 6be5 403c b495 b73d 7673 2a3d
00000340: 7bf1 c03c fc95 b13b 7c6a acbd c453 973d
00000350: ab0d b43d 08f7 6cbe e04e f7bd af77 04be
00000360: 10a0 1bbe 3686 febb a8d1 f1bb 591b cdbb
00000370: 882e 1abd d770 263d 1a79 ecbc 1518 59be
00000380: 9fc4 3abd 5c02 7a3d 361d bb3d ae4b 0dbf
00000390: c0f4 77bc 782a 18bd 9d4b 273d ed4a 9cbd
000003a0: 41ff 313d b4c3 1bbe 3d9b 153d 197a 42bd
000003b0: 2ceb 8cbc db5b 3a3d e5c1 76bd fc9e d73c
000003c0: 714b 5e3d 6961 98be 3f1b 2cbc 1305 7d3d
000003d0: feed cabe 64f9 93bd 5e0c 083e 9f36 943d
000003e0: 48b3 8f3d ee4d 5fbf 1f0d 7f3c 2e66 90bc
000003f0: 4c23 30be 40a9 053b a5ed a53c e61d 773d
-0.16207796 -0.052209105 -0.018599391 -0.036038358 -0.21519402 -0.07600677 0.112892345 0.098309055
0.019302709 -0.025992794 -0.041923083 -0.017894661 0.08717951 0.016392408 0.017469171 -0.0029175603
0.017364765 -0.06317281 -0.031368557 0.22609782 -0.029563298 0.06826032 0.14302367 -0.09891283
-0.05440097 0.2374991 -0.084988594 -0.04710975 -0.045259617 -0.05783515 0.10656819 -0.08004883
0.06862245 -0.071783796 0.036366962 0.08801952 -0.014949684 0.061161935 0.022256766 0.040581867
-0.058817428 0.00091772404 0.20064697 0.15643758 -0.036589645 -0.058745734 -0.03364351 0.01991944
0.030590469 0.4680643 -0.03926146 -0.03488971 -0.026213197 -0.079382405 -0.07538814 -0.07922529
0.19802575 0.067772135 0.0549789 -0.043602865 -0.047302213 -0.032721173 0.032731198 -0.0063824193
-0.062155947 0.053360462 -0.031725664 -0.016942443 0.17735699 0.010890396 0.054854807 -0.08054431
0.40152276 -0.038230166 -0.010155608 0.01029522 0.14397824 -0.04919026 0.034665193 0.043780018
0.09246258 -0.087972544 0.03361857 0.0489934 -0.065484524 0.15075465 0.044481445 -0.055361833
0.08087026 0.009939365 -0.109795325 -0.034708053 0.065962724 -0.038688052 0.09405194 -0.060031075
-0.100350074 -0.0583974 0.018792553 0.05282463 0.03973581 0.09511995 0.020195032 -0.001360334
0.06133281 0.07787826 -0.08773625 -0.052363615 0.03578304 0.38624337 -0.08322497 0.025754485
-0.044759866 0.15762658 -0.05789662 0.08093484 -0.6038364 -0.053740792 -0.07542079 -0.0005790772
-0.041585203 0.44418052 0.049900126 0.034238502 0.12214557 -0.02450404 0.06823459 -0.11758579
0.10910669 -0.0016995894 -0.9913657 -0.024750257 -0.3190749 -0.0068191597 -0.09654716 0.04323113
-0.038554333 -0.06025463 0.14076631 0.024710562 -0.09777511 0.13435006 0.10790711 -0.1839609
-0.088285014 0.07352167 -0.28367186 -0.3084378 -0.051245596 0.008534733 -0.7051863 -0.082843624
0.19460933 -0.0607672 0.05313868 0.06847167 0.11583161 -0.05399264 -0.4435956 -0.059032097
-0.08778158 -0.00046666022 0.032279126 -0.10287773 0.038342893 -0.06721618 -0.71374375 -0.06742696
0.23532163 -1.6311679 0.25120613 -0.058159642 0.09200411 -0.04458778 0.05282018 -0.7838926
0.022413949 -0.69362396 -0.091049746 0.049145717 0.020855242 -0.044262063 -0.09620235 0.13266681
0.18455929 -0.029395415 0.020871392 -0.023657149 0.031680092 0.019969407 -0.12360616 -0.042099588
-0.08401532 -0.08238495 0.03961698 0.01349049 -0.015154796 -0.36757532 0.027751675 -0.08673492
-0.23629992 -0.20198396 -0.013774693 -0.08392647 -0.024142407 0.0117734475 0.089641005 0.04161402
0.023552647 0.005419491 -0.08418748 0.07389024 0.087916695 -0.2314111 -0.12075591 -0.1293628
-0.15197778 -0.007767464 -0.0073797293 -0.0062593636 -0.037642032 0.040634956 -0.02886634 -0.21200593
-0.04559767 0.061037406 0.09136431 -0.55193603 -0.015134037 -0.037149876 0.040843595 -0.076314785
0.04345632 -0.15211374 0.036525 -0.047479723 -0.017201982 0.045497756 -0.060243506 0.026320927
0.054271165 -0.29761818 -0.010504543 0.061772417 -0.396347 -0.07225302 0.13285968 0.07236981
0.07016617 -0.87228286 0.015567093 -0.017626848 -0.17200965 0.002039507 0.02025492 0.060331248

model.2.bias f4 [64]
00000000: 0282 873d 6251 383d 2ddf bc3d 5b34 d6bd
00000010: 6b3a a2bb ff31 09bd 0e89 c23d 312c cdbc
00000020: 45fc fbbd 1e50 b93d 4274 5fbc 33c0 ab3c
00000030: fc23 eebc 25f1 8ebd bcc1 543d d041 b5bc
00000040: c54e a23d 8a36 03bd 17d1 aebd 37d3 9d3d
00000050: 84ab 7fbc 7b72 bcbd 6600 1fbd 4028 bb3c
00000060: f138 f4bc 6364 0bbd 425d b0bd ee69 8ebd
00000070: 6a73 d3bc 89e3 b93c 6043 a6bd 8b67 36bd
00000080: 6d48 b1bd aaf6 5dbc 502e 43bd f70d d73d
00000090: e329 22bd 2bf0 d53d b539 e13c 6a85 013c
000000a0: f84f a539 2625 cbbd a2f9 0f3c 0d9e ffbc
000000b0: f919 583c 389b cc3c 3c10 d93b 3a90 d1bb
000000c0: 9848 79bd c79e 413d 2bc2 4cbc f5e6 71bd
000000d0: 35e2 a0bc 556c 5e3d 6b53 313c 02f0 bdbd
000000e0: 216a 2fbd b766 2b3c 2913 eb3c 74db bf3c
000000f0: 3b7b d13c 1df2 91bd a751 4fbd d98a 79bc
0.06616594 0.044999488 0.09222255 -0.10459205 -0.0049508116 -0.033494946 0.09498797 -0.025045486
-0.12303976 0.09048484 -0.013638558 0.020965671 -0.029069893 -0.069795884 0.051942572 -0.022126108
0.0792518 -0.032034434 -0.085359745 0.07706302 -0.015604857 -0.09201523 -0.03881874 0.022846341
-0.029812308 -0.034031283 -0.086115375 -0.06953798 -0.02581187 0.022691505 -0.081183195 -0.04453234
-0.08656392 -0.013547579 -0.04765159 0.105007105 -0.039590728 0.10446199 0.027493337 0.007905344
0.00031530834 -0.09919195 0.008787544 -0.031203294 0.013189786 0.024976358 0.0066242497 -0.006395367
-0.060860246 0.047270562 -0.012497465 -0.05905815 -0.019639114 0.054302532 0.010823111 -0.092742935
-0.04282582 0.010461501 0.02869566 0.023420073 0.025571456 -0.071262576 -0.05061498 -0.015230858

model.4.weight f4 [4, 64]
00000000: 1924 a43c 2fc9 a83e 86a8 eb3d 92fc 0dbc
00000010: 5fc7 c83d 4235 d43d bd76 503e fe1f 723d
00000020: d06a 18be 712a d83d 0f30 513d 3ecb 833d
00000030: e7d1 b6bd c8a5 87bc e9ac 723c 3959 6ebd
00000040: b74e 913d 055d 3a3e a163 e63d 578c 493b
00000050: c281 aa3d dcea 323d 3d40 ecbc c52b 8e3d
00000060: e0f2 a23d 3384 483d ea58 82bd 83ee a73c
00000070: 30cd b73d 1a30 8e3d a219 f93d 7bc8 973d
00000080: dc3a debd d9bc 12be e88a 163c bdc9 073e
00000090: 995d 8bbd 0882 a1bb 7245 c63c 3597 b03d
000000a0: 273e a63d 77dd 153d 7f9f 343d 5dd3 edbc
000000b0: b87d 103e f8cb 6b3d a2fe 8ebd 79ef f53d
000000c0: 561e f5bd 15ff cb3b e499 663e aec5 c73c
000000d0: d0b8 c5bc 6527 a43a 4ce6 fa3d 7419 273d
000000e0: 3a59 d33d 4611 273c 02bb 2e3d 0a7e 9b3d
000000f0: 663d 683b 3cf1 0dbd 8b4c e6bd 3095 ccba
00000100: 84e5 d7bc 12bd 26bb 8202 97bc b7c9 d03b
00000110: e928 b33d bddc 85bd e3c5 6f3d 5d6d 68bd
00000120: 0ec7 603d a777 123d 7461 243d a7d1 253c
00000130: c8d2 fbbd 0e4b debd 798f 943d d17d 7b3d
00000140: 12e1 a33d 8e73 a53d c3f5 abbb e466 88be
00000150: a9c3 7e3d 73bd d43c 9a19 adbd 002e 833a
00000160: dce9 fe3d da78 a0be 0ace debd b00b b23c
00000170: b192 bcbb dc5a 303d 68a8 59bd 3279 d7bd
00000180: cc6d bdbd cd54 a5bd 03a2 06bd 1128 d43d
00000190: 4807 8fbd cb29 b73d f85d 28bd 0d96 91bc
000001a0: 8772 3bbd 9bbb 973d 2e81 333d 03c1 4abd
000001b0: b367 86bd f4bc 99bd f0c8 bc3d 3a18 f1bc
000001c0: 9afc c8bd 3b37 e03e a07f 8e3e 7366 ebbb
000001d0: c649 e2bd c2d7 103d 2847 353c 3955 283b
000001e0: 008d f1ba 2995 aa3d 4eb7 4e3d f09d 54bc
000001f0: 5236 403d b42f 9abd d09d 863d 79ee b53d
00000200: 0945 463d f038 a0be 83d5 503d ac4d 93bc
00000210: fd5c 6c3d 4878 743d fd7e 21be 0ede 853a
00000220: f81a 0abc d264 4b3d c11a 0a3d eebe 94bd
00000230: 5770 80bd 70de ffbd 5b8d 943c 4aea 6bbc
00000240: 0b7c 943c 6510 6cbd fa67 d63c 06bd 3e3b
00000250: 90a6 d03b a914 a3bd 30aa cfbd 6e94 b1bd
00000260: e23a abbd 71fa 21bb 8ce8 c93d b01d 68bc
00000270: 8d84 ab3d d62f 9abd f8e6 bcbd c683 1cbd
00000280: be36 93bd fc16 02bf a172 a1bd 7516 e13d
00000290: d6b8 5bbd 54ec 3ebd 3caa 97bd 567f 02bd
000002a0: b56b a0bd 13cc bebc 0e81 72bd 2305 0d3d
000002b0: 44f6 8dbe 1eb5 ad3d 7854 ad3d 455b c0bd
000002c0: dcbf 11bd 4d6b 123d d7c5 d63c 1404 013d
000002d0: b463 2dbd a950 963d bcf8 a23d 7985 5ebd
000002e0: dca5 fe3d 4cc9 9dbd dc0c 4d3e 9272 dbbb
000002f0: c75d 263c bcd7 9c3d d0f6 f7bc 1e02 793d
00000300: 369b 0f3d b485 e53c 56ad c43d e183 a23d
00000310: e988 9c3d 59e8 c0bd 7ba1 8d3d 4ba0 2f3d
00000320: 75b7 51bc 86d5 823b 2e88 843d cdfe e1bd
00000330: 24fc 82bc 401b 7cbd 0c0c 893b 998a 163c
00000340: 48aa 5b3c 2088 cc3c 2b41 42bd a6fb 853e
00000350: 27eb 553d 30e3 d9bb f582 9dbd 31b6 c8bd
00000360: 546c 243d 467a ab3e 9e44 9b3d 604b 47bd
00000370: fd69 86bc f046 8dbc bc5b c33d e9d0 c03c
00000380: 28dd 883c 5f9d e1bd ec3d 433f a6c2 bb3d
00000390: ad8a 3e3d 545e da3d 0e66 613d 0155 bd3d
000003a0: 0b1e 2fbd 88b8 7f3d f995 183d 107a 5bbd
000003b0: bb1e 4fbd ccc3 b33d 90b0 9a3d f969 c3bc
000003c0: 1456 0a3d 6b10 8ebe acc3 823e db3a c73c
000003d0: ec01 e23d c476 c03d ed59 af3c f37c 5cbd
000003e0: ec4b cbbd d5c4 ab3d 5b14 0b3d 42d4 9ebc
000003f0: e48d 423d 46c1 b53d 740e d63d 0d5b f73c
0.020036744 0.3296599 0.11506753 -0.0086661745 0.09803652 0.103617206 0.20357795 0.05911254
-0.14884496 0.1055497 0.051071223 0.0643525 -0.089267544 -0.016558543 0.014811733 -0.058190558
0.07095092 0.18199547 0.112494715 0.0030753815 0.083255306 0.04368101 -0.028839225 0.06941942
0.07956481 0.0489542 -0.06364615 0.020499473 0.08974683 0.069427684 0.12163092 0.074112855
-0.1085107 -0.14329852 0.009188391 0.13260551 -0.06804962 -0.004928831 0.024203036 0.086225905
0.08117323 0.03658816 0.04409742 -0.02903145 0.14110458 0.057567567 -0.06982161 0.120085664
-0.11968677 0.0062254765 0.22519642 0.024386253 -0.024135977 0.0012523948 0.12250957 0.04079576
0.10319753 0.010196989 0.042658813 0.075923994 0.0035436987 -0.034653887 -0.11245068 -0.0015608426
-0.026354559 -0.0025442285 -0.018433813 0.0063717025 0.08748037 -0.06536243 0.05853833 -0.056744922
0.054877333 0.03575864 0.040132 0.010120786 -0.12296063 -0.10854159 0.07253928 0.061399285
0.08001913 0.08078681 -0.005247803 -0.26641 0.062198315 0.025969243 -0.08452149 0.0010008216
0.12446949 -0.31342202 -0.108791426 0.021734089 -0.0057547917 0.0430554 -0.05313912 -0.10521163
-0.09249458 -0.08072815 -0.03286935 0.103592046 -0.06983811 0.08943518 -0.04110524 -0.017771745
-0.04576352 0.0740883 0.043824367 -0.049500477 -0.06562748 -0.07506743 0.09218013 -0.029430497
-0.09813805 0.43792138 0.27831745 -0.0071838438 -0.110492274 0.035362013 0.011064328 0.0025685562
-0.0018428862 0.08329231 0.05046778 -0.012977108 0.046926804 -0.0752863 0.06573069 0.08883376
0.04840568 -0.3129344 0.05098487 -0.017981373 0.057705868 0.05968502 -0.15771098 0.0010213272
-0.008429281 0.049656697 0.03371692 -0.072629794 -0.06271427 -0.124935985 0.01813381 -0.014399121
0.018125555 -0.057632823 0.026172627 0.0029104366 0.006367512 -0.07962925 -0.101398826 -0.08670889
-0.083608404 -0.0024715925 0.09858808 -0.014167234 0.083748914 -0.07528655 -0.09223741 -0.038211606
-0.071881756 -0.5081632 -0.07883192 0.109906115 -0.05364307 -0.0466121 -0.074055165 -0.03185972
-0.078330435 -0.02329067 -0.059205107 0.034428727 -0.27726948 0.08481811 0.08463377 -0.09392408
-0.035583362 0.03574686 0.026217384 0.03149803 -0.042331412 0.073396035 0.079575986 -0.05432651
0.12433979 -0.0770441 0.20024437 -0.0066970075 0.010154194 0.076583356 -0.030269057 0.060793035
0.03506013 0.028017856 0.09603374 0.0793531 0.07643301 -0.09419317 0.069155656 0.042877477
-0.012800087 0.003992739 0.06471287 -0.110349275 -0.01598937 -0.061549425 0.0041823443 0.009188318
0.013407297 0.024967253 -0.04742543 0.26168555 0.052226212 -0.0066493973 -0.07690994 -0.09800375
0.040142372 0.33491725 0.07581447 -0.048655868 -0.016407961 -0.01724574 0.09538981 0.023537116
0.016707018 -0.11016344 0.7626636 0.091679856 0.04651897 0.10662523 0.055028968 0.09244729
-0.04275326 0.062431842 0.0372524 -0.053583205 -0.050566416 0.0877758 0.07553208 -0.023854243
0.033773497 -0.277469 0.2553991 0.024320057 0.11035523 0.09397653 0.021405185 -0.0538301
-0.0992659 0.08387152 0.03395496 -0.019388322 0.0474986 0.088747546 0.104519755 0.030194784

model.4.bias f4 [4]
00000000: 9eff e7bc a8a3 2d3d 7df1 ba3d 6b73 edbc
-0.02832013 0.042392403 0.091280915 -0.0289857

model.0.weight f4 [128, 7]
00000000: 0b8c cabd f301 19be f21e 863e e5ce 60be
00000010: 088f 01be eaff a83e 308e 733e f09f 393c
00000020: 8928 2dbe 4764 05be 3204 6a3c 85d4 2e3e
00000030: 3e7b 733e 4bd3 583e f5c1 cc3e f3cf cabc
00000040: 58ae 8f3d b57f 78be 2036 b9be a8e7 c4bd
00000050: a425 3d3e 1690 c2bd 4161 56be 5fbb 913e
00000060: c539 673b 607f 3f3e 7fd0 6b3e 232f 313d
00000070: 206c 0fbf 317f 24be 1de0 a8be cea8 343e
00000080: e4d5 bb3e a91e 8f3e 9364 e7bc 13be b3be
00000090: 3125 a63c c5a4 46be 3a21 48be 0ecf 71be
000000a0: f5ee 413e 2185 753d 5091 333e 0489 d6be
000000b0: a87c 4b3e 116f 553d 761f 883e cbe2 92be
000000c0: 519d 59bc 7215 193d ccf7 aabe ef16 aebe
000000d0: ae07 a03c 7ea7 10be 86b9 553d 3cb3 09bb
000000e0: ee24 90be de14 81bc b1a9 113d 0a21 f23b
000000f0: 9450 5abe bc96 bb3e 09ec 05be f88d 25be
00000100: f79f 84be 62bf 853e c74a 59be addf f43a
00000110: f5b2 b0be 5228 97be 024c 79bd 2783 aabd
00000120: b0e6 82be 845e b83e 6830 aebe 55ef 193d
00000130: df38 dcbd 29a3 4e3e a188 1d3e a638 b9be
00000140: 2754 42bd 775e 1ebe 67c8 b7be 3484 a7bd
00000150: 56d2 0abc 5e60 cfbe b95a 5b3e 2f8c 8d3e
00000160: c4c4 503e 17c1 9ebe e72a 753e dd00 39be
00000170: 299a c33d 57b2 913e a6f0 093e dc15 1dbd
00000180: 51fa b0be 21f0 b2be c957 8cbe 96a6 413e
00000190: eca6 e53d 45c2 893e f6e7 1f3e 5308 803d
000001a0: 7785 1ebe 343c 923e 2ad1 32bd 37a2 973e
000001b0: 38dc 45be aa95 9c3e f99e 7bbe da9b 4bbd
000001c0: 690c 16be b1b1 54be 85dc 55be ddd9 7dbe
000001d0: 2706 943c f95a 9a3e 4993 abbe 2ef2 92be
000001e0: 279a 993c 5f8d 5f3e 9466 223e 274b 963d
000001f0: 772a 8c3e b18b 91bd f2d9 ab3c b0d7 d13d
00000200: 1222 b0be e055 0b3e d97d 363e 50f6 a3be
00000210: 22ae 323e 8119 6e3e ee3c 9a3e f9b1 8f3d
00000220: 951e 5c3e 7010 043e a54f d2bd 9f6a 333e
00000230: 574a 703d d9df 50be ae2a 3abc e4f7 bebd
00000240: 633c 86be e0e9 243c cefb 123e 1fe0 ab3c
00000250: 3215 8f3e 3e74 acbe 9bf3 313d 0912 5f3e
00000260: de44 803d eb57 02be f053 d23e a213 29be
00000270: 59ee 3b3d e9ed 873d ace5 d93d 052f 1cbe
00000280: e10a c1be 1343 8c3e 4820 85be 378e 833e
00000290: 49d6 4b3d 0541 99bd 55d5 003e dc09 80bd
000002a0: 351d 183e d1d1 58be d1f0 85bd 9aa6 7ebe
000002b0: 8e8f 513e 6ba4 b9be 77f8 593e ad86 92be
000002c0: cd2e b9be 4df7 b4be 3ddf 74be e7c5 63bd
000002d0: c3f1 843e e38a 89bc 5edc d43d 2dc4 5bbe
000002e0: 308e 50be fae2 a1bd 1226 61bc 3e37 ecbd
000002f0: d64d 1cbe f60a 3ebd b0a4 76bd 1537 aa3e
00000300: 0f67 2c3e c59b 423e b5a3 6d3e b539 293e
00000310: 88a3 73bf 548f a03e 4e4d 85bb 21ce a23e
00000320: 9883 ef3d 3068 41be 69ee 063e 2628 b93e
00000330: 7d3e a9bd 7a8c 873e 89f7 c6be f65a 7ebb
00000340: 63fb a8be 9a7a ad3e 5b7d 90bf 2e36 813e
00000350: dc2d b73e d2f2 d73d e668 7bbe 9970 573e
00000360: 67a7 d3bd 41c1 983e 5f4d 7d3e dd98 67bd
00000370: 276f 613e e29e a13e fc72 833e 03ca 4dbe
00000380: 1c3f 43bd 0129 033e f09a 903e 1db2 36be
00000390: 9bd6 bbbe 6690 943e 75e8 2c3e 639f 7b3e
000003a0: bf41 b8bd 31a7 fbbd 2e7c 34be 37d4 cb3d
000003b0: dff9 633c cd4c 993e e229 653e 63cd a13e
000003c0: b2b7 733e df55 c7be a73f dabd 154d 8dbe
000003d0: dc06 033e 8686 903e 2de1 a3bd 4ce4 953d
000003e0: cc0b 373e fe94 b3be 2417 4fbe 7fa1 1f3e
000003f0: a4ed 013d 91d3 c2be 0cf8 d23d 0d3c 6fbe
-0.09889992 -0.1494215 0.26195484 -0.21953924 -0.12652218 0.33007747 0.23784709 0.011329636
-0.16909994 -0.13026534 0.014283227 0.17073257 0.23777482 0.21174352 0.39991727 -0.024757361
0.07015675 -0.24267466 -0.36174107 -0.096144974 0.1847139 -0.095001385 -0.20935537 0.28463265
0.0035282236 0.18700933 0.23028754 0.043257844 -0.5602436 -0.16064145 -0.32983485 0.17642519
0.36686623 0.2795308 -0.0282462 -0.35105953 0.020281406 -0.19398792 -0.19543925 -0.23614141
0.18938811 0.059941415 0.17535901 -0.4190141 0.19871771 0.052107874 0.26586503 -0.28688654
-0.013282136 0.037373967 -0.3339218 -0.34001872 0.019534912 -0.14126393 0.052178882 -0.0021011373
-0.28153175 -0.01575702 0.03556222 0.0073891925 -0.213198 0.3663844 -0.13078322 -0.16167438
-0.25903293 0.26122576 -0.21219932 0.0018682383 -0.34511533 -0.2952295 -0.060863502 -0.083257966
-0.25566626 0.3600961 -0.34021306 0.03758176 -0.10753035 0.20179428 0.15384151 -0.36176032
-0.047443535 -0.15465723 -0.35895082 -0.081795126 -0.008473 -0.4050321 0.21421327 0.27646014
0.2038756 -0.3100669 0.23942147 -0.18066736 0.09550888 0.28456375 0.13470706 -0.038350925
-0.34565976 -0.3494883 -0.27410725 0.18911204 0.112134784 0.26906028 0.1561583 0.06251588
-0.154806 0.28561556 -0.043656506 0.29615948 -0.19322288 0.30582935 -0.24572362 -0.04970918
-0.14653172 -0.20770909 -0.20884903 -0.2479014 0.01806934 0.30147532 -0.33510807 -0.28700393
0.018750263 0.21831273 0.15859443 0.07338553 0.27376148 -0.07106722 0.020977948 0.10246217
-0.34400994 0.13606977 0.17821445 -0.3202386 0.17449239 0.23251916 0.3012461 0.070163675
0.21496041 0.12896895 -0.10269097 0.17521141 0.058664646 -0.20397891 -0.011362715 -0.09324625
-0.26217946 0.010065526 0.14353868 0.020980893 0.27945858 -0.33682436 0.04344521 0.21784224
0.062631354 -0.1272885 0.41079664 -0.16511396 0.045881603 0.06637175 0.106395096 -0.15252312
-0.37703612 0.27394924 -0.2600119 0.2569444 0.049764905 -0.074831046 0.1258138 -0.062518805
0.14854892 -0.21173789 -0.06540073 -0.24868241 0.20464918 -0.36258253 0.21286188 -0.28618374
-0.3616852 -0.35344926 -0.23913284 -0.055608656 0.259657 -0.01678986 0.10393594 -0.21461554
-0.2036674 -0.079046205 -0.013741987 -0.11533974 -0.15264067 -0.046397172 -0.060215652 0.3324515
0.16836189 0.19004734 0.2320698 0.1652592 -0.95171404 0.3135935 -0.0040680533 0.3179789
0.116950214 -0.188874 0.13176884 0.36163443 -0.08263872 0.26474363 -0.3886073 -0.003881154
-0.33004293 0.338826 -1.1288255 0.25236648 0.35777175 0.10544361 -0.24551734 0.21039046
-0.10334664 0.2983494 0.24736546 -0.056542266 0.22015058 0.3156653 0.25673664 -0.20096593
-0.047667608 0.1280861 0.28243208 -0.17841382 -0.36687168 0.29016417 0.1688555 0.2457252
-0.08996915 -0.122877486 -0.17625496 0.09952586 0.013914554 0.29941407 0.22379258 0.3160201
0.23800543 -0.38932702 -0.10656672 -0.2759787 0.12795585 0.28227633 -0.08001933 0.07318935
0.17875594 -0.3507461 -0.20223671 0.1558895 0.031720772 -0.38052037 0.103012174 -0.23362751

model.0.bias f4 [128]
00000000: d649 353e e9b1 223e c691 95bd c072 80be
00000010: 4f2b 253e c0e1 afbe 053b 0fbe 0386 233e
00000020: d3c2 03be 260d 6ebe f69c ebbc bdc4 993e
00000030: c278 d0bd 95cb 363e 3653 3c3d e943 22be
00000040: a03c bcbd c9fe e53d a6cc 8f3e e611 c7be
00000050: c7c2 8d3e b3b8 973d 8d0b 53be 0659 c73c
00000060: 7941 69bd 7680 6e3e cdb4 b6be 44bd 0ebe
00000070: 6727 6ebe 615d 013e 0aee b2be 3daa 183e
00000080: 22e0 c0be d3b8 ae3e 8ced bc3d e7d7 9b3e
00000090: 3e30 8a3e 2faf 953e 71a8 77be 0e6a 40be
000000a0: 3edb c03c 6bbf 9ebe f1f1 003e 3a68 51bd
000000b0: 4dd3 6e3e 9a86 8cba 8a14 45bd 56b8 15bd
000000c0: a6b7 523e e3b4 35bd 967d 0e3e 5ff7 27be
000000d0: c825 bb3e 44ae 72be e589 b03e 06ce b7bd
000000e0: 5cf5 47be 8f12 8fbe e983 9cbe 9b25 183e
000000f0: c16c 8d3e be09 383e 31f0 f63c 210f dc3c
00000100: dd35 73be a937 8fbe 9816 b5bd 3dfd 78be
00000110: 944a 6dbe 3f2a 48be 8488 553e 1240 b53d
00000120: 75c3 493e a1fb 61be a8f0 d7bc 574f edbd
00000130: 3929 7cbe b68e febd a176 ecbc 46ee 6dbe
00000140: 41a8 58be dd3b ce3d e99b afbe ff67 abbd
00000150: 0e17 3ebe d658 12be c6a4 633e ad23 a2bc
00000160: b06b 763d 8380 8abe 963e ab3c 0585 50bd
00000170: e0fe 36be 420f 1d3d a339 6a3e 9ec8 9fbd
00000180: c4ca 92be dbb1 483e f10a 58be 1af4 7fbe
00000190: 7562 8c3e c857 8abd 9838 bcbe 8aa5 9d3e
000001a0: f758 4abe cad5 0cbe 3c0b c13e e0b6 823e
000001b0: c661 b8be 655f a9be 705b 92bd aa7d f0bd
000001c0: 1a40 423e 1fef dbba 9222 923e 3813 873e
000001d0: 2dfd 3b3d 90f3 ad3e be31 943d 8866 87bd
000001e0: 5183 b53e 40e8 de3c be89 8d3e 4d6a 143e
000001f0: 893d e33d 3386 10be 0469 a33e 694c eabc
0.17703947 0.1588818 -0.07303195 -0.25087547 0.16129802 -0.3435192 -0.13987358 0.1596909
-0.12867288 -0.23247203 -0.028761368 0.30032912 -0.10179283 0.17851098 0.045977794 -0.15846218
-0.09191251 0.11230237 0.28085822 -0.38880843 0.27687666 0.074082755 -0.20609875 0.024334442
-0.056947205 0.23291191 -0.35684815 -0.13939387 -0.23257218 0.12633277 -0.34947234 0.14908691
-0.37671 0.34125385 0.09224996 0.30438158 0.2698993 0.29235217 -0.24185349 -0.18790457
0.023542043 -0.31005415 0.12592293 -0.05112479 0.23322792 -0.0010721267 -0.04811529 -0.03655275
0.20577869 -0.04436196 0.13915095 -0.16402958 0.36552262 -0.2369929 0.34480205 -0.08974843
-0.19527191 -0.27943847 -0.3056939 0.14858095 0.27622035 0.17972466 0.030143829 0.026862683
-0.23751016 -0.27972153 -0.088422 -0.24315353 -0.2317298 -0.19547366 0.20852858 0.08850111
0.19703467 -0.22068645 -0.026359871 -0.115873985 -0.246251 -0.12429564 -0.02886516 -0.23235425
-0.21157934 0.10070012 -0.34298638 -0.08369445 -0.18563482 -0.142917 0.22230825 -0.019792402
0.060161293 -0.27051172 0.020903867 -0.050908107 -0.17870665 0.03834463 0.22873549 -0.078019366
-0.28670323 0.19599096 -0.21097924 -0.24995461 0.27418867 -0.06755024 -0.36761928 0.3079036
-0.197605 -0.13753429 0.37703884 0.25530148 -0.36012095 -0.33080593 -0.071463466 -0.117427185
0.18969765 -0.0016779638 0.28542 0.2638185 0.045895744 0.33974886 0.0723605 -0.06611353
0.3545175 0.027210355 0.2764415 0.14493676 0.11095721 -0.14113693 0.31916058 -0.028600888

model.2.weight f4 [64, 128]
00000000: 4778 b2bd ec1b debd a9ad 81bd 90ca 1abd
00000010: 055b aa3d 70a9 9bbd 2035 933d b296 e53d
00000020: b720 9e3c d7ee d4bc d30d 85bb dbdb ed3c
00000030: 89ac bfbb e9d7 aa3c 400c 2f3d 2819 893d
00000040: 8d40 8e3c b28a 59bd bb6d d9bc dda8 d03c
00000050: 998d 58bd 52a1 ec3d 06d2 3a3d 5a50 08bd
00000060: 7e8d 8f3d 4dfd 823d 800e aebd fd3a 17bd
00000070: 3b43 103e 44e8 01bd f50b 853e f4b4 95bd
00000080: ed89 8c3d c8e1 3ebd 6d68 183d 98a4 b33d
00000090: 40cd 9ebd 99c7 983d 8358 883d 5495 a93c
000000a0: 9a43 0dbc 9470 343c f166 8f3d 8ebb de3d
000000b0: 6446 103c 29d4 6cbc c7cd 09bd 61a5 b33d
000000c0: fcf2 6f3d 769c e73e 1dea 8abc 1eee 8fbc
000000d0: 0e6d bdbc 3e93 a2bd 9e8b 72bd ee09 99bd
000000e0: b6c2 92bd 457e 813d 8407 febc d9bf 2dbd
000000f0: bebd 97bc 77d8 1abd 3450 873d c310 713b
00000100: 3c97 7ebd 01a7 a43d 0961 0cbd e1ca 8abc
00000110: 696b 6a3d ceae 023e e3fd 913d 0fcf 15bc
00000120: 9be9 1c3d 3e28 9e3c b9b8 e6bc c70d 763b
00000130: a9f0 ab3d 752b 1dbd 93fe 4c3d ad52 333d
00000140: fe71 d03d e344 7fbd a0b3 093d b94f 013d
00000150: c01c 86bd 6f58 443e 3025 543d 4753 57bb
00000160: d59d 193e b8d8 223c 79ac 47bd 0347 d13c
00000170: 91e6 f83c 70da bdbd 3cf4 b03d f17e a5bd
00000180: 5784 cdbd 3198 46bd 4a71 8bbb 62fd 5c3d
00000190: e872 293d c08c 2c3d 0d70 a53c f723 4a3c
000001a0: 1d38 7b3d 654e ce3d 4abc e1b9 95a6 1fbc
000001b0: 3d91 123d b04b 273d 9c47 2ebd 12fb d23c
000001c0: 1ca2 d13b 3e3c 233d 9d0d 0ebd 0d6b a83d
000001d0: 2d19 a8bd eac9 47bd 3e8b 92bd 0dd4 8e3c
000001e0: a5ce debc 7d68 cb3d 9570 863c f0ca 043d
000001f0: 2d41 cd3d b2bc c8bc 27b7 9c3d b42c a8bd
00000200: c167 8a3d 5207 c2ba 31b8 52be d30e c2bc
00000210: 9068 febd 4273 dfbb d605 8abd 318a ecbc
00000220: 26eb 1dbd 8fcd 76bd ba31 4d3d 2800 2d3d
00000230: b7ff 0b3d 4ddb b93d 7959 9cbc 7ef3 0abe
00000240: c6ce b4bd eb38 553b 3f31 5bbc d1e2 d3bd
00000250: 64e2 9d3a b9ea 2b3c 390c e6bd 9721 c0bd
00000260: d537 d43c f67d 033d f2a7 593d 9539 9f3d
00000270: 5f94 99bd 6f4e 173c ed3a 85be b3b3 11bc
00000280: d4c6 b3bd e1f2 813d 8068 ac3d 5c61 4ebd
00000290: 20c0 113d 7607 8dbd 84a6 4dbe 4564 a4bd
000002a0: 2c86 013d e2e5 89be 2371 ce3c d2d2 22be
000002b0: 1665 293d af8e e13c f959 583d 7e14 b7bd
000002c0: 8e2d 223c f9d5 cebe 8283 73bd 5376 963d
000002d0: 9bba 3e3c 234c 35bd e707 3abd 2225 ae3d
000002e0: 804d 8e3d a7ce f0bc c350 7e3d b9ec 5ebd
000002f0: f55c 4bbd 3a5e 973d f9c2 a5bd 57cf 10b8
00000300: 3910 acbd 574b 693d f762 d43c 3707 5d3c
00000310: bce6 ba3b 2129 31be d193 243d 78a2 0ebe
00000320: abdb 92bd deca f5bd 256c b5bd a4e1 abbd
00000330: 3964 13bd 522f 313d a421 643d 7673 2a3d
00000340: 9c07 01bd c613 bc3c 7c6a acbd c453 973d
00000350: ab0d b43d 9cb6 62be 307c 97bd 13a9 50bd
00000360: cb75 8fbd 3686 febb 3707 873d ba0f 10be
00000370: 2e4c 9cbd 3b33 313d 8ff3 ee3c 560c 823b
00000380: 9fc4 3abd 47ad a13d 6811 abbd 1afd 06be
00000390: 2f49 773a 0122 93bd 9d4b 273d ce0d 66bd
000003a0: 41ff 313d 5209 0bbd 8cdf e43c 8b04 a5bb
000003b0: 2ceb 8cbc d661 ccbc e5c1 76bd fc9e d73c
000003c0: 75ef 0cbd 1e44 2ebe d777 9ebc fce5 3e3d
000003d0: 80e3 1abd 015e 53bd 0652 9b3d c528 1e3d
000003e0: 3579 a53d 05cc 42be 6df0 84bb 2924 40bd
000003f0: 68ca 29be 40a9 053b a72b 283d 0610 783d
-0.08714347 -0.108451694 -0.06331951 -0.037790835 0.08318142 -0.07600677 0.07187867 0.112103835
0.019302709 -0.025992794 -0.004060486 0.0290355 -0.005849425 0.020854907 0.042736292 0.06694251
0.017364765 -0.053110786 -0.026541581 0.025471145 -0.052869413 0.11554207 0.04561045 -0.033279754
0.07009409 0.063959695 -0.084988594 -0.03692149 0.14088146 -0.031715646 0.25985685 -0.07309905
0.06862245 -0.04660204 0.037208963 0.08771628 -0.07753992 0.07459945 0.06657507 0.020701088
-0.0086220745 0.011013169 0.070020564 0.10875617 0.008805845 -0.01445488 -0.03364351 0.08771778
0.058581337 0.45236558 -0.016957337 -0.017569598 -0.02312329 -0.079382405 -0.05921518 -0.07472597
-0.071660444 0.06322912 -0.031009443 -0.04241929 -0.018523093 -0.037804093 0.066070944 0.0036783672
-0.062155947 0.08039666 -0.034272227 -0.016942443 0.05723134 0.12761995 0.07128503 -0.009143605
0.03830872 0.019306298 -0.028164255 0.0037544833 0.08395512 -0.038371522 0.05004747 0.043780018
0.10177992 -0.062321555 0.03361857 0.03157017 -0.065484524 0.1917436 0.051793277 -0.0032856034
0.15001614 0.009939365 -0.048748467 0.025546556 0.03038338 -0.09270179 0.08640334 -0.08080853
-0.100350074 -0.048484985 -0.0042554485 0.053952582 0.04136935 0.042126417 0.020195032 0.012337676
0.06133281 0.10073546 -0.0004305563 -0.009744306 0.03578304 0.040843666 -0.04254876 0.025754485
0.006397499 0.039852373 -0.03468095 0.08223543 -0.08207927 -0.048776545 -0.071554646 0.017435098
-0.027198145 0.09932039 0.016411105 0.0324201 0.10022197 -0.02450404 0.07652121 -0.082116514
0.06758071 -0.0014803207 -0.20578076 -0.02368871 -0.124222875 -0.0068191597 -0.06739394 -0.028874489
-0.038554333 -0.06025463 0.05009625 0.042236477 0.034179416 0.090750314 -0.019085633 -0.13569447
-0.088285014 0.0032535146 -0.01337844 -0.10345996 0.0012045619 0.010492974 -0.112328 -0.09381407
0.025905529 0.032102548 0.05313868 0.07774655 -0.07499003 0.009235009 -0.2602152 -0.008892941
-0.08778158 0.063451536 0.08418369 -0.050385818 0.035583615 -0.06886189 -0.20083052 -0.080269374
0.031622097 -0.269332 0.025200432 -0.15900734 0.04135617 0.027533857 0.05282018 -0.089394554
0.009898556 -0.40397623 -0.059451587 0.07346787 0.01164117 -0.044262063 -0.045417693 0.08503176
0.06948376 -0.029395415 0.06208874 -0.054424975 -0.049649198 0.07391019 -0.08093829 -3.4525376e-05
-0.08401532 0.056956615 0.025926096 0.01349049 0.005703775 -0.17300846 0.04018003 -0.13929164
-0.071708046 -0.120015845 -0.088585176 -0.08392647 -0.03598425 0.04325802 0.055696145 0.04161402
-0.031501397 0.022958647 -0.08418748 0.07389024 0.087916695 -0.22139972 -0.07396734 -0.05094249
-0.07004889 -0.007767464 0.06593173 -0.14068499 -0.076317176 0.043261748 0.029168872 0.0039687557
-0.04559767 0.07894378 -0.08352929 -0.13182488 0.00094332075 -0.0718422 0.040843595 -0.05616551
0.04345632 -0.033944435 0.027938627 -0.005035942 -0.017201982 -0.024948996 -0.060243506 0.026320927
-0.03440805 -0.17018172 -0.019344253 0.04660605 -0.037814617 -0.05160332 0.07584004 0.0386131
0.08079759 -0.1902314 -0.0040569813 -0.046909485 -0.16581118 0.002039507 0.041057255 0.060562156

model.2.bias f4 [64]
00000000: 5683 863d 8dae 6f3c 6332 b53d c3b0 a4bd
00000010: ad9e 16bd f2f6 04bd 2fb0 a73d 148d aabc
00000020: a009 d4bd b031 833d efa0 dbbc 91f2 633d
00000030: cf50 07bb 25f1 8ebd dbee 913d dc8f ea3a
00000040: 3ea4 803d bfda 8b3b 3dcb 70bd 9283 863d
00000050: 5a39 2abd 5602 9cbd 66b0 ebbb ed64 423d
00000060: 52f1 873a 3a67 97bd 425d b0bd ee69 8ebd
00000070: 38cf 323c 89e3 b93c 6043 a6bd a015 1ebd
00000080: 6d48 b1bd 3925 813d 5146 1e3d 872a 7f3d
00000090: e329 22bd aa3f 8d3d ff2e 4c3d 0004 263d
000000a0: 683f 18bd 5ade 9fbd d074 b3bc 8337 febb
000000b0: da59 0dbd 98d0 1c3d 46f2 133d a887 bdbc
000000c0: 9848 79bd 33c8 0e3d 0607 583d 00dc 77bd
000000d0: 35e2 a0bc 1214 593d 3c1b 35bc dd3c 80bd
000000e0: 216a 2fbd b67a 2fbd a9a1 ac3c d4f8 213d
000000f0: 48c7 083d 1df2 91bd a751 4fbd f1e3 c3bc
0.06568019 0.0146290185 0.08847501 -0.08041527 -0.03677242 -0.032462068 0.08187901 -0.020819224
-0.10353398 0.064059615 -0.026810138 0.05565125 -0.002064753 -0.069795884 0.07125636 0.0017895657
0.06281327 0.00426802 -0.058787573 0.06568064 -0.0415586 -0.07617633 -0.007192659 0.04745953
0.0010371602 -0.07392736 -0.086115375 -0.06953798 0.010913663 0.022691505 -0.081183195 -0.038594842
-0.08656392 0.06305928 0.038641278 0.062296417 -0.039590728 0.068969086 0.049849506 0.04053116
-0.037169844 -0.07806082 -0.021906286 -0.0077580824 -0.034509517 0.038284868 0.03611972 -0.023135975
-0.060860246 0.034858894 0.052741073 -0.060512543 -0.019639114 0.052997656 -0.011053856 -0.06261609
-0.04282582 -0.042841636 0.02107318 0.03954394 0.033393174 -0.071262576 -0.05061498 -0.023912402

model.4.weight f4 [4, 64]
00000000: 3921 8b3d 24ff df3d d4c9 ec3d fc2f 223d
00000010: 8e6e 9d3d 4235 d43d 1840 123d fe1f 723d
00000020: cc44 28be 76d6 883d 862f c93d 6ee3 bc3d
00000030: c8a3 f4bd c8a5 87bc 9896 72bd 0ef8 a1bd
00000040: cda9 873d 2553 383d 9882 843d edcc 6dbd
00000050: 36c9 b03d fcd3 6f3d a747 ecbc 8ebf ae3d
00000060: e0f2 a23d 4b6b e53c ea58 82bd 83ee a73c
00000070: 0cd5 4b3d 1a30 8e3d a219 f93d de61 9c3d
00000080: dc3a debd 1bd2 423c fa6e 00bc 2622 eaba
00000090: 995d 8bbd ba5c a0bd 7245 c63c 9170 b33d
000000a0: 3348 c93d 87ca 6d3d 5282 a93d 35c0 a4bd
000000b0: ce4d 0c3e c26b b53d a2fe 8ebd 18ae 853d
000000c0: 561e f5bd d5d1 ee3c 91e7 893c 83eb ab3d
000000d0: d0b8 c5bc c4ce 0ebc b8ae db3d bcec 393d
000000e0: 3a59 d33d fc87 f63a 556e edbb 0a7e 9b3d
000000f0: 5fb9 2d3c 3cf1 0dbd 8b4c e6bd 7e2f 98bd
00000100: 6fad c0bd 02d4 9f3c ef54 a9bd 38fb 353d
00000110: 6f6a b73d bddc 85bd 5be3 d73d b571 68bd
00000120: a431 783d fff0 94bd 0e9b 47bd 6e19 15bd
00000130: ee7f cebd 0e4b debd b605 063e 10f2 9f3c
00000140: b0d4 ff3d 812c cb3d 9837 22bd 7bb1 b6bd
00000150: add2 d13d 48ae ba3c 4a2d adbd 002e 833a
00000160: dce9 fe3d 5e1b 77bd 0ace debd b00b b23c
00000170: 7038 753c dc5a 303d 68a8 59bd 82f9 e0bd
00000180: cc6d bdbd cdd7 023d 5971 4e3c af54 9b3d
00000190: 4807 8fbd 2185 b93c f85d 28bd 403c 92bc
000001a0: 295c 4fba 20ac a33d 7f3a 35bd a0fa 4bbd
000001b0: c52d 85bd 50e2 61bd f0c8 bc3d 1081 d43c
000001c0: 9afc c8bd f4c7 9d3e 7c92 b7ba ddf7 91bd
000001d0: c649 e2bd a0b0 ae3c 1997 5e3c 401b 05bd
000001e0: 008d f1ba 0a6b 833d d062 b33c b025 6c3c
000001f0: c8a8 453d b42f 9abd d09d 863d 21d1 093e
00000200: 55f4 c63d 7204 4abe 123c 6f3d 981f 7fbd
00000210: 6fe4 8d3d 4878 743d b4a2 2ebe 0ede 853a
00000220: 81d9 f3bc 9bd4 ecbc c352 33bd d98e d2bd
00000230: aef7 bebd 70de ffbd 4ed7 353d 8033 423c
00000240: a7ae aa3b 8f62 93bd bec2 9c3d 037c bb3c
00000250: 281a 02bd f0c8 abbd 30aa cfbd 6e94 b1bd
00000260: e23a abbd 461f 60bc 8ce8 c93d b01d 68bc
00000270: 1eec e43d d62f 9abd f8e6 bcbd 22ca 3ebd
00000280: be36 93bd 0f1a 8fbc 1dd0 17bd f3f1 1b3d
00000290: d6b8 5bbd 10af a7bd 3caa 97bd 039e 49bd
000002a0: 46a4 cdbd e64c 76bd 4ad6 24bd e772 803d
000002b0: 3b7a 24be b28f 983d 125e af3d a8d8 073d
000002c0: dcbf 11bd 6108 a9bd 4f6d 5e3e 514a e73c
000002d0: b463 2dbd acb4 7e3d 59c7 a33d 88e2 dbbc
000002e0: dca5 fe3d 854b 08be ce7b f73d f4b8 04bd
000002f0: b480 5f3c bcd7 9c3d d0f6 f7bc 6281 1f3d
00000300: 3cbc c53d 253f bbbc 995a 043e 82e2 e13d
00000310: ddd9 8a3d 4e01 c1bd b783 9abd 4ba0 2f3d
00000320: 1d6b 3fbc e58b 863d 5007 e23d be3a aebd
00000330: 7869 5fbd 401b 7cbd 823e 93bd 3035 0f3c
00000340: 6189 16bd a2ea 15bd be4b aabd e16b 973d
00000350: 62f9 413d d075 323d bb30 9ebd 31b6 c8bd
00000360: 2817 853d 8f4d 103e 9e44 9b3d 604b 47bd
00000370: 28f0 d5bc f046 8dbc bc5b c33d f6fa 0c3d
00000380: 28dd 883c 5e3d 063d 376e a33c 89ce 2ebd
00000390: ad8a 3e3d 20fb d63c 9c65 623d 88a5 bd3d
000003a0: 665b 39bc e7a2 e43d 80b4 9e3d 4aec a9bd
000003b0: a8e7 453d ccc3 b33d 90b0 9a3d 0403 1dbd
000003c0: 1456 0a3d 2acf 58be fa95 2c3b 9d7b 003e
000003d0: ec01 e23d 2ee9 e73d d6a5 a13c a0c4 bdbd
000003e0: ec4b cbbd 702c b03d 88dc c3bd a0d4 45bd
000003f0: 8f81 263d 46c1 b53d 740e d63d e509 16bd
0.06793446 0.10937336 0.11561933 0.039596543 0.07687102 0.103617206 0.035705656 0.05911254
-0.16432494 0.0668153 0.098235175 0.09223066 -0.11945301 -0.016558543 -0.05922565 -0.07908641
0.06624184 0.045001168 0.06470221 -0.05805676 0.08632128 0.058551773 -0.02884276 0.0853263
0.07956481 0.028005263 -0.06364615 0.020499473 0.049763724 0.069427684 0.12163092 0.07635854
-0.1085107 0.011890913 -0.007838959 -0.001786296 -0.06804962 -0.07830186 0.024203036 0.08761705
0.09828224 0.058054473 0.0827681 -0.08044473 0.13701555 0.08858444 -0.06982161 0.065273464
-0.11968677 0.02915279 0.016834052 0.0839453 -0.024135977 -0.008716289 0.10726684 0.045391783
0.10319753 0.0018808837 -0.0072458186 0.075923994 0.010603278 -0.034653887 -0.11245068 -0.074309334
-0.0940808 0.019510273 -0.08268153 0.044429034 0.089558475 -0.06536243 0.105414115 -0.056749064
0.060594216 -0.07272529 -0.048731856 -0.036401205 -0.100829944 -0.10854159 0.13088116 0.019524604
0.12491739 0.09920598 -0.0396038 -0.089205705 0.10245261 0.022788182 -0.08455904 0.0010008216
0.12446949 -0.060328834 -0.108791426 0.021734089 0.014967069 0.0430554 -0.05313912 -0.1098509
-0.09249458 0.031944085 0.012600266 0.075845115 -0.06983811 0.022646489 -0.04110524 -0.017850995
-0.0007910156 0.079918146 -0.04424524 -0.04979956 -0.065028705 -0.05514747 0.09218013 0.025940448
-0.09813805 0.30816615 -0.0014005448 -0.07127354 -0.110492274 0.021324456 0.013585829 -0.03249669
-0.0018428862 0.064169005 0.021897703 0.014413282 0.048256665 -0.0752863 0.06573069 0.13458683
0.097145714 -0.19728258 0.058406897 -0.06228599 0.06928336 0.05968502 -0.17054254 0.0010213272
-0.0297668 -0.028909972 -0.0437801 -0.10281152 -0.09324585 -0.124935985 0.044394784 0.011853099
0.0052088085 -0.07196533 0.076543316 0.022886282 -0.031763226 -0.08387935 -0.101398826 -0.08670889
-0.083608404 -0.013679331 0.09858808 -0.014167234 0.11177848 -0.07528655 -0.09223741 -0.046579488
-0.071881756 -0.01746848 -0.037063707 0.038072538 -0.05364307 -0.081876874 -0.074055165 -0.049222957
-0.10041098 -0.06013193 -0.040243424 0.06271916 -0.16062252 0.07449283 0.08562864 0.033165604
-0.035583362 -0.08253551 0.21721385 0.028233679 -0.042331412 0.06218402 0.07997007 -0.026841417
0.12433979 -0.13310058 0.12084161 -0.032402948 0.013641525 0.076583356 -0.030269057 0.03894175
0.096550435 -0.022857258 0.12925185 0.11029531 0.067798354 -0.09424077 -0.07544654 0.042877477
-0.011683253 0.065696515 0.11036551 -0.08507298 -0.054543942 -0.061549425 -0.07189657 0.008740708
-0.03675211 -0.036600716 -0.08315228 0.07393623 0.04735697 0.043569386 -0.07724138 -0.09800375
0.06498557 0.14092086 0.07581447 -0.048655868 -0.026115492 -0.01724574 0.09538981 0.034419023
0.016707018 0.032773368 0.019950015 -0.042677436 0.04651897 0.026242793 0.055272684 0.09260088
-0.011313295 0.11163884 0.077492714 -0.08297022 0.048316628 0.0877758 0.07553208 -0.038332954
0.033773497 -0.21172777 0.002633451 0.12547155 0.11035523 0.11323772 0.019732397 -0.09266019
-0.0992659 0.08602226 -0.095635474 -0.048298478 0.0406509 0.088747546 0.104519755 -0.03663053

model.4.bias f4 [4]
00000000: 1ee1 92bd 559b 70bc 8b3e 603d 59e1 b1bd
-0.07171844 -0.014685472 0.054747146 -0.0868556
