checkpoints/checkpoint_ep300.pt (torch, 163021 bytes, 24 tensors)

model.0.weight f4 [128, 7]
000000 61 12 82 bf 7a 53 be bd 1c bf b1 3d 2c 15 e2 be
       -1.0161859 -0.09293266 0.08679029 -0.44156778
000010 55 f6 43 be 4d ed 86 3e 8d ba 7d 3e 1b 1e a8 bd
       -0.19136937 0.2635292 0.24778195 -0.08208867
000020 80 42 09 bf c5 56 7b 3d 85 5c 26 3c 59 e7 52 3e
       -0.53617096 0.061362047 0.010153894 0.20596065
000030 69 1c 1b 3e a4 23 27 3e 1e 49 fb 3e 38 84 70 3c
       0.15147556 0.1632219 0.4907922 0.014679961
000040 53 b2 48 be 71 fa c3 be 91 99 08 bf 91 c4 b1 be
       -0.19599275 -0.3827701 -0.53359324 -0.3472028
000050 16 99 78 bd 33 c8 29 be b1 14 88 be fa 07 36 3e
       -0.06069287 -0.16580276 -0.26578286 0.1777648
000060 6e 4e e2 bd f1 00 d1 3d 82 23 19 3e f4 74 14 bd
       -0.110501155 0.10205258 0.14954951 -0.036244348
000070 30 06 0a c0 1f 4f 70 bd 07 d5 c4 be 31 d3 60 3e
       -2.1566277 -0.058669206 -0.38443777 0.21955563
000080 04 21 a4 3e d2 e1 83 3e ee b4 ec 3d 13 be b3 be
       0.3205644 0.25758225 0.11557947 -0.35105953
000090 31 25 a6 3c c5 a4 46 be 3a 21 48 be 0e cf 71 be
       0.020281406 -0.19398792 -0.19543925 -0.23614141
0000a0 f5 ee 41 3e 21 85 75 3d a5 92 aa 3e bc b1 c6 be
       0.18938811 0.059941415 0.33315006 -0.38807476
0000b0 6a 80 37 3e 6a 52 4b be 59 0d 9b 3e 12 5c b6 be
       0.1792008 -0.19855657 0.3028362 -0.3561712
0000c0 48 d4 15 be f3 f1 04 3e d4 e1 ac bf 10 4d 1b bf
       -0.1463176 0.12982921 -1.3506417 -0.60664463
0000d0 a8 59 de 3d 07 2f 9c be 75 f9 ac bc 39 0c 2b be
       0.10856944 -0.3050463 -0.021115044 -0.16703881
0000e0 72 2e a0 be 5a 71 32 bd f7 fb f8 bb 89 bc 28 bc
       -0.31285435 -0.04356513 -0.007598396 -0.0102988565
0000f0 bf 2d 81 be f6 4b a7 3e e1 22 2d be f8 8d 25 be
       -0.25230214 0.3267514 -0.16907836 -0.16167438
000100 f7 9f 84 be 62 bf 85 3e c7 4a 59 be ad df f4 3a
       -0.25903293 0.26122576 -0.21219932 0.0018682383
000110 f5 b2 b0 be 52 28 97 be 1c 38 30 bd eb 86 df be
       -0.34511533 -0.2952295 -0.04302226 -0.43657622
000120 c9 1b 49 bb 94 63 1a 3f 8f 21 8b be 08 54 1d be
       -0.0030686727 0.60308194 -0.2717404 -0.15364087
000130 0e da 87 be 05 f0 c0 3d d1 23 9c bd 24 df 6a bf
       -0.2653355 0.0942078 -0.07624019 -0.91746736
000140 d6 76 c8 3c 8f 64 5f be 1a c3 81 be bb b0 3a 3d
       0.024470728 -0.21815704 -0.25344163 0.0455787
000150 2f 9e c6 3c cb 85 f0 bf 67 f9 b9 3e 43 9f d8 3d
       0.02424535 -1.879083 0.3632309 0.10577252
000160 ec 89 a9 3e 08 20 1b bf 88 d4 bf 3d e8 20 a7 be
       0.3311304 -0.6059575 0.09366709 -0.32642293
000170 5d 78 b9 3b 18 3c 4b 3e fb a5 e0 3d 61 fa 00 3f
       0.0056601004 0.19847143 0.10969158 0.5038205
000180 a1 c3 ce be a0 36 20 be eb d5 8a be 9b b9 54 be
       -0.40383628 -0.15645838 -0.2711633 -0.20773928
000190 8a 84 9a 3d 2c d2 92 3e 9d 32 f5 3e 8a 9a d0 3b
       0.07544811 0.28675973 0.47890177 0.0063660787
0001a0 27 e1 a7 be 42 4e 96 3e 56 d6 01 3c 2e af a3 3e
       -0.32788965 0.2935658 0.007924637 0.3196959
0001b0 78 c5 4d be cd ec e6 3e 0b 54 36 bd e7 b3 8d bd
       -0.2009486 0.4510254 -0.044513743 -0.06919079
0001c0 cd 37 f7 bb a1 e9 a3 be 53 e9 89 be bf d5 8c be
       -0.007544494 -0.32014182 -0.26935825 -0.27506825
0001d0 86 96 43 3e c2 46 cc 3e f7 a6 38 be 99 94 91 be
       0.19100389 0.39897734 -0.18032442 -0.28433684
0001e0 c9 4f 45 be 86 e1 93 3e a4 4b ac bd eb de 31 3e
       -0.19268717 0.28882998 -0.08412865 0.17370193
0001f0 f5 c6 71 3e 6b 3e 68 be c2 4c be 3e af 0d ce bc
       0.23611052 -0.2268006 0.37167937 -0.02515301
000200 83 d3 3e bf 84 fc 52 3e ac 10 61 3e 62 75 73 be
       -0.7454149 0.2060414 0.21979016 -0.23775247
000210 e6 c2 82 3e 8b 0c e0 3e 58 02 38 be 1d 87 44 bd
       0.2553932 0.4375957 -0.17969644 -0.047980417
000220 37 ba 86 3e 22 00 26 3e ab 8c 19 bd 82 65 a1 3d
       0.26313946 0.16210988 -0.037487667 0.07880689
000230 9c 40 ce bd 24 74 20 bf b4 8f e2 3c 9b d2 9f bd
       -0.10070917 -0.62677217 0.027656414 -0.07803842
000240 f4 d4 c1 be d4 2d db bd 43 d8 fe 3c 79 f4 19 3e
       -0.37857783 -0.107021004 0.031108981 0.15034665
000250 4d ed f5 3e 86 78 bf be 29 c6 a6 bd 31 8c 59 3e
       0.4803261 -0.3739664 -0.08143265 0.21244885
000260 fc 81 c8 3d 3d 86 d2 bc a3 2a 17 3f c9 ed ac bd
       0.097904176 -0.025698775 0.59049433 -0.084437914
000270 56 11 db be 4a 5e 4f bd 21 c2 be 3e 84 0a 82 3c
       -0.42786664 -0.05062703 0.37257484 0.015874155
000280 f0 fd ce be 31 7e b1 3e 0e 7e e0 be 6b ef 79 3e
       -0.40428114 0.3466659 -0.43846172 0.24407737
000290 50 e3 1e 3e c6 8f 44 be c1 ff 5d be d3 68 f5 be
       0.155164 -0.1919547 -0.21679594 -0.47931537
0002a0 54 44 06 3f d7 56 28 bf 3d 0e 6a bd 55 66 bc be
       0.5244801 -0.6575751 -0.057142485 -0.36796823
0002b0 25 8d ab 3e a5 cd de bd 9c e1 b1 3e 92 71 d9 be
       0.33506122 -0.10879067 0.3474244 -0.4246946
0002c0 48 7b 95 3d 72 85 11 bd 62 d5 34 bf c6 72 53 3e
       0.07298905 -0.035527654 -0.70638096 0.20649251
0002d0 67 d8 d6 3e 70 97 93 3e 5e dc d4 3d 2d c4 5b be
       0.41961977 0.28826475 0.10393594 -0.21461554
0002e0 30 8e 50 be fa e2 a1 bd 12 26 61 bc 3e 37 ec bd
       -0.2036674 -0.079046205 -0.013741987 -0.11533974
0002f0 d6 4d 1c be 04 e0 81 3c 42 83 bc be 77 69 98 3e
       -0.15264067 0.01585389 -0.36818892 0.29767963
000300 a9 9e 81 3e 62 d2 d9 3e 24 b3 cc bd 4f 0c ba bd
       0.2531636 0.42543322 -0.09995106 -0.09084379
000310 c2 3a 39 bf 93 33 93 3e fb 97 12 be 70 e8 d5 3e
       -0.7235528 0.28750286 -0.14315788 0.41778898
000320 95 1c 43 3e 20 3f ca be 8c b8 e3 bc ac a3 7e 3e
       0.19053872 -0.39501286 -0.02779796 0.24867123
000330 6d 35 0e be 94 8f 32 3e bf 2b d9 be 70 ec 00 be
       -0.13887568 0.17437583 -0.42416188 -0.12590194
000340 9a 14 98 be 2f a7 37 3e 16 98 f0 bf c1 16 d3 3e
       -0.29703218 0.17934869 -1.8796413 0.41228297
000350 22 e5 d7 3e 27 f5 a3 3d ef 7f 20 be 26 08 5d 3e
       0.42167002 0.080057435 -0.15673803 0.2158514
000360 0f fb 08 3d 42 c4 5a 3e eb 1d 27 3e 7d 30 8b be
       0.033442553 0.21363929 0.16320007 -0.2718543
000370 bb 40 ce 3d 4c 6f 7b 3e 70 95 b6 bd 0d b0 03 bf
       0.1007094 0.24554175 -0.08915222 -0.5144051
000380 74 63 e2 bd 8c 5a 81 3d c7 53 5d 3e 2e 7c 64 be
       -0.110541254 0.063160986 0.2161399 -0.22312996
000390 20 17 db be 3d 42 66 3e b9 fe ed 3d d0 cc 63 3e
       -0.4279108 0.22486205 0.1162085 0.22246099
0003a0 b0 0a e7 bd ea cd 9e be df cc 07 be e5 0d 3b 3d
       -0.11281335 -0.31016475 -0.13261746 0.045667548
0003b0 01 16 11 3e 99 34 dc 3e 33 45 1d 3e 61 23 df 3e
       0.1416855 0.4300888 0.15358429 0.4358168
0003c0 57 dd 74 3e bd 55 87 be c3 49 50 bf 41 7c 2c bf
       0.2391256 -0.264326 -0.8136255 -0.67377096
0003d0 e6 63 b8 3d 60 a6 39 3e ad f9 54 bf 59 b2 90 3d
       0.09003429 0.18129873 -0.83193475 0.07065267
0003e0 5c 2d 9c 3d 14 2f 95 be 94 b0 f8 bd f9 90 03 3f
       0.07625839 -0.2913748 -0.121430546 0.51393086
0003f0 11 14 54 bd a4 8c 62 bf c9 e5 26 3d f5 7b 94 3b
       -0.05177695 -0.8849585 0.040746484 0.0045313784

model.0.bias f4 [128]
000000 4c f8 05 3e 05 5b 44 3e 8d 3c 08 be ed 5a b7 be
       0.13082999 0.19175346 -0.13304348 -0.35811558
000010 f5 e4 32 3e c0 e1 af be 45 e7 9c be 76 a9 3c 3d
       0.17470153 -0.3435192 -0.30645195 0.046060048
000020 3a 4a 2a be 26 0d 6e be 8f 1b bc bb e1 4a 76 3e
       -0.16629878 -0.23247203 -0.00574059 0.24052002
000030 2b 82 06 be a5 d2 dd 3d 83 76 ee 3b 07 e5 cc be
       -0.13135593 0.10831193 0.0072773113 -0.40018484
000040 6f 70 9d bc da 00 c8 3d 7e fd 02 3d 38 c4 1b bf
       -0.019218652 0.097657874 0.03198003 -0.6084628
000050 ac 95 7d 3d e6 6c 3d 3c 69 14 cb be cc d7 94 bd
       0.061910316 0.011561608 -0.3966401 -0.072677225
000060 bc c7 9d 3d 37 4d b3 3e cd b4 b6 be 7e 2e 5c be
       0.07704112 0.35019848 -0.35684815 -0.2150211
000070 8b 0e 74 be 7e 75 02 3e 23 c2 c0 be d2 74 66 be
       -0.23833673 0.12740132 -0.37648115 -0.22505501
000080 d1 3a e3 be 13 1c 69 3e 46 88 84 bd ff be 4f 3d
       -0.4438081 0.22764616 -0.064713046 0.050719257
000090 c3 48 f1 3d 7b ca ce 3d 22 6f 9b be 04 bd 7a be
       0.11781456 0.10097214 -0.30358225 -0.24486166
0000a0 8f 02 f3 bc f9 56 ab be 56 3c bd 3d 94 60 49 be
       -0.029664306 -0.33464792 0.09240024 -0.19665748
0000b0 49 59 46 3e 45 c0 f5 bd 16 78 6c bd ae c1 9b 3c
       0.19369997 -0.11999563 -0.05773171 0.019013252
0000c0 39 af e4 3d 8b 4b f0 bd 9f a2 18 3e fa 82 6c be
       0.111662336 -0.11733159 0.14905785 -0.23096839
0000d0 a7 36 88 3e 44 ae 72 be c2 86 9f 3e 14 64 27 be
       0.26604196 -0.2369929 0.311575 -0.1634677
0000e0 c4 cf 3b be 65 5f 94 be e0 53 eb be 8e f2 01 3e
       -0.18340975 -0.2897903 -0.4596243 0.12690184
0000f0 c6 c0 fb 3d e7 5f 9a 3d c7 be 28 be b3 02 1a be
       0.12292628 0.07537823 -0.16479026 -0.15040092
000100 dd 35 73 be 3d 90 fb be 75 12 db bd 3d fd 78 be
       -0.23751016 -0.49133483 -0.1069688 -0.24315353
000110 50 21 69 be 0c 62 5e be 6f c7 b8 3c 7f fd 2b 3e
       -0.22766614 -0.2171709 0.022556035 0.1679592
000120 73 b3 36 3e 32 3e d1 be 01 02 3c 3d af 0e 09 be
       0.17841892 -0.40867764 0.04590035 -0.13384508
000130 6e d8 92 be a9 ca 6e be 9b 57 99 39 46 ee 6d be
       -0.28680748 -0.23319496 0.00029247705 -0.23235425
000140 b8 9d 94 be d7 4b f6 bd e9 9b af be 45 2a 39 be
       -0.2902658 -0.12026184 -0.34298638 -0.18082531
000150 0e 17 3e be 6b 83 e3 3b 69 ff 09 3d 65 cf d3 bd
       -0.18563482 0.0069431565 0.033690844 -0.10342292
000160 b8 91 ef 3d 83 80 8a be bf 80 e5 bd 6f a4 02 3d
       0.116977155 -0.27051172 -0.11206197 0.031895097
000170 f3 45 91 be ac 7e 9f bc 71 d4 f9 3c fd eb ad be
       -0.2837368 -0.019469582 0.030496808 -0.33969107
000180 63 83 9f be e5 f8 ce bd d1 e7 fb bd 7f 39 9e be
       -0.31154928 -0.101060666 -0.12300075 -0.3090324
000190 d8 d6 9a 3d 7f 75 aa bd 32 49 cc be 99 a0 07 3e
       0.075605094 -0.08323192 -0.39899594 0.13244857
0001a0 eb bd 15 be 34 7c 6e be 75 6d 42 3e 4e 50 35 3e
       -0.14623229 -0.23289567 0.18987067 0.17706415
0001b0 8c 1a c9 be 70 5b 39 be fd 57 47 be 6d f7 56 be
       -0.39278066 -0.18101287 -0.19467159 -0.20992823
0001c0 92 08 7a 3e f5 1c dd bd 12 b5 a2 3a 26 6c bf 3c
       0.24417332 -0.10796539 0.0012413582 0.023366999
0001d0 27 36 7e 3e b3 8e 2f 3d 02 a9 b3 3d 70 d9 4d 3d
       0.24825345 0.042860698 0.0877247 0.050256193
0001e0 e1 8f a2 3e 8d 60 22 3e 58 cc 8f 3e 59 50 d3 3d
       0.31750396 0.15857144 0.2808559 0.103180595
0001f0 dd 90 1b 3c ab 0b 5b be 7c 92 2b 3d b8 1e 9c bd
       0.009494987 -0.2139117 0.041887745 -0.07623047

model.2.weight f4 [64, 128]
000000 b8 37 c7 be 7d aa ba be 8a f4 47 be f5 9c 13 bd
       -0.38909698 -0.36458197 -0.19526878 -0.036038358
000010 04 2a 50 bf 70 a9 9b bd 2d 0b 08 3e 6f 04 37 3e
       -0.8131411 -0.07600677 0.13285513 0.17872785
000020 a9 c5 f1 bb d7 ee d4 bc 4c ed 4b 3e e4 df fc bd
       -0.0073782993 -0.025992794 0.1991474 -0.12347391
000030 3c ad 47 3e fb c0 6e 3e 83 ff 18 3d ab f8 42 bc
       0.19499677 0.23315804 0.03735305 -0.011900107
000040 8d 40 8e 3c 5e 86 e7 bd 23 2e 6f bf 0e b9 3c bf
       0.017364765 -0.113049254 -0.93429774 -0.7371987
000050 e3 ba 21 be 06 44 24 3c fd 67 9e be 85 f7 78 be
       -0.15793948 0.010025984 -0.30938712 -0.24313171
000060 5a 2b 23 bf 77 bc d8 3d 80 0e ae bd 28 9e 55 bd
       -0.63738024 0.10582822 -0.084988594 -0.052152783
000070 0f 97 e2 3d de e7 74 be b3 80 5d be f8 1e d9 bd
       0.110639684 -0.23916575 -0.21631126 -0.1060161
000080 ed 89 8c 3d 41 63 f1 be af 6d 9a 3e a8 a0 a6 3e
       0.06862245 -0.47146037 0.30161807 0.32544446
000090 5a 05 86 be 03 7b 10 bf 30 0c 26 3e 70 b1 64 bd
       -0.26175958 -0.564377 0.16215587 -0.05583328
0000a0 7e 27 bf be 12 bc 9b 3d 77 f3 30 3e 6f 95 15 3d
       -0.37334818 0.07604231 0.17280374 0.036519464
0000b0 db 78 50 3d 8f 90 05 bf dd 12 ce bd d0 7f 3a 3d
       0.050896507 -0.52173704 -0.10062192 0.045532048
0000c0 66 99 81 3e 55 3c 89 3e b2 6c 95 be 21 ef 88 be
       0.25312346 0.26803842 -0.2918449 -0.2674494
0000d0 74 77 a6 be 3e 93 a2 bd f3 d1 dc be fa e8 34 be
       -0.3251301 -0.079382405 -0.4312893 -0.17666999
0000e0 53 b4 bc be 1e cc 8a 3d e0 10 21 3e 96 4b 7d be
       -0.36856326 0.067772135 0.15729094 -0.24735865
0000f0 67 c8 76 bd 1e 77 e1 bd 99 b4 68 be 93 c2 9e 3c
       -0.060249712 -0.11009048 -0.22725143 0.01937989
000100 3c 97 7e bd 3f 7b 83 be 7a 15 6d bf e1 ca 8a bc
       -0.062155947 -0.25679967 -0.92610896 -0.016942443
000110 d6 1c 4d 3e 91 50 e2 bd be f6 92 be 70 0c f9 bd
       0.20030531 -0.11050523 -0.28703874 -0.121605754
000120 20 d0 6d 3e 78 17 91 be 83 20 04 3e 5a df d8 bc
       0.23223925 -0.28338218 0.12903027 -0.02647369
000130 9f 45 de 3d 1e 91 97 bd d5 42 e9 3d ad 52 33 3d
       0.10853123 -0.07400726 0.113897 0.043780018
000140 05 5d bd 3d 19 3b 61 3e a0 b3 09 3d 4e ad 48 3d
       0.09246258 0.219952 0.03361857 0.0489934
000150 c0 1c 86 bd a7 1d 75 be aa bb be 3d c7 c9 f9 bd
       -0.065484524 -0.23937093 0.09313138 -0.12196689
000160 ac 55 4a 3e b8 d8 22 3c a8 ba 21 bf a1 52 36 be
       0.19759244 0.009939365 -0.6317544 -0.17804958
000170 03 d6 5a 3e 2b b5 d8 be cb 6a db 3d 82 bb 7c bf
       0.21370701 -0.4232572 0.107137285 -0.98723614
000180 04 75 e4 bd 58 bd 83 bd 3f 55 06 3f 19 58 30 be
       -0.111551315 -0.06432599 0.52473825 -0.17221107
000190 ff 11 a7 be 43 91 b9 3d 0d 70 a5 3c 60 40 96 be
       -0.32630917 0.090609096 0.020195032 -0.2934599
0001a0 1d 38 7b 3d eb 57 bc 3d 14 07 8d 3d 33 b7 93 bd
       0.06133281 0.091964565 0.06886116 -0.07212677
0001b0 3d 91 12 3d 6d ac 14 3f 24 a9 6c be 12 fb d2 3c
       0.03578304 0.580756 -0.23111397 0.025754485
0001c0 bc f8 08 be a3 29 7b 3e 34 c9 13 be b4 56 de bd
       -0.13376135 0.24527602 -0.14432222 -0.10856381
0001d0 f3 41 1a bf 66 ad e8 bd 47 74 52 be 86 00 2b bf
       -0.6025688 -0.11361198 -0.20552169 -0.66797674
0001e0 a0 f5 ee be 94 21 a5 3e 35 8c 8e be 9e 3c 34 bc
       -0.46671772 0.3225218 -0.27841344 -0.01100078
0001f0 1f ff d8 3d b2 bc c8 bc 4b c0 19 bd c1 a1 8a be
       0.105955355 -0.02450404 -0.0375369 -0.27076533
000200 4e ac b1 3e 26 b8 4b bd 94 27 c5 be f6 14 2a bd
       0.3470177 -0.049736165 -0.38506758 -0.041523896
000210 19 90 02 be 42 73 df bb 72 83 8c be 8f e9 90 3e
       -0.12750281 -0.0068191597 -0.27444035 0.2830319
000220 52 a0 82 bd 8f cd 76 bd eb f8 5d 3d 83 66 90 be
       -0.06378235 -0.06025463 0.054192465 -0.2820321
000230 30 2f 39 be 01 5e f7 3d 04 3f 92 3d 5a ab 1b bf
       -0.18084407 0.12078477 0.071409255 -0.60808337
000240 44 6e d3 bd ab 90 b2 3d e7 14 3e be f8 ef c9 3e
       -0.10323766 0.087189995 -0.18562661 0.39440894
000250 9b fe a8 bd 77 73 81 bd 36 e3 82 bf 5a dc c5 3e
       -0.08251687 -0.06320851 -1.0225589 0.38644677
000260 c4 da 95 be 49 c9 29 be f2 a7 59 3d 6a f9 62 bc
       -0.29268467 -0.1658069 0.05313868 -0.01385341
000270 dd 70 98 3e 4a 7e f6 3d b4 bf 78 bf 45 82 02 bf
       0.29773608 0.120358065 -0.97167516 -0.50980026
000280 5f 9b ac bc 17 f7 a6 3d d9 88 c3 3d 3b 7c 1c bf
       -0.02107018 0.081525974 0.09547586 -0.6112706
000290 79 7f d3 bd f0 81 2f bc 72 90 52 3f c6 10 b9 bd
       -0.10327048 -0.010712132 0.82251656 -0.090364024
0002a0 2d b1 d5 3d 46 c8 ad bf 3e d2 66 be 6f a1 dc bd
       0.10434184 -1.3576744 -0.22541139 -0.107729785
0002b0 88 55 b7 bd b0 15 6f 3d 67 d5 41 bd ea 60 a2 bf
       -0.08951861 0.058370292 -0.047322657 -1.2685826
0002c0 f3 2e 2b bd f2 d3 71 bf db 17 96 bd 3c 44 21 3e
       -0.04179282 -0.9446403 -0.07328769 0.15748686
0002d0 39 10 b7 3c 23 4c 35 bd 13 00 ce be 52 b9 e5 3d
       0.022346603 -0.044262063 -0.40234432 0.11216988
0002e0 9f e0 13 3b a7 ce f0 bc 9b 7d b8 bb 65 26 ec 3d
       0.0022564305 -0.029395415 -0.0056302077 0.11530761
0002f0 5a 73 4b bb 2f 70 13 bd de 33 3f ba 60 99 1d bd
       -0.0031044097 -0.03599566 -0.00072938006 -0.038476348
000300 39 10 ac bd 26 c0 c1 3c b3 f8 4f 3d 37 07 5d 3c
       -0.08401532 0.023651194 0.050774287 0.01349049
000310 d0 10 46 3d 11 12 b3 be 55 e8 6f bf d4 d9 db 3d
       0.048355877 -0.3497472 -0.93713886 0.10734907
000320 aa 4a e0 3e de 0c 07 bf fc 7e d7 3d b3 a2 b9 bd
       0.43806964 -0.5275401 0.10522267 -0.090642355
000330 b5 2a 2d bf 34 df 04 3e 90 36 03 3e 76 73 2a 3d
       -0.6764329 0.1297577 0.12813783 0.04161402
000340 7b f1 c0 3c 83 cf 03 3e 7c 6a ac bd c4 53 97 3d
       0.023552647 0.12872128 -0.08418748 0.07389024
000350 ab 0d b4 3d 8f 6c 29 bf 5b 87 27 bf e9 f5 bf bd
       0.087916695 -0.6618127 -0.6544091 -0.093730755
000360 b3 4e ac be 36 86 fe bb 9e 3a c7 bd 40 1e 44 bc
       -0.33653793 -0.007767464 -0.09727977 -0.011970103
000370 4f 1e a6 3c 71 50 62 be ff 13 2c bd 86 da 18 be
       0.020278124 -0.22100998 -0.042011257 -0.1492711
000380 9f c4 3a bd b6 7a c3 bc 7f 6c f2 bd 07 b4 97 bf
       -0.04559767 -0.023862224 -0.118371 -1.1851815
000390 4a ea 18 bf a2 4f b7 3e 9d 4b 27 3d a6 d1 62 be
       -0.59732497 0.35802943 0.040843595 -0.22150287
0003a0 1b dd 09 3f 57 af 18 3d 4b 16 2e be 16 54 04 3e
       0.53853005 0.037276592 -0.17000692 0.12922701
0003b0 2c eb 8c bc 10 62 3c 3f 43 aa a9 be fc 9e d7 3c
       -0.017201982 0.7358713 -0.33137712 0.026320927
0003c0 c5 5d 34 3c 33 6c 42 bd 1f f9 c1 bd e8 45 ac 3d
       0.0110086845 -0.047466468 -0.09471344 0.08411771
0003d0 9e eb 8e bf 23 89 31 be 2f c0 09 be ab 64 f5 3d
       -1.1165655 -0.1733747 -0.13452218 0.119820915
0003e0 93 28 bd bc 87 e5 0d bf 23 9f 85 bc 41 9f 23 3d
       -0.023090636 -0.55428356 -0.016311234 0.0399468
0003f0 c0 f9 19 3e 3f 92 15 bc 40 bb 79 3d 20 b7 0b 3c
       0.15036678 -0.009129106 0.06096959 0.008527547

model.2.bias f4 [64]
000000 34 08 0b 3e c1 88 35 3e 4d ab bc 3d 5b 34 d6 bd
       0.13577348 0.17727949 0.092123605 -0.10459205
000010 c1 85 9e 3d 3d 71 56 bd 76 34 5d 3e d8 7e 66 bd
       0.07740355 -0.052354086 0.21602044 -0.05627331
000020 45 fc fb bd 70 7c 2e 3e cb 7f e2 3c 4c 24 89 bc
       -0.12303976 0.17039657 0.027648827 -0.01674094
000030 b8 ca 74 bd 80 dc b9 bd 93 42 e8 3d fd 10 5c bd
       -0.05976364 -0.0907526 0.11340823 -0.05372714
000040 8f fb 6d 3e 19 da 93 bd ca 0d cc bd aa d8 5b 3e
       0.23240493 -0.07219333 -0.099635676 0.2146937
000050 57 04 a2 3d 11 f1 f4 bd 66 00 1f bd 54 ae c9 bb
       0.07910984 -0.11960042 -0.03881874 -0.0061548147
000060 f1 38 f4 bc ce aa 8a 3d 42 5d b0 bd ee 69 8e bd
       -0.029812308 0.0677086 -0.086115375 -0.06953798
000070 6a 73 d3 bc 9a 43 fd bc 60 43 a6 bd 8b 67 36 bd
       -0.02581187 -0.030916024 -0.081183195 -0.04453234
000080 6d 48 b1 bd 0e 82 21 be 82 d9 fe bd 5d 27 92 3e
       -0.08656392 -0.15772268 -0.1244383 0.28545657
000090 e3 29 22 bd 2e ca 04 3e 2d 9d 86 bb 02 e4 bf bc
       -0.039590728 0.1296775 -0.0041080923 -0.023424152
0000a0 60 04 12 3d 26 25 cb bd 6a 62 95 bd f2 f6 62 bd
       0.035648704 -0.09919195 -0.072941616 -0.055411287
0000b0 3f bd 13 3e 4c 50 03 ba 3c 10 d9 3b 5e 01 ed bc
       0.1442766 -0.00050092186 0.0066242497 -0.028931316
0000c0 a8 b5 b4 bd 02 6a 71 3c 9f d8 ca bd 99 00 26 3c
       -0.08823711 0.014734747 -0.099045984 0.010131978
0000d0 9c 43 44 bd 24 e0 cd 3d 7f 6c 6b bd 9c 18 d1 bd
       -0.04791604 0.10052517 -0.057476517 -0.10209772
0000e0 26 7a 7f bd 86 1d 28 3e 75 73 ee bd 91 7f 07 bc
       -0.06237235 0.16417512 -0.116431154 -0.00827016
0000f0 e6 37 35 bc 34 15 e1 bd 56 4e 78 be 5a 9f ef bb
       -0.0110606905 -0.10990372 -0.24248633 -0.0073126974

model.4.weight f4 [4, 64]
000000 98 ef d9 3e 24 b6 82 3e cc 14 92 3e 92 fc 0d bc
       0.42565608 0.25529587 0.28531492 -0.0086661745
000010 3b 86 2e 3e 40 4b c7 3d 96 79 7b 3e fe 1f 72 3d
       0.17043392 0.0973115 0.245581 0.05911254
000020 d0 6a 18 be 7e f2 6b 3d b3 b7 8b 3e f6 68 0c 3d
       -0.14884496 0.057604305 0.2728859 0.034279786
000030 e7 d1 b6 bd 63 ba b9 bb 75 d3 9e 3e 39 59 6e bd
       -0.089267544 -0.005667971 0.31020704 -0.058190558
000040 fb 74 2a 3e 8b 04 4e 3e 1c ca 8f 3d 5a 53 87 bd
       0.16646187 0.2011892 0.07020971 -0.06607695
000050 c0 cf 9f 3e 3d 7f e4 3c 3d 40 ec bc c5 2b 8e 3d
       0.31213188 0.027892703 -0.028839225 0.06941942
000060 e0 f2 a2 3d 7b bb 9a 3e ea 58 82 bd 83 ee a7 3c
       0.07956481 0.3022116 -0.06364615 0.020499473
000070 30 cd b7 3d 3c 1a bd 3c a2 19 f9 3d 7b c8 97 3d
       0.08974683 0.023083799 0.12163092 0.074112855
000080 dc 3a de bd 80 81 b6 bd 6e 58 5e bf 71 db 84 3e
       -0.1085107 -0.08911419 -0.86853683 0.2594867
000090 99 5d 8b bd a1 94 8a 3e 72 45 c6 3c 35 97 b0 3d
       -0.06804962 0.2706652 0.024203036 0.086225905
0000a0 1f 0c 4f be 77 dd 15 3d b9 85 00 3f a0 96 28 bc
       -0.20219468 0.03658816 0.50204045 -0.010289818
0000b0 72 0b 31 3d c1 10 5d 3d a2 fe 8e bd 7c 3a bb be
       0.043223806 0.053971056 -0.06982161 -0.36568058
0000c0 7c 3d f1 bd 2d a9 95 3d d9 fb b1 3e 89 27 83 3d
       -0.11779305 0.07307658 0.34762457 0.06404025
0000d0 67 fa d4 3c 0d 8a 64 bd ab f9 0c 3e a3 cd 53 3c
       0.025998307 -0.055795718 0.13767116 0.012927446
0000e0 bb 8e 9e 3d 0d 02 49 3e 92 55 95 3e ad ab 42 3d
       0.077420674 0.19629689 0.29166847 0.047527004
0000f0 54 74 d9 3c 7b 6e c1 3c 2e ed 3a bf c6 74 47 3e
       0.026544727 0.023612252 -0.7301816 0.1947814
000100 5b d6 02 3f f1 9e da 3a 32 91 10 3e b7 c9 d0 3b
       0.5110833 0.0016679448 0.14117888 0.0063717025
000110 6a 4e 15 3e de 25 0b bd 3b 51 6a 3e 5d 6d 68 bd
       0.14580694 -0.03397166 0.2288255 -0.056744922
000120 0e c7 60 3d cb 39 2e 3e 58 4c b3 3e 64 d6 80 3c
       0.054877333 0.17014234 0.35019183 0.01572723
000130 c8 d2 fb bd 87 a5 de bd 7e 08 a0 3e 08 68 67 3d
       -0.12296063 -0.108714156 0.3125648 0.056495696
000140 a4 65 31 3e 61 91 80 3e 46 98 8b bd 28 e3 d9 be
       0.17323929 0.25110915 -0.06816153 -0.4255612
000150 1c 59 82 3d 87 3f b4 bc 9a 19 ad bd 85 79 49 3c
       0.063646525 -0.022002948 -0.08452149 0.012297039
000160 dc e9 fe 3d b2 5c 4c bf 0a ce de bd b0 0b b2 3c
       0.12446949 -0.7982894 -0.108791426 0.021734089
000170 b1 92 bc bb a0 80 1b bd 68 a8 59 bd 32 79 d7 bd
       -0.0057547917 -0.037964463 -0.05313912 -0.10521163
000180 cc 6d bd bd 5f a0 47 be 40 1a 72 3e c6 f1 83 3e
       -0.09249458 -0.1949477 0.23642826 0.25770396
000190 48 07 8f bd 2c 28 2f 3e f8 5d 28 bd 0d 96 91 bc
       -0.06983811 0.17105168 -0.04110524 -0.017771745
0001a0 60 57 8b bf 9b bb 97 3d a4 60 d9 3e 7a fb a7 bb
       -1.088604 0.0740883 0.42456543 -0.005126414
0001b0 50 82 d0 bd f4 bc 99 bd f0 c8 bc 3d 22 dc 33 bf
       -0.10181105 -0.07506743 0.09218013 -0.7025777
0001c0 9a fc c8 bd d0 ac ff 3e 11 17 83 3e 66 1c d9 be
       -0.09813805 0.49936533 0.25603536 -0.4240448
0001d0 34 6a e9 bd b6 3a ba 3a 25 b1 83 3e 44 14 eb bc
       -0.1139721 0.0014208171 0.25721088 -0.028696187
0001e0 a7 97 1f 3c 9a 70 95 3e f7 8f a8 3e f0 9d 54 bc
       0.009740747 0.2918747 0.32922336 -0.012977108
0001f0 f9 d2 10 bc dd ff 8f 3e 19 1e 38 3d a2 cf d9 3d
       -0.008839362 0.28124896 0.04495058 0.10635306
000200 e1 34 a2 3e b9 f9 e2 3c 31 3d 0d be ac 4d 93 bc
       0.31680968 0.027706968 -0.13792874 -0.017981373
000210 76 37 c3 3d 2c 61 03 3d 17 9c 93 3e 0e de 85 3a
       0.09532063 0.032075092 0.28830025 0.0010213272
000220 f8 1a 0a bc f5 6e 98 3e 2f fc eb 3e ee be 94 bd
       -0.008429281 0.29772153 0.46090838 -0.072629794
000230 3f 0e 70 bd 04 c9 d6 bd ba 33 f7 3e 4a ea 6b bc
       -0.058607336 -0.104875594 0.48281652 -0.014399121
000240 e9 eb 58 3e a3 40 ae 3e a0 61 86 3a 0f 61 3b be
       0.21183743 0.3403369 0.0010252483 -0.18298744
000250 ab 25 cc 3d 96 6b b2 bd 30 aa cf bd 6e 94 b1 bd
       0.09968122 -0.08711927 -0.101398826 -0.08670889
000260 e2 3a ab bd cd ed 83 bf 8c e8 c9 3d b0 1d 68 bc
       -0.083608404 -1.0306946 0.09858808 -0.014167234
000270 8d 84 ab 3d 05 c9 2f bd f8 e6 bc bd c6 83 1c bd
       0.083748914 -0.042916317 -0.09223741 -0.038211606
000280 be 36 93 bd 2b 5f 17 bf f6 8b 0b 3f 22 1a ad 3e
       -0.071881756 -0.5912959 0.5451044 0.33809
000290 d6 b8 5b bd d7 81 f6 3d 3c aa 97 bd 56 7f 02 bd
       -0.05364307 0.12036484 -0.074055165 -0.03185972
0002a0 33 f9 18 be 13 cc be bc b9 30 e3 3e 6b 8c 32 3d
       -0.14938812 -0.02329067 0.4437311 0.043590944
0002b0 37 5a e6 be 1e b5 ad 3d 78 54 ad 3d 18 92 51 3e
       -0.44990703 0.08481811 0.08463377 0.20465887
0002c0 dc bf 11 bd b3 85 5f 3e 9b ea 45 3e dd 11 00 bf
       -0.035583362 0.21828346 0.19327776 -0.5002726
0002d0 b9 84 89 3c 61 17 68 3d da 5a 4d 3e dd b5 7a bd
       0.01678692 0.05666292 0.20054188 -0.061208595
0002e0 ad 9e ce 3d 29 dc 13 3d 72 9a da 3e 92 72 db bb
       0.10088859 0.036098633 0.42695957 -0.0066970075
0002f0 51 7f 81 bc 10 4c da 3e a6 dc c8 bc 2d a1 08 3e
       -0.01580778 0.42636156 -0.024519276 0.13342734
000300 15 0a bf 3e bc a3 00 3e d4 52 4f 3e e1 83 a2 3d
       0.3731238 0.1256246 0.2024644 0.0793531
000310 8d 02 47 3e 95 fe 80 bd 34 5c 91 3e 23 23 24 3d
       0.19434567 -0.06298558 0.28390658 0.04007257
000320 75 b7 51 bc c5 4b 25 3e 39 c9 fb 3e cd fe e1 bd
       -0.012800087 0.16142185 0.49176958 -0.110349275
000330 24 fc 82 bc 88 61 2f bd 21 cf da 3e 99 8a 16 3c
       -0.01598937 -0.042817622 0.42736152 0.009188318
000340 ec 4d 66 3e 81 b2 48 3d 3d 3f 05 bd c2 5f 82 3e
       0.22490662 0.04899836 -0.03253101 0.25463682
000350 b2 ae db 3c 5e b0 4b 3d f5 82 9d bd a0 90 96 bd
       0.0268167 0.049728744 -0.07690994 -0.07351804
000360 54 6c 24 3d 05 aa 5f 3e 9e 44 9b 3d 60 4b 47 bd
       0.040142372 0.21842201 0.07581447 -0.048655868
000370 fd 69 86 bc 28 cf 31 3b bc 5b c3 3d e9 d0 c0 3c
       -0.016407961 0.0027131531 0.09538981 0.023537116
000380 28 dd 88 3c 8f f3 88 be 7a 05 d9 3e 35 c0 a7 3e
       0.016707018 -0.2674832 0.4238699 0.3276383
000390 ad 8a 3e 3d 35 85 7e 3e 1b 24 03 3d df 71 9b 3d
       0.04651897 0.24855502 0.032016855 0.075900786
0003a0 59 d4 05 be 88 b8 7f 3d 50 21 1d 3f fa e9 27 bd
       -0.13069285 0.062431842 0.61378956 -0.04099462
0003b0 e9 3d 81 be cc c3 b3 3d 90 b0 9a 3d 07 94 80 3e
       -0.25242546 0.0877758 0.07553208 0.25112936
0003c0 14 56 0a 3d 94 8f 43 be e5 ea 8e 3e 0c 67 f8 3d
       0.033773497 -0.1909774 0.27913585 0.1212903
0003d0 5d 83 54 3d ce e0 3c 3e 0f 55 74 be cb cd c7 bc
       0.05188309 0.18445131 -0.23860572 -0.024390122
0003e0 ba 44 93 bd 2a f1 1c 3e 99 b7 9a 3e 42 d4 9e bc
       -0.07190843 0.15326372 0.302182 -0.019388322
0003f0 55 bb 2c 3d 6c 7c 8e bd 66 9e fd 3c a4 90 d2 3d
       0.04217084 -0.06957325 0.03095932 0.10281494

model.4.bias f4 [4]
000000 43 1d 6b 3d 46 f0 df 3d 4a a6 eb 3d ff 86 03 3d
       0.057400953 0.109345004 0.115063265 0.032111164

model.0.weight f4 [128, 7]
000000 61 12 82 bf 7a 53 be bd 1c bf b1 3d 2c 15 e2 be
       -1.0161859 -0.09293266 0.08679029 -0.44156778
000010 55 f6 43 be 4d ed 86 3e 8d ba 7d 3e 1b 1e a8 bd
       -0.19136937 0.2635292 0.24778195 -0.08208867
000020 80 42 09 bf c5 56 7b 3d 85 5c 26 3c 59 e7 52 3e
       -0.53617096 0.061362047 0.010153894 0.20596065
000030 69 1c 1b 3e a4 23 27 3e 1e 49 fb 3e 38 84 70 3c
       0.15147556 0.1632219 0.4907922 0.014679961
000040 53 b2 48 be 71 fa c3 be 91 99 08 bf 91 c4 b1 be
       -0.19599275 -0.3827701 -0.53359324 -0.3472028
000050 16 99 78 bd 33 c8 29 be b1 14 88 be fa 07 36 3e
       -0.06069287 -0.16580276 -0.26578286 0.1777648
000060 6e 4e e2 bd f1 00 d1 3d 82 23 19 3e f4 74 14 bd
       -0.110501155 0.10205258 0.14954951 -0.036244348
000070 30 06 0a c0 1f 4f 70 bd 07 d5 c4 be 31 d3 60 3e
       -2.1566277 -0.058669206 -0.38443777 0.21955563
000080 04 21 a4 3e d2 e1 83 3e ee b4 ec 3d 13 be b3 be
       0.3205644 0.25758225 0.11557947 -0.35105953
000090 31 25 a6 3c c5 a4 46 be 3a 21 48 be 0e cf 71 be
       0.020281406 -0.19398792 -0.19543925 -0.23614141
0000a0 f5 ee 41 3e 21 85 75 3d a5 92 aa 3e bc b1 c6 be
       0.18938811 0.059941415 0.33315006 -0.38807476
0000b0 6a 80 37 3e 6a 52 4b be 59 0d 9b 3e 12 5c b6 be
       0.1792008 -0.19855657 0.3028362 -0.3561712
0000c0 48 d4 15 be f3 f1 04 3e d4 e1 ac bf 10 4d 1b bf
       -0.1463176 0.12982921 -1.3506417 -0.60664463
0000d0 a8 59 de 3d 07 2f 9c be 75 f9 ac bc 39 0c 2b be
       0.10856944 -0.3050463 -0.021115044 -0.16703881
0000e0 72 2e a0 be 5a 71 32 bd f7 fb f8 bb 89 bc 28 bc
       -0.31285435 -0.04356513 -0.007598396 -0.0102988565
0000f0 bf 2d 81 be f6 4b a7 3e e1 22 2d be f8 8d 25 be
       -0.25230214 0.3267514 -0.16907836 -0.16167438
000100 f7 9f 84 be 62 bf 85 3e c7 4a 59 be ad df f4 3a
       -0.25903293 0.26122576 -0.21219932 0.0018682383
000110 f5 b2 b0 be 52 28 97 be 1c 38 30 bd eb 86 df be
       -0.34511533 -0.2952295 -0.04302226 -0.43657622
000120 c9 1b 49 bb 94 63 1a 3f 8f 21 8b be 08 54 1d be
       -0.0030686727 0.60308194 -0.2717404 -0.15364087
000130 0e da 87 be 05 f0 c0 3d d1 23 9c bd 24 df 6a bf
       -0.2653355 0.0942078 -0.07624019 -0.91746736
000140 d6 76 c8 3c 8f 64 5f be 1a c3 81 be bb b0 3a 3d
       0.024470728 -0.21815704 -0.25344163 0.0455787
000150 2f 9e c6 3c cb 85 f0 bf 67 f9 b9 3e 43 9f d8 3d
       0.02424535 -1.879083 0.3632309 0.10577252
000160 ec 89 a9 3e 08 20 1b bf 88 d4 bf 3d e8 20 a7 be
       0.3311304 -0.6059575 0.09366709 -0.32642293
000170 5d 78 b9 3b 18 3c 4b 3e fb a5 e0 3d 61 fa 00 3f
       0.0056601004 0.19847143 0.10969158 0.5038205
000180 a1 c3 ce be a0 36 20 be eb d5 8a be 9b b9 54 be
       -0.40383628 -0.15645838 -0.2711633 -0.20773928
000190 8a 84 9a 3d 2c d2 92 3e 9d 32 f5 3e 8a 9a d0 3b
       0.07544811 0.28675973 0.47890177 0.0063660787
0001a0 27 e1 a7 be 42 4e 96 3e 56 d6 01 3c 2e af a3 3e
       -0.32788965 0.2935658 0.007924637 0.3196959
0001b0 78 c5 4d be cd ec e6 3e 0b 54 36 bd e7 b3 8d bd
       -0.2009486 0.4510254 -0.044513743 -0.06919079
0001c0 cd 37 f7 bb a1 e9 a3 be 53 e9 89 be bf d5 8c be
       -0.007544494 -0.32014182 -0.26935825 -0.27506825
0001d0 86 96 43 3e c2 46 cc 3e f7 a6 38 be 99 94 91 be
       0.19100389 0.39897734 -0.18032442 -0.28433684
0001e0 c9 4f 45 be 86 e1 93 3e a4 4b ac bd eb de 31 3e
       -0.19268717 0.28882998 -0.08412865 0.17370193
0001f0 f5 c6 71 3e 6b 3e 68 be c2 4c be 3e af 0d ce bc
       0.23611052 -0.2268006 0.37167937 -0.02515301
000200 83 d3 3e bf 84 fc 52 3e ac 10 61 3e 62 75 73 be
       -0.7454149 0.2060414 0.21979016 -0.23775247
000210 e6 c2 82 3e 8b 0c e0 3e 58 02 38 be 1d 87 44 bd
       0.2553932 0.4375957 -0.17969644 -0.047980417
000220 37 ba 86 3e 22 00 26 3e ab 8c 19 bd 82 65 a1 3d
       0.26313946 0.16210988 -0.037487667 0.07880689
000230 9c 40 ce bd 24 74 20 bf b4 8f e2 3c 9b d2 9f bd
       -0.10070917 -0.62677217 0.027656414 -0.07803842
000240 f4 d4 c1 be d4 2d db bd 43 d8 fe 3c 79 f4 19 3e
       -0.37857783 -0.107021004 0.031108981 0.15034665
000250 4d ed f5 3e 86 78 bf be 29 c6 a6 bd 31 8c 59 3e
       0.4803261 -0.3739664 -0.08143265 0.21244885
000260 fc 81 c8 3d 3d 86 d2 bc a3 2a 17 3f c9 ed ac bd
       0.097904176 -0.025698775 0.59049433 -0.084437914
000270 56 11 db be 4a 5e 4f bd 21 c2 be 3e 84 0a 82 3c
       -0.42786664 -0.05062703 0.37257484 0.015874155
000280 f0 fd ce be 31 7e b1 3e 0e 7e e0 be 6b ef 79 3e
       -0.40428114 0.3466659 -0.43846172 0.24407737
000290 50 e3 1e 3e c6 8f 44 be c1 ff 5d be d3 68 f5 be
       0.155164 -0.1919547 -0.21679594 -0.47931537
0002a0 54 44 06 3f d7 56 28 bf 3d 0e 6a bd 55 66 bc be
       0.5244801 -0.6575751 -0.057142485 -0.36796823
0002b0 25 8d ab 3e a5 cd de bd 9c e1 b1 3e 92 71 d9 be
       0.33506122 -0.10879067 0.3474244 -0.4246946
0002c0 48 7b 95 3d 72 85 11 bd 62 d5 34 bf c6 72 53 3e
       0.07298905 -0.035527654 -0.70638096 0.20649251
0002d0 67 d8 d6 3e 70 97 93 3e 5e dc d4 3d 2d c4 5b be
       0.41961977 0.28826475 0.10393594 -0.21461554
0002e0 30 8e 50 be fa e2 a1 bd 12 26 61 bc 3e 37 ec bd
       -0.2036674 -0.079046205 -0.013741987 -0.11533974
0002f0 d6 4d 1c be 04 e0 81 3c 42 83 bc be 77 69 98 3e
       -0.15264067 0.01585389 -0.36818892 0.29767963
000300 a9 9e 81 3e 62 d2 d9 3e 24 b3 cc bd 4f 0c ba bd
       0.2531636 0.42543322 -0.09995106 -0.09084379
000310 c2 3a 39 bf 93 33 93 3e fb 97 12 be 70 e8 d5 3e
       -0.7235528 0.28750286 -0.14315788 0.41778898
000320 95 1c 43 3e 20 3f ca be 8c b8 e3 bc ac a3 7e 3e
       0.19053872 -0.39501286 -0.02779796 0.24867123
000330 6d 35 0e be 94 8f 32 3e bf 2b d9 be 70 ec 00 be
       -0.13887568 0.17437583 -0.42416188 -0.12590194
000340 9a 14 98 be 2f a7 37 3e 16 98 f0 bf c1 16 d3 3e
       -0.29703218 0.17934869 -1.8796413 0.41228297
000350 22 e5 d7 3e 27 f5 a3 3d ef 7f 20 be 26 08 5d 3e
       0.42167002 0.080057435 -0.15673803 0.2158514
000360 0f fb 08 3d 42 c4 5a 3e eb 1d 27 3e 7d 30 8b be
       0.033442553 0.21363929 0.16320007 -0.2718543
000370 bb 40 ce 3d 4c 6f 7b 3e 70 95 b6 bd 0d b0 03 bf
       0.1007094 0.24554175 -0.08915222 -0.5144051
000380 74 63 e2 bd 8c 5a 81 3d c7 53 5d 3e 2e 7c 64 be
       -0.110541254 0.063160986 0.2161399 -0.22312996
000390 20 17 db be 3d 42 66 3e b9 fe ed 3d d0 cc 63 3e
       -0.4279108 0.22486205 0.1162085 0.22246099
0003a0 b0 0a e7 bd ea cd 9e be df cc 07 be e5 0d 3b 3d
       -0.11281335 -0.31016475 -0.13261746 0.045667548
0003b0 01 16 11 3e 99 34 dc 3e 33 45 1d 3e 61 23 df 3e
       0.1416855 0.4300888 0.15358429 0.4358168
0003c0 57 dd 74 3e bd 55 87 be c3 49 50 bf 41 7c 2c bf
       0.2391256 -0.264326 -0.8136255 -0.67377096
0003d0 e6 63 b8 3d 60 a6 39 3e ad f9 54 bf 59 b2 90 3d
       0.09003429 0.18129873 -0.83193475 0.07065267
0003e0 5c 2d 9c 3d 14 2f 95 be 94 b0 f8 bd f9 90 03 3f
       0.07625839 -0.2913748 -0.121430546 0.51393086
0003f0 11 14 54 bd a4 8c 62 bf c9 e5 26 3d f5 7b 94 3b
       -0.05177695 -0.8849585 0.040746484 0.0045313784

model.0.bias f4 [128]
000000 4c f8 05 3e 05 5b 44 3e 8d 3c 08 be ed 5a b7 be
       0.13082999 0.19175346 -0.13304348 -0.35811558
000010 f5 e4 32 3e c0 e1 af be 45 e7 9c be 76 a9 3c 3d
       0.17470153 -0.3435192 -0.30645195 0.046060048
000020 3a 4a 2a be 26 0d 6e be 8f 1b bc bb e1 4a 76 3e
       -0.16629878 -0.23247203 -0.00574059 0.24052002
000030 2b 82 06 be a5 d2 dd 3d 83 76 ee 3b 07 e5 cc be
       -0.13135593 0.10831193 0.0072773113 -0.40018484
000040 6f 70 9d bc da 00 c8 3d 7e fd 02 3d 38 c4 1b bf
       -0.019218652 0.097657874 0.03198003 -0.6084628
000050 ac 95 7d 3d e6 6c 3d 3c 69 14 cb be cc d7 94 bd
       0.061910316 0.011561608 -0.3966401 -0.072677225
000060 bc c7 9d 3d 37 4d b3 3e cd b4 b6 be 7e 2e 5c be
       0.07704112 0.35019848 -0.35684815 -0.2150211
000070 8b 0e 74 be 7e 75 02 3e 23 c2 c0 be d2 74 66 be
       -0.23833673 0.12740132 -0.37648115 -0.22505501
000080 d1 3a e3 be 13 1c 69 3e 46 88 84 bd ff be 4f 3d
       -0.4438081 0.22764616 -0.064713046 0.050719257
000090 c3 48 f1 3d 7b ca ce 3d 22 6f 9b be 04 bd 7a be
       0.11781456 0.10097214 -0.30358225 -0.24486166
0000a0 8f 02 f3 bc f9 56 ab be 56 3c bd 3d 94 60 49 be
       -0.029664306 -0.33464792 0.09240024 -0.19665748
0000b0 49 59 46 3e 45 c0 f5 bd 16 78 6c bd ae c1 9b 3c
       0.19369997 -0.11999563 -0.05773171 0.019013252
0000c0 39 af e4 3d 8b 4b f0 bd 9f a2 18 3e fa 82 6c be
       0.111662336 -0.11733159 0.14905785 -0.23096839
0000d0 a7 36 88 3e 44 ae 72 be c2 86 9f 3e 14 64 27 be
       0.26604196 -0.2369929 0.311575 -0.1634677
0000e0 c4 cf 3b be 65 5f 94 be e0 53 eb be 8e f2 01 3e
       -0.18340975 -0.2897903 -0.4596243 0.12690184
0000f0 c6 c0 fb 3d e7 5f 9a 3d c7 be 28 be b3 02 1a be
       0.12292628 0.07537823 -0.16479026 -0.15040092
000100 dd 35 73 be 3d 90 fb be 75 12 db bd 3d fd 78 be
       -0.23751016 -0.49133483 -0.1069688 -0.24315353
000110 50 21 69 be 0c 62 5e be 6f c7 b8 3c 7f fd 2b 3e
       -0.22766614 -0.2171709 0.022556035 0.1679592
000120 73 b3 36 3e 32 3e d1 be 01 02 3c 3d af 0e 09 be
       0.17841892 -0.40867764 0.04590035 -0.13384508
000130 6e d8 92 be a9 ca 6e be 9b 57 99 39 46 ee 6d be
       -0.28680748 -0.23319496 0.00029247705 -0.23235425
000140 b8 9d 94 be d7 4b f6 bd e9 9b af be 45 2a 39 be
       -0.2902658 -0.12026184 -0.34298638 -0.18082531
000150 0e 17 3e be 6b 83 e3 3b 69 ff 09 3d 65 cf d3 bd
       -0.18563482 0.0069431565 0.033690844 -0.10342292
000160 b8 91 ef 3d 83 80 8a be bf 80 e5 bd 6f a4 02 3d
       0.116977155 -0.27051172 -0.11206197 0.031895097
000170 f3 45 91 be ac 7e 9f bc 71 d4 f9 3c fd eb ad be
       -0.2837368 -0.019469582 0.030496808 -0.33969107
000180 63 83 9f be e5 f8 ce bd d1 e7 fb bd 7f 39 9e be
       -0.31154928 -0.101060666 -0.12300075 -0.3090324
000190 d8 d6 9a 3d 7f 75 aa bd 32 49 cc be 99 a0 07 3e
       0.075605094 -0.08323192 -0.39899594 0.13244857
0001a0 eb bd 15 be 34 7c 6e be 75 6d 42 3e 4e 50 35 3e
       -0.14623229 -0.23289567 0.18987067 0.17706415
0001b0 8c 1a c9 be 70 5b 39 be fd 57 47 be 6d f7 56 be
       -0.39278066 -0.18101287 -0.19467159 -0.20992823
0001c0 92 08 7a 3e f5 1c dd bd 12 b5 a2 3a 26 6c bf 3c
       0.24417332 -0.10796539 0.0012413582 0.023366999
0001d0 27 36 7e 3e b3 8e 2f 3d 02 a9 b3 3d 70 d9 4d 3d
       0.24825345 0.042860698 0.0877247 0.050256193
0001e0 e1 8f a2 3e 8d 60 22 3e 58 cc 8f 3e 59 50 d3 3d
       0.31750396 0.15857144 0.2808559 0.103180595
0001f0 dd 90 1b 3c ab 0b 5b be 7c 92 2b 3d b8 1e 9c bd
       0.009494987 -0.2139117 0.041887745 -0.07623047

model.2.weight f4 [64, 128]
000000 b8 37 c7 be 7d aa ba be 8a f4 47 be f5 9c 13 bd
       -0.38909698 -0.36458197 -0.19526878 -0.036038358
000010 04 2a 50 bf 70 a9 9b bd 2d 0b 08 3e 6f 04 37 3e
       -0.8131411 -0.07600677 0.13285513 0.17872785
000020 a9 c5 f1 bb d7 ee d4 bc 4c ed 4b 3e e4 df fc bd
       -0.0073782993 -0.025992794 0.1991474 -0.12347391
000030 3c ad 47 3e fb c0 6e 3e 83 ff 18 3d ab f8 42 bc
       0.19499677 0.23315804 0.03735305 -0.011900107
000040 8d 40 8e 3c 5e 86 e7 bd 23 2e 6f bf 0e b9 3c bf
       0.017364765 -0.113049254 -0.93429774 -0.7371987
000050 e3 ba 21 be 06 44 24 3c fd 67 9e be 85 f7 78 be
       -0.15793948 0.010025984 -0.30938712 -0.24313171
000060 5a 2b 23 bf 77 bc d8 3d 80 0e ae bd 28 9e 55 bd
       -0.63738024 0.10582822 -0.084988594 -0.052152783
000070 0f 97 e2 3d de e7 74 be b3 80 5d be f8 1e d9 bd
       0.110639684 -0.23916575 -0.21631126 -0.1060161
000080 ed 89 8c 3d 41 63 f1 be af 6d 9a 3e a8 a0 a6 3e
       0.06862245 -0.47146037 0.30161807 0.32544446
000090 5a 05 86 be 03 7b 10 bf 30 0c 26 3e 70 b1 64 bd
       -0.26175958 -0.564377 0.16215587 -0.05583328
0000a0 7e 27 bf be 12 bc 9b 3d 77 f3 30 3e 6f 95 15 3d
       -0.37334818 0.07604231 0.17280374 0.036519464
0000b0 db 78 50 3d 8f 90 05 bf dd 12 ce bd d0 7f 3a 3d
       0.050896507 -0.52173704 -0.10062192 0.045532048
0000c0 66 99 81 3e 55 3c 89 3e b2 6c 95 be 21 ef 88 be
       0.25312346 0.26803842 -0.2918449 -0.2674494
0000d0 74 77 a6 be 3e 93 a2 bd f3 d1 dc be fa e8 34 be
       -0.3251301 -0.079382405 -0.4312893 -0.17666999
0000e0 53 b4 bc be 1e cc 8a 3d e0 10 21 3e 96 4b 7d be
       -0.36856326 0.067772135 0.15729094 -0.24735865
0000f0 67 c8 76 bd 1e 77 e1 bd 99 b4 68 be 93 c2 9e 3c
       -0.060249712 -0.11009048 -0.22725143 0.01937989
000100 3c 97 7e bd 3f 7b 83 be 7a 15 6d bf e1 ca 8a bc
       -0.062155947 -0.25679967 -0.92610896 -0.016942443
000110 d6 1c 4d 3e 91 50 e2 bd be f6 92 be 70 0c f9 bd
       0.20030531 -0.11050523 -0.28703874 -0.121605754
000120 20 d0 6d 3e 78 17 91 be 83 20 04 3e 5a df d8 bc
       0.23223925 -0.28338218 0.12903027 -0.02647369
000130 9f 45 de 3d 1e 91 97 bd d5 42 e9 3d ad 52 33 3d
       0.10853123 -0.07400726 0.113897 0.043780018
000140 05 5d bd 3d 19 3b 61 3e a0 b3 09 3d 4e ad 48 3d
       0.09246258 0.219952 0.03361857 0.0489934
000150 c0 1c 86 bd a7 1d 75 be aa bb be 3d c7 c9 f9 bd
       -0.065484524 -0.23937093 0.09313138 -0.12196689
000160 ac 55 4a 3e b8 d8 22 3c a8 ba 21 bf a1 52 36 be
       0.19759244 0.009939365 -0.6317544 -0.17804958
000170 03 d6 5a 3e 2b b5 d8 be cb 6a db 3d 82 bb 7c bf
       0.21370701 -0.4232572 0.107137285 -0.98723614
000180 04 75 e4 bd 58 bd 83 bd 3f 55 06 3f 19 58 30 be
       -0.111551315 -0.06432599 0.52473825 -0.17221107
000190 ff 11 a7 be 43 91 b9 3d 0d 70 a5 3c 60 40 96 be
       -0.32630917 0.090609096 0.020195032 -0.2934599
0001a0 1d 38 7b 3d eb 57 bc 3d 14 07 8d 3d 33 b7 93 bd
       0.06133281 0.091964565 0.06886116 -0.07212677
0001b0 3d 91 12 3d 6d ac 14 3f 24 a9 6c be 12 fb d2 3c
       0.03578304 0.580756 -0.23111397 0.025754485
0001c0 bc f8 08 be a3 29 7b 3e 34 c9 13 be b4 56 de bd
       -0.13376135 0.24527602 -0.14432222 -0.10856381
0001d0 f3 41 1a bf 66 ad e8 bd 47 74 52 be 86 00 2b bf
       -0.6025688 -0.11361198 -0.20552169 -0.66797674
0001e0 a0 f5 ee be 94 21 a5 3e 35 8c 8e be 9e 3c 34 bc
       -0.46671772 0.3225218 -0.27841344 -0.01100078
0001f0 1f ff d8 3d b2 bc c8 bc 4b c0 19 bd c1 a1 8a be
       0.105955355 -0.02450404 -0.0375369 -0.27076533
000200 4e ac b1 3e 26 b8 4b bd 94 27 c5 be f6 14 2a bd
       0.3470177 -0.049736165 -0.38506758 -0.041523896
000210 19 90 02 be 42 73 df bb 72 83 8c be 8f e9 90 3e
       -0.12750281 -0.0068191597 -0.27444035 0.2830319
000220 52 a0 82 bd 8f cd 76 bd eb f8 5d 3d 83 66 90 be
       -0.06378235 -0.06025463 0.054192465 -0.2820321
000230 30 2f 39 be 01 5e f7 3d 04 3f 92 3d 5a ab 1b bf
       -0.18084407 0.12078477 0.071409255 -0.60808337
000240 44 6e d3 bd ab 90 b2 3d e7 14 3e be f8 ef c9 3e
       -0.10323766 0.087189995 -0.18562661 0.39440894
000250 9b fe a8 bd 77 73 81 bd 36 e3 82 bf 5a dc c5 3e
       -0.08251687 -0.06320851 -1.0225589 0.38644677
000260 c4 da 95 be 49 c9 29 be f2 a7 59 3d 6a f9 62 bc
       -0.29268467 -0.1658069 0.05313868 -0.01385341
000270 dd 70 98 3e 4a 7e f6 3d b4 bf 78 bf 45 82 02 bf
       0.29773608 0.120358065 -0.97167516 -0.50980026
000280 5f 9b ac bc 17 f7 a6 3d d9 88 c3 3d 3b 7c 1c bf
       -0.02107018 0.081525974 0.09547586 -0.6112706
000290 79 7f d3 bd f0 81 2f bc 72 90 52 3f c6 10 b9 bd
       -0.10327048 -0.010712132 0.82251656 -0.090364024
0002a0 2d b1 d5 3d 46 c8 ad bf 3e d2 66 be 6f a1 dc bd
       0.10434184 -1.3576744 -0.22541139 -0.107729785
0002b0 88 55 b7 bd b0 15 6f 3d 67 d5 41 bd ea 60 a2 bf
       -0.08951861 0.058370292 -0.047322657 -1.2685826
0002c0 f3 2e 2b bd f2 d3 71 bf db 17 96 bd 3c 44 21 3e
       -0.04179282 -0.9446403 -0.07328769 0.15748686
0002d0 39 10 b7 3c 23 4c 35 bd 13 00 ce be 52 b9 e5 3d
       0.022346603 -0.044262063 -0.40234432 0.11216988
0002e0 9f e0 13 3b a7 ce f0 bc 9b 7d b8 bb 65 26 ec 3d
       0.0022564305 -0.029395415 -0.0056302077 0.11530761
0002f0 5a 73 4b bb 2f 70 13 bd de 33 3f ba 60 99 1d bd
       -0.0031044097 -0.03599566 -0.00072938006 -0.038476348
000300 39 10 ac bd 26 c0 c1 3c b3 f8 4f 3d 37 07 5d 3c
       -0.08401532 0.023651194 0.050774287 0.01349049
000310 d0 10 46 3d 11 12 b3 be 55 e8 6f bf d4 d9 db 3d
       0.048355877 -0.3497472 -0.93713886 0.10734907
000320 aa 4a e0 3e de 0c 07 bf fc 7e d7 3d b3 a2 b9 bd
       0.43806964 -0.5275401 0.10522267 -0.090642355
000330 b5 2a 2d bf 34 df 04 3e 90 36 03 3e 76 73 2a 3d
       -0.6764329 0.1297577 0.12813783 0.04161402
000340 7b f1 c0 3c 83 cf 03 3e 7c 6a ac bd c4 53 97 3d
       0.023552647 0.12872128 -0.08418748 0.07389024
000350 ab 0d b4 3d 8f 6c 29 bf 5b 87 27 bf e9 f5 bf bd
       0.087916695 -0.6618127 -0.6544091 -0.093730755
000360 b3 4e ac be 36 86 fe bb 9e 3a c7 bd 40 1e 44 bc
       -0.33653793 -0.007767464 -0.09727977 -0.011970103
000370 4f 1e a6 3c 71 50 62 be ff 13 2c bd 86 da 18 be
       0.020278124 -0.22100998 -0.042011257 -0.1492711
000380 9f c4 3a bd b6 7a c3 bc 7f 6c f2 bd 07 b4 97 bf
       -0.04559767 -0.023862224 -0.118371 -1.1851815
000390 4a ea 18 bf a2 4f b7 3e 9d 4b 27 3d a6 d1 62 be
       -0.59732497 0.35802943 0.040843595 -0.22150287
0003a0 1b dd 09 3f 57 af 18 3d 4b 16 2e be 16 54 04 3e
       0.53853005 0.037276592 -0.17000692 0.12922701
0003b0 2c eb 8c bc 10 62 3c 3f 43 aa a9 be fc 9e d7 3c
       -0.017201982 0.7358713 -0.33137712 0.026320927
0003c0 c5 5d 34 3c 33 6c 42 bd 1f f9 c1 bd e8 45 ac 3d
       0.0110086845 -0.047466468 -0.09471344 0.08411771
0003d0 9e eb 8e bf 23 89 31 be 2f c0 09 be ab 64 f5 3d
       -1.1165655 -0.1733747 -0.13452218 0.119820915
0003e0 93 28 bd bc 87 e5 0d bf 23 9f 85 bc 41 9f 23 3d
       -0.023090636 -0.55428356 -0.016311234 0.0399468
0003f0 c0 f9 19 3e 3f 92 15 bc 40 bb 79 3d 20 b7 0b 3c
       0.15036678 -0.009129106 0.06096959 0.008527547

model.2.bias f4 [64]
000000 34 08 0b 3e c1 88 35 3e 4d ab bc 3d 5b 34 d6 bd
       0.13577348 0.17727949 0.092123605 -0.10459205
000010 c1 85 9e 3d 3d 71 56 bd 76 34 5d 3e d8 7e 66 bd
       0.07740355 -0.052354086 0.21602044 -0.05627331
000020 45 fc fb bd 70 7c 2e 3e cb 7f e2 3c 4c 24 89 bc
       -0.12303976 0.17039657 0.027648827 -0.01674094
000030 b8 ca 74 bd 80 dc b9 bd 93 42 e8 3d fd 10 5c bd
       -0.05976364 -0.0907526 0.11340823 -0.05372714
000040 8f fb 6d 3e 19 da 93 bd ca 0d cc bd aa d8 5b 3e
       0.23240493 -0.07219333 -0.099635676 0.2146937
000050 57 04 a2 3d 11 f1 f4 bd 66 00 1f bd 54 ae c9 bb
       0.07910984 -0.11960042 -0.03881874 -0.0061548147
000060 f1 38 f4 bc ce aa 8a 3d 42 5d b0 bd ee 69 8e bd
       -0.029812308 0.0677086 -0.086115375 -0.06953798
000070 6a 73 d3 bc 9a 43 fd bc 60 43 a6 bd 8b 67 36 bd
       -0.02581187 -0.030916024 -0.081183195 -0.04453234
000080 6d 48 b1 bd 0e 82 21 be 82 d9 fe bd 5d 27 92 3e
       -0.08656392 -0.15772268 -0.1244383 0.28545657
000090 e3 29 22 bd 2e ca 04 3e 2d 9d 86 bb 02 e4 bf bc
       -0.039590728 0.1296775 -0.0041080923 -0.023424152
0000a0 60 04 12 3d 26 25 cb bd 6a 62 95 bd f2 f6 62 bd
       0.035648704 -0.09919195 -0.072941616 -0.055411287
0000b0 3f bd 13 3e 4c 50 03 ba 3c 10 d9 3b 5e 01 ed bc
       0.1442766 -0.00050092186 0.0066242497 -0.028931316
0000c0 a8 b5 b4 bd 02 6a 71 3c 9f d8 ca bd 99 00 26 3c
       -0.08823711 0.014734747 -0.099045984 0.010131978
0000d0 9c 43 44 bd 24 e0 cd 3d 7f 6c 6b bd 9c 18 d1 bd
       -0.04791604 0.10052517 -0.057476517 -0.10209772
0000e0 26 7a 7f bd 86 1d 28 3e 75 73 ee bd 91 7f 07 bc
       -0.06237235 0.16417512 -0.116431154 -0.00827016
0000f0 e6 37 35 bc 34 15 e1 bd 56 4e 78 be 5a 9f ef bb
       -0.0110606905 -0.10990372 -0.24248633 -0.0073126974
