checkpoints/checkpoint_ep200.pt (torch, 163021 bytes, 24 tensors)

model.0.weight f4 [128, 7]
0	0xbf57cdb4	-0.84298253
1	0x3c9c1b42	0.019055966
2	0x3dd19f99	0.10235519
3	0xbeaec2f3	-0.3413311
4	0xbe24af77	-0.1608256
5	0x3e816532	0.25272518
6	0x3e80859f	0.25101945
7	0xbd14f3a7	-0.036365177
8	0xbf025ff7	-0.5092768
9	0x3c466aff	0.012110471
10	0x3d247275	0.040148217
11	0x3e1ee9f8	0.1551894
12	0x3e158901	0.14603044
13	0x3e2d26ca	0.16909328
14	0x3f020c6b	0.508002
15	0x3cdf377d	0.027248139
16	0xbe48b253	-0.19599275
17	0xbebd0c37	-0.36923382
18	0xbf0117fc	-0.5042722
19	0xbea2c23a	-0.31788808
20	0xbcf8f423	-0.030389851
21	0xbe29c833	-0.16580276
22	0xbe8814b1	-0.26578286
23	0x3e3607fa	0.1777648
24	0xbde24e6e	-0.110501155
25	0x3dd100f1	0.10205258
26	0x3e192382	0.14954951
27	0xbd1474f4	-0.036244348
28	0xbff4a2ea	-1.9112217
29	0x3c5fcb34	0.013659287
30	0xbea125c6	-0.3147413
31	0x3e81b0a9	0.25330094
32	0x3ea4a3c7	0.32156202
33	0x3e635bc6	0.22202978
34	0x3acff74f	0.001586655
35	0xbeb3be13	-0.35105953
36	0x3ca62531	0.020281406
37	0xbe46a4c5	-0.19398792
38	0xbe48213a	-0.19543925
39	0xbe71cf0e	-0.23614141
40	0x3e41eef5	0.18938811
41	0x3d758521	0.059941415
42	0x3e8d233f	0.27565953
43	0xbf00392f	-0.50087255
44	0x3e765263	0.24054866
45	0xbdbad56b	-0.091227375
46	0x3e89d758	0.26922107
47	0xbebe88ab	-0.37213644
48	0xbe0fcd35	-0.14043124
49	0x3e111cb0	0.141711
50	0xbfa9075b	-1.320537
51	0xbf190844	-0.5977824
52	0x3ddc654d	0.10761509
53	0xbe977a5a	-0.29585534
54	0xbc764586	-0.015031224
55	0xbe204284	-0.15650374
56	0xbea02e72	-0.31285435
57	0xbd32715a	-0.04356513
58	0xbbf8fbf7	-0.007598396
59	0xbc28bc89	-0.0102988565
60	0xbe812dbf	-0.25230214
61	0x3ea74bf6	0.3267514
62	0xbe2d22e1	-0.16907836
63	0xbe258df8	-0.16167438
64	0xbe849ff7	-0.25903293
65	0x3e85bf62	0.26122576
66	0xbe594ac7	-0.21219932
67	0x3af4dfad	0.0018682383
68	0xbeb0b2f5	-0.34511533
69	0xbe972852	-0.2952295
70	0xbd6425e9	-0.055700216
71	0xbeea90be	-0.45813555
72	0x3d0f8f62	0.03504885
73	0x3f0b3165	0.54372245
74	0xbe2ff341	-0.17182638
75	0xbdba86e1	-0.09107757
76	0xbea4ed2b	-0.32212195
77	0x3e4cd636	0.2000359
78	0xbd56991d	-0.052392114
79	0xbf2d6ec4	-0.6774714
80	0x3c97cb19	0.018529462
81	0xbe4764e1	-0.19472076
82	0xbe937a47	-0.28804228
83	0xbdaaaefc	-0.08334157
84	0x3e05aeb2	0.13054922
85	0xbf992915	-1.1965662
86	0x3e394877	0.1809405
87	0x3e8be800	0.2732544
88	0x3e8833f2	0.2660213
89	0xbf1aa317	-0.60405105
90	0x3e67c765	0.22634657
91	0xbe95da11	-0.29267934
92	0x3be6c916	0.0070430143
93	0x3e46ba0f	0.19406913
94	0x3da840b8	0.08215469
95	0x3ef50a48	0.47859406
96	0xbebd4790	-0.3696866
97	0xbe852ecf	-0.26012275
98	0xbea29fcd	-0.31762543
99	0xbe1274a1	-0.14302303
100	0x3dad6741	0.0846696
101	0x3e829397	0.25503227
102	0x3ee123d9	0.43972662
103	0x3d6eb7c5	0.058280725
104	0xbe5fe60d	-0.21865101
105	0x3e8448ff	0.25836942
106	0x3b37d232	0.002804887
107	0x3eb333bc	0.35000408
108	0xbdfc106b	-0.12307819
109	0x3ec808d7	0.39069244
110	0xbe229f6a	-0.15881124
111	0xbdde9f3f	-0.108702175
112	0xbd28f985	-0.041253585
113	0xbe6a7c3f	-0.22898959
114	0xbe636845	-0.22207744
115	0xbe886b27	-0.2664425
116	0x3e658854	0.22415286
117	0x3ed160e6	0.4089424
118	0xbe8192af	-0.25307223
119	0xbe956455	-0.2917811
120	0xbdfb7f2f	-0.12280118
121	0x3e9c6b67	0.3055069
122	0xbcf1daaf	-0.029523222
123	0x3e1223b0	0.14271426
124	0x3e81d471	0.25357392
125	0xbdb8a36e	-0.09015547
126	0x3e9562dc	0.29176986
127	0xbcb51e74	-0.022109248
128	0xbf385e9b	-0.72019356
129	0x3e24b90a	0.16086212
130	0x3e8baf11	0.27282003
131	0xbe245e1c	-0.16051525
132	0x3e6feb32	0.23429564
133	0x3edf27b2	0.43584973
134	0xbe0a0343	-0.13477807
135	0x3d3682bd	0.044558275
136	0x3e87d0d4	0.2652651
137	0x3de7f8e7	0.11326771
138	0xbc8ae6fc	-0.016955845
139	0x3d3ae87a	0.045631863
140	0xbd6d55ca	-0.057943143
141	0xbf1ca6e6	-0.61192167
142	0x3d976e21	0.07394052
143	0xbd49640b	-0.049167674
144	0xbead7f7c	-0.33886325
145	0xbd790c4c	-0.060802743
146	0x3d9e6103	0.07733347
147	0x3e236bb7	0.15959059
148	0x3ecf246c	0.40457475
149	0xbec7c0bd	-0.39014235
150	0xbe0e87d9	-0.1391901
151	0x3e40ce44	0.18828684
152	0x3d9f234f	0.077704065
153	0xbd418093	-0.04724176
154	0x3f1896b9	0.59604985
155	0xbcafbda5	-0.021452734
156	0xbe63308e	-0.22186491
157	0xbddb894c	-0.10719547
158	0x3eae0bb1	0.33993295
159	0x3cca4b5f	0.024694143
160	0xbe9c0bf7	-0.30477878
161	0x3e88e86b	0.2673982
162	0xbec8f4f6	-0.3924939
163	0x3e6b00d9	0.22949542
164	0x3e0d814d	0.13818856
165	0xbe25c549	-0.1618854
166	0xbe2cb810	-0.1686709
167	0xbe8e35c9	-0.2777541
168	0x3ee4d23e	0.44691652
169	0xbf3e6098	-0.7436614
170	0xbd42ec0d	-0.047588397
171	0xbe53188d	-0.20614834
172	0x3e9d2f67	0.30700228
173	0xbe5a83ab	-0.2133929
174	0x3ea2f6bc	0.31828868
175	0xbeb6644e	-0.356234
176	0x3cc7b4d8	0.024378225
177	0xbddc99e4	-0.1077154
178	0xbf28f18f	-0.6599359
179	0x3dc62cfe	0.0967655
180	0x3eeaccdb	0.45859417
181	0x3ea9e5ca	0.33183128
182	0x3dd4dc5e	0.10393594
183	0xbe5bc42d	-0.21461554
184	0xbe508e30	-0.2036674
185	0xbda1e2fa	-0.079046205
186	0xbc612612	-0.013741987
187	0xbdec373e	-0.11533974
188	0xbe1c4dd6	-0.15264067
189	0xbc83f814	-0.016109504
190	0xbe9bf2ce	-0.30458683
191	0x3e9c84c7	0.3057005
192	0x3e8a49a4	0.27009308
193	0x3e9ec219	0.3100746
194	0x3cc8b605	0.024500856
195	0xbbe34909	-0.0069361967
196	0xbf2c4d6d	-0.6730564
197	0x3e6d6c83	0.23185925
198	0x3c2abfbb	0.010421689
199	0x3f013247	0.5046734
200	0x3d932bbd	0.07186077
201	0xbe8d5b13	-0.27608547
202	0xbd2b284a	-0.04178647
203	0x3e8e669a	0.27812654
204	0xbdcd8a97	-0.100361995
205	0x3e1f7047	0.15570174
206	0xbeda27c9	-0.4260848
207	0xbd32a689	-0.04361585
208	0xbe79826c	-0.24366158
209	0x3e4eb8fc	0.20187753
210	0xbfccf4d3	-1.6012214
211	0x3ecec897	0.40387413
212	0x3ec7e66a	0.3904298
213	0x3dee3f5a	0.11633177
214	0xbe5cc483	-0.21559338
215	0x3e7a3726	0.244351
216	0xbd853c6a	-0.06505664
217	0x3e669e42	0.22521308
218	0x3dca550d	0.098795034
219	0xbe4f9338	-0.20271003
220	0x3db87196	0.0900604
221	0x3e4d8892	0.20071629
222	0xbd1541d8	-0.036439747
223	0xbee21231	-0.44154504
224	0xbd924d19	-0.071436115
225	0x3dce4f52	0.10073723
226	0x3e82aee8	0.25524068
227	0xbe3d2725	-0.18471964
228	0xbec76ca4	-0.38950074
229	0x3e872683	0.2639657
230	0x3e1f0ab0	0.1553142
231	0x3e805ce2	0.25070864
232	0xbe05bc6f	-0.13060163
233	0xbea5487e	-0.3228187
234	0xbe0383a5	-0.12843187
235	0x3ce415ed	0.027842486
236	0x3dad4713	0.08460822
237	0x3ee3644e	0.44412464
238	0x3df5159b	0.119670115
239	0x3eb3b1de	0.3509664
240	0x3e60e05f	0.21960591
241	0xbea719e6	-0.32636946
242	0xbf198b7c	-0.5997846
243	0xbf19ae86	-0.60031927
244	0x3e23874c	0.1596958
245	0x3d497b4b	0.049189847
246	0xbf02afae	-0.51049316
247	0x3d3253d4	0.043536976
248	0x3e0b682f	0.13613962
249	0xbebd2b42	-0.36947066
250	0xbe631faa	-0.22180048
251	0x3e0d46d2	0.13796547
252	0xbda6d8f2	-0.08146848
253	0xbf45a447	-0.7720379
254	0x3d735122	0.059403546
255	0xbdbdce76	-0.09267895

model.0.bias f4 [128]
0	0x3e31f9e0	0.17380476
1	0x3e31ac08	0.17350781
2	0xbdefb6ba	-0.11704774
3	0xbeb75aed	-0.35811558
4	0x3e3828f0	0.17984366
5	0xbeafe1c0	-0.3435192
6	0xbe879690	-0.26482058
7	0x3d6ee387	0.058322456
8	0xbe2a4a3a	-0.16629878
9	0xbe6e0d26	-0.23247203
10	0x3cd04c4a	0.025427002
11	0x3e58640e	0.21131918
12	0xbe06ae60	-0.13152456
13	0x3d66272c	0.0561897
14	0x3c2decb1	0.010615514
15	0xbeb94173	-0.36182746
16	0xbc12c620	-0.0089583695
17	0x3dbaf75c	0.09129211
18	0x3d5a9259	0.053362224
19	0xbf1bb0b0	-0.6081648
20	0x3dda8a40	0.106709
21	0x3da3bc74	0.07994929
22	0xbebc15ec	-0.36735475
23	0xbd4cc435	-0.049991805
24	0x3d872483	0.06598761
25	0x3ea97a82	0.3310128
26	0xbeb6b4cd	-0.35684815
27	0xbe3547db	-0.17703192
28	0xbe461896	-0.19345316
29	0x3de98eb4	0.114041716
30	0xbea24b58	-0.31698108
31	0xbe1424c7	-0.14467154
32	0xbecf35d7	-0.40470764
33	0x3e5eba6e	0.21750805
34	0xbd3ee2d7	-0.04660305
35	0x3d1bfe68	0.038084418
36	0x3e505757	0.20345818
37	0x3dd772a1	0.105199106
38	0xbe843a0c	-0.25825536
39	0xbe7abd04	-0.24486166
40	0x3d3dfe69	0.046385203
41	0xbeb94814	-0.36187804
42	0x3e1a0043	0.15039162
43	0xbe5dfe8e	-0.21679136
44	0x3e2a53e5	0.16633566
45	0xbdab0632	-0.08350791
46	0xbdffac59	-0.124840446
47	0x3d11e265	0.035616297
48	0x3de4af39	0.111662336
49	0xbdb179ee	-0.08665834
50	0x3e27277f	0.1632366
51	0xbe59738e	-0.21235487
52	0x3e7d1cb9	0.24717988
53	0xbe72ae44	-0.2369929
54	0x3e92a920	0.28644657
55	0xbe276414	-0.1634677
56	0xbe046239	-0.12928094
57	0xbe945f65	-0.2897903
58	0xbefc7397	-0.49306938
59	0x3e0c5d2d	0.13707419
60	0x3dc6f7f3	0.09715261
61	0x3d64f4d6	0.055897556
62	0xbe221cd9	-0.15831317
63	0xbdfec3f8	-0.12439722
64	0xbe7335dd	-0.23751016
65	0xbeee5b3b	-0.46553978
66	0xbdd95683	-0.10612204
67	0xbe78fd3d	-0.24315353
68	0xbe6a3386	-0.22871217
69	0xbe484e74	-0.19561177
70	0xbd062b6e	-0.03275626
71	0x3e1a6d04	0.15080649
72	0x3e2adb88	0.16685307
73	0xbecf113b	-0.40442833
74	0x3d4dc926	0.05024066
75	0xbe090eaf	-0.13384508
76	0xbe9c6110	-0.30542803
77	0xbe6cad04	-0.23112875
78	0xbcf2a5e4	-0.029620118
79	0xbe6dee46	-0.23235425
80	0xbe84eaae	-0.25960296
81	0xbdc60012	-0.09667982
82	0xbeaf9be9	-0.34298638
83	0xbe392a45	-0.18082531
84	0xbe3e170e	-0.18563482
85	0xbd36dfba	-0.044646956
86	0x3d155860	0.036461234
87	0xbd994d8f	-0.07485496
88	0x3e038223	0.12842612
89	0xbe8a8083	-0.27051172
90	0xbe281682	-0.16414836
91	0x3c9b2fed	0.018943751
92	0xbe7a189a	-0.24423447
93	0x3d396e9c	0.0452715
94	0x3db40341	0.08789683
95	0xbe8d87dc	-0.27642715
96	0xbe9f8363	-0.31154928
97	0xbca59389	-0.020211952
98	0xbe3d5eeb	-0.1849324
99	0xbe93f2e4	-0.28896248
100	0x3bb1bd60	0.0054241866
101	0xbd797cbd	-0.060909975
102	0xbecc4932	-0.39899594
103	0x3dc487b8	0.09596199
104	0xbe2287b1	-0.15872075
105	0xbe54937b	-0.20759384
106	0x3e616891	0.22012545
107	0x3e272de2	0.16326097
108	0xbebcacc9	-0.36850575
109	0xbe265340	-0.16242695
110	0xbe1a4ac7	-0.15067588
111	0xbe3bb186	-0.18329439
112	0x3e600d36	0.2188004
113	0xbd7ba7d1	-0.06143934
114	0x3d02f802	0.0319748
115	0x3d3f30a7	0.046677258
116	0x3e8aae16	0.27085942
117	0x3dff53c7	0.12467151
118	0x3d84836e	0.06470381
119	0x3d1c85cf	0.038213547
120	0x3e8f16b8	0.2794702
121	0x3e17d1d1	0.14826132
122	0x3e8947cf	0.26812598
123	0x3d577565	0.05260219
124	0x3cbf9e63	0.023390954
125	0xbe5b0bab	-0.2139117
126	0x3d2b927c	0.041887745
127	0xbd99b033	-0.075043105

model.2.weight f4 [64, 128]
0	0xbe537d94	-0.20653373
1	0xbde5d1a5	-0.11221627
2	0xbe47f48a	-0.19526878
3	0xbd139cf5	-0.036038358
4	0xbf2d537a	-0.677055
5	0xbd9ba970	-0.07600677
6	0x3e080b2d	0.13285513
7	0x3e37046f	0.17872785
8	0xbbf1c5a9	-0.0073782993
9	0xbcd4eed7	-0.025992794
10	0x3cf10ddd	0.029425556
11	0xbdfcdfe4	-0.12347391
12	0x3e47ad3c	0.19499677
13	0x3e092551	0.13393141
14	0x3be6cda6	0.007043558
15	0x3d565f55	0.05233701
16	0x3c8e408d	0.017364765
17	0xbdec2e82	-0.11532308
18	0xbf2cb996	-0.6747068
19	0xbeafa614	-0.34306395
20	0xbe21bae3	-0.15793948
21	0x3d58fdad	0.0529763
22	0xbe8fcdbb	-0.28086647
23	0xbeb2e827	-0.34942743
24	0xbe88e691	-0.26738408
25	0x3e4b475a	0.19851437
26	0xbdae0e80	-0.084988594
27	0xbd0ce3ce	-0.03439694
28	0x3d5923f8	0.053012818
29	0xbe9cacd0	-0.30600595
30	0xbd9c63d8	-0.07636231
31	0xbe793301	-0.24335863
32	0x3d8c89ed	0.06862245
33	0xbeea0568	-0.4570725
34	0x3e605ce0	0.21910429
35	0xbc8a5eea	-0.016890962
36	0xbdb9a546	-0.090647265
37	0xbebd2764	-0.36944115
38	0x3da5be60	0.08092952
39	0xbd64b170	-0.05583328
40	0xbed859d2	-0.42256027
41	0xbe58bd44	-0.21165949
42	0x3e30f377	0.17280374
43	0x3d15956f	0.036519464
44	0xbddd5545	-0.108072795
45	0xbe25508a	-0.16144004
46	0xbdce12dd	-0.10062192
47	0xbd35d8f6	-0.044396363
48	0x3e819966	0.25312346
49	0x3ecc051a	0.39847642
50	0xbe956cb2	-0.2918449
51	0xbdbbeb6e	-0.09175764
52	0xbceb0e95	-0.028693477
53	0xbda2933e	-0.079382405
54	0xbe4d8874	-0.20071584
55	0xbe34e8fa	-0.17666999
56	0xbe9c44da	-0.3052128
57	0x3d8acc1e	0.067772135
58	0x3d797f50	0.06091243
59	0xbe029a0d	-0.12754078
60	0xbd68e088	-0.056854755
61	0x3ce28333	0.027650451
62	0xbe7ddc95	-0.24791177
63	0x3d95a078	0.073059976
64	0xbd7e973c	-0.062155947
65	0xbec1954c	-0.37809217
66	0xbf0ffe0e	-0.5624703
67	0xbc8acae1	-0.016942443
68	0x3e394789	0.18093695
69	0xbdd66252	-0.10467972
70	0x3d65c395	0.056094725
71	0x3d15efcc	0.03660564
72	0x3e6dd020	0.23223925
73	0xbebf0961	-0.37311843
74	0x3d695d48	0.056973726
75	0xbcd8df5a	-0.02647369
76	0x3dde459f	0.10853123
77	0xbd97911e	-0.07400726
78	0x3dbb6481	0.09150029
79	0x3d3352ad	0.043780018
80	0x3dbd5d05	0.09246258
81	0xbdb41403	-0.087928794
82	0x3d09b3a0	0.03361857
83	0x3d48ad4e	0.0489934
84	0xbd861cc0	-0.065484524
85	0x3d0c7c6e	0.034298353
86	0xbc850a81	-0.01624036
87	0xbe1784db	-0.14796774
88	0x3eab1455	0.3341395
89	0x3c22d8b8	0.009939365
90	0xbf042833	-0.5162384
91	0xbe133d51	-0.14378859
92	0x3e5a4787	0.21316348
93	0xbd604701	-0.054755215
94	0x3ddb6acb	0.107137285
95	0xbf4fc568	-0.81160593
96	0xbde47504	-0.111551315
97	0xbcbc7156	-0.023003262
98	0x3f00f0fe	0.50367725
99	0x3e4035c7	0.18770514
100	0xbe2fc751	-0.17165877
101	0x3db99143	0.090609096
102	0x3ca5700d	0.020195032
103	0xbe7f3a09	-0.24924482
104	0x3d7b381d	0.06133281
105	0x3e17b996	0.14816889
106	0xbe6707ea	-0.22561613
107	0xbe2ceff8	-0.16888416
108	0x3d12913d	0.03578304
109	0x3f14ac6d	0.580756
110	0xbe49dc7c	-0.19713014
111	0x3cd2fb12	0.025754485
112	0xbdc34d86	-0.09536271
113	0x3e1ce70b	0.15322511
114	0xbe13c934	-0.14432222
115	0x3bebbbd2	0.007194021
116	0xbf1a41f3	-0.6025688
117	0xbea654bd	-0.32486525
118	0xbe15582a	-0.14584413
119	0xbefff214	-0.49989378
120	0xbee120ad	-0.43970242
121	0x3ef8616f	0.48511836
122	0xbe213dbf	-0.1574621
123	0x3d69e513	0.057103228
124	0x3dd8ff1f	0.105955355
125	0xbcc8bcb2	-0.02450404
126	0xbd19c04b	-0.0375369
127	0xbe8aa1c1	-0.27076533
128	0x3ea2d3a5	0.31802097
129	0xbca653ad	-0.020303572
130	0xbec52794	-0.38506758
131	0xbd2a14f6	-0.041523896
132	0xbda25e16	-0.07928102
133	0xbbdf7342	-0.0068191597
134	0xbebb5861	-0.36590865
135	0x3e90e98f	0.2830319
136	0xbd82a052	-0.06378235
137	0xbd76cd8f	-0.06025463
138	0x3cf813ad	0.03028282
139	0xbda1c325	-0.07898549
140	0xbe3b3c2b	-0.18284671
141	0x3e4c5a85	0.19956405
142	0x3e2d9e7a	0.16954985
143	0xbe9eee5b	-0.31041226
144	0x3e04aa15	0.12955506
145	0x3dc39022	0.095489755
146	0xbe75ae99	-0.23992385
147	0x3e980cd9	0.29697302
148	0xbd274274	-0.04083486
149	0xbe0c5edd	-0.13708062
150	0xbf85d9c9	-1.0457088
151	0x3dbcac3a	0.09212537
152	0xbe3d4b1b	-0.18485682
153	0xbe9cae3f	-0.3060169
154	0x3d59a7f2	0.05313868
155	0x3d272916	0.040810667
156	0x3e84de44	0.25950825
157	0x3e001d94	0.12511283
158	0xbf4a0f51	-0.7892962
159	0xbeb9a1e8	-0.36256337
160	0xbdb51763	-0.08842351
161	0x3c03425f	0.00801143
162	0x3e90b911	0.28266194
163	0xbe3395e6	-0.1753765
164	0x3cbc0933	0.022953605
165	0xbd64d047	-0.05586269
166	0x3eaa0f64	0.33214867
167	0xbdb910c6	-0.090364024
168	0x3e06d9e2	0.13169053
169	0xbfb54f85	-1.4164892
170	0xbc6e8d77	-0.014560095
171	0xbe63b4bd	-0.22236915
172	0xbe8d146a	-0.27554637
173	0xbcc3f484	-0.023920305
174	0x3cbd5e44	0.023116238
175	0xbfd4f9bd	-1.6638714
176	0xbd2b2ef3	-0.04179282
177	0xbf6b6c88	-0.9196248
178	0xbd9617db	-0.07328769
179	0x3d8fac22	0.070152536
180	0x3d632242	0.055452593
181	0xbd354c23	-0.044262063
182	0xbf0d3465	-0.5515807
183	0x3de5b952	0.11216988
184	0x3d8f15e7	0.069865994
185	0xbcf0cea7	-0.029395415
186	0x3daf7a39	0.08568234
187	0x3d743d0c	0.05962853
188	0x3c98a2ac	0.018632255
189	0xbbdb89a8	-0.0066997595
190	0x3d210ed6	0.03932079
191	0xbe0867d7	-0.13320862
192	0xbdac1039	-0.08401532
193	0xbd83b119	-0.06430263
194	0xbc2c6a31	-0.010523365
195	0x3c5d0737	0.01349049
196	0x3d2f5f32	0.042815395
197	0xbec7b8ae	-0.39008087
198	0xbf4a35ad	-0.7898815
199	0x3c4ad532	0.012379931
200	0x3de4a5e8	0.111644566
201	0xbe2d398d	-0.16916485
202	0x3c7d30a6	0.015453493
203	0xbdb9a2b3	-0.090642355
204	0xbf2954ba	-0.6614491
205	0x3de59c52	0.11211456
206	0x3db874c9	0.0900665
207	0x3d2a7376	0.04161402
208	0x3cc0f17b	0.023552647
209	0x3e36d352	0.1785405
210	0xbdac6a7c	-0.08418748
211	0x3d9753c4	0.07389024
212	0x3db40dab	0.087916695
213	0xbf3deaea	-0.74186575
214	0xbf04936d	-0.51787454
215	0xbc1c8102	-0.009552242
216	0xbd319fb8	-0.04336521
217	0xbbfe8636	-0.007767464
218	0xbe044d21	-0.12920047
219	0xbc19b609	-0.0093817795
220	0xbd88477f	-0.06654262
221	0xbd8b7975	-0.068102755
222	0xbdf35a1e	-0.11882423
223	0xbe11960b	-0.14217393
224	0xbd3ac49f	-0.04559767
225	0x3d86714e	0.0656458
226	0xbdf7d67e	-0.12101458
227	0xbf781187	-0.96901745
228	0xbbdf65d1	-0.0068175574
229	0x3e959cc9	0.2922118
230	0x3d274b9d	0.040843595
231	0xbe92688b	-0.28595385
232	0x3e0744d3	0.13209848
233	0xbe7c6b1b	-0.24650232
234	0x3d5740b4	0.05255194
235	0xbd98e5c9	-0.07465703
236	0xbc8ceb2c	-0.017201982
237	0x3eb8290c	0.35968816
238	0xbe62881c	-0.22122234
239	0x3cd79efc	0.026320927
240	0xbcbd1035	-0.023079017
241	0xbdae3c19	-0.085075565
242	0xbdce3c21	-0.100700624
243	0x3d0c7e5c	0.034300193
244	0xbf62191f	-0.8831958
245	0xbd29b82b	-0.041435402
246	0xbd23f153	-0.040025067
247	0x3d0010c5	0.031265993
248	0x3c5d824d	0.013519836
249	0xbf17cae5	-0.5929397
250	0x3c7911cb	0.015201996
251	0xbda1348c	-0.07871351
252	0xbd4ca881	-0.049965385
253	0xbc15923f	-0.009129106
254	0x3d79bb40	0.06096959
255	0x3df7b265	0.12094573

model.2.bias f4 [64]
0	0x3dfec55a	0.124399856
1	0x3e072ac9	0.13199915
2	0x3d4cad3e	0.049969904
3	0xbdd6345b	-0.10459205
4	0x3d7d7601	0.061880115
5	0xbd56713d	-0.052354086
6	0x3e36483f	0.17800997
7	0xbd667ed8	-0.05627331
8	0xbdfbfc45	-0.12303976
9	0x3e17f02d	0.14837714
10	0x3c081fe0	0.008308381
11	0x3cabc033	0.020965671
12	0xbcee23fc	-0.029069893
13	0xbd907d7e	-0.07055186
14	0x3dc45f6f	0.09588515
15	0xbd5c10fd	-0.05372714
16	0x3e3d3e84	0.18480879
17	0xbd66e8f4	-0.056374505
18	0xbdcc0dca	-0.099635676
19	0x3e35a3da	0.17738286
20	0x3db37095	0.08761708
21	0xbdf4f111	-0.11960042
22	0xbd1f0066	-0.03881874
23	0xbbc9ae54	-0.0061548147
24	0xbcf438f1	-0.029812308
25	0xbab4be61	-0.0013789647
26	0xbdb05d42	-0.086115375
27	0xbd8e69ee	-0.06953798
28	0xbcd3736a	-0.02581187
29	0xbcfd439a	-0.030916024
30	0xbda64360	-0.081183195
31	0xbd36678b	-0.04453234
32	0xbdb1486d	-0.08656392
33	0xbe1258a0	-0.1429162
34	0xbdc4057a	-0.09571357
35	0x3e729f1a	0.23693505
36	0xbd2229e3	-0.039590728
37	0x3e1e037b	0.15431015
38	0xbb869d2d	-0.0041080923
39	0xbcbfe402	-0.023424152
40	0x3d9d216b	0.076723896
41	0xbdcb2526	-0.09919195
42	0xbcf4c259	-0.029877828
43	0xbd62f6f2	-0.055411287
44	0x3e2b2013	0.16711454
45	0xba03504c	-0.00050092186
46	0x3bd9103c	0.0066242497
47	0x3d5f2781	0.054481033
48	0xbdb4b5a8	-0.08823711
49	0x3c7cd3f8	0.015431397
50	0xbdaa947e	-0.08329104
51	0xbdae616b	-0.08514675
52	0xbd44439c	-0.04791604
53	0x3dd66ed1	0.10470355
54	0xbce49e6f	-0.027907578
55	0xbdd1189c	-0.10209772
56	0xbd2f6a21	-0.04282582
57	0x3dfd13d3	0.12357297
58	0xbb904a6c	-0.004403403
59	0xbc077f91	-0.00827016
60	0xbc3537e6	-0.0110606905
61	0xbe090c69	-0.1338364
62	0xbe594f08	-0.21221554
63	0x3b4e7ba6	0.0031506806

model.4.weight f4 [4, 64]
0	0x3e8d80e9	0.27637413
1	0x3e446d38	0.19182289
2	0x3e5837d5	0.21115048
3	0xbc0dfc92	-0.0086661745
4	0x3e0105a6	0.12599811
5	0x3dc74b40	0.0973115
6	0x3e93cd40	0.2886753
7	0x3d721ffe	0.05911254
8	0xbe186ad0	-0.14884496
9	0x3d976c2a	0.073936775
10	0x3e6d90ff	0.23199843
11	0x3d83cb3e	0.0643525
12	0xbdb6d1e7	-0.089267544
13	0xbbb9ba63	-0.005667971
14	0xbd5ac263	-0.053408038
15	0xbd6e5939	-0.058190558
16	0x3dd1cc1e	0.102440104
17	0x3e9b662a	0.30351382
18	0x3d8fca1c	0.07020971
19	0xbd758d84	-0.059949413
20	0x3e4e7e29	0.20165314
21	0x3ce47f3d	0.027892703
22	0xbcec403d	-0.028839225
23	0x3d8e2bc5	0.06941942
24	0x3da2f2e0	0.07956481
25	0x3e6c21b7	0.23059736
26	0xbd8258ea	-0.06364615
27	0x3ca7ee83	0.020499473
28	0x3db7cd30	0.08974683
29	0x3cbd1a3c	0.023083799
30	0x3df919a2	0.12163092
31	0x3d97c87b	0.074112855
32	0xbdde3adc	-0.1085107
33	0x3bbbfd05	0.0057369494
34	0xbedb10af	-0.42786166
35	0x3e5cffc2	0.21581939
36	0xbd8b5d99	-0.06804962
37	0x3e13e0ec	0.1444127
38	0x3cc64572	0.024203036
39	0x3db09735	0.086225905
40	0xbe2b41cb	-0.16724317
41	0x3d15dd77	0.03658816
42	0x3eaa2174	0.33228648
43	0xbc2896a0	-0.010289818
44	0x3d23446b	0.03986017
45	0x3d5d10c1	0.053971056
46	0xbd8efea2	-0.06982161
47	0xbf2796e8	-0.6546464
48	0xbdf13d7c	-0.11779305
49	0x3de7ba52	0.11314835
50	0x3e50e603	0.20400243
51	0xbe245d8e	-0.16051313
52	0x3cd4fa67	0.025998307
53	0xbd33ac84	-0.043865696
54	0x3d50c276	0.050966702
55	0x3c53cda3	0.012927446
56	0x3dd3593a	0.10319753
57	0x3d8483ba	0.06470437
58	0x3e8b2daf	0.2718329
59	0x3d42abad	0.047527004
60	0x3cd97454	0.026544727
61	0x3df8f8c1	0.12156821
62	0xbf3aed2e	-0.7301816
63	0x3e1661e5	0.14685781
64	0x3ec3711d	0.38172236
65	0x3d2a2503	0.041539203
66	0x3cec8091	0.028869899
67	0x3bd0c9b7	0.0063717025
68	0x3dc3cc13	0.095604084
69	0xbd0b25de	-0.03397166
70	0x3e4d39b5	0.20041545
71	0xbd686d5d	-0.056744922
72	0x3d60c70e	0.054877333
73	0x3e27cffa	0.1638793
74	0x3ea37517	0.3192527
75	0x3c25d1a7	0.010120786
76	0xbdfbd2c8	-0.12296063
77	0xbdeb7c06	-0.11498265
78	0x3e507115	0.20355637
79	0x3d676808	0.056495696
80	0x3e2785c4	0.16359621
81	0x3e27fcc1	0.16405012
82	0xbd8b9846	-0.06816153
83	0xbef10dba	-0.47080785
84	0x3d87c2f2	0.0662898
85	0xbcb43f87	-0.022002948
86	0xbdad199a	-0.08452149
87	0x3c497985	0.012297039
88	0x3dfee9dc	0.12446949
89	0xbf0aac53	-0.54169196
90	0xbddece0a	-0.108791426
91	0x3cb20bb0	0.021734089
92	0xbbbc92b1	-0.0057547917
93	0xbd1b80a0	-0.037964463
94	0xbd59a868	-0.05313912
95	0xbdd77932	-0.10521163
96	0xbdbd6dcc	-0.09249458
97	0xbdefa83e	-0.117020115
98	0xbe7beff3	-0.24603252
99	0x3e7d1c64	0.24717861
100	0xbd8f0748	-0.06983811
101	0x3e05e290	0.13074708
102	0xbd285df8	-0.04110524
103	0xbc91960d	-0.017771745
104	0xbf247487	-0.64240307
105	0x3d97bb9b	0.0740883
106	0x3ed354d8	0.41275668
107	0xbba7fb7a	-0.005126414
108	0xbd40687f	-0.046974655
109	0xbd99bcf4	-0.07506743
110	0x3dbcc8f0	0.09218013
111	0xbecd8c7a	-0.40146238
112	0xbdc8fc9a	-0.09813805
113	0x3f12620f	0.57180876
114	0x3e79dd11	0.24400736
115	0xbe6e7f6e	-0.23290798
116	0xbde96a34	-0.1139721
117	0x3cce5a53	0.025189554
118	0x3d958707	0.07301145
119	0xbceb1444	-0.028696187
120	0xbaf18d00	-0.0018428862
121	0x3e30c18b	0.17261331
122	0x3e8f97ac	0.28045404
123	0xbc549df0	-0.012977108
124	0xbc10d2f9	-0.008839362
125	0x3e7a4d9e	0.24443671
126	0x3d381e19	0.04495058
127	0x3dcbb6cb	0.09946974
128	0x3e543582	0.20723537
129	0xbd387634	-0.045034602
130	0xbdcbc4dd	-0.09949658
131	0xbc934dac	-0.017981373
132	0x3c8c73fc	0.01714515
133	0x3d03612c	0.032075092
134	0x3eb43792	0.35198647
135	0x3a85de0e	0.0010213272
136	0xbc0a1af8	-0.008429281
137	0x3e59e843	0.21280007
138	0x3ec4e4cd	0.3845581
139	0xbd94beee	-0.072629794
140	0xbd807057	-0.06271427
141	0xbdd6c9f1	-0.10487736
142	0x3efe1dbd	0.49632064
143	0xbc6bea4a	-0.014399121
144	0x3df0653b	0.11738058
145	0x3e3caabe	0.18424508
146	0x3a8661a0	0.0010252483
147	0xbdb2e48c	-0.08734998
148	0x3dcbd9a4	0.09953621
149	0xbdb26b96	-0.08711927
150	0xbdcfaa30	-0.101398826
151	0xbdb1946e	-0.08670889
152	0xbdab3ae2	-0.083608404
153	0xbee66fcc	-0.4500717
154	0x3dc9e88c	0.09858808
155	0xbc681db0	-0.014167234
156	0x3dab848d	0.083748914
157	0xbd2fc905	-0.042916317
158	0xbdbce6f8	-0.09223741
159	0xbd1c83c6	-0.038211606
160	0xbd9336be	-0.071881756
161	0xbee68179	-0.45020655
162	0x3eae2562	0.34012896
163	0x3e8d741d	0.2762765
164	0xbd5bb8d6	-0.05364307
165	0x3d813194	0.063082844
166	0xbd97aa3c	-0.074055165
167	0xbd027f56	-0.03185972
168	0xbe803767	-0.2504227
169	0xbcbecc13	-0.02329067
170	0x3ec5d6f4	0.3864056
171	0x3d328c6b	0.043590944
172	0xbecc3d83	-0.3989068
173	0x3dadb51e	0.08481811
174	0x3dad5478	0.08463377
175	0x3dc7fe3d	0.09765289
176	0xbd11bfdc	-0.035583362
177	0x3e160d8d	0.14653607
178	0x3e4213b7	0.18952833
179	0xbef1edc0	-0.472517
180	0x3c8984b9	0.01678692
181	0x3dd9507d	0.10611055
182	0x3d3dcf40	0.046340227
183	0xbd7ab5dd	-0.061208595
184	0x3dfea5dc	0.12433979
185	0x3cd96d6f	0.02654144
186	0x3e97e8df	0.29669854
187	0xbbdb7292	-0.0066970075
188	0xbc817f51	-0.01580778
189	0x3e6bfc93	0.23045568
190	0x3bec0c81	0.007203639
191	0x3d9fad41	0.077967174
192	0x3e3a1d6c	0.18175286
193	0x3e3aa124	0.18225533
194	0x3de3dc7a	0.11126037
195	0x3da283e1	0.0793531
196	0x3e03d77f	0.12875174
197	0xbd80fe95	-0.06298558
198	0x3e68a266	0.227182
199	0x3d242323	0.04007257
200	0xbc51b775	-0.012800087
201	0x3dd3360f	0.10313045
202	0x3eae8160	0.3408308
203	0xbde1fecd	-0.110349275
204	0xbc82fc24	-0.01598937
205	0xbd2f6188	-0.042817622
206	0x3e9533b3	0.29141006
207	0x3c168a99	0.009188318
208	0x3e23facc	0.1601364
209	0x3e878150	0.26465845
210	0xbd053f3d	-0.03253101
211	0x3e8e0620	0.27739048
212	0x3d80fe7a	0.062985376
213	0x3d4bb05e	0.049728744
214	0xbd9d82f5	-0.07690994
215	0xbd9690a0	-0.07351804
216	0x3d246c54	0.040142372
217	0x3e3c0686	0.18361863
218	0x3d9b449e	0.07581447
219	0xbd474b60	-0.048655868
220	0xbc8669fd	-0.016407961
221	0x3b31cf28	0.0027131531
222	0x3dc35bbc	0.09538981
223	0x3cc0d0e9	0.023537116
224	0x3c88dd28	0.016707018
225	0xbe0b5663	-0.13607173
226	0x3d97005f	0.07373118
227	0x3e72b853	0.23703127
228	0x3d3e8aad	0.04651897
229	0x3e6e8311	0.23292185
230	0x3d03241b	0.032016855
231	0x3d9b71df	0.075900786
232	0xbdf5a291	-0.11993898
233	0x3d7fb888	0.062431842
234	0x3eb36b3c	0.3504275
235	0xbd27e9fa	-0.04099462
236	0xbe284d32	-0.16435698
237	0x3db3c3cc	0.0877758
238	0x3d9ab090	0.07553208
239	0xbe7ed865	-0.24887235
240	0x3d0a5614	0.033773497
241	0xbde40ae0	-0.11134887
242	0x3e7d8613	0.24758177
243	0xbe0572e4	-0.13032109
244	0x3d54835d	0.05188309
245	0x3da6e8fa	0.081499055
246	0xbd9e8804	-0.07740787
247	0xbcc7cdcb	-0.024390122
248	0xbdcb4bec	-0.0992659
249	0x3e02b41b	0.12764017
250	0x3e719a21	0.23593952
251	0xbc9ed442	-0.019388322
252	0x3d2cbb55	0.04217084
253	0xbe1c0cf4	-0.15239316
254	0x3cfd9e66	0.03095932
255	0x3dd661bc	0.1046786

model.4.bias f4 [4]
0	0x3db1c071	0.086792834
1	0x3de07f10	0.10961735
2	0x3e0a4b72	0.13505343
3	0x3d7ad17f	0.061234947

model.0.weight f4 [128, 7]
0	0xbf57cdb4	-0.84298253
1	0x3c9c1b42	0.019055966
2	0x3dd19f99	0.10235519
3	0xbeaec2f3	-0.3413311
4	0xbe24af77	-0.1608256
5	0x3e816532	0.25272518
6	0x3e80859f	0.25101945
7	0xbd14f3a7	-0.036365177
8	0xbf025ff7	-0.5092768
9	0x3c466aff	0.012110471
10	0x3d247275	0.040148217
11	0x3e1ee9f8	0.1551894
12	0x3e158901	0.14603044
13	0x3e2d26ca	0.16909328
14	0x3f020c6b	0.508002
15	0x3cdf377d	0.027248139
16	0xbe48b253	-0.19599275
17	0xbebd0c37	-0.36923382
18	0xbf0117fc	-0.5042722
19	0xbea2c23a	-0.31788808
20	0xbcf8f423	-0.030389851
21	0xbe29c833	-0.16580276
22	0xbe8814b1	-0.26578286
23	0x3e3607fa	0.1777648
24	0xbde24e6e	-0.110501155
25	0x3dd100f1	0.10205258
26	0x3e192382	0.14954951
27	0xbd1474f4	-0.036244348
28	0xbff4a2ea	-1.9112217
29	0x3c5fcb34	0.013659287
30	0xbea125c6	-0.3147413
31	0x3e81b0a9	0.25330094
32	0x3ea4a3c7	0.32156202
33	0x3e635bc6	0.22202978
34	0x3acff74f	0.001586655
35	0xbeb3be13	-0.35105953
36	0x3ca62531	0.020281406
37	0xbe46a4c5	-0.19398792
38	0xbe48213a	-0.19543925
39	0xbe71cf0e	-0.23614141
40	0x3e41eef5	0.18938811
41	0x3d758521	0.059941415
42	0x3e8d233f	0.27565953
43	0xbf00392f	-0.50087255
44	0x3e765263	0.24054866
45	0xbdbad56b	-0.091227375
46	0x3e89d758	0.26922107
47	0xbebe88ab	-0.37213644
48	0xbe0fcd35	-0.14043124
49	0x3e111cb0	0.141711
50	0xbfa9075b	-1.320537
51	0xbf190844	-0.5977824
52	0x3ddc654d	0.10761509
53	0xbe977a5a	-0.29585534
54	0xbc764586	-0.015031224
55	0xbe204284	-0.15650374
56	0xbea02e72	-0.31285435
57	0xbd32715a	-0.04356513
58	0xbbf8fbf7	-0.007598396
59	0xbc28bc89	-0.0102988565
60	0xbe812dbf	-0.25230214
61	0x3ea74bf6	0.3267514
62	0xbe2d22e1	-0.16907836
63	0xbe258df8	-0.16167438
64	0xbe849ff7	-0.25903293
65	0x3e85bf62	0.26122576
66	0xbe594ac7	-0.21219932
67	0x3af4dfad	0.0018682383
68	0xbeb0b2f5	-0.34511533
69	0xbe972852	-0.2952295
70	0xbd6425e9	-0.055700216
71	0xbeea90be	-0.45813555
72	0x3d0f8f62	0.03504885
73	0x3f0b3165	0.54372245
74	0xbe2ff341	-0.17182638
75	0xbdba86e1	-0.09107757
76	0xbea4ed2b	-0.32212195
77	0x3e4cd636	0.2000359
78	0xbd56991d	-0.052392114
79	0xbf2d6ec4	-0.6774714
80	0x3c97cb19	0.018529462
81	0xbe4764e1	-0.19472076
82	0xbe937a47	-0.28804228
83	0xbdaaaefc	-0.08334157
84	0x3e05aeb2	0.13054922
85	0xbf992915	-1.1965662
86	0x3e394877	0.1809405
87	0x3e8be800	0.2732544
88	0x3e8833f2	0.2660213
89	0xbf1aa317	-0.60405105
90	0x3e67c765	0.22634657
91	0xbe95da11	-0.29267934
92	0x3be6c916	0.0070430143
93	0x3e46ba0f	0.19406913
94	0x3da840b8	0.08215469
95	0x3ef50a48	0.47859406
96	0xbebd4790	-0.3696866
97	0xbe852ecf	-0.26012275
98	0xbea29fcd	-0.31762543
99	0xbe1274a1	-0.14302303
100	0x3dad6741	0.0846696
101	0x3e829397	0.25503227
102	0x3ee123d9	0.43972662
103	0x3d6eb7c5	0.058280725
104	0xbe5fe60d	-0.21865101
105	0x3e8448ff	0.25836942
106	0x3b37d232	0.002804887
107	0x3eb333bc	0.35000408
108	0xbdfc106b	-0.12307819
109	0x3ec808d7	0.39069244
110	0xbe229f6a	-0.15881124
111	0xbdde9f3f	-0.108702175
112	0xbd28f985	-0.041253585
113	0xbe6a7c3f	-0.22898959
114	0xbe636845	-0.22207744
115	0xbe886b27	-0.2664425
116	0x3e658854	0.22415286
117	0x3ed160e6	0.4089424
118	0xbe8192af	-0.25307223
119	0xbe956455	-0.2917811
120	0xbdfb7f2f	-0.12280118
121	0x3e9c6b67	0.3055069
122	0xbcf1daaf	-0.029523222
123	0x3e1223b0	0.14271426
124	0x3e81d471	0.25357392
125	0xbdb8a36e	-0.09015547
126	0x3e9562dc	0.29176986
127	0xbcb51e74	-0.022109248
128	0xbf385e9b	-0.72019356
129	0x3e24b90a	0.16086212
130	0x3e8baf11	0.27282003
131	0xbe245e1c	-0.16051525
132	0x3e6feb32	0.23429564
133	0x3edf27b2	0.43584973
134	0xbe0a0343	-0.13477807
135	0x3d3682bd	0.044558275
136	0x3e87d0d4	0.2652651
137	0x3de7f8e7	0.11326771
138	0xbc8ae6fc	-0.016955845
139	0x3d3ae87a	0.045631863
140	0xbd6d55ca	-0.057943143
141	0xbf1ca6e6	-0.61192167
142	0x3d976e21	0.07394052
143	0xbd49640b	-0.049167674
144	0xbead7f7c	-0.33886325
145	0xbd790c4c	-0.060802743
146	0x3d9e6103	0.07733347
147	0x3e236bb7	0.15959059
148	0x3ecf246c	0.40457475
149	0xbec7c0bd	-0.39014235
150	0xbe0e87d9	-0.1391901
151	0x3e40ce44	0.18828684
152	0x3d9f234f	0.077704065
153	0xbd418093	-0.04724176
154	0x3f1896b9	0.59604985
155	0xbcafbda5	-0.021452734
156	0xbe63308e	-0.22186491
157	0xbddb894c	-0.10719547
158	0x3eae0bb1	0.33993295
159	0x3cca4b5f	0.024694143
160	0xbe9c0bf7	-0.30477878
161	0x3e88e86b	0.2673982
162	0xbec8f4f6	-0.3924939
163	0x3e6b00d9	0.22949542
164	0x3e0d814d	0.13818856
165	0xbe25c549	-0.1618854
166	0xbe2cb810	-0.1686709
167	0xbe8e35c9	-0.2777541
168	0x3ee4d23e	0.44691652
169	0xbf3e6098	-0.7436614
170	0xbd42ec0d	-0.047588397
171	0xbe53188d	-0.20614834
172	0x3e9d2f67	0.30700228
173	0xbe5a83ab	-0.2133929
174	0x3ea2f6bc	0.31828868
175	0xbeb6644e	-0.356234
176	0x3cc7b4d8	0.024378225
177	0xbddc99e4	-0.1077154
178	0xbf28f18f	-0.6599359
179	0x3dc62cfe	0.0967655
180	0x3eeaccdb	0.45859417
181	0x3ea9e5ca	0.33183128
182	0x3dd4dc5e	0.10393594
183	0xbe5bc42d	-0.21461554
184	0xbe508e30	-0.2036674
185	0xbda1e2fa	-0.079046205
186	0xbc612612	-0.013741987
187	0xbdec373e	-0.11533974
188	0xbe1c4dd6	-0.15264067
189	0xbc83f814	-0.016109504
190	0xbe9bf2ce	-0.30458683
191	0x3e9c84c7	0.3057005
192	0x3e8a49a4	0.27009308
193	0x3e9ec219	0.3100746
194	0x3cc8b605	0.024500856
195	0xbbe34909	-0.0069361967
196	0xbf2c4d6d	-0.6730564
197	0x3e6d6c83	0.23185925
198	0x3c2abfbb	0.010421689
199	0x3f013247	0.5046734
200	0x3d932bbd	0.07186077
201	0xbe8d5b13	-0.27608547
202	0xbd2b284a	-0.04178647
203	0x3e8e669a	0.27812654
204	0xbdcd8a97	-0.100361995
205	0x3e1f7047	0.15570174
206	0xbeda27c9	-0.4260848
207	0xbd32a689	-0.04361585
208	0xbe79826c	-0.24366158
209	0x3e4eb8fc	0.20187753
210	0xbfccf4d3	-1.6012214
211	0x3ecec897	0.40387413
212	0x3ec7e66a	0.3904298
213	0x3dee3f5a	0.11633177
214	0xbe5cc483	-0.21559338
215	0x3e7a3726	0.244351
216	0xbd853c6a	-0.06505664
217	0x3e669e42	0.22521308
218	0x3dca550d	0.098795034
219	0xbe4f9338	-0.20271003
220	0x3db87196	0.0900604
221	0x3e4d8892	0.20071629
222	0xbd1541d8	-0.036439747
223	0xbee21231	-0.44154504
224	0xbd924d19	-0.071436115
225	0x3dce4f52	0.10073723
226	0x3e82aee8	0.25524068
227	0xbe3d2725	-0.18471964
228	0xbec76ca4	-0.38950074
229	0x3e872683	0.2639657
230	0x3e1f0ab0	0.1553142
231	0x3e805ce2	0.25070864
232	0xbe05bc6f	-0.13060163
233	0xbea5487e	-0.3228187
234	0xbe0383a5	-0.12843187
235	0x3ce415ed	0.027842486
236	0x3dad4713	0.08460822
237	0x3ee3644e	0.44412464
238	0x3df5159b	0.119670115
239	0x3eb3b1de	0.3509664
240	0x3e60e05f	0.21960591
241	0xbea719e6	-0.32636946
242	0xbf198b7c	-0.5997846
243	0xbf19ae86	-0.60031927
244	0x3e23874c	0.1596958
245	0x3d497b4b	0.049189847
246	0xbf02afae	-0.51049316
247	0x3d3253d4	0.043536976
248	0x3e0b682f	0.13613962
249	0xbebd2b42	-0.36947066
250	0xbe631faa	-0.22180048
251	0x3e0d46d2	0.13796547
252	0xbda6d8f2	-0.08146848
253	0xbf45a447	-0.7720379
254	0x3d735122	0.059403546
255	0xbdbdce76	-0.09267895

model.0.bias f4 [128]
0	0x3e31f9e0	0.17380476
1	0x3e31ac08	0.17350781
2	0xbdefb6ba	-0.11704774
3	0xbeb75aed	-0.35811558
4	0x3e3828f0	0.17984366
5	0xbeafe1c0	-0.3435192
6	0xbe879690	-0.26482058
7	0x3d6ee387	0.058322456
8	0xbe2a4a3a	-0.16629878
9	0xbe6e0d26	-0.23247203
10	0x3cd04c4a	0.025427002
11	0x3e58640e	0.21131918
12	0xbe06ae60	-0.13152456
13	0x3d66272c	0.0561897
14	0x3c2decb1	0.010615514
15	0xbeb94173	-0.36182746
16	0xbc12c620	-0.0089583695
17	0x3dbaf75c	0.09129211
18	0x3d5a9259	0.053362224
19	0xbf1bb0b0	-0.6081648
20	0x3dda8a40	0.106709
21	0x3da3bc74	0.07994929
22	0xbebc15ec	-0.36735475
23	0xbd4cc435	-0.049991805
24	0x3d872483	0.06598761
25	0x3ea97a82	0.3310128
26	0xbeb6b4cd	-0.35684815
27	0xbe3547db	-0.17703192
28	0xbe461896	-0.19345316
29	0x3de98eb4	0.114041716
30	0xbea24b58	-0.31698108
31	0xbe1424c7	-0.14467154
32	0xbecf35d7	-0.40470764
33	0x3e5eba6e	0.21750805
34	0xbd3ee2d7	-0.04660305
35	0x3d1bfe68	0.038084418
36	0x3e505757	0.20345818
37	0x3dd772a1	0.105199106
38	0xbe843a0c	-0.25825536
39	0xbe7abd04	-0.24486166
40	0x3d3dfe69	0.046385203
41	0xbeb94814	-0.36187804
42	0x3e1a0043	0.15039162
43	0xbe5dfe8e	-0.21679136
44	0x3e2a53e5	0.16633566
45	0xbdab0632	-0.08350791
46	0xbdffac59	-0.124840446
47	0x3d11e265	0.035616297
48	0x3de4af39	0.111662336
49	0xbdb179ee	-0.08665834
50	0x3e27277f	0.1632366
51	0xbe59738e	-0.21235487
52	0x3e7d1cb9	0.24717988
53	0xbe72ae44	-0.2369929
54	0x3e92a920	0.28644657
55	0xbe276414	-0.1634677
56	0xbe046239	-0.12928094
57	0xbe945f65	-0.2897903
58	0xbefc7397	-0.49306938
59	0x3e0c5d2d	0.13707419
60	0x3dc6f7f3	0.09715261
61	0x3d64f4d6	0.055897556
62	0xbe221cd9	-0.15831317
63	0xbdfec3f8	-0.12439722
64	0xbe7335dd	-0.23751016
65	0xbeee5b3b	-0.46553978
66	0xbdd95683	-0.10612204
67	0xbe78fd3d	-0.24315353
68	0xbe6a3386	-0.22871217
69	0xbe484e74	-0.19561177
70	0xbd062b6e	-0.03275626
71	0x3e1a6d04	0.15080649
72	0x3e2adb88	0.16685307
73	0xbecf113b	-0.40442833
74	0x3d4dc926	0.05024066
75	0xbe090eaf	-0.13384508
76	0xbe9c6110	-0.30542803
77	0xbe6cad04	-0.23112875
78	0xbcf2a5e4	-0.029620118
79	0xbe6dee46	-0.23235425
80	0xbe84eaae	-0.25960296
81	0xbdc60012	-0.09667982
82	0xbeaf9be9	-0.34298638
83	0xbe392a45	-0.18082531
84	0xbe3e170e	-0.18563482
85	0xbd36dfba	-0.044646956
86	0x3d155860	0.036461234
87	0xbd994d8f	-0.07485496
88	0x3e038223	0.12842612
89	0xbe8a8083	-0.27051172
90	0xbe281682	-0.16414836
91	0x3c9b2fed	0.018943751
92	0xbe7a189a	-0.24423447
93	0x3d396e9c	0.0452715
94	0x3db40341	0.08789683
95	0xbe8d87dc	-0.27642715
96	0xbe9f8363	-0.31154928
97	0xbca59389	-0.020211952
98	0xbe3d5eeb	-0.1849324
99	0xbe93f2e4	-0.28896248
100	0x3bb1bd60	0.0054241866
101	0xbd797cbd	-0.060909975
102	0xbecc4932	-0.39899594
103	0x3dc487b8	0.09596199
104	0xbe2287b1	-0.15872075
105	0xbe54937b	-0.20759384
106	0x3e616891	0.22012545
107	0x3e272de2	0.16326097
108	0xbebcacc9	-0.36850575
109	0xbe265340	-0.16242695
110	0xbe1a4ac7	-0.15067588
111	0xbe3bb186	-0.18329439
112	0x3e600d36	0.2188004
113	0xbd7ba7d1	-0.06143934
114	0x3d02f802	0.0319748
115	0x3d3f30a7	0.046677258
116	0x3e8aae16	0.27085942
117	0x3dff53c7	0.12467151
118	0x3d84836e	0.06470381
119	0x3d1c85cf	0.038213547
120	0x3e8f16b8	0.2794702
121	0x3e17d1d1	0.14826132
122	0x3e8947cf	0.26812598
123	0x3d577565	0.05260219
124	0x3cbf9e63	0.023390954
125	0xbe5b0bab	-0.2139117
126	0x3d2b927c	0.041887745
127	0xbd99b033	-0.075043105

model.2.weight f4 [64, 128]
0	0xbe537d94	-0.20653373
1	0xbde5d1a5	-0.11221627
2	0xbe47f48a	-0.19526878
3	0xbd139cf5	-0.036038358
4	0xbf2d537a	-0.677055
5	0xbd9ba970	-0.07600677
6	0x3e080b2d	0.13285513
7	0x3e37046f	0.17872785
8	0xbbf1c5a9	-0.0073782993
9	0xbcd4eed7	-0.025992794
10	0x3cf10ddd	0.029425556
11	0xbdfcdfe4	-0.12347391
12	0x3e47ad3c	0.19499677
13	0x3e092551	0.13393141
14	0x3be6cda6	0.007043558
15	0x3d565f55	0.05233701
16	0x3c8e408d	0.017364765
17	0xbdec2e82	-0.11532308
18	0xbf2cb996	-0.6747068
19	0xbeafa614	-0.34306395
20	0xbe21bae3	-0.15793948
21	0x3d58fdad	0.0529763
22	0xbe8fcdbb	-0.28086647
23	0xbeb2e827	-0.34942743
24	0xbe88e691	-0.26738408
25	0x3e4b475a	0.19851437
26	0xbdae0e80	-0.084988594
27	0xbd0ce3ce	-0.03439694
28	0x3d5923f8	0.053012818
29	0xbe9cacd0	-0.30600595
30	0xbd9c63d8	-0.07636231
31	0xbe793301	-0.24335863
32	0x3d8c89ed	0.06862245
33	0xbeea0568	-0.4570725
34	0x3e605ce0	0.21910429
35	0xbc8a5eea	-0.016890962
36	0xbdb9a546	-0.090647265
37	0xbebd2764	-0.36944115
38	0x3da5be60	0.08092952
39	0xbd64b170	-0.05583328
40	0xbed859d2	-0.42256027
41	0xbe58bd44	-0.21165949
42	0x3e30f377	0.17280374
43	0x3d15956f	0.036519464
44	0xbddd5545	-0.108072795
45	0xbe25508a	-0.16144004
46	0xbdce12dd	-0.10062192
47	0xbd35d8f6	-0.044396363
48	0x3e819966	0.25312346
49	0x3ecc051a	0.39847642
50	0xbe956cb2	-0.2918449
51	0xbdbbeb6e	-0.09175764
52	0xbceb0e95	-0.028693477
53	0xbda2933e	-0.079382405
54	0xbe4d8874	-0.20071584
55	0xbe34e8fa	-0.17666999
56	0xbe9c44da	-0.3052128
57	0x3d8acc1e	0.067772135
58	0x3d797f50	0.06091243
59	0xbe029a0d	-0.12754078
60	0xbd68e088	-0.056854755
61	0x3ce28333	0.027650451
62	0xbe7ddc95	-0.24791177
63	0x3d95a078	0.073059976
64	0xbd7e973c	-0.062155947
65	0xbec1954c	-0.37809217
66	0xbf0ffe0e	-0.5624703
67	0xbc8acae1	-0.016942443
68	0x3e394789	0.18093695
69	0xbdd66252	-0.10467972
70	0x3d65c395	0.056094725
71	0x3d15efcc	0.03660564
72	0x3e6dd020	0.23223925
73	0xbebf0961	-0.37311843
74	0x3d695d48	0.056973726
75	0xbcd8df5a	-0.02647369
76	0x3dde459f	0.10853123
77	0xbd97911e	-0.07400726
78	0x3dbb6481	0.09150029
79	0x3d3352ad	0.043780018
80	0x3dbd5d05	0.09246258
81	0xbdb41403	-0.087928794
82	0x3d09b3a0	0.03361857
83	0x3d48ad4e	0.0489934
84	0xbd861cc0	-0.065484524
85	0x3d0c7c6e	0.034298353
86	0xbc850a81	-0.01624036
87	0xbe1784db	-0.14796774
88	0x3eab1455	0.3341395
89	0x3c22d8b8	0.009939365
90	0xbf042833	-0.5162384
91	0xbe133d51	-0.14378859
92	0x3e5a4787	0.21316348
93	0xbd604701	-0.054755215
94	0x3ddb6acb	0.107137285
95	0xbf4fc568	-0.81160593
96	0xbde47504	-0.111551315
97	0xbcbc7156	-0.023003262
98	0x3f00f0fe	0.50367725
99	0x3e4035c7	0.18770514
100	0xbe2fc751	-0.17165877
101	0x3db99143	0.090609096
102	0x3ca5700d	0.020195032
103	0xbe7f3a09	-0.24924482
104	0x3d7b381d	0.06133281
105	0x3e17b996	0.14816889
106	0xbe6707ea	-0.22561613
107	0xbe2ceff8	-0.16888416
108	0x3d12913d	0.03578304
109	0x3f14ac6d	0.580756
110	0xbe49dc7c	-0.19713014
111	0x3cd2fb12	0.025754485
112	0xbdc34d86	-0.09536271
113	0x3e1ce70b	0.15322511
114	0xbe13c934	-0.14432222
115	0x3bebbbd2	0.007194021
116	0xbf1a41f3	-0.6025688
117	0xbea654bd	-0.32486525
118	0xbe15582a	-0.14584413
119	0xbefff214	-0.49989378
120	0xbee120ad	-0.43970242
121	0x3ef8616f	0.48511836
122	0xbe213dbf	-0.1574621
123	0x3d69e513	0.057103228
124	0x3dd8ff1f	0.105955355
125	0xbcc8bcb2	-0.02450404
126	0xbd19c04b	-0.0375369
127	0xbe8aa1c1	-0.27076533
128	0x3ea2d3a5	0.31802097
129	0xbca653ad	-0.020303572
130	0xbec52794	-0.38506758
131	0xbd2a14f6	-0.041523896
132	0xbda25e16	-0.07928102
133	0xbbdf7342	-0.0068191597
134	0xbebb5861	-0.36590865
135	0x3e90e98f	0.2830319
136	0xbd82a052	-0.06378235
137	0xbd76cd8f	-0.06025463
138	0x3cf813ad	0.03028282
139	0xbda1c325	-0.07898549
140	0xbe3b3c2b	-0.18284671
141	0x3e4c5a85	0.19956405
142	0x3e2d9e7a	0.16954985
143	0xbe9eee5b	-0.31041226
144	0x3e04aa15	0.12955506
145	0x3dc39022	0.095489755
146	0xbe75ae99	-0.23992385
147	0x3e980cd9	0.29697302
148	0xbd274274	-0.04083486
149	0xbe0c5edd	-0.13708062
150	0xbf85d9c9	-1.0457088
151	0x3dbcac3a	0.09212537
152	0xbe3d4b1b	-0.18485682
153	0xbe9cae3f	-0.3060169
154	0x3d59a7f2	0.05313868
155	0x3d272916	0.040810667
156	0x3e84de44	0.25950825
157	0x3e001d94	0.12511283
158	0xbf4a0f51	-0.7892962
159	0xbeb9a1e8	-0.36256337
160	0xbdb51763	-0.08842351
161	0x3c03425f	0.00801143
162	0x3e90b911	0.28266194
163	0xbe3395e6	-0.1753765
164	0x3cbc0933	0.022953605
165	0xbd64d047	-0.05586269
166	0x3eaa0f64	0.33214867
167	0xbdb910c6	-0.090364024
168	0x3e06d9e2	0.13169053
169	0xbfb54f85	-1.4164892
170	0xbc6e8d77	-0.014560095
171	0xbe63b4bd	-0.22236915
172	0xbe8d146a	-0.27554637
173	0xbcc3f484	-0.023920305
174	0x3cbd5e44	0.023116238
175	0xbfd4f9bd	-1.6638714
176	0xbd2b2ef3	-0.04179282
177	0xbf6b6c88	-0.9196248
178	0xbd9617db	-0.07328769
179	0x3d8fac22	0.070152536
180	0x3d632242	0.055452593
181	0xbd354c23	-0.044262063
182	0xbf0d3465	-0.5515807
183	0x3de5b952	0.11216988
184	0x3d8f15e7	0.069865994
185	0xbcf0cea7	-0.029395415
186	0x3daf7a39	0.08568234
187	0x3d743d0c	0.05962853
188	0x3c98a2ac	0.018632255
189	0xbbdb89a8	-0.0066997595
190	0x3d210ed6	0.03932079
191	0xbe0867d7	-0.13320862
192	0xbdac1039	-0.08401532
193	0xbd83b119	-0.06430263
194	0xbc2c6a31	-0.010523365
195	0x3c5d0737	0.01349049
196	0x3d2f5f32	0.042815395
197	0xbec7b8ae	-0.39008087
198	0xbf4a35ad	-0.7898815
199	0x3c4ad532	0.012379931
200	0x3de4a5e8	0.111644566
201	0xbe2d398d	-0.16916485
202	0x3c7d30a6	0.015453493
203	0xbdb9a2b3	-0.090642355
204	0xbf2954ba	-0.6614491
205	0x3de59c52	0.11211456
206	0x3db874c9	0.0900665
207	0x3d2a7376	0.04161402
208	0x3cc0f17b	0.023552647
209	0x3e36d352	0.1785405
210	0xbdac6a7c	-0.08418748
211	0x3d9753c4	0.07389024
212	0x3db40dab	0.087916695
213	0xbf3deaea	-0.74186575
214	0xbf04936d	-0.51787454
215	0xbc1c8102	-0.009552242
216	0xbd319fb8	-0.04336521
217	0xbbfe8636	-0.007767464
218	0xbe044d21	-0.12920047
219	0xbc19b609	-0.0093817795
220	0xbd88477f	-0.06654262
221	0xbd8b7975	-0.068102755
222	0xbdf35a1e	-0.11882423
223	0xbe11960b	-0.14217393
224	0xbd3ac49f	-0.04559767
225	0x3d86714e	0.0656458
226	0xbdf7d67e	-0.12101458
227	0xbf781187	-0.96901745
228	0xbbdf65d1	-0.0068175574
229	0x3e959cc9	0.2922118
230	0x3d274b9d	0.040843595
231	0xbe92688b	-0.28595385
232	0x3e0744d3	0.13209848
233	0xbe7c6b1b	-0.24650232
234	0x3d5740b4	0.05255194
235	0xbd98e5c9	-0.07465703
236	0xbc8ceb2c	-0.017201982
237	0x3eb8290c	0.35968816
238	0xbe62881c	-0.22122234
239	0x3cd79efc	0.026320927
240	0xbcbd1035	-0.023079017
241	0xbdae3c19	-0.085075565
242	0xbdce3c21	-0.100700624
243	0x3d0c7e5c	0.034300193
244	0xbf62191f	-0.8831958
245	0xbd29b82b	-0.041435402
246	0xbd23f153	-0.040025067
247	0x3d0010c5	0.031265993
248	0x3c5d824d	0.013519836
249	0xbf17cae5	-0.5929397
250	0x3c7911cb	0.015201996
251	0xbda1348c	-0.07871351
252	0xbd4ca881	-0.049965385
253	0xbc15923f	-0.009129106
254	0x3d79bb40	0.06096959
255	0x3df7b265	0.12094573

model.2.bias f4 [64]
0	0x3dfec55a	0.124399856
1	0x3e072ac9	0.13199915
2	0x3d4cad3e	0.049969904
3	0xbdd6345b	-0.10459205
4	0x3d7d7601	0.061880115
5	0xbd56713d	-0.052354086
6	0x3e36483f	0.17800997
7	0xbd667ed8	-0.05627331
8	0xbdfbfc45	-0.12303976
9	0x3e17f02d	0.14837714
10	0x3c081fe0	0.008308381
11	0x3cabc033	0.020965671
12	0xbcee23fc	-0.029069893
13	0xbd907d7e	-0.07055186
14	0x3dc45f6f	0.09588515
15	0xbd5c10fd	-0.05372714
16	0x3e3d3e84	0.18480879
17	0xbd66e8f4	-0.056374505
18	0xbdcc0dca	-0.099635676
19	0x3e35a3da	0.17738286
20	0x3db37095	0.08761708
21	0xbdf4f111	-0.11960042
22	0xbd1f0066	-0.03881874
23	0xbbc9ae54	-0.0061548147
24	0xbcf438f1	-0.029812308
25	0xbab4be61	-0.0013789647
26	0xbdb05d42	-0.086115375
27	0xbd8e69ee	-0.06953798
28	0xbcd3736a	-0.02581187
29	0xbcfd439a	-0.030916024
30	0xbda64360	-0.081183195
31	0xbd36678b	-0.04453234
32	0xbdb1486d	-0.08656392
33	0xbe1258a0	-0.1429162
34	0xbdc4057a	-0.09571357
35	0x3e729f1a	0.23693505
36	0xbd2229e3	-0.039590728
37	0x3e1e037b	0.15431015
38	0xbb869d2d	-0.0041080923
39	0xbcbfe402	-0.023424152
40	0x3d9d216b	0.076723896
41	0xbdcb2526	-0.09919195
42	0xbcf4c259	-0.029877828
43	0xbd62f6f2	-0.055411287
44	0x3e2b2013	0.16711454
45	0xba03504c	-0.00050092186
46	0x3bd9103c	0.0066242497
47	0x3d5f2781	0.054481033
48	0xbdb4b5a8	-0.08823711
49	0x3c7cd3f8	0.015431397
50	0xbdaa947e	-0.08329104
51	0xbdae616b	-0.08514675
52	0xbd44439c	-0.04791604
53	0x3dd66ed1	0.10470355
54	0xbce49e6f	-0.027907578
55	0xbdd1189c	-0.10209772
56	0xbd2f6a21	-0.04282582
57	0x3dfd13d3	0.12357297
58	0xbb904a6c	-0.004403403
59	0xbc077f91	-0.00827016
60	0xbc3537e6	-0.0110606905
61	0xbe090c69	-0.1338364
62	0xbe594f08	-0.21221554
63	0x3b4e7ba6	0.0031506806
