checkpoints/checkpoint_ep100.pt (torch, 163021 bytes, 24 tensors)

model.0.weight f4 [128, 7]
-0.36577195 0.19438031 -0.01691345 -0.32993332 -0.23123246 0.20474024 -0.23411404 0.16781056
-0.43441558 -0.40446705 0.33034402 0.31979996 -0.311594 0.1834884 -0.056013566 0.25818127
-0.24887937 0.13175164 -0.042014636 -0.17812425 0.32580706 0.08549718 -0.2148003 0.09268503
-0.18950254 0.2464352 -0.3477236 0.2600632 -0.21298909 -0.040605806 0.2886776 -0.19032872
0.23857124 -0.33945912 -0.014832183 -0.4450354 -0.38968906 0.1667129 -0.34156346 0.08939271
-0.20279856 -0.035373658 -0.055404034 -0.010755885 -0.42766646 0.20360124 -0.17714263 0.234654
0.19404276 -0.47120783 0.015416706 -0.26150206 0.34847394 -0.27247554 -0.09961926 0.118744016
0.18865947 -0.20029803 -0.21406558 -1.075241 -0.22654967 0.22913867 -0.068777695 -0.21352395
-0.14188388 -0.3130934 0.12921235 0.06630759 -0.18199706 -0.1926764 -0.25554934 -0.121225975
-0.3318592 -0.0124505665 0.06693068 -0.12087449 0.19065385 0.11792131 -0.18045433 -0.22950187
-0.22813083 -0.06967172 0.3197725 -0.067605995 -0.6551899 0.15017524 -0.26278928 0.117234
0.3062279 0.045890022 -0.3036593 0.39527947 -0.12518476 0.25508058 -0.040396642 -0.12246824
0.12910385 -0.15570728 0.80270576 0.0019007284 -0.8077351 -0.0073694293 0.07931934 -0.23519522
0.04725831 0.013294164 0.0023612138 0.10610202 -0.01834388 0.027286444 -0.06239269 -0.034792695
-0.2990533 -0.23886088 0.14194511 0.10469889 -0.118829 0.065851435 0.34791136 0.12900059
0.26933646 -0.77136356 -0.04009189 -0.08519831 0.32468468 0.10736765 0.16148682 0.14594123
-0.03679103 -0.06502602 0.2346171 0.07887156 0.23799 0.16231321 -0.008254239 -0.16400734
0.08022498 -0.028341135 -0.21008319 -0.21261443 0.18244514 -0.0134328175 -0.6363275 0.19323258
0.031505976 0.034405205 0.06710487 -0.067361064 -0.32383385 0.05554492 0.28363568 -0.12451166
0.24845433 -0.18644422 -0.013334393 -0.13784531 0.28490886 0.018745068 -0.37477773 0.0685771
-0.08353301 0.12186166 -1.052308 0.14251755 -0.39527038 0.27066788 0.080283284 -0.026927115
0.027400857 0.47593597 0.036816917 -0.39835867 0.32376218 -0.09732393 0.1192177 -0.3537359
-0.31610847 0.081886366 -0.022691453 -0.28761452 0.17405534 0.18528928 -0.14935519 0.23307139
-0.43510816 0.20643727 -0.049156554 -0.014974607 -0.025322234 -0.12774678 0.19082196 0.254189
0.039988436 -0.21129273 -0.23606257 0.36609632 0.011119542 0.086210564 -0.07556358 -0.367192
0.35877836 -0.25740448 -0.35143673 -2.4340136 0.0012465661 0.072838366 -0.020768508 0.34226975
-0.29402244 -0.21260078 -0.06319851 -0.09943256 0.027261702 -0.01691451 0.33396202 0.011794719
-0.27015796 0.2382248 -0.094568186 0.10426684 -0.38585576 0.13338025 -0.25659156 -0.2038013
-0.6699883 -0.30854306 -0.014149854 -0.17586291 0.115698084 -0.28675538 0.15829818 0.024345977
0.6697189 0.0049575986 -0.6836433 -0.13312514 0.26273227 0.07372341 0.012064371 -0.057904404
0.26332164 -0.35400188 -0.22971465 -0.10364253 0.09481246 -0.2088971 -0.36679667 0.24976094
-0.2671773 -0.3118167 0.21392761 -0.2225201 -0.2845838 0.46174827 0.09041159 -0.095946155
00000000: 7646 bbbe a20b 473e 138e 8abc 05ed a8be
00000010: 34c8 6cbe 6da7 513e 97bb 6fbe 88d6 2b3e
00000020: b86b debe 4e16 cfbe da22 a93e d2bc a33e
00000030: 4089 9fbe 62e4 3b3e 7b6e 65bd 5630 843e
00000040: 3cda 7ebe e7e9 063e 8a17 2cbd 3466 36be
00000050: 2fd0 a63e 2519 af3d 9cf4 5bbe a6d1 bd3d
00000060: f40c 42be 8259 7c3e d408 b2be 0127 853e
00000070: d019 5abe 4652 26bd 8dcd 933e 88e5 42be
00000080: 054c 743e 96cd adbe af02 73bc aedb e3be
00000090: 5385 c7be c9b6 2a3e 68e1 aebe 8613 b73d
000000a0: 6daa 4fbe f8e3 10bd 57ef 62bd 7439 30bc
000000b0: 19f7 dabe d87c 503e e164 35be 2349 703e
000000c0: 25b3 463e 2742 f1be 5a96 7c3c 99e3 85be
000000d0: 2d6b b23e ea81 8bbe 2f05 ccbd 1030 f33d
000000e0: f32f 413e ed1a 4dbe 0234 5bbe 7fa1 89bf
000000f0: a3fc 67be 54a3 6a3e 52db 8cbd 06a6 5abe
00000100: 024a 11be c74d a0be 3e50 043e 46cc 873d
00000110: 705d 3abe f64c 45be 5dd7 82be 5345 f8bd
00000120: 73e9 a9be 76fd 4bbc f412 893d 0b8d f7bd
00000130: c33a 433e ba80 f13d 05c9 38be 8a02 6bbe
00000140: 219b 69be 0cb0 8ebd 39b9 a33e 0375 8abd
00000150: 86ba 27bf 8ac7 193e 518c 86be 6118 f03d
00000160: e7c9 9c3e 2df7 3b3d 3b79 9bbe 1262 ca3e
00000170: 6f30 00be ec99 823e f376 25bd a1d0 fabd
00000180: cd33 043e bb71 1fbe 207e 4d3f dd21 f93a
00000190: bac7 4ebf 417b f1bb 2e72 a23d 04d7 70be
000001a0: ee91 413d c4cf 593c 98be 1a3b 044c d93d
000001b0: e845 96bc d287 df3c 7a8f 7fbd c982 0ebd
000001c0: 841d 99be f297 74be 0f5a 113e 5f6c d63d
000001d0: 9e5c f3bd 1edd 863d 7021 b23e bb18 043e
000001e0: 78e6 893e 1578 45bf 6537 24bd 747c aebd
000001f0: 123d a63e 92e3 db3d cd5c 253e 9e71 153e
00000200: 31b2 16bd 5d2c 85bd 773f 703e 6a87 a13d
00000210: a7b3 733e 6f35 263e ca3c 07bc 8af1 27be
00000220: ff4c a43d ab2b e8bc 0c20 57be 99b7 59be
00000230: e6d2 3a3e 5215 5cbc 5ce6 22bf c3de 453e
00000240: 690c 013d 79ec 0c3d 476e 893d 99f4 89bd
00000250: 8dcd a5be 1283 633d b238 913e f8ff febd
00000260: d06a 7e3e 3ceb 3ebe 7f78 5abc 5227 0dbe
00000270: 93df 913e 428f 993c dee2 bfbe 2772 8c3d
00000280: 5b13 abbd 9b92 f93d 07b2 86bf 1ff0 113e
00000290: e160 cabe fb94 8a3e 906b a43d 4196 dcbc
000002a0: c377 e03c e1ad f33e 56cd 163d abf5 cbbe
000002b0: 28c4 a53e c551 c7bd 6928 f43d df1c b5be
000002c0: f8d8 a1be 0ab4 a73d 6de3 b9bc 3642 93be
000002d0: 903b 323e 79bc 3d3e 91f0 18be 44aa 6e3e
000002e0: 7fc6 debe 4b64 533e 6258 49bd 0e58 75bc
000002f0: 9370 cfbc 0dd0 02be d566 433e 1025 823e
00000300: eaca 233d 1f5d 58be 63ba 71be fa70 bb3e
00000310: bd2e 363c 2a8f b03d 14c1 9abd 9700 bcbe
00000320: ccb1 b73e 85ca 83be 84ef b3be e1c6 1bc0
00000330: d163 a33a 482c 953d b822 aabc fb3d af3e
00000340: 1c8a 96be 05b4 59be 386e 81bd 4ca3 cbbd
00000350: ef53 df3c 4c90 8abc 12fd aa3e a33e 413c
00000360: 2552 8abe 34f1 733e f7ac c1bd da89 d53d
00000370: e38e c5be d594 083e f85f 83be 4ab1 50be
00000380: 5a84 2bbf 5bf9 9dbe cad4 67bc 6815 34be
00000390: 1ef3 ec3d 9ad1 92be eb18 223e 3771 c73c
000003a0: b372 2b3f 5a73 a23b 3f03 2fbf f551 08be
000003b0: d884 863e 4dfc 963d a4a9 453c 2b2d 6dbd
000003c0: 18d2 863e bc3f b5be 513a 6bbe 8942 d4bd
000003d0: 092d c23d 1fe9 55be c6cc bbbe 55c1 7f3e
000003e0: 77cb 88be 70a6 9fbe d70f 5b3e 4fdc 63be
000003f0: f8b4 91be 456a ec3e b629 b93d 6b7f c4bd

model.0.bias f4 [128]
0.19705902 0.010123312 -0.37836137 0.13553424 0.0030502665 0.16335186 0.025417468 -0.17252807
-0.04194025 -0.3623179 0.006197438 0.21296503 0.1771087 -0.42827222 0.037661493 0.0045208917
-0.22556111 0.10756682 -0.198715 -0.24711321 0.022813652 -0.30309853 -0.29325098 -0.11138978
-0.1560677 -0.17542039 -0.15527393 -0.09852396 -0.19337316 0.09898373 0.1431457 -0.32243705
0.19659542 0.024623591 0.2569276 -0.26950082 -0.27978712 -0.053254247 -0.28510138 0.0708338
0.022606792 -0.33208677 0.1274119 0.28521386 0.27994454 -0.33799076 0.15558864 -0.19247475
0.22737886 0.012755106 -0.1509867 -0.17347625 -0.054521516 -0.20826308 -0.16390784 -0.31073123
0.11516694 -0.232409 -0.29678988 -0.19929223 -0.3887963 -0.0658349 0.14957999 0.09916644
-0.25386804 -0.422068 -0.36920366 -0.27257714 -0.04581293 -0.027723012 0.038687628 -0.3286399
0.20179103 0.33169582 0.1873953 -0.06088789 -0.35177967 -0.26249993 0.024929957 0.25580302
-0.14010008 -0.36267254 0.2002159 -0.3715632 0.09305123 0.26577488 -0.2160023 0.023778817
0.05084378 0.31053165 -0.32778016 -0.027240628 0.16343077 0.27673462 0.22414126 -0.17676106
0.18028392 0.033933602 -0.189948 0.10300981 -0.38716075 -0.31050837 -0.30558103 -0.12555328
0.13096654 -0.2509269 -0.15104042 -0.041271918 0.03644227 -0.2933895 -0.040965512 -0.071833484
-0.30249253 0.02350071 0.12160092 0.16713077 -0.14056587 -0.120977 0.10403058 0.18039477
0.03569495 0.06783807 -0.10293754 0.28412977 -0.19864856 -0.015204849 -0.13514926 -0.040734705
00000000: d7c9 493e 3fdc 253c 95b8 c1be 7dc9 0a3e
00000010: fbe6 473b b645 273e 4b38 d03c 33ab 30be
00000020: 8ac9 2bbd bb81 b9be e113 cb3b 8113 5a3e
00000030: fc5b 353e 7f46 dbbe f042 1a3d fd23 943b
00000040: 7ef9 66be fe4b dc3d f27b 4bbe 3f0b 7dbe
00000050: b2e3 ba3c bb2f 9bbe fe24 96be 5320 e4bd
00000060: 36d0 1fbe 67a1 33be 2100 1fbe eec6 c9bd
00000070: 9d03 46be fbb7 ca3d c994 123e 7816 a5be
00000080: 4f50 493e 6ab7 c93c 048c 833e 03fc 89be
00000090: 4240 8fbe 2021 5abd cff8 91be 5011 913d
000000a0: e131 b93c 4707 aabe 4478 023e 8d07 923e
000000b0: e454 8f3e 200d adbe a152 1f3e 1a18 45be
000000c0: 01d6 683e cbfa 503c 429c 1abe c2a3 31be
000000d0: f451 5fbd eb42 55be 75d7 27be 2a18 9fbe
000000e0: a5dc eb3d a0fc 6dbe d8f4 97be 4313 4cbe
000000f0: 4f10 c7be 73d4 86bd 7f2b 193e c617 cb3d
00000100: fefa 81be 4c19 d8be 4308 bdbe 3b8f 8bbe
00000110: 57a6 3bbd 5f1b e3bc eb76 1e3d 7d43 a8be
00000120: 4fa2 4e3e 09d4 a93e 8ee4 3f3e 9565 79bd
00000130: 771c b4be 6466 86be e939 cc3c 9df8 823e
00000140: 6576 0fbe 37b0 b9be 6605 4d3e 883d bebe
00000150: a591 be3d a513 883e b52f 5dbe cbcb c23c
00000160: 9141 503d 01fe 9e3e cdd2 a7be bd27 dfbc
00000170: 655a 273e 29b0 8d3e 4985 653e da00 35be
00000180: 599c 383e f6fd 0a3d ba81 42be cff6 d23d
00000190: ef39 c6be f4fa 9ebe 1e75 9cbe 0a91 00be
000001a0: 181c 063e 7e79 80be 57aa 1abe be0c 29bd
000001b0: 7d44 153d 2637 96be 74cb 27bd 6f1d 93bd
000001c0: 4de0 9abe 9084 c03c e709 f93d 5424 2b3e
000001d0: 80f0 0fbe cac2 f7bd fc0d d53d 68b9 383e
000001e0: de34 123d b0ee 8a3d ebd0 d2bd 7579 913e
000001f0: 876a 4bbe c21d 79bc 9164 0abe 6fd9 26bd

model.2.weight f4 [64, 128]
-0.03899151 -0.024394827 -0.064286575 -0.09550025 0.034020636 0.022127284 0.009431168 0.0009960459
-0.037195288 0.0016656962 -0.050759736 0.0578107 0.060343523 0.024724267 0.03665857 -0.06800522
0.023202494 -0.06555927 -0.08295387 0.031933203 0.049298957 -0.005929292 0.050471768 -0.081573494
0.027703864 -0.008539373 -0.034359246 0.05077399 -0.047631513 -0.073326126 -0.047305327 0.086678594
-0.06754771 -0.04250393 -0.03536802 0.07416804 0.016761186 -0.11071624 -0.02033874 0.031139696
0.006816979 -0.03909136 0.03558115 0.02881613 0.077103905 0.00887778 -0.02100892 -0.045834463
-0.0006947903 -0.0048577613 0.060660068 -0.0015620897 -0.056414157 -0.026362864 0.047122147 0.077038065
-0.05630091 0.009336327 0.07191738 -0.026749192 -0.07598583 0.05038606 0.09382039 0.06374341
-0.07725562 0.055171814 0.043944906 -0.08230042 0.017493565 0.04997929 0.067339845 -0.035017867
0.023530938 0.05046721 0.015382596 -0.08661313 -0.063950814 0.033971865 -0.07441426 0.006511709
-0.06437604 0.008768857 0.034502603 0.039100718 -0.08272703 -0.06364991 -0.00979537 0.045572065
-0.00760961 -0.014272777 0.03194844 0.024045652 0.023719056 -0.017897999 -0.112078495 -0.08839977
-0.01855321 -0.045168083 0.002931588 -0.041257095 0.025775379 -0.06318577 -0.0033952026 0.07987812
0.034539614 -0.10520938 -0.015610792 -0.017855868 -0.03624133 0.05187154 0.03260555 -0.02178541
0.04480267 -0.05446166 0.0020844883 0.00938335 0.07199697 -0.05879619 -0.059702877 -0.031126829
-0.0009831113 -0.084386565 -0.091200836 0.041506324 0.038119573 0.068759106 0.020149095 0.059386183
-0.13852993 0.14264108 -0.08275001 0.09097125 0.005643485 -0.15525302 0.12327287 0.022124492
0.3066161 -0.08663276 -0.007062347 -0.00397413 0.18839136 0.15307824 -0.07181356 -0.056960516
0.017577522 -0.2502364 -0.26962897 -0.04776986 0.12172788 -0.035117377 0.089467734 0.39348376
0.33031237 -0.0073200855 -0.019695906 -0.038880244 -0.046988953 0.045721874 -0.011186451 0.27554348
0.014960407 -0.48098317 0.045385636 -0.08242858 -0.0020284364 -0.11147921 -0.078530975 0.80175775
0.14926878 -0.13484749 0.034737907 -0.12198127 0.3619223 0.06382417 -0.53915465 -0.2687687
0.07302391 -0.03842111 -0.007724186 0.048812818 -0.08217769 -0.32204667 0.14190996 0.08314903
-0.043185435 -0.014412136 -0.10881361 0.0046470882 -0.049690142 -0.11583587 0.08988697 0.18506868
0.056873083 0.07272919 -0.07204423 0.065684035 -0.0019652082 -0.21494731 -0.39482352 -0.031132886
-0.2479128 0.010731919 -0.21144833 0.055208012 -0.085846566 0.006167011 0.34170207 -0.097005576
0.0031126607 -0.016079986 -0.12494715 -0.05656991 0.13057658 -0.22336994 -0.010624999 -0.13576524
0.00244459 -0.16626418 0.04198372 0.26682758 0.2956548 -0.13679694 0.0067839073 -0.021430213
0.029915225 -0.21067668 -0.19396888 -0.14718834 0.052739047 0.015937345 -0.53050536 -0.7991792
-0.27790874 0.04241486 0.059479486 0.07058546 0.18637526 -0.34138107 0.04672293 -0.16064134
0.040096864 0.10428382 0.14270723 -0.10374219 -0.005480081 -0.15214142 -0.16899113 -0.13590781
0.15243384 -0.34025556 -0.05117996 -0.16450725 -0.1443951 -0.16231869 0.093263194 0.60595626
00000000: 90b5 1fbd a9d7 c7bc aea8 83bd a395 c3bd
00000010: 3959 0b3d 4744 b53c 3085 1a3c c18d 823a
00000020: 165a 18bd 7d53 da3a 71e9 4fbd eaca 6c3d
00000030: c52a 773d 8c8a ca3c 4c27 163d 5246 8bbd
00000040: 2813 be3c f043 86bd b8e3 a9bd 64cc 023d
00000050: b4ed 493d 824a c2bb 7cbb 4e3d 0110 a7bd
00000060: 37f3 e23c bae8 0bbc 48bc 0cbd 63f8 4f3d
00000070: 4319 43bd 022c 96bd 3bc3 41bd 8c84 b13d
00000080: 7456 8abd 9a18 2ebd 0fde 10bd 6ae5 973d
00000090: c14e 893c 32bf e2bd 6e9d a6bc ad18 ff3c
000000a0: f760 df3b 431e 20bd 8abd 113d ce0f ec3c
000000b0: a7e8 9d3d 1c74 113c e61a acbc ebbc 3bbd
000000c0: 9622 36ba db2d 9fbb b176 783d 08bf ccba
000000d0: 8812 67bd eff6 d7bc 2703 413d 22c6 9d3d
000000e0: c89b 66bd 65f7 183c 6b49 933d 1f21 dbbc
000000f0: 759e 9bbd 9d61 4e3d e824 c03d e88b 823d
00000100: 3238 9ebd d7fb 613d 93ff 333d 1f8d a8bd
00000110: aa4e 8f3c 16b7 4c3d 79e9 893d e56e 0fbd
00000120: f4c3 c03c b5b6 4e3d 4907 7c3c 3a62 b1bd
00000130: a5f8 82bd 1526 0b3d 8166 98bd 2d60 d53b
00000140: 96d7 83bd 41ab 0f3c 9a52 0d3d 1328 203d
00000150: ca6c a9bd e25a 82bd c27c 20bc c6a9 3a3d
00000160: 095a f9bb 5ed8 69bc 5edc 023d 63fb c43c
00000170: 774e c23c d39e 92bc 6989 e5bd f00a b5bd
00000180: e7fc 97bc 2b02 39bd e31f 403b 33fd 28bd
00000190: e326 d33c 8a67 81bd 0c82 5ebb 2497 a33d
000001a0: 6979 0d3d 0478 d7bd 68c4 7fbc 7846 92bc
000001b0: ca71 14bd 4077 543d 668d 053d 5177 b2bc
000001c0: 0183 373d 3113 5fbd e99b 083b 9fbc 193c
000001d0: 2673 933d 46d4 70bd 018b 74bd b1fd febc
000001e0: bedb 80ba ddd2 acbd 81c7 babd 8902 2a3d
000001f0: 4523 1c3d 93d1 8c3d b70f a53c ed3e 733d
00000200: cada 0dbe 8110 123e d678 a9bd 224f ba3d
00000210: fcec b83b a6fa 1ebe 7d76 fc3d 6c3e b53c
00000220: c9fc 9c3e 846c b1bd 436b e7bb 6b39 82bb
00000230: aae9 403e 8bc0 1c3e fd12 93bd 6e4f 69bd
00000240: bcfe 8f3c fc1e 80be cf0c 8abe 54aa 43bd
00000250: 774c f93d 3dd7 0fbd dc3a b73d b476 c93e
00000260: b41e a93e 54dd efbb 4f59 a1bc e440 1fbd
00000270: 7d77 40bd dc46 3b3d 6047 37bc 0914 8d3e
00000280: 7f1c 753c 6d43 f6be 4ae6 393d 51d0 a8bd
00000290: 84ef 04bb 364f e4bd d9d4 a0bd ff3f 4d3f
000002a0: ead9 183e 7615 0abe 5649 0e3d 51d1 f9bd
000002b0: e14d b93e 3fb6 823d 0a06 0abf 0d9c 89be
000002c0: 8f8d 953d 745f 1dbd 2b1b fdbb f3ef 473d
000002d0: c74c a8bd 4de3 a4be d850 113e 0a4a aa3d
000002e0: 36e3 30bd e120 6cbc acd9 debd 9a46 983b
000002f0: e487 4bbd 5b3b edbd a916 b83d a582 3d3e
00000300: c0f3 683d 0bf3 943d ed8b 93bd 5a85 863d
00000310: b9ca 00bb 261b 5cbe 4f26 cabe 650a ffbc
00000320: dadc 7dbe eed4 2f3c e985 58be cc21 623d
00000330: 53d0 afbd a314 ca3b 93f3 ae3e dcaa c6bd
00000340: c8fd 4b3b 2dba 83bc 4be4 ffbd dab5 67bd
00000350: deb5 053e 17bb 64be 7a14 2ebc 0b06 0bbe
00000360: 6a35 203b 2841 2abe 1ff7 2b3d a09d 883e
00000370: 1160 973e 7f14 0cbe 8a4b de3b 6a8e afbc
00000380: c610 f53c a1bb 57be c79f 46be 8ab8 16be
00000390: e604 583d 098f 823c 33cf 07bf 0297 4cbf
000003a0: 0e4a 8ebe 34bb 2d3d c3a0 733d 1c8f 903d
000003b0: 28d9 3e3e 80c9 aebe 8b60 3f3d 2a7f 24be
000003c0: 9c3c 243d c192 d53d d821 123e c976 d4bd
000003d0: 4092 b3bb f6ca 1bbe 030c 2dbe 6b2b 0bbe
000003e0: 9e17 1c3e fa35 aebe 14a2 51bd 9774 28be
000003f0: 4fdc 13be df36 26be c600 bf3d f31f 1b3f

model.2.bias f4 [64]
-0.10211185 -0.10356541 0.03414778 -0.07878995 -0.04527219 0.06532579 -0.025031766 -0.02908738
-0.04509925 0.016081411 -0.03586814 -0.08834669 0.04549915 0.029153476 -0.08186824 -0.053598598
-0.08066116 -0.035216574 -0.025930177 0.15290283 -0.039462443 0.0603826 0.046705674 -0.07506195
-0.11469039 0.043370683 -0.0815711 0.035495397 0.017873542 -0.0011932739 -0.08024167 -0.04301652
0.036676206 0.056968465 -0.09222674 -0.097237565 0.092827424 -0.002809477 0.046561226 0.14927071
-0.07754718 -7.241392e-05 -0.008355261 -0.09461362 -0.0006554253 0.045446765 -0.063954934 0.00010520171
0.08098725 -0.031055043 -0.0403798 -0.10544681 -0.06021598 0.06979428 -0.093335435 -0.0061340844
-0.057377245 -0.081882715 -0.025092619 -0.08108143 -0.030443307 -0.06276169 -0.023830062 0.023358757
00000000: 0520 d1bd 1a1a d4bd 8bde 0b3d a05c a1bd
00000010: 556f 39bd 87c9 853d 6b0f cdbc a848 eebc
00000020: feb9 38bd 2abd 833c 79ea 12bd 1cef b4bd
00000030: 515d 3a3d 45d3 ee3c 89aa a7bd 348a 5bbd
00000040: ae31 a5bd 413f 10bd 866b d4bc 8f92 1c3e
00000050: 5fa3 21bd bf53 773d 734e 3f3d 14ba 99bd
00000060: cce2 eabd 75a5 313d c00e a7bd 9f63 113d
00000070: 896b 923c a167 9cba bf55 a4bd 1732 30bd
00000080: ca39 163d c457 693d 60e1 bcbd 7d24 c7bd
00000090: 4e1c be3d 341f 38bb fcb6 3e3d 6cda 183e
000000a0: 0ed1 9ebd eddc 97b8 81e4 08bc c9c4 c1bd
000000b0: d9d0 2bba 6326 3a3d cefa 82bd bd9f dc38
000000c0: a5dc a53d 2567 febc 4a65 25bd 7ff4 d7bd
000000d0: 08a5 76bd 4ef0 8e3d a626 bfbd 6e00 c9bb
000000e0: 6704 6bbd 20b2 a7bd 098f cdbc 050e a6bd
000000f0: 3e64 f9bc 3389 80bd 4337 c3bc dd5a bf3c

model.4.weight f4 [4, 64]
0.006515287 0.028239029 0.017814497 -0.08040182 0.026373751 0.41994295 0.11956806 0.07554445
-0.0571222 -0.084033206 -0.08542148 0.08041066 -0.2251721 0.04978465 0.090832815 0.10997991
-0.028771214 0.07757282 0.03405684 0.11847516 -0.08526711 0.06896795 0.14240465 0.07404525
-0.023707537 0.016922811 0.12046875 0.021690324 -0.079338506 0.0342948 -0.009340294 -0.23031524
-0.0376328 0.033302173 0.04789233 -0.07426566 -0.036267903 -0.058031626 -0.06353392 0.10666625
0.04129067 -0.121159665 -0.06549756 0.049912654 0.12942332 0.029953817 -0.10396093 0.036892492
0.007170991 -0.22600421 0.24812526 0.04301107 -0.014713179 0.032443665 0.10037112 -0.0029579294
-0.084070206 0.03251778 -0.08161929 -0.03615229 0.009586664 -0.057698864 -0.17676067 0.048908263
0.016107125 0.059969682 -0.03531261 0.07928246 0.018078044 0.118075 0.046462964 0.032596275
-0.07442239 -0.07313493 -0.11289667 0.30781126 -0.09297236 0.109806694 0.016158968 -0.00964649
-0.0760612 0.10934641 -0.05706779 0.07871253 -0.005428463 0.11613982 0.4605814 0.050980814
-0.015169953 -0.0537211 -0.028411046 0.06605409 0.25814623 -0.05266284 -0.06860131 -0.55419344
-0.050543264 0.101382025 0.059900388 -0.089551285 -0.015124483 0.023648184 0.015975092 0.14045297
-0.093882635 -0.09655764 0.07614992 0.06546222 -0.0047011417 -0.004873043 -0.07374764 -0.08128617
0.0025571499 -0.7535453 0.14646903 -0.05291456 -0.080957614 -0.05000999 -0.11635142 0.09626733
-0.08752619 -0.08790023 0.044502556 -0.04106392 0.043181058 0.05605339 -0.27252495 0.013251093
0.10966109 -0.0023419387 0.01794513 0.06608455 0.06804467 0.3983804 -0.043992992 -0.24069397
0.08877161 -0.08207568 -0.14428012 -0.17283267 -0.08860207 0.07069078 0.061613396 0.109547645
0.00676669 0.113384366 -0.13620734 0.1210325 -0.099012375 0.113247745 0.11178054 -0.063752376
-0.06552686 -0.06209964 0.07304572 0.029947206 0.1313164 -0.061475396 0.06284581 -0.4419958
-0.047776382 0.0391114 -0.07570013 0.062965006 -0.033350147 -0.03251752 -0.058548074 0.0796998
-0.026908383 -0.028567666 -0.033665933 0.09239477 0.09759201 0.08115487 -0.1073562 -0.04305602
0.0028995234 0.014846064 0.23655707 0.10227617 0.008494881 -0.50309306 -0.04885584 0.10310224
-0.052935213 -0.06951302 0.07216322 0.06954868 0.061004445 -0.0076018632 -0.21152735 -0.023465136
-0.01756955 0.56498724 0.0348344 0.058476523 0.15022524 0.14657253 0.06890241 0.0068201227
-0.109348446 -0.009688002 -0.124446586 -0.34831542 -0.053577185 0.016802112 0.097360626 -0.09447329
0.14349128 0.008968458 0.00734995 0.12750459 -0.05807708 -0.017824009 0.3494782 0.107381
-0.0377888 0.10918885 0.040337324 0.10482846 0.18576275 -0.09148437 -0.069366 -0.4454351
-0.05075631 0.11784507 -0.09087959 -0.056627624 -0.51431787 0.0059953933 -0.0340006 0.11323285
0.09273447 0.02762589 0.086588375 -0.123764336 0.06998316 0.028228441 0.031944677 -0.08819962
-0.0857915 0.016746264 0.16603975 0.03680001 -0.099429235 -0.027697679 0.05352026 0.022247007
-0.02505581 0.06457503 -0.084432036 -0.014268138 -0.049669378 -0.021920826 -0.20265229 -0.033766557
00000000: 307e d53b 8955 e73c b5ef 913c b6a9 a4bd
00000010: c40d d83c c302 d73e 19e0 f43d 0cb7 9a3d
00000020: f8f8 69bd 9a19 acbd 75f1 aebd 58ae a43d
00000030: 8493 66be fdea 4b3d 8e06 ba3d 263d e13d
00000040: 9cb1 ebbc 80de 9e3d 2f7f 0b3d 1ba3 f23d
00000050: 86a0 aebd 123f 8d3d 86d2 113e 09a5 973d
00000060: 4f36 c2bc b5a1 8a3c 52b8 f63d e8af b13c
00000070: 3a7c a2bd b478 0c3d 0808 19bc c2d7 6bbe
00000080: da24 1abd dc67 083d bf2a 443d 9818 98bd
00000090: a78d 14bd 92b2 6dbd 121e 82bd d673 da3d
000000a0: 6820 293d 8f22 f8bd 9623 86bd 3671 4c3d
000000b0: 8c87 043e b561 f53c 78e9 d4bd 951c 173d
000000c0: a2fa ea3b a66d 67be 8c14 7e3e 602c 303d
000000d0: 8c0f 71bc a6e3 043d 608f cd3d d2d9 41bb
000000e0: 002d acbd 5d31 053d 0428 a7bd 6c14 14bd
000000f0: 6211 1d3c a555 6cbd c000 35be 0854 483d
00000100: 17f3 833c c5a2 753d f5a3 10bd d85e a23d
00000110: 6818 943c 4ed1 f13d f34f 3e3d ac83 053d
00000120: c46a 98bd c4c7 95bd 5f36 e7bd 7099 9d3e
00000130: 4b68 bebd 55e2 e03d d05f 843c 500c 1ebc
00000140: f9c5 9bbd 03f1 df3d eabf 69bd 0934 a13d
00000150: 40e1 b1bb b7da ed3d 53d1 eb3e 42d1 503d
00000160: 658b 78bc a80a 5cbd 48be e8bc 5e47 873d
00000170: be2b 843e fdb4 57bd d87e 8cbd 9fdf 0dbf
00000180: 7406 4fbd 61a1 cf3d 1c5a 753d aa66 b7bd
00000190: aecc 77bc d6b9 c13c 32de 823c e7d2 0f3e
000001a0: 8a45 c0bd 03c0 c5bd 7df4 9b3d 0e11 863d
000001b0: 090c 9abb 0cae 9fbb 0109 97bd 5d79 a6bd
000001c0: db95 273b 58e8 40bf fafb 153e f0bc 58bd
000001d0: 1bcd a5bd 46d7 4cbd a749 eebd ce27 c53d
000001e0: ee40 b3bd 0905 b4bd 5048 363d a432 28bd
000001f0: 9fde 303d 3d98 653d 6488 8bbe 1d1b 593c
00000200: fe95 e03d 367b 19bb aa01 933c 5657 873d
00000210: 015b 8b3d 84f8 cb3e ff31 34bd 7b78 76be
00000220: e4cd b53d 4b17 a8bd 2bbe 13be 0cfb 30be
00000230: 0175 b5bd 54c6 903d 545e 7c3d 845a e03d
00000240: 1cbb dd3b 1036 e83d f079 0bbe e3df f73d
00000250: 00c7 cabd 6fee e73d 32ed e43d 9b90 82bd
00000260: f232 86bd 315c 7ebd ff98 953d d853 f53c
00000270: ce77 063e a0cd 7bbd 4eb5 803d 464d e2be
00000280: 2bb1 43bd 4633 203d ab08 9bbd ccf3 803d
00000290: 2a9a 08bd 1731 05bd 1bd0 6fbd a639 a33d
000002a0: f86e dcbc bd06 eabc 4ae5 09bd 7839 bd3d
000002b0: 52de c73d 8634 a63d 91dd dbbd 825b 30bd
000002c0: ee05 3e3b e83c 733c 043c 723e 2b76 d13d
000002d0: 1d2e 0b3c b5ca 00bf 101d 48bd 4427 d33d
000002e0: 98d2 58bd d85c 8ebd 4fca 933d 8a6f 8e3d
000002f0: ccdf 793d 0d19 f9bb a09a 58be f539 c0bc
00000300: 04ee 8fbc 01a3 103f 84ae 0e3d 1485 6f3d
00000310: a5d4 193e 1c17 163e b51c 8d3d 567b df3b
00000320: 14f2 dfbd 6dba 1ebc dadd febd 6656 b2be
00000330: c073 5bbd 95a4 893c 0265 c73d 367b c1bd
00000340: 61ef 123e 70f0 123c d9d7 f03b 9090 023e
00000350: 3be2 6dbd a803 92bc ceee b23e 92ea db3d
00000360: 6ec8 1abd 679e df3d c038 253d 4eb0 d63d
00000370: 9738 3e3e 285c bbbd c30f 8ebd 1210 e4be
00000380: d9e5 4fbd c258 f13d 141f babd 5ef2 67bd
00000390: 56aa 03bf 0175 c43b 3744 0bbd a0e6 e73d
000003a0: 92eb bd3d b14f e23c 3f55 b13d 2878 fdbd
000003b0: 5553 8f3d 553f e73c 6cd8 023d 01a2 b4bd
000003c0: 74b3 afbd 762f 893c 5306 2a3e 9bbb 163d
000003d0: 8ea1 cbbd 3ee6 e2bc 0f38 5b3d 5b3f b63c
000003e0: d841 cdbc ea3f 843d b4ea acbd e9c4 69bc
000003f0: 1e72 4bbd 4e93 b3bc 1584 4fbe cd4e 0abd

model.4.bias f4 [4]
0.079660915 0.0949805 0.15704037 0.13115293
00000000: 4325 a33d 2385 c23d 31cf 203e f44c 063e

model.0.weight f4 [128, 7]
-0.36577195 0.19438031 -0.01691345 -0.32993332 -0.23123246 0.20474024 -0.23411404 0.16781056
-0.43441558 -0.40446705 0.33034402 0.31979996 -0.311594 0.1834884 -0.056013566 0.25818127
-0.24887937 0.13175164 -0.042014636 -0.17812425 0.32580706 0.08549718 -0.2148003 0.09268503
-0.18950254 0.2464352 -0.3477236 0.2600632 -0.21298909 -0.040605806 0.2886776 -0.19032872
0.23857124 -0.33945912 -0.014832183 -0.4450354 -0.38968906 0.1667129 -0.34156346 0.08939271
-0.20279856 -0.035373658 -0.055404034 -0.010755885 -0.42766646 0.20360124 -0.17714263 0.234654
0.19404276 -0.47120783 0.015416706 -0.26150206 0.34847394 -0.27247554 -0.09961926 0.118744016
0.18865947 -0.20029803 -0.21406558 -1.075241 -0.22654967 0.22913867 -0.068777695 -0.21352395
-0.14188388 -0.3130934 0.12921235 0.06630759 -0.18199706 -0.1926764 -0.25554934 -0.121225975
-0.3318592 -0.0124505665 0.06693068 -0.12087449 0.19065385 0.11792131 -0.18045433 -0.22950187
-0.22813083 -0.06967172 0.3197725 -0.067605995 -0.6551899 0.15017524 -0.26278928 0.117234
0.3062279 0.045890022 -0.3036593 0.39527947 -0.12518476 0.25508058 -0.040396642 -0.12246824
0.12910385 -0.15570728 0.80270576 0.0019007284 -0.8077351 -0.0073694293 0.07931934 -0.23519522
0.04725831 0.013294164 0.0023612138 0.10610202 -0.01834388 0.027286444 -0.06239269 -0.034792695
-0.2990533 -0.23886088 0.14194511 0.10469889 -0.118829 0.065851435 0.34791136 0.12900059
0.26933646 -0.77136356 -0.04009189 -0.08519831 0.32468468 0.10736765 0.16148682 0.14594123
-0.03679103 -0.06502602 0.2346171 0.07887156 0.23799 0.16231321 -0.008254239 -0.16400734
0.08022498 -0.028341135 -0.21008319 -0.21261443 0.18244514 -0.0134328175 -0.6363275 0.19323258
0.031505976 0.034405205 0.06710487 -0.067361064 -0.32383385 0.05554492 0.28363568 -0.12451166
0.24845433 -0.18644422 -0.013334393 -0.13784531 0.28490886 0.018745068 -0.37477773 0.0685771
-0.08353301 0.12186166 -1.052308 0.14251755 -0.39527038 0.27066788 0.080283284 -0.026927115
0.027400857 0.47593597 0.036816917 -0.39835867 0.32376218 -0.09732393 0.1192177 -0.3537359
-0.31610847 0.081886366 -0.022691453 -0.28761452 0.17405534 0.18528928 -0.14935519 0.23307139
-0.43510816 0.20643727 -0.049156554 -0.014974607 -0.025322234 -0.12774678 0.19082196 0.254189
0.039988436 -0.21129273 -0.23606257 0.36609632 0.011119542 0.086210564 -0.07556358 -0.367192
0.35877836 -0.25740448 -0.35143673 -2.4340136 0.0012465661 0.072838366 -0.020768508 0.34226975
-0.29402244 -0.21260078 -0.06319851 -0.09943256 0.027261702 -0.01691451 0.33396202 0.011794719
-0.27015796 0.2382248 -0.094568186 0.10426684 -0.38585576 0.13338025 -0.25659156 -0.2038013
-0.6699883 -0.30854306 -0.014149854 -0.17586291 0.115698084 -0.28675538 0.15829818 0.024345977
0.6697189 0.0049575986 -0.6836433 -0.13312514 0.26273227 0.07372341 0.012064371 -0.057904404
0.26332164 -0.35400188 -0.22971465 -0.10364253 0.09481246 -0.2088971 -0.36679667 0.24976094
-0.2671773 -0.3118167 0.21392761 -0.2225201 -0.2845838 0.46174827 0.09041159 -0.095946155
00000000: 7646 bbbe a20b 473e 138e 8abc 05ed a8be
00000010: 34c8 6cbe 6da7 513e 97bb 6fbe 88d6 2b3e
00000020: b86b debe 4e16 cfbe da22 a93e d2bc a33e
00000030: 4089 9fbe 62e4 3b3e 7b6e 65bd 5630 843e
00000040: 3cda 7ebe e7e9 063e 8a17 2cbd 3466 36be
00000050: 2fd0 a63e 2519 af3d 9cf4 5bbe a6d1 bd3d
00000060: f40c 42be 8259 7c3e d408 b2be 0127 853e
00000070: d019 5abe 4652 26bd 8dcd 933e 88e5 42be
00000080: 054c 743e 96cd adbe af02 73bc aedb e3be
00000090: 5385 c7be c9b6 2a3e 68e1 aebe 8613 b73d
000000a0: 6daa 4fbe f8e3 10bd 57ef 62bd 7439 30bc
000000b0: 19f7 dabe d87c 503e e164 35be 2349 703e
000000c0: 25b3 463e 2742 f1be 5a96 7c3c 99e3 85be
000000d0: 2d6b b23e ea81 8bbe 2f05 ccbd 1030 f33d
000000e0: f32f 413e ed1a 4dbe 0234 5bbe 7fa1 89bf
000000f0: a3fc 67be 54a3 6a3e 52db 8cbd 06a6 5abe
00000100: 024a 11be c74d a0be 3e50 043e 46cc 873d
00000110: 705d 3abe f64c 45be 5dd7 82be 5345 f8bd
00000120: 73e9 a9be 76fd 4bbc f412 893d 0b8d f7bd
00000130: c33a 433e ba80 f13d 05c9 38be 8a02 6bbe
00000140: 219b 69be 0cb0 8ebd 39b9 a33e 0375 8abd
00000150: 86ba 27bf 8ac7 193e 518c 86be 6118 f03d
00000160: e7c9 9c3e 2df7 3b3d 3b79 9bbe 1262 ca3e
00000170: 6f30 00be ec99 823e f376 25bd a1d0 fabd
00000180: cd33 043e bb71 1fbe 207e 4d3f dd21 f93a
00000190: bac7 4ebf 417b f1bb 2e72 a23d 04d7 70be
000001a0: ee91 413d c4cf 593c 98be 1a3b 044c d93d
000001b0: e845 96bc d287 df3c 7a8f 7fbd c982 0ebd
000001c0: 841d 99be f297 74be 0f5a 113e 5f6c d63d
000001d0: 9e5c f3bd 1edd 863d 7021 b23e bb18 043e
000001e0: 78e6 893e 1578 45bf 6537 24bd 747c aebd
000001f0: 123d a63e 92e3 db3d cd5c 253e 9e71 153e
00000200: 31b2 16bd 5d2c 85bd 773f 703e 6a87 a13d
00000210: a7b3 733e 6f35 263e ca3c 07bc 8af1 27be
00000220: ff4c a43d ab2b e8bc 0c20 57be 99b7 59be
00000230: e6d2 3a3e 5215 5cbc 5ce6 22bf c3de 453e
00000240: 690c 013d 79ec 0c3d 476e 893d 99f4 89bd
00000250: 8dcd a5be 1283 633d b238 913e f8ff febd
00000260: d06a 7e3e 3ceb 3ebe 7f78 5abc 5227 0dbe
00000270: 93df 913e 428f 993c dee2 bfbe 2772 8c3d
00000280: 5b13 abbd 9b92 f93d 07b2 86bf 1ff0 113e
00000290: e160 cabe fb94 8a3e 906b a43d 4196 dcbc
000002a0: c377 e03c e1ad f33e 56cd 163d abf5 cbbe
000002b0: 28c4 a53e c551 c7bd 6928 f43d df1c b5be
000002c0: f8d8 a1be 0ab4 a73d 6de3 b9bc 3642 93be
000002d0: 903b 323e 79bc 3d3e 91f0 18be 44aa 6e3e
000002e0: 7fc6 debe 4b64 533e 6258 49bd 0e58 75bc
000002f0: 9370 cfbc 0dd0 02be d566 433e 1025 823e
00000300: eaca 233d 1f5d 58be 63ba 71be fa70 bb3e
00000310: bd2e 363c 2a8f b03d 14c1 9abd 9700 bcbe
00000320: ccb1 b73e 85ca 83be 84ef b3be e1c6 1bc0
00000330: d163 a33a 482c 953d b822 aabc fb3d af3e
00000340: 1c8a 96be 05b4 59be 386e 81bd 4ca3 cbbd
00000350: ef53 df3c 4c90 8abc 12fd aa3e a33e 413c
00000360: 2552 8abe 34f1 733e f7ac c1bd da89 d53d
00000370: e38e c5be d594 083e f85f 83be 4ab1 50be
00000380: 5a84 2bbf 5bf9 9dbe cad4 67bc 6815 34be
00000390: 1ef3 ec3d 9ad1 92be eb18 223e 3771 c73c
000003a0: b372 2b3f 5a73 a23b 3f03 2fbf f551 08be
000003b0: d884 863e 4dfc 963d a4a9 453c 2b2d 6dbd
000003c0: 18d2 863e bc3f b5be 513a 6bbe 8942 d4bd
000003d0: 092d c23d 1fe9 55be c6cc bbbe 55c1 7f3e
000003e0: 77cb 88be 70a6 9fbe d70f 5b3e 4fdc 63be
000003f0: f8b4 91be 456a ec3e b629 b93d 6b7f c4bd

model.0.bias f4 [128]
0.19705902 0.010123312 -0.37836137 0.13553424 0.0030502665 0.16335186 0.025417468 -0.17252807
-0.04194025 -0.3623179 0.006197438 0.21296503 0.1771087 -0.42827222 0.037661493 0.0045208917
-0.22556111 0.10756682 -0.198715 -0.24711321 0.022813652 -0.30309853 -0.29325098 -0.11138978
-0.1560677 -0.17542039 -0.15527393 -0.09852396 -0.19337316 0.09898373 0.1431457 -0.32243705
0.19659542 0.024623591 0.2569276 -0.26950082 -0.27978712 -0.053254247 -0.28510138 0.0708338
0.022606792 -0.33208677 0.1274119 0.28521386 0.27994454 -0.33799076 0.15558864 -0.19247475
0.22737886 0.012755106 -0.1509867 -0.17347625 -0.054521516 -0.20826308 -0.16390784 -0.31073123
0.11516694 -0.232409 -0.29678988 -0.19929223 -0.3887963 -0.0658349 0.14957999 0.09916644
-0.25386804 -0.422068 -0.36920366 -0.27257714 -0.04581293 -0.027723012 0.038687628 -0.3286399
0.20179103 0.33169582 0.1873953 -0.06088789 -0.35177967 -0.26249993 0.024929957 0.25580302
-0.14010008 -0.36267254 0.2002159 -0.3715632 0.09305123 0.26577488 -0.2160023 0.023778817
0.05084378 0.31053165 -0.32778016 -0.027240628 0.16343077 0.27673462 0.22414126 -0.17676106
0.18028392 0.033933602 -0.189948 0.10300981 -0.38716075 -0.31050837 -0.30558103 -0.12555328
0.13096654 -0.2509269 -0.15104042 -0.041271918 0.03644227 -0.2933895 -0.040965512 -0.071833484
-0.30249253 0.02350071 0.12160092 0.16713077 -0.14056587 -0.120977 0.10403058 0.18039477
0.03569495 0.06783807 -0.10293754 0.28412977 -0.19864856 -0.015204849 -0.13514926 -0.040734705
00000000: d7c9 493e 3fdc 253c 95b8 c1be 7dc9 0a3e
00000010: fbe6 473b b645 273e 4b38 d03c 33ab 30be
00000020: 8ac9 2bbd bb81 b9be e113 cb3b 8113 5a3e
00000030: fc5b 353e 7f46 dbbe f042 1a3d fd23 943b
00000040: 7ef9 66be fe4b dc3d f27b 4bbe 3f0b 7dbe
00000050: b2e3 ba3c bb2f 9bbe fe24 96be 5320 e4bd
00000060: 36d0 1fbe 67a1 33be 2100 1fbe eec6 c9bd
00000070: 9d03 46be fbb7 ca3d c994 123e 7816 a5be
00000080: 4f50 493e 6ab7 c93c 048c 833e 03fc 89be
00000090: 4240 8fbe 2021 5abd cff8 91be 5011 913d
000000a0: e131 b93c 4707 aabe 4478 023e 8d07 923e
000000b0: e454 8f3e 200d adbe a152 1f3e 1a18 45be
000000c0: 01d6 683e cbfa 503c 429c 1abe c2a3 31be
000000d0: f451 5fbd eb42 55be 75d7 27be 2a18 9fbe
000000e0: a5dc eb3d a0fc 6dbe d8f4 97be 4313 4cbe
000000f0: 4f10 c7be 73d4 86bd 7f2b 193e c617 cb3d
00000100: fefa 81be 4c19 d8be 4308 bdbe 3b8f 8bbe
00000110: 57a6 3bbd 5f1b e3bc eb76 1e3d 7d43 a8be
00000120: 4fa2 4e3e 09d4 a93e 8ee4 3f3e 9565 79bd
00000130: 771c b4be 6466 86be e939 cc3c 9df8 823e
00000140: 6576 0fbe 37b0 b9be 6605 4d3e 883d bebe
00000150: a591 be3d a513 883e b52f 5dbe cbcb c23c
00000160: 9141 503d 01fe 9e3e cdd2 a7be bd27 dfbc
00000170: 655a 273e 29b0 8d3e 4985 653e da00 35be
00000180: 599c 383e f6fd 0a3d ba81 42be cff6 d23d
00000190: ef39 c6be f4fa 9ebe 1e75 9cbe 0a91 00be
000001a0: 181c 063e 7e79 80be 57aa 1abe be0c 29bd
000001b0: 7d44 153d 2637 96be 74cb 27bd 6f1d 93bd
000001c0: 4de0 9abe 9084 c03c e709 f93d 5424 2b3e
000001d0: 80f0 0fbe cac2 f7bd fc0d d53d 68b9 383e
000001e0: de34 123d b0ee 8a3d ebd0 d2bd 7579 913e
000001f0: 876a 4bbe c21d 79bc 9164 0abe 6fd9 26bd

model.2.weight f4 [64, 128]
-0.03899151 -0.024394827 -0.064286575 -0.09550025 0.034020636 0.022127284 0.009431168 0.0009960459
-0.037195288 0.0016656962 -0.050759736 0.0578107 0.060343523 0.024724267 0.03665857 -0.06800522
0.023202494 -0.06555927 -0.08295387 0.031933203 0.049298957 -0.005929292 0.050471768 -0.081573494
0.027703864 -0.008539373 -0.034359246 0.05077399 -0.047631513 -0.073326126 -0.047305327 0.086678594
-0.06754771 -0.04250393 -0.03536802 0.07416804 0.016761186 -0.11071624 -0.02033874 0.031139696
0.006816979 -0.03909136 0.03558115 0.02881613 0.077103905 0.00887778 -0.02100892 -0.045834463
-0.0006947903 -0.0048577613 0.060660068 -0.0015620897 -0.056414157 -0.026362864 0.047122147 0.077038065
-0.05630091 0.009336327 0.07191738 -0.026749192 -0.07598583 0.05038606 0.09382039 0.06374341
-0.07725562 0.055171814 0.043944906 -0.08230042 0.017493565 0.04997929 0.067339845 -0.035017867
0.023530938 0.05046721 0.015382596 -0.08661313 -0.063950814 0.033971865 -0.07441426 0.006511709
-0.06437604 0.008768857 0.034502603 0.039100718 -0.08272703 -0.06364991 -0.00979537 0.045572065
-0.00760961 -0.014272777 0.03194844 0.024045652 0.023719056 -0.017897999 -0.112078495 -0.08839977
-0.01855321 -0.045168083 0.002931588 -0.041257095 0.025775379 -0.06318577 -0.0033952026 0.07987812
0.034539614 -0.10520938 -0.015610792 -0.017855868 -0.03624133 0.05187154 0.03260555 -0.02178541
0.04480267 -0.05446166 0.0020844883 0.00938335 0.07199697 -0.05879619 -0.059702877 -0.031126829
-0.0009831113 -0.084386565 -0.091200836 0.041506324 0.038119573 0.068759106 0.020149095 0.059386183
-0.13852993 0.14264108 -0.08275001 0.09097125 0.005643485 -0.15525302 0.12327287 0.022124492
0.3066161 -0.08663276 -0.007062347 -0.00397413 0.18839136 0.15307824 -0.07181356 -0.056960516
0.017577522 -0.2502364 -0.26962897 -0.04776986 0.12172788 -0.035117377 0.089467734 0.39348376
0.33031237 -0.0073200855 -0.019695906 -0.038880244 -0.046988953 0.045721874 -0.011186451 0.27554348
0.014960407 -0.48098317 0.045385636 -0.08242858 -0.0020284364 -0.11147921 -0.078530975 0.80175775
0.14926878 -0.13484749 0.034737907 -0.12198127 0.3619223 0.06382417 -0.53915465 -0.2687687
0.07302391 -0.03842111 -0.007724186 0.048812818 -0.08217769 -0.32204667 0.14190996 0.08314903
-0.043185435 -0.014412136 -0.10881361 0.0046470882 -0.049690142 -0.11583587 0.08988697 0.18506868
0.056873083 0.07272919 -0.07204423 0.065684035 -0.0019652082 -0.21494731 -0.39482352 -0.031132886
-0.2479128 0.010731919 -0.21144833 0.055208012 -0.085846566 0.006167011 0.34170207 -0.097005576
0.0031126607 -0.016079986 -0.12494715 -0.05656991 0.13057658 -0.22336994 -0.010624999 -0.13576524
0.00244459 -0.16626418 0.04198372 0.26682758 0.2956548 -0.13679694 0.0067839073 -0.021430213
0.029915225 -0.21067668 -0.19396888 -0.14718834 0.052739047 0.015937345 -0.53050536 -0.7991792
-0.27790874 0.04241486 0.059479486 0.07058546 0.18637526 -0.34138107 0.04672293 -0.16064134
0.040096864 0.10428382 0.14270723 -0.10374219 -0.005480081 -0.15214142 -0.16899113 -0.13590781
0.15243384 -0.34025556 -0.05117996 -0.16450725 -0.1443951 -0.16231869 0.093263194 0.60595626
00000000: 90b5 1fbd a9d7 c7bc aea8 83bd a395 c3bd
00000010: 3959 0b3d 4744 b53c 3085 1a3c c18d 823a
00000020: 165a 18bd 7d53 da3a 71e9 4fbd eaca 6c3d
00000030: c52a 773d 8c8a ca3c 4c27 163d 5246 8bbd
00000040: 2813 be3c f043 86bd b8e3 a9bd 64cc 023d
00000050: b4ed 493d 824a c2bb 7cbb 4e3d 0110 a7bd
00000060: 37f3 e23c bae8 0bbc 48bc 0cbd 63f8 4f3d
00000070: 4319 43bd 022c 96bd 3bc3 41bd 8c84 b13d
00000080: 7456 8abd 9a18 2ebd 0fde 10bd 6ae5 973d
00000090: c14e 893c 32bf e2bd 6e9d a6bc ad18 ff3c
000000a0: f760 df3b 431e 20bd 8abd 113d ce0f ec3c
000000b0: a7e8 9d3d 1c74 113c e61a acbc ebbc 3bbd
000000c0: 9622 36ba db2d 9fbb b176 783d 08bf ccba
000000d0: 8812 67bd eff6 d7bc 2703 413d 22c6 9d3d
000000e0: c89b 66bd 65f7 183c 6b49 933d 1f21 dbbc
000000f0: 759e 9bbd 9d61 4e3d e824 c03d e88b 823d
00000100: 3238 9ebd d7fb 613d 93ff 333d 1f8d a8bd
00000110: aa4e 8f3c 16b7 4c3d 79e9 893d e56e 0fbd
00000120: f4c3 c03c b5b6 4e3d 4907 7c3c 3a62 b1bd
00000130: a5f8 82bd 1526 0b3d 8166 98bd 2d60 d53b
00000140: 96d7 83bd 41ab 0f3c 9a52 0d3d 1328 203d
00000150: ca6c a9bd e25a 82bd c27c 20bc c6a9 3a3d
00000160: 095a f9bb 5ed8 69bc 5edc 023d 63fb c43c
00000170: 774e c23c d39e 92bc 6989 e5bd f00a b5bd
00000180: e7fc 97bc 2b02 39bd e31f 403b 33fd 28bd
00000190: e326 d33c 8a67 81bd 0c82 5ebb 2497 a33d
000001a0: 6979 0d3d 0478 d7bd 68c4 7fbc 7846 92bc
000001b0: ca71 14bd 4077 543d 668d 053d 5177 b2bc
000001c0: 0183 373d 3113 5fbd e99b 083b 9fbc 193c
000001d0: 2673 933d 46d4 70bd 018b 74bd b1fd febc
000001e0: bedb 80ba ddd2 acbd 81c7 babd 8902 2a3d
000001f0: 4523 1c3d 93d1 8c3d b70f a53c ed3e 733d
00000200: cada 0dbe 8110 123e d678 a9bd 224f ba3d
00000210: fcec b83b a6fa 1ebe 7d76 fc3d 6c3e b53c
00000220: c9fc 9c3e 846c b1bd 436b e7bb 6b39 82bb
00000230: aae9 403e 8bc0 1c3e fd12 93bd 6e4f 69bd
00000240: bcfe 8f3c fc1e 80be cf0c 8abe 54aa 43bd
00000250: 774c f93d 3dd7 0fbd dc3a b73d b476 c93e
00000260: b41e a93e 54dd efbb 4f59 a1bc e440 1fbd
00000270: 7d77 40bd dc46 3b3d 6047 37bc 0914 8d3e
00000280: 7f1c 753c 6d43 f6be 4ae6 393d 51d0 a8bd
00000290: 84ef 04bb 364f e4bd d9d4 a0bd ff3f 4d3f
000002a0: ead9 183e 7615 0abe 5649 0e3d 51d1 f9bd
000002b0: e14d b93e 3fb6 823d 0a06 0abf 0d9c 89be
000002c0: 8f8d 953d 745f 1dbd 2b1b fdbb f3ef 473d
000002d0: c74c a8bd 4de3 a4be d850 113e 0a4a aa3d
000002e0: 36e3 30bd e120 6cbc acd9 debd 9a46 983b
000002f0: e487 4bbd 5b3b edbd a916 b83d a582 3d3e
00000300: c0f3 683d 0bf3 943d ed8b 93bd 5a85 863d
00000310: b9ca 00bb 261b 5cbe 4f26 cabe 650a ffbc
00000320: dadc 7dbe eed4 2f3c e985 58be cc21 623d
00000330: 53d0 afbd a314 ca3b 93f3 ae3e dcaa c6bd
00000340: c8fd 4b3b 2dba 83bc 4be4 ffbd dab5 67bd
00000350: deb5 053e 17bb 64be 7a14 2ebc 0b06 0bbe
00000360: 6a35 203b 2841 2abe 1ff7 2b3d a09d 883e
00000370: 1160 973e 7f14 0cbe 8a4b de3b 6a8e afbc
00000380: c610 f53c a1bb 57be c79f 46be 8ab8 16be
00000390: e604 583d 098f 823c 33cf 07bf 0297 4cbf
000003a0: 0e4a 8ebe 34bb 2d3d c3a0 733d 1c8f 903d
000003b0: 28d9 3e3e 80c9 aebe 8b60 3f3d 2a7f 24be
000003c0: 9c3c 243d c192 d53d d821 123e c976 d4bd
000003d0: 4092 b3bb f6ca 1bbe 030c 2dbe 6b2b 0bbe
000003e0: 9e17 1c3e fa35 aebe 14a2 51bd 9774 28be
000003f0: 4fdc 13be df36 26be c600 bf3d f31f 1b3f

model.2.bias f4 [64]
-0.10211185 -0.10356541 0.03414778 -0.07878995 -0.04527219 0.06532579 -0.025031766 -0.02908738
-0.04509925 0.016081411 -0.03586814 -0.08834669 0.04549915 0.029153476 -0.08186824 -0.053598598
-0.08066116 -0.035216574 -0.025930177 0.15290283 -0.039462443 0.0603826 0.046705674 -0.07506195
-0.11469039 0.043370683 -0.0815711 0.035495397 0.017873542 -0.0011932739 -0.08024167 -0.04301652
0.036676206 0.056968465 -0.09222674 -0.097237565 0.092827424 -0.002809477 0.046561226 0.14927071
-0.07754718 -7.241392e-05 -0.008355261 -0.09461362 -0.0006554253 0.045446765 -0.063954934 0.00010520171
0.08098725 -0.031055043 -0.0403798 -0.10544681 -0.06021598 0.06979428 -0.093335435 -0.0061340844
-0.057377245 -0.081882715 -0.025092619 -0.08108143 -0.030443307 -0.06276169 -0.023830062 0.023358757
00000000: 0520 d1bd 1a1a d4bd 8bde 0b3d a05c a1bd
00000010: 556f 39bd 87c9 853d 6b0f cdbc a848 eebc
00000020: feb9 38bd 2abd 833c 79ea 12bd 1cef b4bd
00000030: 515d 3a3d 45d3 ee3c 89aa a7bd 348a 5bbd
00000040: ae31 a5bd 413f 10bd 866b d4bc 8f92 1c3e
00000050: 5fa3 21bd bf53 773d 734e 3f3d 14ba 99bd
00000060: cce2 eabd 75a5 313d c00e a7bd 9f63 113d
00000070: 896b 923c a167 9cba bf55 a4bd 1732 30bd
00000080: ca39 163d c457 693d 60e1 bcbd 7d24 c7bd
00000090: 4e1c be3d 341f 38bb fcb6 3e3d 6cda 183e
000000a0: 0ed1 9ebd eddc 97b8 81e4 08bc c9c4 c1bd
000000b0: d9d0 2bba 6326 3a3d cefa 82bd bd9f dc38
000000c0: a5dc a53d 2567 febc 4a65 25bd 7ff4 d7bd
000000d0: 08a5 76bd 4ef0 8e3d a626 bfbd 6e00 c9bb
000000e0: 6704 6bbd 20b2 a7bd 098f cdbc 050e a6bd
000000f0: 3e64 f9bc 3389 80bd 4337 c3bc dd5a bf3c

model.4.weight f4 [4, 64]
0.006515287 0.028239029 0.017814497 -0.08040182 0.026373751 0.41994295 0.11956806 0.07554445
-0.0571222 -0.084033206 -0.08542148 0.08041066 -0.2251721 0.04978465 0.090832815 0.10997991
-0.028771214 0.07757282 0.03405684 0.11847516 -0.08526711 0.06896795 0.14240465 0.07404525
-0.023707537 0.016922811 0.12046875 0.021690324 -0.079338506 0.0342948 -0.009340294 -0.23031524
-0.0376328 0.033302173 0.04789233 -0.07426566 -0.036267903 -0.058031626 -0.06353392 0.10666625
0.04129067 -0.121159665 -0.06549756 0.049912654 0.12942332 0.029953817 -0.10396093 0.036892492
0.007170991 -0.22600421 0.24812526 0.04301107 -0.014713179 0.032443665 0.10037112 -0.0029579294
-0.084070206 0.03251778 -0.08161929 -0.03615229 0.009586664 -0.057698864 -0.17676067 0.048908263
0.016107125 0.059969682 -0.03531261 0.07928246 0.018078044 0.118075 0.046462964 0.032596275
-0.07442239 -0.07313493 -0.11289667 0.30781126 -0.09297236 0.109806694 0.016158968 -0.00964649
-0.0760612 0.10934641 -0.05706779 0.07871253 -0.005428463 0.11613982 0.4605814 0.050980814
-0.015169953 -0.0537211 -0.028411046 0.06605409 0.25814623 -0.05266284 -0.06860131 -0.55419344
-0.050543264 0.101382025 0.059900388 -0.089551285 -0.015124483 0.023648184 0.015975092 0.14045297
-0.093882635 -0.09655764 0.07614992 0.06546222 -0.0047011417 -0.004873043 -0.07374764 -0.08128617
0.0025571499 -0.7535453 0.14646903 -0.05291456 -0.080957614 -0.05000999 -0.11635142 0.09626733
-0.08752619 -0.08790023 0.044502556 -0.04106392 0.043181058 0.05605339 -0.27252495 0.013251093
0.10966109 -0.0023419387 0.01794513 0.06608455 0.06804467 0.3983804 -0.043992992 -0.24069397
0.08877161 -0.08207568 -0.14428012 -0.17283267 -0.08860207 0.07069078 0.061613396 0.109547645
0.00676669 0.113384366 -0.13620734 0.1210325 -0.099012375 0.113247745 0.11178054 -0.063752376
-0.06552686 -0.06209964 0.07304572 0.029947206 0.1313164 -0.061475396 0.06284581 -0.4419958
-0.047776382 0.0391114 -0.07570013 0.062965006 -0.033350147 -0.03251752 -0.058548074 0.0796998
-0.026908383 -0.028567666 -0.033665933 0.09239477 0.09759201 0.08115487 -0.1073562 -0.04305602
0.0028995234 0.014846064 0.23655707 0.10227617 0.008494881 -0.50309306 -0.04885584 0.10310224
-0.052935213 -0.06951302 0.07216322 0.06954868 0.061004445 -0.0076018632 -0.21152735 -0.023465136
-0.01756955 0.56498724 0.0348344 0.058476523 0.15022524 0.14657253 0.06890241 0.0068201227
-0.109348446 -0.009688002 -0.124446586 -0.34831542 -0.053577185 0.016802112 0.097360626 -0.09447329
0.14349128 0.008968458 0.00734995 0.12750459 -0.05807708 -0.017824009 0.3494782 0.107381
-0.0377888 0.10918885 0.040337324 0.10482846 0.18576275 -0.09148437 -0.069366 -0.4454351
-0.05075631 0.11784507 -0.09087959 -0.056627624 -0.51431787 0.0059953933 -0.0340006 0.11323285
0.09273447 0.02762589 0.086588375 -0.123764336 0.06998316 0.028228441 0.031944677 -0.08819962
-0.0857915 0.016746264 0.16603975 0.03680001 -0.099429235 -0.027697679 0.05352026 0.022247007
-0.02505581 0.06457503 -0.084432036 -0.014268138 -0.049669378 -0.021920826 -0.20265229 -0.033766557
00000000: 307e d53b 8955 e73c b5ef 913c b6a9 a4bd
00000010: c40d d83c c302 d73e 19e0 f43d 0cb7 9a3d
00000020: f8f8 69bd 9a19 acbd 75f1 aebd 58ae a43d
00000030: 8493 66be fdea 4b3d 8e06 ba3d 263d e13d
00000040: 9cb1 ebbc 80de 9e3d 2f7f 0b3d 1ba3 f23d
00000050: 86a0 aebd 123f 8d3d 86d2 113e 09a5 973d
00000060: 4f36 c2bc b5a1 8a3c 52b8 f63d e8af b13c
00000070: 3a7c a2bd b478 0c3d 0808 19bc c2d7 6bbe
00000080: da24 1abd dc67 083d bf2a 443d 9818 98bd
00000090: a78d 14bd 92b2 6dbd 121e 82bd d673 da3d
000000a0: 6820 293d 8f22 f8bd 9623 86bd 3671 4c3d
000000b0: 8c87 043e b561 f53c 78e9 d4bd 951c 173d
000000c0: a2fa ea3b a66d 67be 8c14 7e3e 602c 303d
000000d0: 8c0f 71bc a6e3 043d 608f cd3d d2d9 41bb
000000e0: 002d acbd 5d31 053d 0428 a7bd 6c14 14bd
000000f0: 6211 1d3c a555 6cbd c000 35be 0854 483d
00000100: 17f3 833c c5a2 753d f5a3 10bd d85e a23d
00000110: 6818 943c 4ed1 f13d f34f 3e3d ac83 053d
00000120: c46a 98bd c4c7 95bd 5f36 e7bd 7099 9d3e
00000130: 4b68 bebd 55e2 e03d d05f 843c 500c 1ebc
00000140: f9c5 9bbd 03f1 df3d eabf 69bd 0934 a13d
00000150: 40e1 b1bb b7da ed3d 53d1 eb3e 42d1 503d
00000160: 658b 78bc a80a 5cbd 48be e8bc 5e47 873d
00000170: be2b 843e fdb4 57bd d87e 8cbd 9fdf 0dbf
00000180: 7406 4fbd 61a1 cf3d 1c5a 753d aa66 b7bd
00000190: aecc 77bc d6b9 c13c 32de 823c e7d2 0f3e
000001a0: 8a45 c0bd 03c0 c5bd 7df4 9b3d 0e11 863d
000001b0: 090c 9abb 0cae 9fbb 0109 97bd 5d79 a6bd
000001c0: db95 273b 58e8 40bf fafb 153e f0bc 58bd
000001d0: 1bcd a5bd 46d7 4cbd a749 eebd ce27 c53d
000001e0: ee40 b3bd 0905 b4bd 5048 363d a432 28bd
000001f0: 9fde 303d 3d98 653d 6488 8bbe 1d1b 593c
00000200: fe95 e03d 367b 19bb aa01 933c 5657 873d
00000210: 015b 8b3d 84f8 cb3e ff31 34bd 7b78 76be
00000220: e4cd b53d 4b17 a8bd 2bbe 13be 0cfb 30be
00000230: 0175 b5bd 54c6 903d 545e 7c3d 845a e03d
00000240: 1cbb dd3b 1036 e83d f079 0bbe e3df f73d
00000250: 00c7 cabd 6fee e73d 32ed e43d 9b90 82bd
00000260: f232 86bd 315c 7ebd ff98 953d d853 f53c
00000270: ce77 063e a0cd 7bbd 4eb5 803d 464d e2be
00000280: 2bb1 43bd 4633 203d ab08 9bbd ccf3 803d
00000290: 2a9a 08bd 1731 05bd 1bd0 6fbd a639 a33d
000002a0: f86e dcbc bd06 eabc 4ae5 09bd 7839 bd3d
000002b0: 52de c73d 8634 a63d 91dd dbbd 825b 30bd
000002c0: ee05 3e3b e83c 733c 043c 723e 2b76 d13d
000002d0: 1d2e 0b3c b5ca 00bf 101d 48bd 4427 d33d
000002e0: 98d2 58bd d85c 8ebd 4fca 933d 8a6f 8e3d
000002f0: ccdf 793d 0d19 f9bb a09a 58be f539 c0bc
00000300: 04ee 8fbc 01a3 103f 84ae 0e3d 1485 6f3d
00000310: a5d4 193e 1c17 163e b51c 8d3d 567b df3b
00000320: 14f2 dfbd 6dba 1ebc dadd febd 6656 b2be
00000330: c073 5bbd 95a4 893c 0265 c73d 367b c1bd
00000340: 61ef 123e 70f0 123c d9d7 f03b 9090 023e
00000350: 3be2 6dbd a803 92bc ceee b23e 92ea db3d
00000360: 6ec8 1abd 679e df3d c038 253d 4eb0 d63d
00000370: 9738 3e3e 285c bbbd c30f 8ebd 1210 e4be
00000380: d9e5 4fbd c258 f13d 141f babd 5ef2 67bd
00000390: 56aa 03bf 0175 c43b 3744 0bbd a0e6 e73d
000003a0: 92eb bd3d b14f e23c 3f55 b13d 2878 fdbd
000003b0: 5553 8f3d 553f e73c 6cd8 023d 01a2 b4bd
000003c0: 74b3 afbd 762f 893c 5306 2a3e 9bbb 163d
000003d0: 8ea1 cbbd 3ee6 e2bc 0f38 5b3d 5b3f b63c
000003e0: d841 cdbc ea3f 843d b4ea acbd e9c4 69bc
000003f0: 1e72 4bbd 4e93 b3bc 1584 4fbe cd4e 0abd

model.4.bias f4 [4]
0.079660915 0.0949805 0.15704037 0.13115293
00000000: 4325 a33d 2385 c23d 31cf 203e f44c 063e
