checkpoints/checkpoint_ep200.pt (torch, 163021 bytes, 24 tensors)

model.0.weight f4 [128, 7]
00000000: 0c97 d2be 2725 433e 7f0a 603c 6855 d8be
00000010: 34c8 6cbe 6da7 513e 97bb 6fbe 8367 3d3e
00000020: 2b0e 0fbf 8cd6 c1be 04e8 b63e d2bc a33e
00000030: 4089 9fbe 62e4 3b3e 7b6e 65bd 5630 843e
00000040: 3cda 7ebe e7e9 063e 8a17 2cbd 3466 36be
00000050: 2fd0 a63e a3b5 c33d 9c43 c8be a421 343d
00000060: fc69 79be 8259 7c3e d408 b2be 0127 853e
00000070: 95b7 8dbe 88c7 6cbb 411d b63e de2d 63be
00000080: 054c 743e 96cd adbe af02 73bc 8cff 9cbe
00000090: 2859 e6be 9cb8 373e 1b34 69bf 8613 b73d
000000a0: 6daa 4fbe f8e3 10bd 502b 72ba 687e 5abd
000000b0: c5de 2fbf 4df7 4a3e e164 35be 2349 703e
000000c0: 25b3 463e d91f 28bf e1e8 9cbc 7985 eebe
000000d0: 2afa d23e ea81 8bbe 2f05 ccbd 1030 f33d
000000e0: 5dfd 953e 99ce d73d 465d 9dbe 44be 94bf
000000f0: a3fc 67be 54a3 6a3e 52db 8cbd 06a6 5abe
00000100: 024a 11be c74d a0be 3e50 043e 46cc 873d
00000110: 705d 3abe f64c 45be 5dd7 82be 5345 f8bd
00000120: 73e9 a9be 76fd 4bbc f412 893d 0b8d f7bd
00000130: c33a 433e 273f a73d a0b5 81be b170 37be
00000140: 4055 bbbe 0cb0 8ebd 39b9 a33e 0375 8abd
00000150: 16c4 34bf 9f1d 383e e148 9fbe d66f 043e
00000160: e7c9 9c3e 2df7 3b3d 3b79 9bbe c1f0 e53e
00000170: 73c1 7dbd afb1 923e b204 36bb a1d0 fabd
00000180: cd33 043e bb71 1fbe e456 4d3f b298 2d3d
00000190: e562 4cbf 89f3 51bc 2e72 a23d 04d7 70be
000001a0: ee91 413d c380 523b c9dd 3e3d 08cd cc3d
000001b0: e4eb 44bd d287 df3c 7a8f 7fbd c982 0ebd
000001c0: 841d 99be f297 74be 0f5a 113e 5f6c d63d
000001d0: 9e5c f3bd 1edd 863d 7021 b23e ef13 0c3e
000001e0: 375d 753e 08a6 54bf 3844 043d 747c aebd
000001f0: 123d a63e 92e3 db3d 2c4b 8a3e 5646 3c3e
00000200: 76d8 c3bc b155 c7bd 773f 703e 6a87 a13d
00000210: a7b3 733e 6f35 263e ca3c 07bc 8af1 27be
00000220: ff4c a43d ab2b e8bc 0c20 57be 99b7 59be
00000230: 2e76 753e afdf bebd ee1f 18bf 9440 4a3e
00000240: 690c 013d 79ec 0c3d 476e 893d 99f4 89bd
00000250: 8dcd a5be 1283 633d b238 913e f8ff febd
00000260: d06a 7e3e 3ceb 3ebe 7f78 5abc 5227 0dbe
00000270: 93df 913e 428f 993c dee2 bfbe 2772 8c3d
00000280: 5b13 abbd 6e4e ff3d 82bc a2bf a888 383e
00000290: 353e c3be fb94 8a3e 906b a43d 4196 dcbc
000002a0: be07 adbb 9c0f 0b3f 88c9 673d fbc9 d9be
000002b0: 28c4 a53e c551 c7bd 6928 f43d df1c b5be
000002c0: f8d8 a1be 0ab4 a73d 6de3 b9bc 3642 93be
000002d0: 903b 323e 79bc 3d3e 3374 48be 3a21 8a3e
000002e0: 3b5b 05bf 5a4f 883e 6258 49bd 0e58 75bc
000002f0: 9370 cfbc 4c2a 31be de2a 473e 7d46 8a3e
00000300: 96ef d73c 1f5d 58be 63ba 71be fa70 bb3e
00000310: bd2e 363c 2a8f b03d 14c1 9abd 9700 bcbe
00000320: ccb1 b73e 85ca 83be 84ef b3be 8644 0ec0
00000330: aa89 ed3d 0b09 083e 6e02 2ebd fb3d af3e
00000340: 1c8a 96be 05b4 59be 24ea fbbd 7a53 15be
00000350: 55ed debc 80e2 17bd 12fd aa3e a33e 413c
00000360: 2552 8abe 34f1 733e f7ac c1bd da89 d53d
00000370: e38e c5be d594 083e f85f 83be 4ab1 50be
00000380: 208a 12bf 5bdb 9bbe a007 a3bc a1f5 d7be
00000390: 1ef3 ec3d 9ad1 92be eb18 223e 34be 903d
000003a0: 0724 2b3f d230 283d 615a 2fbf f551 08be
000003b0: d884 863e 4dfc 963d d96d bdbc 727b 473b
000003c0: 7fa0 b13e a1d4 cbbe 513a 6bbe 8942 d4bd
000003d0: 092d c23d 1fe9 55be c6cc bbbe 55c1 7f3e
000003e0: 77cb 88be 70a6 9fbe d70f 5b3e 4fdc 63be
000003f0: 1fad 88be fd3e fb3e 46d8 253e c412 d8bd
-0.41130865 0.19057141 0.013674377 -0.4225266 -0.23123246 0.20474024 -0.23411404 0.18496518
-0.55880994 -0.37859 0.3572389 0.31979996 -0.311594 0.1834884 -0.056013566 0.25818127
-0.24887937 0.13175164 -0.042014636 -0.17812425 0.32580706 0.09556129 -0.39114082 0.043977395
-0.24356836 0.2464352 -0.3477236 0.2600632 -0.27679124 -0.0036129672 0.35569194 -0.22185466
0.23857124 -0.33945912 -0.014832183 -0.30663717 -0.44989896 0.17941517 -0.9109513 0.08939271
-0.20279856 -0.035373658 -0.00092380214 -0.053343207 -0.68699294 0.198209 -0.17714263 0.234654
0.19404276 -0.65673596 -0.019154014 -0.46586207 0.41206485 -0.27247554 -0.09961926 0.118744016
0.29294863 0.10537452 -0.30735224 -1.1620564 -0.22654967 0.22913867 -0.068777695 -0.21352395
-0.14188388 -0.3130934 0.12921235 0.06630759 -0.18199706 -0.1926764 -0.25554934 -0.121225975
-0.3318592 -0.0124505665 0.06693068 -0.12087449 0.19065385 0.08166342 -0.2533388 -0.17914082
-0.36588478 -0.06967172 0.3197725 -0.067605995 -0.70611703 0.1798005 -0.3111029 0.12933287
0.3062279 0.045890022 -0.3036593 0.44910243 -0.061952066 0.28651187 -0.0027773795 -0.12246824
0.12910385 -0.15570728 0.8021071 0.04238195 -0.798384 -0.012814411 0.07931934 -0.23519522
0.04725831 0.0032120205 0.04659823 0.10000044 -0.048076525 0.027286444 -0.06239269 -0.034792695
-0.2990533 -0.23886088 0.14194511 0.10469889 -0.118829 0.065851435 0.34791136 0.13679479
0.2396134 -0.83065844 0.03229162 -0.08519831 0.32468468 0.10736765 0.27010477 0.18386206
-0.023906928 -0.09733141 0.2346171 0.07887156 0.23799 0.16231321 -0.008254239 -0.16400734
0.08022498 -0.028341135 -0.21008319 -0.21261443 0.23970863 -0.09320008 -0.5942372 0.19751197
0.031505976 0.034405205 0.06710487 -0.067361064 -0.32383385 0.05554492 0.28363568 -0.12451166
0.24845433 -0.18644422 -0.013334393 -0.13784531 0.28490886 0.018745068 -0.37477773 0.0685771
-0.08353301 0.12466131 -1.2713778 0.1802088 -0.38133398 0.27066788 0.080283284 -0.026927115
-0.005280464 0.54320693 0.05658868 -0.4253691 0.32376218 -0.09732393 0.1192177 -0.3537359
-0.31610847 0.081886366 -0.022691453 -0.28761452 0.17405534 0.18528928 -0.19575576 0.26978475
-0.5209233 0.2662304 -0.049156554 -0.014974607 -0.025322234 -0.17301291 0.19449946 0.27006903
0.02635936 -0.21129273 -0.23606257 0.36609632 0.011119542 0.086210564 -0.07556358 -0.367192
0.35877836 -0.25740448 -0.35143673 -2.2229323 0.11598523 0.132847 -0.042482786 0.34226975
-0.29402244 -0.21260078 -0.12300518 -0.14582625 -0.027212778 -0.03708124 0.33396202 0.011794719
-0.27015796 0.2382248 -0.094568186 0.10426684 -0.38585576 0.13338025 -0.25659156 -0.2038013
-0.5724201 -0.30440792 -0.019901097 -0.42179587 0.115698084 -0.28675538 0.15829818 0.07067528
0.6685185 0.041062184 -0.6849728 -0.13312514 0.26273227 0.07372341 -0.023123669 0.003043857
0.3469276 -0.3981066 -0.22971465 -0.10364253 0.09481246 -0.2088971 -0.36679667 0.24976094
-0.2671773 -0.3118167 0.21392761 -0.2225201 -0.2669458 0.49071494 0.16195783 -0.10550454

model.0.bias f4 [128]
00000000: 548f 6f3e 29cc bd39 95b8 c1be 4153 5f3d
00000010: 30e2 e7bb 096a 933e effe 2c3c 050c edbd
00000020: 12de df3d bb81 b9be e113 cb3b a787 643e
00000030: 0cf2 4c3e bfe1 d8be 123a 5f3d 3de9 f6bb
00000040: 7ef9 66be c393 073e aa11 60be 3f0b 7dbe
00000050: 7727 9f3d bb2f 9bbe fe24 96be 4fc3 a4bd
00000060: ed35 efbd 67a1 33be 99b4 ecbd e29b d4bd
00000070: 9d03 46be 001a 293d 7b5d 073e 7816 a5be
00000080: a115 993e 186f b93c 19b3 883e 03fc 89be
00000090: 72aa 92be 15ff 70bd cff8 91be 1866 dd3d
000000a0: 12a0 243c 6d91 a2be 6b93 0f3e c7a5 8d3e
000000b0: e013 923e 200d adbe cbfb df3d e435 1ebe
000000c0: dd2c 4b3e cbfa 503c 7bd9 35be 968a 3dbe
000000d0: f00a 8abd 1e9b 65be 75d7 27be e33f afbe
000000e0: 0e3a e93d a0fc 6dbe 0955 a8be e6c0 29be
000000f0: b7a6 d1be 044e c3bd a85f ec3d f3f3 e13d
00000100: fefa 81be 653a d4be 4308 bdbe d497 a0be
00000110: 420d 19bb 62dc 00bd fe4e 0e3d 7d43 a8be
00000120: cced 283e 4aaa bb3e 317d 4b3e 17c4 04bd
00000130: 771c b4be 6466 86be 742a d7bc 265b 863e
00000140: 6576 0fbe 5308 a9be 6460 553e 883d bebe
00000150: e83d 523e e124 a23e b52f 5dbe 7413 15bd
00000160: 9299 17ba c52c ab3e cdd2 a7be 1649 19bc
00000170: ed7e 113e 10ed 903e 7037 623e 2c1c 4dbe
00000180: 0d9b 7e3e 14bb 4e3c 4742 38be 7f53 023e
00000190: ef39 c6be f4fa 9ebe 4c07 98be 27bb f1bd
000001a0: e104 0c3e bb49 9bbe 57aa 1abe 305a 86bd
000001b0: f974 113d 84f2 a6be c5a5 8abd 6f1d 93bd
000001c0: 49fc abbe 2cdb 4c3d 4d74 d83d abfc 173e
000001d0: 80f0 0fbe a7eb 2fbe 7e29 0d3e f0ad 563e
000001e0: 57a2 183d 94f4 a63d ca62 ccbd c3fd 9e3e
000001f0: c195 46be a22d 87bc dc74 fbbd 746a 94bd
0.23394519 0.00036201 -0.37836137 0.054522756 -0.007076524 0.28791836 0.010558828 -0.11574558
0.109310284 -0.3623179 0.006197438 0.22317372 0.20014209 -0.4235973 0.05449874 -0.0075351284
-0.22556111 0.1323996 -0.21881738 -0.24711321 0.07771199 -0.30309853 -0.29325098 -0.08045065
-0.116802074 -0.17542039 -0.11557884 -0.10381295 -0.19337316 0.04128456 0.13219254 -0.32243705
0.29899314 0.022635981 0.2669914 -0.26950082 -0.28645664 -0.058837015 -0.28510138 0.108104885
0.010047929 -0.31751576 0.14021079 0.2766554 0.28530788 -0.33799076 0.109366976 -0.15450245
0.19841333 0.012755106 -0.17758743 -0.18509898 -0.067403674 -0.22422454 -0.16390784 -0.3422843
0.11388026 -0.232409 -0.32877377 -0.16577491 -0.40947506 -0.09536365 0.115416825 0.11032858
-0.25386804 -0.41450801 -0.36920366 -0.31365836 -0.002335385 -0.031460173 0.0347433 -0.3286399
0.16496962 0.36653358 0.19871975 -0.03241357 -0.35177967 -0.26249993 -0.02626536 0.26241416
-0.14010008 -0.33014163 0.20837551 -0.3715632 0.20531428 0.3166876 -0.2160023 -0.036395505
-0.00057830766 0.33432594 -0.32778016 -0.009355804 0.14208575 0.28305864 0.2209146 -0.20030278
0.24863835 0.012617845 -0.17994033 0.12727164 -0.38716075 -0.31050837 -0.29693067 -0.118032746
0.13673736 -0.3032969 -0.15104042 -0.06560171 0.035511944 -0.326069 -0.06769899 -0.071833484
-0.33590916 0.050013706 0.105690576 0.14842479 -0.14056587 -0.17179738 0.1378536 0.2096479
0.037264194 0.08152118 -0.0997978 0.3105298 -0.19393064 -0.016501252 -0.122781485 -0.07246867

model.2.weight f4 [64, 128]
00000000: 90b5 1fbd a9d7 c7bc aea8 83bd a395 c3bd
00000010: 3959 0b3d 4744 b53c 3085 1a3c c18d 823a
00000020: 165a 18bd 7d53 da3a 71e9 4fbd eaca 6c3d
00000030: c52a 773d 8c8a ca3c 4c27 163d 5246 8bbd
00000040: 2813 be3c f043 86bd b8e3 a9bd 64cc 023d
00000050: b4ed 493d 824a c2bb 7cbb 4e3d 0110 a7bd
00000060: 37f3 e23c bae8 0bbc 48bc 0cbd 63f8 4f3d
00000070: 4319 43bd 022c 96bd 3bc3 41bd 8c84 b13d
00000080: 7456 8abd 9a18 2ebd 0fde 10bd 6ae5 973d
00000090: c14e 893c 32bf e2bd 6e9d a6bc ad18 ff3c
000000a0: f760 df3b 431e 20bd 8abd 113d ce0f ec3c
000000b0: a7e8 9d3d 1c74 113c e61a acbc ebbc 3bbd
000000c0: 9622 36ba db2d 9fbb b176 783d 08bf ccba
000000d0: 8812 67bd eff6 d7bc 2703 413d 22c6 9d3d
000000e0: c89b 66bd 65f7 183c 6b49 933d 1f21 dbbc
000000f0: 759e 9bbd 9d61 4e3d e824 c03d e88b 823d
00000100: 3238 9ebd d7fb 613d 93ff 333d 1f8d a8bd
00000110: aa4e 8f3c 16b7 4c3d 79e9 893d e56e 0fbd
00000120: f4c3 c03c b5b6 4e3d 4907 7c3c 3a62 b1bd
00000130: a5f8 82bd 1526 0b3d 8166 98bd 2d60 d53b
00000140: 96d7 83bd 41ab 0f3c 9a52 0d3d 1328 203d
00000150: ca6c a9bd e25a 82bd c27c 20bc c6a9 3a3d
00000160: 095a f9bb 5ed8 69bc 5edc 023d 63fb c43c
00000170: 774e c23c d39e 92bc 6989 e5bd f00a b5bd
00000180: e7fc 97bc 2b02 39bd e31f 403b 33fd 28bd
00000190: e326 d33c 8a67 81bd 0c82 5ebb 2497 a33d
000001a0: 6979 0d3d 0478 d7bd 68c4 7fbc 7846 92bc
000001b0: ca71 14bd 4077 543d 668d 053d 5177 b2bc
000001c0: 0183 373d 3113 5fbd e99b 083b 9fbc 193c
000001d0: 2673 933d 46d4 70bd 018b 74bd b1fd febc
000001e0: bedb 80ba ddd2 acbd 81c7 babd 8902 2a3d
000001f0: 4523 1c3d 93d1 8c3d b70f a53c ed3e 733d
00000200: f71e efbd 5661 4a3e d678 a9bd 1327 743c
00000210: a996 f1bd 05a0 20be b2fd 8c3d 3d4c e5bd
00000220: c9fc 9c3e 846c b1bd 436b e7bb 23a6 8cbc
00000230: de67 eb3c fed6 103e 4252 0dbe 7259 8ebd
00000240: bcfe 8f3c 4961 81be cf0c 8abe 54aa 43bd
00000250: 1780 3d3d 3dd7 0fbd dc3a b73d 34b4 e53e
00000260: b41e a93e 54dd efbb 62c0 12be 13a5 aabd
00000270: 7d77 40bd d652 22bd bb27 3dbd 0914 8d3e
00000280: 386a 0f3d 6d43 f6be 7489 ecbc 51d0 a8bd
00000290: 84ef 04bb 7db7 4ebe d9d4 a0bd 5a01 643f
000002a0: d2e3 1b3e de93 263b 696d c23c 29d9 e5bd
000002b0: dc4d b43e 3fb6 823d 0a06 0abf bbea 74be
000002c0: dab2 a7bc 745f 1dbd d6ea 813c b8d6 92bd
000002d0: 9961 59be a087 17bf d850 113e 0a4a aa3d
000002e0: 5654 5bbe e120 6cbc acd9 debd 8850 9b3d
000002f0: e487 4bbd ad6a 31bd d420 c93d b80a 6f3e
00000300: c0f3 683d f7b6 053d ed8b 93bd 74d5 f43d
00000310: b9ca 00bb 7c84 b8be 4f26 cabe 650a ffbc
00000320: 372f 70be 23f0 b8bd 6c58 3abe aa85 9c3d
00000330: 53d0 afbd a314 ca3b 1516 803e dcaa c6bd
00000340: c8fd 4b3b 2dba 83bc d9e5 96be dab5 67bd
00000350: 4eb2 1c3e 5d9a 7abe 7a14 2ebc 2ff3 61be
00000360: ad5d 8bbe 95ed 58be 1ff7 2b3d 1ca8 2d3e
00000370: 9ccb 8c3e 2f05 2ebe 9a80 bf3c b2a8 503d
00000380: 6852 dfbc ae8c 68be c79f 46be d9a7 e1bd
00000390: e604 583d 098f 823c def2 25bf c984 2dbf
000003a0: 3892 fcbe d3ce e63d c3a0 733d 721e 03bd
000003b0: 4c68 3d3e 1ca1 08bf 8b60 3f3d 2a7f 24be
000003c0: 4c31 7dbd 5521 003e 3b0a 693d c976 d4bd
000003d0: 4092 b3bb 768b 26be a48d 29be 6b2b 0bbe
000003e0: d200 763e 9917 a7be ad16 a0bd 31a5 31be
000003f0: 4fdc 13be e78d 71be 781c 28bd b380 133f
-0.03899151 -0.024394827 -0.064286575 -0.09550025 0.034020636 0.022127284 0.009431168 0.0009960459
-0.037195288 0.0016656962 -0.050759736 0.0578107 0.060343523 0.024724267 0.03665857 -0.06800522
0.023202494 -0.06555927 -0.08295387 0.031933203 0.049298957 -0.005929292 0.050471768 -0.081573494
0.027703864 -0.008539373 -0.034359246 0.05077399 -0.047631513 -0.073326126 -0.047305327 0.086678594
-0.06754771 -0.04250393 -0.03536802 0.07416804 0.016761186 -0.11071624 -0.02033874 0.031139696
0.006816979 -0.03909136 0.03558115 0.02881613 0.077103905 0.00887778 -0.02100892 -0.045834463
-0.0006947903 -0.0048577613 0.060660068 -0.0015620897 -0.056414157 -0.026362864 0.047122147 0.077038065
-0.05630091 0.009336327 0.07191738 -0.026749192 -0.07598583 0.05038606 0.09382039 0.06374341
-0.07725562 0.055171814 0.043944906 -0.08230042 0.017493565 0.04997929 0.067339845 -0.035017867
0.023530938 0.05046721 0.015382596 -0.08661313 -0.063950814 0.033971865 -0.07441426 0.006511709
-0.06437604 0.008768857 0.034502603 0.039100718 -0.08272703 -0.06364991 -0.00979537 0.045572065
-0.00760961 -0.014272777 0.03194844 0.024045652 0.023719056 -0.017897999 -0.112078495 -0.08839977
-0.01855321 -0.045168083 0.002931588 -0.041257095 0.025775379 -0.06318577 -0.0033952026 0.07987812
0.034539614 -0.10520938 -0.015610792 -0.017855868 -0.03624133 0.05187154 0.03260555 -0.02178541
0.04480267 -0.05446166 0.0020844883 0.00938335 0.07199697 -0.05879619 -0.059702877 -0.031126829
-0.0009831113 -0.084386565 -0.091200836 0.041506324 0.038119573 0.068759106 0.020149095 0.059386183
-0.11675828 0.19763693 -0.08275001 0.014901894 -0.11796314 -0.15686043 0.06884326 -0.11196182
0.3066161 -0.08663276 -0.007062347 -0.017169064 0.028736051 0.14144513 -0.1380091 -0.06950654
0.017577522 -0.25269535 -0.26962897 -0.04776986 0.046264734 -0.035117377 0.089467734 0.44864047
0.33031237 -0.0073200855 -0.143312 -0.08332267 -0.046988953 -0.03962978 -0.046180468 0.27554348
0.035013407 -0.48098317 -0.028874137 -0.08242858 -0.0020284364 -0.20187183 -0.078530975 0.8906456
0.15223625 0.0025417726 0.023733811 -0.11223061 0.35215652 0.06382417 -0.53915465 -0.23917668
-0.020471025 -0.03842111 0.015859049 -0.071698606 -0.21228637 -0.5919132 0.14190996 0.08314903
-0.2141889 -0.014412136 -0.10881361 0.075837195 -0.049690142 -0.043314625 0.098207146 0.23343933
0.056873083 0.032645192 -0.07204423 0.119547755 -0.0019652082 -0.36038578 -0.39482352 -0.031132886
-0.23455511 -0.090301774 -0.18197793 0.07642682 -0.085846566 0.006167011 0.25016847 -0.097005576
0.0031126607 -0.016079986 -0.29472235 -0.05656991 0.15302393 -0.24472947 -0.010624999 -0.22065423
-0.27219906 -0.2118438 0.04198372 0.1695866 0.27499092 -0.16994165 0.023376752 0.05094213
-0.027260974 -0.22709915 -0.19396888 -0.110183425 0.052739047 0.015937345 -0.6482371 -0.6778074
-0.49330306 0.11269917 0.059479486 -0.032011457 0.18496817 -0.53370833 0.04672293 -0.16064134
-0.06181459 0.12512715 0.056894522 -0.10374219 -0.005480081 -0.16264138 -0.16557938 -0.13590781
0.2402375 -0.3263519 -0.07816825 -0.17348172 -0.1443951 -0.23589288 -0.041042775 0.57618254

model.2.bias f4 [64]
00000000: 0520 d1bd 889d e6bd 8bde 0b3d a05c a1bd
00000010: 7701 22bd e65c 0a3e 6b0f cdbc 3622 79bd
00000020: feb9 38bd 2abd 833c f8ff 11bd d837 01be
00000030: 1221 2a3d adba 683d 89aa a7bd 348a 5bbd
00000040: ae31 a5bd 413f 10bd cb5e 35bd 7d42 403e
00000050: 5fa3 21bd 8775 923d f1b4 cb3d 14ba 99bd
00000060: cce2 eabd 75a5 313d c00e a7bd 111b 733d
00000070: 17b2 cebc b996 05bd bf55 a4bd 9508 5fbd
00000080: ca39 163d 1c5d af3d 60e1 bcbd 7d24 c7bd
00000090: 88ae 023e 341f 38bb e822 323d 9650 3a3e
000000a0: 0ed1 9ebd eddc 97b8 81e4 08bc c9c4 c1bd
000000b0: e3af 473d 6326 3a3d cefa 82bd bd9f dc38
000000c0: 76d0 9b3d b551 5cbd 3f82 63bd 7ff4 d7bd
000000d0: 08a5 76bd 34e2 023e a626 bfbd 6e00 c9bb
000000e0: 9c4d b0bd 20b2 a7bd 098f cdbc 050e a6bd
000000f0: 3e64 f9bc 3389 80bd 1ea5 b9bc dd5a bf3c
-0.10211185 -0.112605155 0.03414778 -0.07878995 -0.03955218 0.13512 -0.025031766 -0.06082364
-0.04509925 0.016081411 -0.0356445 -0.12618959 0.041535445 0.056818653 -0.08186824 -0.053598598
-0.08066116 -0.035216574 -0.044279855 0.18775363 -0.039462443 0.07151323 0.09946621 -0.07506195
-0.11469039 0.043370683 -0.0815711 0.059351984 -0.025231404 -0.032614443 -0.08024167 -0.054451544
0.036676206 0.08562681 -0.09222674 -0.097237565 0.12761891 -0.002809477 0.04349032 0.18194804
-0.07754718 -7.241392e-05 -0.008355261 -0.09461362 0.048751723 0.045446765 -0.063954934 0.00010520171
0.0760812 -0.05378886 -0.055544134 -0.10544681 -0.06021598 0.12781602 -0.093335435 -0.0061340844
-0.08608553 -0.081882715 -0.025092619 -0.08108143 -0.030443307 -0.06276169 -0.022661742 0.023358757

model.4.weight f4 [4, 64]
00000000: 307e d53b b853 853e b5ef 913c b6a9 a4bd
00000010: 9854 213d 5627 a23e 19e0 f43d 0cb7 9a3d
00000020: f8f8 69bd 9a19 acbd bf3b 71be 3220 313e
00000030: 0b79 39be 41e8 e03d 8e06 ba3d 263d e13d
00000040: 9cb1 ebbc 80de 9e3d 32ec f93c 43e5 3f3e
00000050: 86a0 aebd 9dc7 d13d 7db2 813e 09a5 973d
00000060: 4f36 c2bc b5a1 8a3c 52b8 f63d e40e 663e
00000070: 4f62 7abd b478 0c3d 0808 19bc 3d50 babe
00000080: da24 1abd cfcd 853d bf2a 443d 9818 98bd
00000090: d8c7 7abd 92b2 6dbd 121e 82bd 6999 e73d
000000a0: 6820 293d 8f22 f8bd 9623 86bd 3671 4c3d
000000b0: 501e 263e b561 f53c 78e9 d4bd 951c 173d
000000c0: a3e2 ee3c a55b 20be 8002 933e 602c 303d
000000d0: 8c0f 71bc 5bd6 483c 608f cd3d d2d9 41bb
000000e0: 002d acbd 5d31 053d 0428 a7bd 6c14 14bd
000000f0: 6211 1d3c a555 6cbd 8d8f 58be 0854 483d
00000100: 17f3 833c 8c76 723e f5a3 10bd d85e a23d
00000110: a7c3 df3c 7ec6 6d3e f34f 3e3d ac83 053d
00000120: c46a 98bd c4c7 95bd 9da1 45be 8d93 e33e
00000130: 629f 10be da99 063e d05f 843c 500c 1ebc
00000140: f9c5 9bbd 03f1 df3d eabf 69bd 35ad fd3d
00000150: 40e1 b1bb e965 6a3e 8634 ca3e 42d1 503d
00000160: 658b 78bc a80a 5cbd 48be e8bc 181e 6d3e
00000170: f3b5 313e fa1d ebbc d87e 8cbd 4f32 68be
00000180: 7406 4fbd 54d5 213e 1c5a 753d aa66 b7bd
00000190: faf7 31bc d6b9 c13c 32de 823c 063d 203e
000001a0: 8a45 c0bd 03c0 c5bd 7df4 9b3d 0e11 863d
000001b0: 842c d83b 0cae 9fbb 0109 97bd 5d79 a6bd
000001c0: 8acb 52bd f203 36bf 8807 c93e f0bc 58bd
000001d0: 1bcd a5bd 8a2d f9bd a749 eebd ce27 c53d
000001e0: ee40 b3bd 0905 b4bd 5048 363d a432 28bd
000001f0: 9fde 303d 3d98 653d 43cf a0be 1d1b 593c
00000200: fe95 e03d 29a0 adbe aa01 933c 5657 873d
00000210: 80fc 453e 8ec4 d33e ff31 34bd ab69 56be
00000220: e4cd b53d 4b17 a8bd 4d56 99be 35eb f73c
00000230: 528c 2ebe 4a3e 113e 545e 7c3d 845a e03d
00000240: 1cbb dd3b 1036 e83d f079 0bbe 36da 283e
00000250: 00c7 cabd 7be9 293e f8cf 4b3e 9b90 82bd
00000260: f232 86bd 315c 7ebd ff98 953d a862 943e
00000270: 8920 803e a0cd 7bbd 4eb5 803d 3392 45bf
00000280: 2bb1 43bd 6211 c63d ab08 9bbd ccf3 803d
00000290: 4d65 c8bd 1731 05bd 9094 6ebd a90b 143e
000002a0: f86e dcbc bd06 eabc 4ae5 09bd 7839 bd3d
000002b0: 7006 bd3d 8634 a63d 91dd dbbd 825b 30bd
000002c0: 5d7e c3bc 48ab 3dbe 7704 d53e 2b76 d13d
000002d0: 1d2e 0b3c 68e4 e2be 101d 48bd 4427 d33d
000002e0: ea1d 35bd d85c 8ebd 4fca 933d 8a6f 8e3d
000002f0: ccdf 793d 0d19 f9bb 2ae6 74be f539 c0bc
00000300: 04ee 8fbc 7938 9f3e 84ae 0e3d 1485 6f3d
00000310: 0a47 323e 8d4b 503e b51c 8d3d 567b df3b
00000320: 14f2 dfbd 6dba 1ebc 8be3 72be 8780 c2be
00000330: 4ec5 75be baa9 913d 0265 c73d 367b c1bd
00000340: 61ef 123e 70f0 123c d9d7 f03b 6453 053e
00000350: 3be2 6dbd fbe2 9d3d ebfa a73e 92ea db3d
00000360: 6ec8 1abd 679e df3d c038 253d a0b6 ac3e
00000370: 54f5 d23e 285c bbbd c30f 8ebd 8d8a 13bf
00000380: d9e5 4fbd aef8 413e 141f babd 5ef2 67bd
00000390: 0019 dfbe 0175 c43b 3744 0bbd b455 433e
000003a0: 92eb bd3d b14f e23c 3f55 b13d 2878 fdbd
000003b0: 9693 0a3e 553f e73c 6cd8 023d 01a2 b4bd
000003c0: d2ca 1abe fde1 84bd ae65 7f3e 9bbb 163d
000003d0: 8ea1 cbbd 46b4 53bd 0f38 5b3d 5b3f b63c
000003e0: d841 cdbc ea3f 843d b4ea acbd e9c4 69bc
000003f0: 1e72 4bbd 4e93 b3bc 8b8d bcbe cd4e 0abd
0.006515287 0.26040435 0.017814497 -0.08040182 0.039387316 0.31670636 0.11956806 0.07554445
-0.0571222 -0.084033206 -0.23557948 0.17297438 -0.1811258 0.10981799 0.090832815 0.10997991
-0.028771214 0.07757282 0.030508135 0.187398 -0.08526711 0.10243151 0.25331488 0.07404525
-0.023707537 0.016922811 0.12046875 0.22466618 -0.06112891 0.0342948 -0.009340294 -0.36389342
-0.0376328 0.065333955 0.04789233 -0.07426566 -0.061225742 -0.058031626 -0.06353392 0.113085575
0.04129067 -0.121159665 -0.06549756 0.049912654 0.16222501 0.029953817 -0.10396093 0.036892492
0.029160803 -0.1565996 0.28712845 0.04301107 -0.014713179 0.012258138 0.10037112 -0.0029579294
-0.084070206 0.03251778 -0.08161929 -0.03615229 0.009586664 -0.057698864 -0.2114851 0.048908263
0.016107125 0.23678035 -0.03531261 0.07928246 0.027314974 0.2322025 0.046462964 0.032596275
-0.07442239 -0.07313493 -0.19299932 0.4444851 -0.141233 0.13144627 0.016158968 -0.00964649
-0.0760612 0.10934641 -0.05706779 0.12386552 -0.005428463 0.22890438 0.39493197 0.050980814
-0.015169953 -0.0537211 -0.028411046 0.23156011 0.17354564 -0.028700817 -0.06860131 -0.22675441
-0.050543264 0.15804034 0.059900388 -0.089551285 -0.010862345 0.023648184 0.015975092 0.15648279
-0.093882635 -0.09655764 0.07614992 0.06546222 0.0065971036 -0.004873043 -0.07374764 -0.08128617
-0.05146364 -0.7109977 0.39263558 -0.05291456 -0.080957614 -0.12166889 -0.11635142 0.09626733
-0.08752619 -0.08790023 0.044502556 -0.04106392 0.043181058 0.05605339 -0.31408128 0.013251093
0.10966109 -0.33911255 0.01794513 0.06608455 0.19334602 0.41360897 -0.043992992 -0.20938747
0.08877161 -0.08207568 -0.29948655 0.030263523 -0.17045715 0.14183918 0.061613396 0.109547645
0.00676669 0.113384366 -0.13620734 0.16489491 -0.099012375 0.16592972 0.19903553 -0.063752376
-0.06552686 -0.06209964 0.07304572 0.2898152 0.25024822 -0.061475396 0.06284581 -0.7717621
-0.047776382 0.09671284 -0.07570013 0.062965006 -0.097849466 -0.03251752 -0.05824715 0.14457573
-0.026908383 -0.028567666 -0.033665933 0.09239477 0.092297435 0.08115487 -0.1073562 -0.04305602
-0.023863966 -0.1852237 0.4160497 0.10227617 0.008494881 -0.44314885 -0.04885584 0.10310224
-0.04421798 -0.06951302 0.07216322 0.06954868 0.061004445 -0.0076018632 -0.23915926 -0.023465136
-0.01756955 0.31097773 0.0348344 0.058476523 0.17409912 0.2034132 0.06890241 0.0068201227
-0.109348446 -0.009688002 -0.23719613 -0.37988684 -0.24001047 0.07112451 0.097360626 -0.09447329
0.14349128 0.008968458 0.00734995 0.13020092 -0.05807708 0.07709309 0.32808623 0.107381
-0.0377888 0.10918885 0.040337324 0.33733082 0.41202796 -0.09148437 -0.069366 -0.57633287
-0.05075631 0.1894252 -0.09087959 -0.056627624 -0.4357376 0.0059953933 -0.0340006 0.19075662
0.09273447 0.02762589 0.086588375 -0.123764336 0.13532862 0.028228441 0.031944677 -0.08819962
-0.15116432 -0.06488416 0.24941131 0.03680001 -0.099429235 -0.051685594 0.05352026 0.022247007
-0.02505581 0.06457503 -0.084432036 -0.014268138 -0.049669378 -0.021920826 -0.3682674 -0.033766557

model.4.bias f4 [4]
00000000: 8c80 dc3d 5c02 053e 1c94 393e 6460 213e
0.10766706 0.12989181 0.18122905 0.15759426

model.0.weight f4 [128, 7]
00000000: 0c97 d2be 2725 433e 7f0a 603c 6855 d8be
00000010: 34c8 6cbe 6da7 513e 97bb 6fbe 8367 3d3e
00000020: 2b0e 0fbf 8cd6 c1be 04e8 b63e d2bc a33e
00000030: 4089 9fbe 62e4 3b3e 7b6e 65bd 5630 843e
00000040: 3cda 7ebe e7e9 063e 8a17 2cbd 3466 36be
00000050: 2fd0 a63e a3b5 c33d 9c43 c8be a421 343d
00000060: fc69 79be 8259 7c3e d408 b2be 0127 853e
00000070: 95b7 8dbe 88c7 6cbb 411d b63e de2d 63be
00000080: 054c 743e 96cd adbe af02 73bc 8cff 9cbe
00000090: 2859 e6be 9cb8 373e 1b34 69bf 8613 b73d
000000a0: 6daa 4fbe f8e3 10bd 502b 72ba 687e 5abd
000000b0: c5de 2fbf 4df7 4a3e e164 35be 2349 703e
000000c0: 25b3 463e d91f 28bf e1e8 9cbc 7985 eebe
000000d0: 2afa d23e ea81 8bbe 2f05 ccbd 1030 f33d
000000e0: 5dfd 953e 99ce d73d 465d 9dbe 44be 94bf
000000f0: a3fc 67be 54a3 6a3e 52db 8cbd 06a6 5abe
00000100: 024a 11be c74d a0be 3e50 043e 46cc 873d
00000110: 705d 3abe f64c 45be 5dd7 82be 5345 f8bd
00000120: 73e9 a9be 76fd 4bbc f412 893d 0b8d f7bd
00000130: c33a 433e 273f a73d a0b5 81be b170 37be
00000140: 4055 bbbe 0cb0 8ebd 39b9 a33e 0375 8abd
00000150: 16c4 34bf 9f1d 383e e148 9fbe d66f 043e
00000160: e7c9 9c3e 2df7 3b3d 3b79 9bbe c1f0 e53e
00000170: 73c1 7dbd afb1 923e b204 36bb a1d0 fabd
00000180: cd33 043e bb71 1fbe e456 4d3f b298 2d3d
00000190: e562 4cbf 89f3 51bc 2e72 a23d 04d7 70be
000001a0: ee91 413d c380 523b c9dd 3e3d 08cd cc3d
000001b0: e4eb 44bd d287 df3c 7a8f 7fbd c982 0ebd
000001c0: 841d 99be f297 74be 0f5a 113e 5f6c d63d
000001d0: 9e5c f3bd 1edd 863d 7021 b23e ef13 0c3e
000001e0: 375d 753e 08a6 54bf 3844 043d 747c aebd
000001f0: 123d a63e 92e3 db3d 2c4b 8a3e 5646 3c3e
00000200: 76d8 c3bc b155 c7bd 773f 703e 6a87 a13d
00000210: a7b3 733e 6f35 263e ca3c 07bc 8af1 27be
00000220: ff4c a43d ab2b e8bc 0c20 57be 99b7 59be
00000230: 2e76 753e afdf bebd ee1f 18bf 9440 4a3e
00000240: 690c 013d 79ec 0c3d 476e 893d 99f4 89bd
00000250: 8dcd a5be 1283 633d b238 913e f8ff febd
00000260: d06a 7e3e 3ceb 3ebe 7f78 5abc 5227 0dbe
00000270: 93df 913e 428f 993c dee2 bfbe 2772 8c3d
00000280: 5b13 abbd 6e4e ff3d 82bc a2bf a888 383e
00000290: 353e c3be fb94 8a3e 906b a43d 4196 dcbc
000002a0: be07 adbb 9c0f 0b3f 88c9 673d fbc9 d9be
000002b0: 28c4 a53e c551 c7bd 6928 f43d df1c b5be
000002c0: f8d8 a1be 0ab4 a73d 6de3 b9bc 3642 93be
000002d0: 903b 323e 79bc 3d3e 3374 48be 3a21 8a3e
000002e0: 3b5b 05bf 5a4f 883e 6258 49bd 0e58 75bc
000002f0: 9370 cfbc 4c2a 31be de2a 473e 7d46 8a3e
00000300: 96ef d73c 1f5d 58be 63ba 71be fa70 bb3e
00000310: bd2e 363c 2a8f b03d 14c1 9abd 9700 bcbe
00000320: ccb1 b73e 85ca 83be 84ef b3be 8644 0ec0
00000330: aa89 ed3d 0b09 083e 6e02 2ebd fb3d af3e
00000340: 1c8a 96be 05b4 59be 24ea fbbd 7a53 15be
00000350: 55ed debc 80e2 17bd 12fd aa3e a33e 413c
00000360: 2552 8abe 34f1 733e f7ac c1bd da89 d53d
00000370: e38e c5be d594 083e f85f 83be 4ab1 50be
00000380: 208a 12bf 5bdb 9bbe a007 a3bc a1f5 d7be
00000390: 1ef3 ec3d 9ad1 92be eb18 223e 34be 903d
000003a0: 0724 2b3f d230 283d 615a 2fbf f551 08be
000003b0: d884 863e 4dfc 963d d96d bdbc 727b 473b
000003c0: 7fa0 b13e a1d4 cbbe 513a 6bbe 8942 d4bd
000003d0: 092d c23d 1fe9 55be c6cc bbbe 55c1 7f3e
000003e0: 77cb 88be 70a6 9fbe d70f 5b3e 4fdc 63be
000003f0: 1fad 88be fd3e fb3e 46d8 253e c412 d8bd
-0.41130865 0.19057141 0.013674377 -0.4225266 -0.23123246 0.20474024 -0.23411404 0.18496518
-0.55880994 -0.37859 0.3572389 0.31979996 -0.311594 0.1834884 -0.056013566 0.25818127
-0.24887937 0.13175164 -0.042014636 -0.17812425 0.32580706 0.09556129 -0.39114082 0.043977395
-0.24356836 0.2464352 -0.3477236 0.2600632 -0.27679124 -0.0036129672 0.35569194 -0.22185466
0.23857124 -0.33945912 -0.014832183 -0.30663717 -0.44989896 0.17941517 -0.9109513 0.08939271
-0.20279856 -0.035373658 -0.00092380214 -0.053343207 -0.68699294 0.198209 -0.17714263 0.234654
0.19404276 -0.65673596 -0.019154014 -0.46586207 0.41206485 -0.27247554 -0.09961926 0.118744016
0.29294863 0.10537452 -0.30735224 -1.1620564 -0.22654967 0.22913867 -0.068777695 -0.21352395
-0.14188388 -0.3130934 0.12921235 0.06630759 -0.18199706 -0.1926764 -0.25554934 -0.121225975
-0.3318592 -0.0124505665 0.06693068 -0.12087449 0.19065385 0.08166342 -0.2533388 -0.17914082
-0.36588478 -0.06967172 0.3197725 -0.067605995 -0.70611703 0.1798005 -0.3111029 0.12933287
0.3062279 0.045890022 -0.3036593 0.44910243 -0.061952066 0.28651187 -0.0027773795 -0.12246824
0.12910385 -0.15570728 0.8021071 0.04238195 -0.798384 -0.012814411 0.07931934 -0.23519522
0.04725831 0.0032120205 0.04659823 0.10000044 -0.048076525 0.027286444 -0.06239269 -0.034792695
-0.2990533 -0.23886088 0.14194511 0.10469889 -0.118829 0.065851435 0.34791136 0.13679479
0.2396134 -0.83065844 0.03229162 -0.08519831 0.32468468 0.10736765 0.27010477 0.18386206
-0.023906928 -0.09733141 0.2346171 0.07887156 0.23799 0.16231321 -0.008254239 -0.16400734
0.08022498 -0.028341135 -0.21008319 -0.21261443 0.23970863 -0.09320008 -0.5942372 0.19751197
0.031505976 0.034405205 0.06710487 -0.067361064 -0.32383385 0.05554492 0.28363568 -0.12451166
0.24845433 -0.18644422 -0.013334393 -0.13784531 0.28490886 0.018745068 -0.37477773 0.0685771
-0.08353301 0.12466131 -1.2713778 0.1802088 -0.38133398 0.27066788 0.080283284 -0.026927115
-0.005280464 0.54320693 0.05658868 -0.4253691 0.32376218 -0.09732393 0.1192177 -0.3537359
-0.31610847 0.081886366 -0.022691453 -0.28761452 0.17405534 0.18528928 -0.19575576 0.26978475
-0.5209233 0.2662304 -0.049156554 -0.014974607 -0.025322234 -0.17301291 0.19449946 0.27006903
0.02635936 -0.21129273 -0.23606257 0.36609632 0.011119542 0.086210564 -0.07556358 -0.367192
0.35877836 -0.25740448 -0.35143673 -2.2229323 0.11598523 0.132847 -0.042482786 0.34226975
-0.29402244 -0.21260078 -0.12300518 -0.14582625 -0.027212778 -0.03708124 0.33396202 0.011794719
-0.27015796 0.2382248 -0.094568186 0.10426684 -0.38585576 0.13338025 -0.25659156 -0.2038013
-0.5724201 -0.30440792 -0.019901097 -0.42179587 0.115698084 -0.28675538 0.15829818 0.07067528
0.6685185 0.041062184 -0.6849728 -0.13312514 0.26273227 0.07372341 -0.023123669 0.003043857
0.3469276 -0.3981066 -0.22971465 -0.10364253 0.09481246 -0.2088971 -0.36679667 0.24976094
-0.2671773 -0.3118167 0.21392761 -0.2225201 -0.2669458 0.49071494 0.16195783 -0.10550454

model.0.bias f4 [128]
00000000: 548f 6f3e 29cc bd39 95b8 c1be 4153 5f3d
00000010: 30e2 e7bb 096a 933e effe 2c3c 050c edbd
00000020: 12de df3d bb81 b9be e113 cb3b a787 643e
00000030: 0cf2 4c3e bfe1 d8be 123a 5f3d 3de9 f6bb
00000040: 7ef9 66be c393 073e aa11 60be 3f0b 7dbe
00000050: 7727 9f3d bb2f 9bbe fe24 96be 4fc3 a4bd
00000060: ed35 efbd 67a1 33be 99b4 ecbd e29b d4bd
00000070: 9d03 46be 001a 293d 7b5d 073e 7816 a5be
00000080: a115 993e 186f b93c 19b3 883e 03fc 89be
00000090: 72aa 92be 15ff 70bd cff8 91be 1866 dd3d
000000a0: 12a0 243c 6d91 a2be 6b93 0f3e c7a5 8d3e
000000b0: e013 923e 200d adbe cbfb df3d e435 1ebe
000000c0: dd2c 4b3e cbfa 503c 7bd9 35be 968a 3dbe
000000d0: f00a 8abd 1e9b 65be 75d7 27be e33f afbe
000000e0: 0e3a e93d a0fc 6dbe 0955 a8be e6c0 29be
000000f0: b7a6 d1be 044e c3bd a85f ec3d f3f3 e13d
00000100: fefa 81be 653a d4be 4308 bdbe d497 a0be
00000110: 420d 19bb 62dc 00bd fe4e 0e3d 7d43 a8be
00000120: cced 283e 4aaa bb3e 317d 4b3e 17c4 04bd
00000130: 771c b4be 6466 86be 742a d7bc 265b 863e
00000140: 6576 0fbe 5308 a9be 6460 553e 883d bebe
00000150: e83d 523e e124 a23e b52f 5dbe 7413 15bd
00000160: 9299 17ba c52c ab3e cdd2 a7be 1649 19bc
00000170: ed7e 113e 10ed 903e 7037 623e 2c1c 4dbe
00000180: 0d9b 7e3e 14bb 4e3c 4742 38be 7f53 023e
00000190: ef39 c6be f4fa 9ebe 4c07 98be 27bb f1bd
000001a0: e104 0c3e bb49 9bbe 57aa 1abe 305a 86bd
000001b0: f974 113d 84f2 a6be c5a5 8abd 6f1d 93bd
000001c0: 49fc abbe 2cdb 4c3d 4d74 d83d abfc 173e
000001d0: 80f0 0fbe a7eb 2fbe 7e29 0d3e f0ad 563e
000001e0: 57a2 183d 94f4 a63d ca62 ccbd c3fd 9e3e
000001f0: c195 46be a22d 87bc dc74 fbbd 746a 94bd
0.23394519 0.00036201 -0.37836137 0.054522756 -0.007076524 0.28791836 0.010558828 -0.11574558
0.109310284 -0.3623179 0.006197438 0.22317372 0.20014209 -0.4235973 0.05449874 -0.0075351284
-0.22556111 0.1323996 -0.21881738 -0.24711321 0.07771199 -0.30309853 -0.29325098 -0.08045065
-0.116802074 -0.17542039 -0.11557884 -0.10381295 -0.19337316 0.04128456 0.13219254 -0.32243705
0.29899314 0.022635981 0.2669914 -0.26950082 -0.28645664 -0.058837015 -0.28510138 0.108104885
0.010047929 -0.31751576 0.14021079 0.2766554 0.28530788 -0.33799076 0.109366976 -0.15450245
0.19841333 0.012755106 -0.17758743 -0.18509898 -0.067403674 -0.22422454 -0.16390784 -0.3422843
0.11388026 -0.232409 -0.32877377 -0.16577491 -0.40947506 -0.09536365 0.115416825 0.11032858
-0.25386804 -0.41450801 -0.36920366 -0.31365836 -0.002335385 -0.031460173 0.0347433 -0.3286399
0.16496962 0.36653358 0.19871975 -0.03241357 -0.35177967 -0.26249993 -0.02626536 0.26241416
-0.14010008 -0.33014163 0.20837551 -0.3715632 0.20531428 0.3166876 -0.2160023 -0.036395505
-0.00057830766 0.33432594 -0.32778016 -0.009355804 0.14208575 0.28305864 0.2209146 -0.20030278
0.24863835 0.012617845 -0.17994033 0.12727164 -0.38716075 -0.31050837 -0.29693067 -0.118032746
0.13673736 -0.3032969 -0.15104042 -0.06560171 0.035511944 -0.326069 -0.06769899 -0.071833484
-0.33590916 0.050013706 0.105690576 0.14842479 -0.14056587 -0.17179738 0.1378536 0.2096479
0.037264194 0.08152118 -0.0997978 0.3105298 -0.19393064 -0.016501252 -0.122781485 -0.07246867

model.2.weight f4 [64, 128]
00000000: 90b5 1fbd a9d7 c7bc aea8 83bd a395 c3bd
00000010: 3959 0b3d 4744 b53c 3085 1a3c c18d 823a
00000020: 165a 18bd 7d53 da3a 71e9 4fbd eaca 6c3d
00000030: c52a 773d 8c8a ca3c 4c27 163d 5246 8bbd
00000040: 2813 be3c f043 86bd b8e3 a9bd 64cc 023d
00000050: b4ed 493d 824a c2bb 7cbb 4e3d 0110 a7bd
00000060: 37f3 e23c bae8 0bbc 48bc 0cbd 63f8 4f3d
00000070: 4319 43bd 022c 96bd 3bc3 41bd 8c84 b13d
00000080: 7456 8abd 9a18 2ebd 0fde 10bd 6ae5 973d
00000090: c14e 893c 32bf e2bd 6e9d a6bc ad18 ff3c
000000a0: f760 df3b 431e 20bd 8abd 113d ce0f ec3c
000000b0: a7e8 9d3d 1c74 113c e61a acbc ebbc 3bbd
000000c0: 9622 36ba db2d 9fbb b176 783d 08bf ccba
000000d0: 8812 67bd eff6 d7bc 2703 413d 22c6 9d3d
000000e0: c89b 66bd 65f7 183c 6b49 933d 1f21 dbbc
000000f0: 759e 9bbd 9d61 4e3d e824 c03d e88b 823d
00000100: 3238 9ebd d7fb 613d 93ff 333d 1f8d a8bd
00000110: aa4e 8f3c 16b7 4c3d 79e9 893d e56e 0fbd
00000120: f4c3 c03c b5b6 4e3d 4907 7c3c 3a62 b1bd
00000130: a5f8 82bd 1526 0b3d 8166 98bd 2d60 d53b
00000140: 96d7 83bd 41ab 0f3c 9a52 0d3d 1328 203d
00000150: ca6c a9bd e25a 82bd c27c 20bc c6a9 3a3d
00000160: 095a f9bb 5ed8 69bc 5edc 023d 63fb c43c
00000170: 774e c23c d39e 92bc 6989 e5bd f00a b5bd
00000180: e7fc 97bc 2b02 39bd e31f 403b 33fd 28bd
00000190: e326 d33c 8a67 81bd 0c82 5ebb 2497 a33d
000001a0: 6979 0d3d 0478 d7bd 68c4 7fbc 7846 92bc
000001b0: ca71 14bd 4077 543d 668d 053d 5177 b2bc
000001c0: 0183 373d 3113 5fbd e99b 083b 9fbc 193c
000001d0: 2673 933d 46d4 70bd 018b 74bd b1fd febc
000001e0: bedb 80ba ddd2 acbd 81c7 babd 8902 2a3d
000001f0: 4523 1c3d 93d1 8c3d b70f a53c ed3e 733d
00000200: f71e efbd 5661 4a3e d678 a9bd 1327 743c
00000210: a996 f1bd 05a0 20be b2fd 8c3d 3d4c e5bd
00000220: c9fc 9c3e 846c b1bd 436b e7bb 23a6 8cbc
00000230: de67 eb3c fed6 103e 4252 0dbe 7259 8ebd
00000240: bcfe 8f3c 4961 81be cf0c 8abe 54aa 43bd
00000250: 1780 3d3d 3dd7 0fbd dc3a b73d 34b4 e53e
00000260: b41e a93e 54dd efbb 62c0 12be 13a5 aabd
00000270: 7d77 40bd d652 22bd bb27 3dbd 0914 8d3e
00000280: 386a 0f3d 6d43 f6be 7489 ecbc 51d0 a8bd
00000290: 84ef 04bb 7db7 4ebe d9d4 a0bd 5a01 643f
000002a0: d2e3 1b3e de93 263b 696d c23c 29d9 e5bd
000002b0: dc4d b43e 3fb6 823d 0a06 0abf bbea 74be
000002c0: dab2 a7bc 745f 1dbd d6ea 813c b8d6 92bd
000002d0: 9961 59be a087 17bf d850 113e 0a4a aa3d
000002e0: 5654 5bbe e120 6cbc acd9 debd 8850 9b3d
000002f0: e487 4bbd ad6a 31bd d420 c93d b80a 6f3e
00000300: c0f3 683d f7b6 053d ed8b 93bd 74d5 f43d
00000310: b9ca 00bb 7c84 b8be 4f26 cabe 650a ffbc
00000320: 372f 70be 23f0 b8bd 6c58 3abe aa85 9c3d
00000330: 53d0 afbd a314 ca3b 1516 803e dcaa c6bd
00000340: c8fd 4b3b 2dba 83bc d9e5 96be dab5 67bd
00000350: 4eb2 1c3e 5d9a 7abe 7a14 2ebc 2ff3 61be
00000360: ad5d 8bbe 95ed 58be 1ff7 2b3d 1ca8 2d3e
00000370: 9ccb 8c3e 2f05 2ebe 9a80 bf3c b2a8 503d
00000380: 6852 dfbc ae8c 68be c79f 46be d9a7 e1bd
00000390: e604 583d 098f 823c def2 25bf c984 2dbf
000003a0: 3892 fcbe d3ce e63d c3a0 733d 721e 03bd
000003b0: 4c68 3d3e 1ca1 08bf 8b60 3f3d 2a7f 24be
000003c0: 4c31 7dbd 5521 003e 3b0a 693d c976 d4bd
000003d0: 4092 b3bb 768b 26be a48d 29be 6b2b 0bbe
000003e0: d200 763e 9917 a7be ad16 a0bd 31a5 31be
000003f0: 4fdc 13be e78d 71be 781c 28bd b380 133f
-0.03899151 -0.024394827 -0.064286575 -0.09550025 0.034020636 0.022127284 0.009431168 0.0009960459
-0.037195288 0.0016656962 -0.050759736 0.0578107 0.060343523 0.024724267 0.03665857 -0.06800522
0.023202494 -0.06555927 -0.08295387 0.031933203 0.049298957 -0.005929292 0.050471768 -0.081573494
0.027703864 -0.008539373 -0.034359246 0.05077399 -0.047631513 -0.073326126 -0.047305327 0.086678594
-0.06754771 -0.04250393 -0.03536802 0.07416804 0.016761186 -0.11071624 -0.02033874 0.031139696
0.006816979 -0.03909136 0.03558115 0.02881613 0.077103905 0.00887778 -0.02100892 -0.045834463
-0.0006947903 -0.0048577613 0.060660068 -0.0015620897 -0.056414157 -0.026362864 0.047122147 0.077038065
-0.05630091 0.009336327 0.07191738 -0.026749192 -0.07598583 0.05038606 0.09382039 0.06374341
-0.07725562 0.055171814 0.043944906 -0.08230042 0.017493565 0.04997929 0.067339845 -0.035017867
0.023530938 0.05046721 0.015382596 -0.08661313 -0.063950814 0.033971865 -0.07441426 0.006511709
-0.06437604 0.008768857 0.034502603 0.039100718 -0.08272703 -0.06364991 -0.00979537 0.045572065
-0.00760961 -0.014272777 0.03194844 0.024045652 0.023719056 -0.017897999 -0.112078495 -0.08839977
-0.01855321 -0.045168083 0.002931588 -0.041257095 0.025775379 -0.06318577 -0.0033952026 0.07987812
0.034539614 -0.10520938 -0.015610792 -0.017855868 -0.03624133 0.05187154 0.03260555 -0.02178541
0.04480267 -0.05446166 0.0020844883 0.00938335 0.07199697 -0.05879619 -0.059702877 -0.031126829
-0.0009831113 -0.084386565 -0.091200836 0.041506324 0.038119573 0.068759106 0.020149095 0.059386183
-0.11675828 0.19763693 -0.08275001 0.014901894 -0.11796314 -0.15686043 0.06884326 -0.11196182
0.3066161 -0.08663276 -0.007062347 -0.017169064 0.028736051 0.14144513 -0.1380091 -0.06950654
0.017577522 -0.25269535 -0.26962897 -0.04776986 0.046264734 -0.035117377 0.089467734 0.44864047
0.33031237 -0.0073200855 -0.143312 -0.08332267 -0.046988953 -0.03962978 -0.046180468 0.27554348
0.035013407 -0.48098317 -0.028874137 -0.08242858 -0.0020284364 -0.20187183 -0.078530975 0.8906456
0.15223625 0.0025417726 0.023733811 -0.11223061 0.35215652 0.06382417 -0.53915465 -0.23917668
-0.020471025 -0.03842111 0.015859049 -0.071698606 -0.21228637 -0.5919132 0.14190996 0.08314903
-0.2141889 -0.014412136 -0.10881361 0.075837195 -0.049690142 -0.043314625 0.098207146 0.23343933
0.056873083 0.032645192 -0.07204423 0.119547755 -0.0019652082 -0.36038578 -0.39482352 -0.031132886
-0.23455511 -0.090301774 -0.18197793 0.07642682 -0.085846566 0.006167011 0.25016847 -0.097005576
0.0031126607 -0.016079986 -0.29472235 -0.05656991 0.15302393 -0.24472947 -0.010624999 -0.22065423
-0.27219906 -0.2118438 0.04198372 0.1695866 0.27499092 -0.16994165 0.023376752 0.05094213
-0.027260974 -0.22709915 -0.19396888 -0.110183425 0.052739047 0.015937345 -0.6482371 -0.6778074
-0.49330306 0.11269917 0.059479486 -0.032011457 0.18496817 -0.53370833 0.04672293 -0.16064134
-0.06181459 0.12512715 0.056894522 -0.10374219 -0.005480081 -0.16264138 -0.16557938 -0.13590781
0.2402375 -0.3263519 -0.07816825 -0.17348172 -0.1443951 -0.23589288 -0.041042775 0.57618254

model.2.bias f4 [64]
00000000: 0520 d1bd 889d e6bd 8bde 0b3d a05c a1bd
00000010: 7701 22bd e65c 0a3e 6b0f cdbc 3622 79bd
00000020: feb9 38bd 2abd 833c f8ff 11bd d837 01be
00000030: 1221 2a3d adba 683d 89aa a7bd 348a 5bbd
00000040: ae31 a5bd 413f 10bd cb5e 35bd 7d42 403e
00000050: 5fa3 21bd 8775 923d f1b4 cb3d 14ba 99bd
00000060: cce2 eabd 75a5 313d c00e a7bd 111b 733d
00000070: 17b2 cebc b996 05bd bf55 a4bd 9508 5fbd
00000080: ca39 163d 1c5d af3d 60e1 bcbd 7d24 c7bd
00000090: 88ae 023e 341f 38bb e822 323d 9650 3a3e
000000a0: 0ed1 9ebd eddc 97b8 81e4 08bc c9c4 c1bd
000000b0: e3af 473d 6326 3a3d cefa 82bd bd9f dc38
000000c0: 76d0 9b3d b551 5cbd 3f82 63bd 7ff4 d7bd
000000d0: 08a5 76bd 34e2 023e a626 bfbd 6e00 c9bb
000000e0: 9c4d b0bd 20b2 a7bd 098f cdbc 050e a6bd
000000f0: 3e64 f9bc 3389 80bd 1ea5 b9bc dd5a bf3c
-0.10211185 -0.112605155 0.03414778 -0.07878995 -0.03955218 0.13512 -0.025031766 -0.06082364
-0.04509925 0.016081411 -0.0356445 -0.12618959 0.041535445 0.056818653 -0.08186824 -0.053598598
-0.08066116 -0.035216574 -0.044279855 0.18775363 -0.039462443 0.07151323 0.09946621 -0.07506195
-0.11469039 0.043370683 -0.0815711 0.059351984 -0.025231404 -0.032614443 -0.08024167 -0.054451544
0.036676206 0.08562681 -0.09222674 -0.097237565 0.12761891 -0.002809477 0.04349032 0.18194804
-0.07754718 -7.241392e-05 -0.008355261 -0.09461362 0.048751723 0.045446765 -0.063954934 0.00010520171
0.0760812 -0.05378886 -0.055544134 -0.10544681 -0.06021598 0.12781602 -0.093335435 -0.0061340844
-0.08608553 -0.081882715 -0.025092619 -0.08108143 -0.030443307 -0.06276169 -0.022661742 0.023358757

model.4.weight f4 [4, 64]
00000000: 307e d53b b853 853e b5ef 913c b6a9 a4bd
00000010: 9854 213d 5627 a23e 19e0 f43d 0cb7 9a3d
00000020: f8f8 69bd 9a19 acbd bf3b 71be 3220 313e
00000030: 0b79 39be 41e8 e03d 8e06 ba3d 263d e13d
00000040: 9cb1 ebbc 80de 9e3d 32ec f93c 43e5 3f3e
00000050: 86a0 aebd 9dc7 d13d 7db2 813e 09a5 973d
00000060: 4f36 c2bc b5a1 8a3c 52b8 f63d e40e 663e
00000070: 4f62 7abd b478 0c3d 0808 19bc 3d50 babe
00000080: da24 1abd cfcd 853d bf2a 443d 9818 98bd
00000090: d8c7 7abd 92b2 6dbd 121e 82bd 6999 e73d
000000a0: 6820 293d 8f22 f8bd 9623 86bd 3671 4c3d
000000b0: 501e 263e b561 f53c 78e9 d4bd 951c 173d
000000c0: a3e2 ee3c a55b 20be 8002 933e 602c 303d
000000d0: 8c0f 71bc 5bd6 483c 608f cd3d d2d9 41bb
000000e0: 002d acbd 5d31 053d 0428 a7bd 6c14 14bd
000000f0: 6211 1d3c a555 6cbd 8d8f 58be 0854 483d
00000100: 17f3 833c 8c76 723e f5a3 10bd d85e a23d
00000110: a7c3 df3c 7ec6 6d3e f34f 3e3d ac83 053d
00000120: c46a 98bd c4c7 95bd 9da1 45be 8d93 e33e
00000130: 629f 10be da99 063e d05f 843c 500c 1ebc
00000140: f9c5 9bbd 03f1 df3d eabf 69bd 35ad fd3d
00000150: 40e1 b1bb e965 6a3e 8634 ca3e 42d1 503d
00000160: 658b 78bc a80a 5cbd 48be e8bc 181e 6d3e
00000170: f3b5 313e fa1d ebbc d87e 8cbd 4f32 68be
00000180: 7406 4fbd 54d5 213e 1c5a 753d aa66 b7bd
00000190: faf7 31bc d6b9 c13c 32de 823c 063d 203e
000001a0: 8a45 c0bd 03c0 c5bd 7df4 9b3d 0e11 863d
000001b0: 842c d83b 0cae 9fbb 0109 97bd 5d79 a6bd
000001c0: 8acb 52bd f203 36bf 8807 c93e f0bc 58bd
000001d0: 1bcd a5bd 8a2d f9bd a749 eebd ce27 c53d
000001e0: ee40 b3bd 0905 b4bd 5048 363d a432 28bd
000001f0: 9fde 303d 3d98 653d 43cf a0be 1d1b 593c
00000200: fe95 e03d 29a0 adbe aa01 933c 5657 873d
00000210: 80fc 453e 8ec4 d33e ff31 34bd ab69 56be
00000220: e4cd b53d 4b17 a8bd 4d56 99be 35eb f73c
00000230: 528c 2ebe 4a3e 113e 545e 7c3d 845a e03d
00000240: 1cbb dd3b 1036 e83d f079 0bbe 36da 283e
00000250: 00c7 cabd 7be9 293e f8cf 4b3e 9b90 82bd
00000260: f232 86bd 315c 7ebd ff98 953d a862 943e
00000270: 8920 803e a0cd 7bbd 4eb5 803d 3392 45bf
00000280: 2bb1 43bd 6211 c63d ab08 9bbd ccf3 803d
00000290: 4d65 c8bd 1731 05bd 9094 6ebd a90b 143e
000002a0: f86e dcbc bd06 eabc 4ae5 09bd 7839 bd3d
000002b0: 7006 bd3d 8634 a63d 91dd dbbd 825b 30bd
000002c0: 5d7e c3bc 48ab 3dbe 7704 d53e 2b76 d13d
000002d0: 1d2e 0b3c 68e4 e2be 101d 48bd 4427 d33d
000002e0: ea1d 35bd d85c 8ebd 4fca 933d 8a6f 8e3d
000002f0: ccdf 793d 0d19 f9bb 2ae6 74be f539 c0bc
00000300: 04ee 8fbc 7938 9f3e 84ae 0e3d 1485 6f3d
00000310: 0a47 323e 8d4b 503e b51c 8d3d 567b df3b
00000320: 14f2 dfbd 6dba 1ebc 8be3 72be 8780 c2be
00000330: 4ec5 75be baa9 913d 0265 c73d 367b c1bd
00000340: 61ef 123e 70f0 123c d9d7 f03b 6453 053e
00000350: 3be2 6dbd fbe2 9d3d ebfa a73e 92ea db3d
00000360: 6ec8 1abd 679e df3d c038 253d a0b6 ac3e
00000370: 54f5 d23e 285c bbbd c30f 8ebd 8d8a 13bf
00000380: d9e5 4fbd aef8 413e 141f babd 5ef2 67bd
00000390: 0019 dfbe 0175 c43b 3744 0bbd b455 433e
000003a0: 92eb bd3d b14f e23c 3f55 b13d 2878 fdbd
000003b0: 9693 0a3e 553f e73c 6cd8 023d 01a2 b4bd
000003c0: d2ca 1abe fde1 84bd ae65 7f3e 9bbb 163d
000003d0: 8ea1 cbbd 46b4 53bd 0f38 5b3d 5b3f b63c
000003e0: d841 cdbc ea3f 843d b4ea acbd e9c4 69bc
000003f0: 1e72 4bbd 4e93 b3bc 8b8d bcbe cd4e 0abd
0.006515287 0.26040435 0.017814497 -0.08040182 0.039387316 0.31670636 0.11956806 0.07554445
-0.0571222 -0.084033206 -0.23557948 0.17297438 -0.1811258 0.10981799 0.090832815 0.10997991
-0.028771214 0.07757282 0.030508135 0.187398 -0.08526711 0.10243151 0.25331488 0.07404525
-0.023707537 0.016922811 0.12046875 0.22466618 -0.06112891 0.0342948 -0.009340294 -0.36389342
-0.0376328 0.065333955 0.04789233 -0.07426566 -0.061225742 -0.058031626 -0.06353392 0.113085575
0.04129067 -0.121159665 -0.06549756 0.049912654 0.16222501 0.029953817 -0.10396093 0.036892492
0.029160803 -0.1565996 0.28712845 0.04301107 -0.014713179 0.012258138 0.10037112 -0.0029579294
-0.084070206 0.03251778 -0.08161929 -0.03615229 0.009586664 -0.057698864 -0.2114851 0.048908263
0.016107125 0.23678035 -0.03531261 0.07928246 0.027314974 0.2322025 0.046462964 0.032596275
-0.07442239 -0.07313493 -0.19299932 0.4444851 -0.141233 0.13144627 0.016158968 -0.00964649
-0.0760612 0.10934641 -0.05706779 0.12386552 -0.005428463 0.22890438 0.39493197 0.050980814
-0.015169953 -0.0537211 -0.028411046 0.23156011 0.17354564 -0.028700817 -0.06860131 -0.22675441
-0.050543264 0.15804034 0.059900388 -0.089551285 -0.010862345 0.023648184 0.015975092 0.15648279
-0.093882635 -0.09655764 0.07614992 0.06546222 0.0065971036 -0.004873043 -0.07374764 -0.08128617
-0.05146364 -0.7109977 0.39263558 -0.05291456 -0.080957614 -0.12166889 -0.11635142 0.09626733
-0.08752619 -0.08790023 0.044502556 -0.04106392 0.043181058 0.05605339 -0.31408128 0.013251093
0.10966109 -0.33911255 0.01794513 0.06608455 0.19334602 0.41360897 -0.043992992 -0.20938747
0.08877161 -0.08207568 -0.29948655 0.030263523 -0.17045715 0.14183918 0.061613396 0.109547645
0.00676669 0.113384366 -0.13620734 0.16489491 -0.099012375 0.16592972 0.19903553 -0.063752376
-0.06552686 -0.06209964 0.07304572 0.2898152 0.25024822 -0.061475396 0.06284581 -0.7717621
-0.047776382 0.09671284 -0.07570013 0.062965006 -0.097849466 -0.03251752 -0.05824715 0.14457573
-0.026908383 -0.028567666 -0.033665933 0.09239477 0.092297435 0.08115487 -0.1073562 -0.04305602
-0.023863966 -0.1852237 0.4160497 0.10227617 0.008494881 -0.44314885 -0.04885584 0.10310224
-0.04421798 -0.06951302 0.07216322 0.06954868 0.061004445 -0.0076018632 -0.23915926 -0.023465136
-0.01756955 0.31097773 0.0348344 0.058476523 0.17409912 0.2034132 0.06890241 0.0068201227
-0.109348446 -0.009688002 -0.23719613 -0.37988684 -0.24001047 0.07112451 0.097360626 -0.09447329
0.14349128 0.008968458 0.00734995 0.13020092 -0.05807708 0.07709309 0.32808623 0.107381
-0.0377888 0.10918885 0.040337324 0.33733082 0.41202796 -0.09148437 -0.069366 -0.57633287
-0.05075631 0.1894252 -0.09087959 -0.056627624 -0.4357376 0.0059953933 -0.0340006 0.19075662
0.09273447 0.02762589 0.086588375 -0.123764336 0.13532862 0.028228441 0.031944677 -0.08819962
-0.15116432 -0.06488416 0.24941131 0.03680001 -0.099429235 -0.051685594 0.05352026 0.022247007
-0.02505581 0.06457503 -0.084432036 -0.014268138 -0.049669378 -0.021920826 -0.3682674 -0.033766557

model.4.bias f4 [4]
00000000: 8c80 dc3d 5c02 053e 1c94 393e 6460 213e
0.10766706 0.12989181 0.18122905 0.15759426
