checkpoints/checkpoint_ep900.pt (torch, 163021 bytes, 24 tensors)

model.0.weight f4 [128, 7]
-1.3065801 0.47838038 -0.14707276 -0.37911004 -0.038517088 0.1287089 -0.12531127 0.4672969
-1.5352331 -0.6070594 0.36241227 0.32255834 -1.077995 0.052854035 -0.056013566 0.25818127
-0.24887937 0.13175164 -0.042014636 -0.17812425 0.32580706 0.25523457 -0.7145342 -0.05742669
-0.6738478 0.51327264 -0.7786356 0.66198516 0.06280836 -0.03752778 0.27840975 -0.1853577
-0.6370157 -1.252187 0.2529576 -0.2922072 -0.3111113 0.16478476 -1.9203893 -0.01758184
-0.009257156 0.05720622 0.28619203 0.26041836 -0.8844766 0.4254624 -0.6133103 -0.056912355
0.14703462 -1.2219845 -0.053212367 -0.7289345 0.36207145 -0.3783836 -0.10196442 -0.032241136
0.36531773 0.5518153 -0.083123766 -1.2935841 -0.3176556 0.28427827 0.2915366 -0.21352395
-0.14188388 -0.3130934 0.12921235 0.06630759 -0.18199706 -0.1926764 -0.311091 -0.16162278
-0.32945746 -0.05073676 0.029484393 -0.16540132 0.14096798 0.5295022 -0.28292164 -0.44439393
-0.6448726 -0.42851096 0.41381642 -0.035574257 -1.2581989 0.3617097 -0.30018327 0.63616765
-0.4231099 -0.2812051 -0.24318409 0.4943597 0.32780784 0.64045745 -0.4509295 -0.35888132
-0.10219265 -0.16979976 0.75873476 -0.13716058 -0.5483952 -0.12292609 0.032404717 -0.047855247
0.27690166 -0.72664505 0.30219576 0.570674 -0.26909944 0.08188366 -0.37564117 0.15753153
-0.3432824 -0.26962823 0.09810262 0.06085766 -0.16219178 0.022030998 0.3041201 -0.011750634
0.6861082 -1.3716916 -0.4047952 0.3147725 0.1161727 0.041150425 0.28539643 0.44391584
0.011992346 -0.18971919 0.4006142 0.47411275 -0.029256456 0.16231321 -0.008254239 -0.16400734
0.08022498 -0.028341135 -0.21008319 -0.21261443 0.57642996 -0.20339447 -1.1101483 0.3128171
0.0051672747 -0.6597251 0.080250256 -0.083523795 -0.33198687 0.03412043 0.26140717 -0.1399835
0.22956242 -0.19297841 -0.013334393 -0.13784531 0.28490886 0.018745068 -0.37477773 0.0685771
-0.08353301 0.2954118 -2.3022327 0.37662193 -0.22175485 -0.20727643 0.09658875 0.37083957
-0.11670108 0.8095127 -0.020263068 0.12353458 -0.088618204 -0.07625831 -0.017392274 -0.3537359
-0.31610847 0.081886366 -0.022691453 -0.28761452 0.17405534 0.18528928 0.12556683 0.6013692
-0.90679646 0.37145 -0.14213985 0.4412274 -0.069639914 -0.14429338 0.09305518 0.032945994
0.11615055 -4.6288657 -0.032528754 0.85040855 0.011119542 0.086210564 -0.07556358 -0.367192
0.35877836 -0.25740448 -0.35143673 -4.912997 0.38306874 -0.1052029 0.43354052 0.16727446
-0.030014493 -0.2276344 -0.30055758 -0.21270058 0.16737975 0.18279831 0.2879768 0.26860067
-0.22306226 0.2382248 -0.094568186 0.10426684 -0.38585576 0.13338025 -0.25659156 -0.2038013
-0.61791134 -0.49037486 -0.029402236 -0.78156143 0.4182431 0.088284835 0.12867753 -0.14020023
0.7852583 0.057096157 -0.7784843 0.0069487686 -0.013950036 0.1829967 -0.19937813 0.0802973
0.60019547 -0.47155225 -0.35478708 -0.52974194 0.12766513 -0.2088971 -0.36679667 0.24976094
-0.2671773 -0.3118167 0.21392761 -0.2225201 -1.4313473 0.033136968 0.27363756 -0.07230329
00000000: 043e a7bf 46ee f43e 3e9a 16be b61a c2be
00000010: 18c4 1dbd 44cc 033e 9951 00be 8a41 ef3e
00000020: 8582 c4bf 3f68 1bbf 1a8e b93e 5e26 a53e
00000030: bdfb 89bf 797d 583d 7b6e 65bd 5630 843e
00000040: 3cda 7ebe e7e9 063e 8a17 2cbd 3466 36be
00000050: 2fd0 a63e 1bae 823e b7eb 36bf 4038 6bbd
00000060: 4a81 2cbf d665 033f aa54 47bf dc77 293f
00000070: aba1 803d bbb6 19bd b98b 8e3e 69ce 3dbe
00000080: 7613 23bf aa47 a0bf a983 813e 2f9c 95be
00000090: fb49 9fbe 56bd 283e 51cf f5bf ca07 90bc
000000a0: 54ab 17bc 1251 6a3d c387 923e 8e55 853e
000000b0: 0f6d 62bf 35d6 d93e e701 1dbf ee1c 69bd
000000c0: 3e90 163e fd69 9cbf 36f5 59bd 749b 3abf
000000d0: 6e61 b93e 7fbb c1be b9d2 d0bd 480f 04bd
000000e0: ed0a bb3e c443 0d3f cb3c aabd 2a94 a5bf
000000f0: c1a3 a2be ec8c 913e 4944 953e 06a6 5abe
00000100: 024a 11be c74d a0be 3e50 043e 46cc 873d
00000110: 705d 3abe f64c 45be 5247 9fbe 7180 25be
00000120: a6ae a8be 59d1 4fbd 4189 f13c f75e 29be
00000130: e959 103e 758d 073f 1bdb 90be 9a87 e3be
00000140: 5f16 25bf ca65 dbbe bfdf d33e 50b6 11bd
00000150: a90c a1bf 0432 b93e 9fb1 99be e2db 223f
00000160: dca1 d8be 1dfa 8fbe 4005 79be b71c fd3e
00000170: 6ed6 a73e 05f5 233f 3be0 e6be 4bbf b7be
00000180: 614a d1bd fddf 2dbe 713c 423f d373 0cbe
00000190: a163 0cbf adc0 fbbd cfba 043d dd03 44bd
000001a0: 0ec6 8d3e 6905 3abf 67b9 9a3e b117 123f
000001b0: 67c7 89be 9fb2 a73d 0a54 c0be f24f 213e
000001c0: b6c2 afbe b60c 8abe 07ea c83d e245 793d
000001d0: 9a15 26be 5a7a b43c a1b5 9b3e bb85 40bc
000001e0: c9a4 2f3f 9793 afbf 5141 cfbe dc29 a13e
000001f0: f4eb ed3d 598d 283d 7b1f 923e f048 e33e
00000200: 8b7b 443c bf45 42be 4e1d cd3e e8be f23e
00000210: 3cab efbc 6f35 263e ca3c 07bc 8af1 27be
00000220: ff4c a43d ab2b e8bc 0c20 57be 99b7 59be
00000230: ea90 133f a446 50be 5719 8ebf 9029 a03e
00000240: 3e52 a93b bfe3 28bf 3f5a a43d 860e abbd
00000250: 2ffa a9be ddc1 0b3d 29d7 853e d657 0fbe
00000260: 6912 6b3e 229c 45be 7f78 5abc 5227 0dbe
00000270: 93df 913e 428f 993c dee2 bfbe 2772 8c3d
00000280: 5b13 abbd 3740 973e c857 13c0 97d4 c03e
00000290: b413 63be 4640 54be 53d0 c53d afde bd3e
000002a0: fa00 efbd 393c 4f3f bcfe a5bc b3ff fc3d
000002b0: 767d b5bd 512d 9cbd 3e7a 8ebc df1c b5be
000002c0: f8d8 a1be 0ab4 a73d 6de3 b9bc 3642 93be
000002d0: 903b 323e 79bc 3d3e 9794 003e 55f3 193f
000002e0: d023 68bf b22e be3e 1c8d 11be 8fe8 e13e
000002f0: 5f9f 8ebd a5c1 13be b793 be3d 61f2 063d
00000300: 57e0 ed3d ab1f 94c0 df3c 05bd 60b4 593f
00000310: bd2e 363c 2a8f b03d 14c1 9abd 9700 bcbe
00000320: ccb1 b73e 85ca 83be 84ef b3be 4537 9dc0
00000330: 9621 c43e 9e74 d7bd 06f9 dd3e ff49 2b3e
00000340: f4e0 f5bc fe18 69be afe2 99be 2ece 59be
00000350: 9965 2b3e 7b2f 3b3e b271 933e 0786 893e
00000360: 6f6a 64be 34f1 733e f7ac c1bd da89 d53d
00000370: e38e c5be d594 083e f85f 83be 4ab1 50be
00000380: 702f 1ebf 6a12 fbbe f5dc f0bc 6914 48bf
00000390: f623 d63e aece b43d 0bc4 033e a690 0fbe
000003a0: b006 493f a9dd 693d bf4a 47bf 7fb2 e33b
000003b0: b18e 64bc 7d63 3b3e c829 4cbe e972 a43d
000003c0: 69a6 193f 4c6f f1be a7a6 b5be 2b9d 07bf
000003d0: a6ba 023e 1fe9 55be c6cc bbbe 55c1 7f3e
000003e0: 77cb 88be 70a6 9fbe d70f 5b3e 4fdc 63be
000003f0: 6336 b7bf a1ba 073d 391a 8c3e bf13 94bd

model.0.bias f4 [128]
0.3183025 -0.06066356 -0.37836137 0.13307041 0.135609 0.34651646 0.025630476 -0.22345528
0.11808655 -0.3623179 -0.040690456 0.4900288 0.36551547 -0.33222216 0.19067758 -0.010935745
-0.26940477 -0.10225042 -0.40629476 -0.24711321 0.12665097 -0.326015 -0.29325098 0.25727218
-0.27385253 -0.17542039 -0.42066032 -0.1248648 -0.19337316 -0.25100267 0.0652495 -0.32243705
0.48421168 0.08224001 0.3569034 -0.26950082 -0.22047359 -0.34315065 -0.3802649 0.31979272
0.0025930565 -0.37733912 0.19896978 0.2050319 0.44707942 -0.33799076 0.24863777 0.043131817
0.22738461 0.012755106 -0.239414 -0.25589558 -0.030546773 -0.34195912 0.036423232 -0.39492568
0.24151671 -0.29643568 -0.42202297 -0.1833528 -0.42130053 -0.10801887 0.26196927 0.107009664
-0.25386804 -0.6410795 -0.58718264 -0.45056117 0.14626913 0.003709845 0.1653041 -0.3286399
-0.1787927 0.2820674 0.15373443 -0.049700223 -0.3722522 -0.1995327 0.18418375 0.30487648
-0.14010008 -0.51553977 0.21270666 -0.3715632 0.27376935 0.23168057 -0.2160023 -0.17622696
0.2755492 0.45277107 -0.3509617 -0.18215731 0.11581997 0.29790494 0.28011104 -0.49007112
0.1964998 0.19149706 -0.45559594 -0.051356785 -0.38716075 -0.32316974 -0.29334927 -0.42245656
0.29671285 -0.306543 -0.15104042 -0.07806703 -0.0056163063 -0.32890445 -0.046477236 -0.071833484
-0.5160614 -0.053710226 0.30672747 -0.16426662 -0.17077006 -0.25390664 0.121236704 0.13835897
-0.15422308 0.07302647 -0.33270696 0.41186896 -0.4947724 -0.07446997 -0.025573105 -0.07246867
00000000: 8cf8 a23e 5a7a 78bd 95b8 c1be 9c43 083e
00000010: 16dd 0a3e 9b6a b13e 01f7 d13c 76d1 64be
00000020: 5cd7 f13d bb81 b9be 09ab 26bd 0ee5 fa3e
00000030: d824 bb3e 0619 aabe fc40 433e d72b 33bc
00000040: 6cef 89be ab68 d1bd de05 d0be 3f0b 7dbe
00000050: cbb0 013e 70eb a6be fe24 96be 2eb9 833e
00000060: 6636 8cbe 67a1 33be ca60 d7be 1eb9 ffbd
00000070: 9d03 46be 6c83 80be 88a1 853d 7816 a5be
00000080: 98ea f73e 736d a83d 0bbc b63e 03fc 89be
00000090: d4c3 61be 71b1 afbe 15b2 c2be dfbb a33e
000000a0: 45f0 293b 9832 c1be bcbe 4b3e e2f3 513e
000000b0: 98e7 e43e 200d adbe e69a 7e3e fdaa 303d
000000c0: 83d7 683e cbfa 503c f228 75be bf04 83be
000000d0: 3a3d fabc 4415 afbe 8730 153d b333 cabe
000000e0: 2850 773e 6bc6 97be 6513 d8be d6c0 3bbe
000000f0: b4b4 d7be ff38 ddbd d620 863e e227 db3d
00000100: fefa 81be c91d 24bf 9a51 16bf f4af e6be
00000110: 93c7 153e df20 733b 7a45 293e 7d43 a8be
00000120: 6f15 37be 236b 903e 8f6c 1d3e 7692 4bbd
00000130: d797 bebe 4d52 4cbe aa9a 3c3e c518 9c3e
00000140: 6576 0fbe 6afa 03bf c6cf 593e 883d bebe
00000150: 7f2b 8c3e ac3d 6d3e b52f 5dbe d774 34be
00000160: c914 8d3e 9cd1 e73e 40b1 b3be 7287 3abe
00000170: 0533 ed3d ff86 983e b76a 8f3e 9aea fabe
00000180: 3e37 493e ce17 443e df43 e9be 7e5b 52bd
00000190: ef39 c6be 8176 a5be e031 96be 3a4c d8be
000001a0: bfea 973e 34f3 9cbe 57aa 1abe 9be1 9fbd
000001b0: fe08 b8bb 2a66 a8be ea5e 3ebd 6f1d 93bd
000001c0: 9a1c 04bf 41ff 5bbd 620b 9d3e 8235 28be
000001d0: 59de 2ebe 0d00 82be f34a f83d f9ad 0d3e
000001e0: a8ec 1dbe e78e 953d 9158 aabe 7de0 d23e
000001f0: cf52 fdbe b683 98bd b07e d1bc 746a 94bd

model.2.weight f4 [64, 128]
-0.06758144 -0.024394827 -0.064286575 -0.09550025 0.034020636 0.022127284 -0.021618657 0.0009960459
-0.037195288 0.0016656962 -0.050759736 0.0578107 0.029569317 0.024724267 0.0061940886 -0.06800522
0.023202494 -0.06555927 -0.08295387 0.031933203 0.018258225 -0.005929292 0.050471768 -0.081573494
0.027703864 -0.008539373 -0.06532053 0.05077399 -0.047631513 -0.073326126 -0.07792099 0.086678594
-0.06754771 -0.04250393 -0.03536802 0.07416804 0.016761186 -0.11071624 -0.02033874 0.031139696
0.006816979 -0.03909136 0.0096768 -0.0015683357 0.046175767 0.00887778 -0.02100892 -0.045834463
-0.03011754 -0.0048577613 0.060660068 -0.0015620897 -0.056414157 -0.026362864 0.047122147 0.077038065
-0.05630091 0.009336327 0.07191738 -0.026749192 -0.07598583 0.05038606 0.06282701 0.032446023
-0.07725562 0.055171814 0.043944906 -0.08230042 0.017493565 0.018904814 0.067339845 -0.035017867
-0.0016062458 0.05046721 -0.015301612 -0.11388107 -0.063950814 0.0041516717 -0.07441426 0.006511709
-0.06437604 0.008768857 0.034502603 0.039100718 -0.08272703 -0.06364991 -0.00979537 0.045572065
-0.038611043 -0.014272777 0.03194844 0.024045652 0.023719056 -0.043678176 -0.112078495 -0.119291164
-0.048571482 -0.07461866 0.002931588 -0.071884386 0.025775379 -0.06318577 -0.0033952026 0.07987812
0.034539614 -0.10520938 -0.015610792 -0.017855868 -0.03624133 0.05187154 0.03260555 -0.02178541
0.04480267 -0.05446166 0.0020844883 0.00938335 0.07199697 -0.05879619 -0.059702877 -0.061127163
-0.0009831113 -0.084386565 -0.091200836 0.041506324 0.038119573 0.068759106 0.020149095 0.059386183
-0.12114326 0.2670815 -0.08275001 0.33443397 -0.13082916 -0.31070498 -0.1775407 -0.27906787
-0.021977032 -0.08663276 -0.007062347 -0.36125472 -0.15003228 -0.18931074 -0.17824534 -0.0864837
0.017577522 -0.46471632 -0.67598003 -0.04776986 0.008620147 -0.035117377 0.089467734 0.3382034
0.22657607 -0.0073200855 -0.21337672 -0.26640332 -0.046988953 -0.03746536 -0.38088414 0.27554348
-0.08487697 -0.62947404 -0.23275292 -0.08242858 -0.0020284364 -0.044655435 -0.06341088 0.91632384
-0.07325908 -0.08938873 -0.25354055 -0.41448066 0.024328522 0.06382417 -0.6484069 -0.1765028
-0.30739588 -0.03842111 -0.11911073 -0.20897809 -0.46415886 -0.950622 -0.08633929 0.08314903
-0.15327421 -0.014412136 -0.10881361 0.15455718 -0.085218325 0.14289063 0.019760488 0.101624064
0.056873083 0.032645192 -0.23108432 -0.28977075 -0.0019652082 -0.5535185 -0.39482352 -0.031132886
-0.5081576 0.11232569 -0.31819355 -0.15260075 -0.085846566 0.023499426 0.20499817 -0.39240718
0.0031126607 -0.016079986 -0.41213024 -0.05656991 -0.0037547268 -0.1755858 -0.010624999 -0.15463072
-0.356953 -0.15241382 0.04198372 -0.033793498 0.16757989 -0.35361516 -0.45024306 -0.28602284
0.06721318 -0.105309226 -0.14932428 -0.1965237 0.052739047 -0.12233389 -0.070711866 -0.9379335
-0.5223292 0.31558928 0.059479486 0.013393174 0.031689778 -0.19578685 0.03299507 -0.16064134
-0.25720078 0.054174498 -0.045645896 -0.10374219 -0.005480081 0.19576225 -0.079689756 -0.25574136
-0.046144262 -0.51890814 -0.20830758 -0.1270927 0.07315125 -0.1629492 -0.0026736308 0.57618254
00000000: 2368 8abd a9d7 c7bc aea8 83bd a395 c3bd
00000010: 3959 0b3d 4744 b53c 9c19 b1bc c18d 823a
00000020: 165a 18bd 7d53 da3a 71e9 4fbd eaca 6c3d
00000030: 5a3b f23c 8c8a ca3c c8f7 ca3b 5246 8bbd
00000040: 2813 be3c f043 86bd b8e3 a9bd 64cc 023d
00000050: 4692 953c 824a c2bb 7cbb 4e3d 0110 a7bd
00000060: 37f3 e23c bae8 0bbc c5c6 85bd 63f8 4f3d
00000070: 4319 43bd 022c 96bd 0a95 9fbd 8c84 b13d
00000080: 7456 8abd 9a18 2ebd 0fde 10bd 6ae5 973d
00000090: c14e 893c 32bf e2bd 6e9d a6bc ad18 ff3c
000000a0: f760 df3b 431e 20bd 718b 1e3c 9d90 cdba
000000b0: cd22 3d3d 1c74 113c e61a acbc ebbc 3bbd
000000c0: 0fb9 f6bc db2d 9fbb b176 783d 08bf ccba
000000d0: 8812 67bd eff6 d7bc 2703 413d 22c6 9d3d
000000e0: c89b 66bd 65f7 183c 6b49 933d 1f21 dbbc
000000f0: 759e 9bbd 9d61 4e3d 73ab 803d 1fe6 043d
00000100: 3238 9ebd d7fb 613d 93ff 333d 1f8d a8bd
00000110: aa4e 8f3c 45de 9a3c 79e9 893d e56e 0fbd
00000120: aa88 d2ba b5b6 4e3d 9db3 7abc 7a3a e9bd
00000130: a5f8 82bd bf0a 883b 8166 98bd 2d60 d53b
00000140: 96d7 83bd 41ab 0f3c 9a52 0d3d 1328 203d
00000150: ca6c a9bd e25a 82bd c27c 20bc c6a9 3a3d
00000160: 9d26 1ebd 5ed8 69bc 5edc 023d 63fb c43c
00000170: 774e c23c e3e7 32bd 6989 e5bd ed4e f4bd
00000180: e4f2 46bd abd1 98bd e31f 403b 1f38 93bd
00000190: e326 d33c 8a67 81bd 0c82 5ebb 2497 a33d
000001a0: 6979 0d3d 0478 d7bd 68c4 7fbc 7846 92bc
000001b0: ca71 14bd 4077 543d 668d 053d 5177 b2bc
000001c0: 0183 373d 3113 5fbd e99b 083b 9fbc 193c
000001d0: 2673 933d 46d4 70bd 018b 74bd 7a60 7abd
000001e0: bedb 80ba ddd2 acbd 81c7 babd 8902 2a3d
000001f0: 4523 1c3d 93d1 8c3d b70f a53c ed3e 733d
00000200: f519 f8bd e8be 883e d678 a9bd ee3a ab3e
00000210: 14f8 05be b914 9fbe 3bcd 35be fce1 8ebe
00000220: 2d09 b4bc 846c b1bd 436b e7bb 61f6 b8be
00000230: 10a2 19be adda 41be f285 36be 5e1e b1bd
00000240: bcfe 8f3c 4cef edbe 070d 2dbf 54aa 43bd
00000250: 843b 0d3c 3dd7 0fbd dc3a b73d ff28 ad3e
00000260: 8f03 683e 54dd efbb 6d7f 5abe 0466 88be
00000270: 7d77 40bd 4775 19bd 3f03 c3be 0914 8d3e
00000280: fad3 adbd 3625 21bf c856 6ebe 51d0 a8bd
00000290: 84ef 04bb 9ee8 36bd 90dd 81bd 3394 6a3f
000002a0: db08 96bd 7011 b7bd 11d0 81be cf36 d4be
000002b0: 9c4c c73c 3fb6 823d fffd 25bf 26bd 34be
000002c0: fe62 9dbe 745f 1dbd 54f0 f3bd 5afe 55be
000002d0: 3ba6 edbe f75b 73bf a7d2 b0bd 0a4a aa3d
000002e0: eaf3 1cbe e120 6cbc acd9 debd 3d44 1e3e
000002f0: f286 aebd ec51 123e bfe0 a13c 4720 d03d
00000300: c0f3 683d f7b6 053d 5ea1 6cbe d55c 94be
00000310: b9ca 00bb 63b3 0dbf 4f26 cabe 650a ffbc
00000320: 9e16 02bf 030b e63d 44ea a2be 5f43 1cbe
00000330: 53d0 afbd de81 c03c 0aeb 513e 98e9 c8be
00000340: c8fd 4b3b 2dba 83bc bc02 d3be dab5 67bd
00000350: dd11 76bb c4cc 33be 7a14 2ebc 8457 1ebe
00000360: 8bc2 b6be 5e12 1cbe 1ff7 2b3d 0d6b 0abd
00000370: 109a 2b3e 0c0d b5be 4286 e6be 9671 92be
00000380: 10a7 893d 5dac d7bd 77e8 18be 823d 49be
00000390: e604 583d 318a fabd 62d1 90bd 691c 70bf
000003a0: 5eb7 05bf eb94 a13e c3a0 733d 0b6f 5b3c
000003b0: 24cd 013d 597c 48be d725 073d 2a7f 24be
000003c0: d2af 83be 14e6 5d3d 31f7 3abd c976 d4bd
000003d0: 4092 b3bb e675 483e 6234 a3bd 88f0 82be
000003e0: c401 3dbd 2ad7 04bf 954e 55be 9724 02be
000003f0: 53d0 953d 28dc 26be 1538 2fbb b380 133f

model.2.bias f4 [64]
-0.1335702 -0.33023605 0.019817118 -0.07878995 -0.40706587 0.2698129 -0.025031766 -0.092141196
-0.026188169 0.016081411 -0.19699743 -0.36616537 0.09345936 -0.14037155 -0.11274027 -0.053598598
-0.08066116 -0.059715647 -0.075776525 0.14101677 -0.06690404 0.45191523 0.10507148 -0.07506195
-0.14540167 0.015613253 -0.113217674 0.21223778 0.087527804 -0.032614443 -0.13861065 -0.057566427
0.036676206 0.31044623 -0.09222674 -0.097237565 0.28860396 -0.002809477 -0.066538624 0.31418237
-0.10927683 -0.031798355 -0.039960638 -0.09461362 0.22146071 0.01633447 -0.10104139 0.00010520171
-0.22547722 -0.09638621 -0.18377122 -0.10544681 -0.09178804 0.44703615 -0.093335435 -0.035988387
-0.13545077 -0.11344915 -0.04635996 -0.10785802 -0.05726632 -0.09438761 -0.0871748 0.023358757
00000000: a0c6 08be b314 a9be 8257 a23c a05c a1bd
00000010: f06a d0be eb24 8a3e 6b0f cdbc 86b4 bcbd
00000020: 9288 d6bc 2abd 833c b2b9 49be 077a bbbe
00000030: 9f67 bf3d 8fbd 0fbe 5fe4 e6bd 348a 5bbd
00000040: ae31 a5bd 6598 74bd b930 9bbd b366 103e
00000050: fc04 89bd 6f61 e73e b72f d73d 14ba 99bd
00000060: 2de4 14be bbce 7f3c abde e7bd dc54 593e
00000070: c741 b33d b996 05bd f3ef 0dbe c6ca 6bbd
00000080: ca39 163d cff2 9e3e 60e1 bcbd 7d24 c7bd
00000090: e6c3 933e 341f 38bb 6745 88bd 83dc a03e
000000a0: 88cc dfbd fe3e 02bd c4ad 23bd c9c4 c1bd
000000b0: 99c6 623e decf 853c caee cebd bd9f dc38
000000c0: 80e3 66be 2266 c5bd 862e 3cbe 7ff4 d7bd
000000d0: 5efb bbbd ece1 e43e a626 bfbd 8f68 13bd
000000e0: 9bb3 0abe 0758 e8bd f1e3 3dbd aae4 dcbd
000000f0: 1790 6abd 4b4e c1bd b488 b2bd dd5a bf3c

model.4.weight f4 [4, 64]
0.006515287 0.58675385 0.0421636 -0.08040182 -0.8113458 0.1839359 0.11956806 0.07554445
0.6257602 -0.084033206 -0.3399158 0.18195008 0.32410863 0.31584165 0.090832815 0.10997991
-0.028771214 0.07757282 0.030508135 -0.09810516 -0.08526711 -0.014157099 0.35305974 0.07404525
-0.023707537 0.0061535984 0.12046875 0.39241582 0.164848 0.0342948 0.07979515 -0.18686566
-0.0376328 0.31849062 0.04789233 -0.07426566 -0.26521674 -0.058031626 -0.3274361 0.31246954
0.04129067 -0.121159665 -0.06549756 0.049912654 0.28233832 0.009199012 -0.07401163 0.036892492
0.29795343 -0.1565996 0.19646294 0.04301107 -0.014713179 0.0043169456 0.10037112 0.023856154
-0.061770614 0.03251778 -0.097341605 -0.018410323 0.042868637 -0.057698864 -0.23389533 0.048908263
-0.013723309 0.3494505 -0.043967433 0.07928246 -0.07567197 0.11099953 0.046462964 0.032596275
0.49857494 -0.07313493 -1.1961235 0.3855105 0.21511292 0.29537955 -0.0042179152 -0.00964649
-0.0760612 0.10934641 -0.05706779 0.42007115 0.010581481 0.2807173 0.09886703 0.050980814
-0.015169953 -0.0537211 -0.028411046 0.20992121 0.1743147 -0.028700817 -0.09186474 0.24887419
-0.050543264 0.38916418 0.059900388 -0.089551285 0.18211827 0.023648184 -0.5157147 0.10368349
-0.093882635 -0.06961713 0.07614992 0.06546222 -0.008042458 0.025431335 -0.034867976 -0.08128617
0.3650716 -0.6786104 0.31579664 -0.05291456 -0.061585292 -0.21081994 -0.11635142 0.09626733
-0.032512266 -0.08408778 0.06775248 0.004562089 -0.0022171729 0.02682558 -1.1318249 0.013251093
0.10966109 -0.53934324 -0.01774122 0.06608455 0.23551951 0.14804325 -0.043992992 -0.20938747
0.63457835 -0.08207568 0.10804367 0.009585267 -0.7006934 0.40721005 0.061613396 0.109547645
0.00676669 0.1131971 -0.13620734 0.4249242 -0.099012375 0.43011975 0.11297526 -0.063752376
-0.051161934 -0.06209964 0.056177594 0.17725419 0.27047703 -0.061475396 0.11671139 -0.23573887
-0.047776382 0.27263013 -0.07570013 0.062965006 -0.09042188 -0.03251752 0.21057782 0.20345001
0.004745783 -0.028567666 -0.033665933 0.09239477 0.28133446 0.050453942 -0.055335812 -0.04305602
0.11399319 -0.23862608 0.3594022 0.10227617 0.008494881 -0.45417818 -0.04885584 0.10310224
-0.014392109 -0.06951302 0.010427833 0.06954868 0.020435125 -0.0076018632 -0.33541992 -0.023465136
-0.01756955 0.13180225 0.048505012 0.058476523 0.64328897 0.17425641 0.06890241 -0.01160001
0.64404964 -0.009688002 -0.23645443 -0.07237603 0.3115174 0.37929946 0.097360626 -0.09447329
0.14349128 0.008968458 -0.024295464 0.1797189 -0.05807708 0.2559807 0.20798995 0.107381
-0.0377888 0.10918885 0.040337324 0.26005268 0.20542178 -0.09148437 0.007424738 -1.1510664
-0.05075631 0.27856585 -0.09087959 -0.056627624 -0.1878602 0.0059953933 0.14175718 0.26122838
0.09273447 0.02762589 0.064240396 -0.123764336 0.29189056 -0.0005398379 0.055859264 -0.08819962
0.14388223 -0.06474259 0.27518612 0.03680001 -0.099429235 -0.27639458 0.05352026 0.022247007
-0.02505581 0.06457503 -0.035889644 -0.050592806 0.002159989 -0.021920826 0.21419768 -0.033766557
00000000: 307e d53b 8035 163f bdb3 2c3d b6a9 a4bd
00000010: 5cb4 4fbf b159 3c3e 19e0 f43d 0cb7 9a3d
00000020: d231 203f 9a19 acbd 7209 aebe 1f51 3a3e
00000030: 91f1 a53e ffb5 a13e 8e06 ba3d 263d e13d
00000040: 9cb1 ebbc 80de 9e3d 32ec f93c 5ceb c8bd
00000050: 86a0 aebd 2df3 67bc 3fc4 b43e 09a5 973d
00000060: 4f36 c2bc 20a4 c93b 52b8 f63d baea c83e
00000070: eacd 283e b478 0c3d a46b a33d b659 3fbe
00000080: da24 1abd 3411 a33e bf2a 443d 9818 98bd
00000090: 7dca 87be 92b2 6dbd b4a5 a7be 02fc 9f3e
000000a0: 6820 293d 8f22 f8bd 9623 86bd 3671 4c3d
000000b0: a68e 903e 74b7 163c 6993 97bd 951c 173d
000000c0: 5a8d 983e a55b 20be 952d 493e 602c 303d
000000d0: 8c0f 71bc 2a75 8d3b 608f cd3d fb6d c33c
000000e0: 2f03 7dbd 5d31 053d 095b c7bd 3fd1 96bc
000000f0: 0697 2f3d a555 6cbd 4282 6fbe 0854 483d
00000100: bbd7 60bc 2deb b23e 3217 34bd d85e a23d
00000110: e8f9 9abd b953 e33d f34f 3e3d ac83 053d
00000120: 3745 ff3e c4c7 95bd 931a 99bf a261 c53e
00000130: 9046 5c3e fd3b 973e 7036 8abb 500c 1ebc
00000140: f9c5 9bbd 03f1 df3d eabf 69bd 9113 d73e
00000150: f35d 2d3c 2eba 8f3e cc7a ca3d 42d1 503d
00000160: 658b 78bc a80a 5cbd 48be e8bc 96f5 563e
00000170: 8d7f 323e fa1d ebbc 9523 bcbd e0d8 7e3e
00000180: 7406 4fbd 8740 c73e 1c5a 753d aa66 b7bd
00000190: 367d 3a3e d6b9 c13c e105 04bf 0258 d43d
000001a0: 8a45 c0bd 6d93 8ebd 7df4 9b3d 0e11 863d
000001b0: 84c4 03bc 6055 d03c b9d1 0ebd 5d79 a6bd
000001c0: aaea ba3e 69b9 2dbf 19b0 a13e f0bc 58bd
000001d0: dc40 7cbd 2fe1 57be a749 eebd ce27 c53d
000001e0: 952b 05bd 3736 acbd d0c1 8a3d 947d 953b
000001f0: fd4d 11bb 52c1 db3c a3df 90bf 1d1b 593c
00000200: fe95 e03d 6612 0abf 0956 91bc 5657 873d
00000210: 072c 713e a698 173e ff31 34bd ab69 56be
00000220: ba73 223f 4b17 a8bd 0046 dd3d 860b 1d3c
00000230: a560 33bf d67d d03e 545e 7c3d 845a e03d
00000240: 1cbb dd3b e2d3 e73d f079 0bbe aa8f d93e
00000250: 00c7 cabd a838 dc3e 935f e73d 9b90 82bd
00000260: 2d8f 51bd 315c 7ebd 7a1a 663d 1f82 353e
00000270: f77b 8a3e a0cd 7bbd 6206 ef3d 8865 71be
00000280: 2bb1 43bd 2d96 8b3e ab08 9bbd ccf3 803d
00000290: 1b2f b9bd 1731 05bd b6a1 573e 3355 503e
000002a0: 8382 9b3b bd06 eabc 4ae5 09bd 7839 bd3d
000002b0: 120b 903e cba8 4e3d cea7 62bd 825b 30bd
000002c0: 4375 e93d 655a 74be 9103 b83e 2b76 d13d
000002d0: 1d2e 0b3c 0b8a e8be 101d 48bd 4427 d33d
000002e0: e1cc 6bbc d85c 8ebd 80d9 2a3c 8a6f 8e3d
000002f0: 9067 a73c 0d19 f9bb 29bc abbe f539 c0bc
00000300: 04ee 8fbc 2bf7 063e 31ad 463d 1485 6f3d
00000310: 96ae 243f 4670 323e b51c 8d3d f80d 3ebc
00000320: 70e0 243f 6dba 1ebc 1c21 72be e239 94bd
00000330: 357f 9f3e 8a33 c23e 0265 c73d 367b c1bd
00000340: 61ef 123e 70f0 123c 4807 c7bc 3b08 383e
00000350: 3be2 6dbd e70f 833e 51fb 543e 92ea db3d
00000360: 6ec8 1abd 679e df3d c038 253d a025 853e
00000370: 165a 523e 285c bbbd 374b f33b 2556 93bf
00000380: d9e5 4fbd 2fa0 8e3e 141f babd 5ef2 67bd
00000390: 6d5e 40be 0175 c43b cb28 113e babf 853e
000003a0: 92eb bd3d b14f e23c 7890 833d 2878 fdbd
000003b0: ae72 953e e983 0dba afcc 643d 01a2 b4bd
000003c0: dd55 133e c397 84bd 32e5 8c3e 9bbb 163d
000003d0: 8ea1 cbbd 9783 8dbe 0f38 5b3d 5b3f b63c
000003e0: d841 cdbc ea3f 843d 0501 13bd 673a 4fbd
000003f0: 9a8e 0d3b 4e93 b3bc a356 5b3e cd4e 0abd

model.4.bias f4 [4]
0.05284056 0.113616295 0.1135233 0.09332011
00000000: 586f 583d a9af e83d e77e e83d 9d1e bf3d

model.0.weight f4 [128, 7]
-1.3065801 0.47838038 -0.14707276 -0.37911004 -0.038517088 0.1287089 -0.12531127 0.4672969
-1.5352331 -0.6070594 0.36241227 0.32255834 -1.077995 0.052854035 -0.056013566 0.25818127
-0.24887937 0.13175164 -0.042014636 -0.17812425 0.32580706 0.25523457 -0.7145342 -0.05742669
-0.6738478 0.51327264 -0.7786356 0.66198516 0.06280836 -0.03752778 0.27840975 -0.1853577
-0.6370157 -1.252187 0.2529576 -0.2922072 -0.3111113 0.16478476 -1.9203893 -0.01758184
-0.009257156 0.05720622 0.28619203 0.26041836 -0.8844766 0.4254624 -0.6133103 -0.056912355
0.14703462 -1.2219845 -0.053212367 -0.7289345 0.36207145 -0.3783836 -0.10196442 -0.032241136
0.36531773 0.5518153 -0.083123766 -1.2935841 -0.3176556 0.28427827 0.2915366 -0.21352395
-0.14188388 -0.3130934 0.12921235 0.06630759 -0.18199706 -0.1926764 -0.311091 -0.16162278
-0.32945746 -0.05073676 0.029484393 -0.16540132 0.14096798 0.5295022 -0.28292164 -0.44439393
-0.6448726 -0.42851096 0.41381642 -0.035574257 -1.2581989 0.3617097 -0.30018327 0.63616765
-0.4231099 -0.2812051 -0.24318409 0.4943597 0.32780784 0.64045745 -0.4509295 -0.35888132
-0.10219265 -0.16979976 0.75873476 -0.13716058 -0.5483952 -0.12292609 0.032404717 -0.047855247
0.27690166 -0.72664505 0.30219576 0.570674 -0.26909944 0.08188366 -0.37564117 0.15753153
-0.3432824 -0.26962823 0.09810262 0.06085766 -0.16219178 0.022030998 0.3041201 -0.011750634
0.6861082 -1.3716916 -0.4047952 0.3147725 0.1161727 0.041150425 0.28539643 0.44391584
0.011992346 -0.18971919 0.4006142 0.47411275 -0.029256456 0.16231321 -0.008254239 -0.16400734
0.08022498 -0.028341135 -0.21008319 -0.21261443 0.57642996 -0.20339447 -1.1101483 0.3128171
0.0051672747 -0.6597251 0.080250256 -0.083523795 -0.33198687 0.03412043 0.26140717 -0.1399835
0.22956242 -0.19297841 -0.013334393 -0.13784531 0.28490886 0.018745068 -0.37477773 0.0685771
-0.08353301 0.2954118 -2.3022327 0.37662193 -0.22175485 -0.20727643 0.09658875 0.37083957
-0.11670108 0.8095127 -0.020263068 0.12353458 -0.088618204 -0.07625831 -0.017392274 -0.3537359
-0.31610847 0.081886366 -0.022691453 -0.28761452 0.17405534 0.18528928 0.12556683 0.6013692
-0.90679646 0.37145 -0.14213985 0.4412274 -0.069639914 -0.14429338 0.09305518 0.032945994
0.11615055 -4.6288657 -0.032528754 0.85040855 0.011119542 0.086210564 -0.07556358 -0.367192
0.35877836 -0.25740448 -0.35143673 -4.912997 0.38306874 -0.1052029 0.43354052 0.16727446
-0.030014493 -0.2276344 -0.30055758 -0.21270058 0.16737975 0.18279831 0.2879768 0.26860067
-0.22306226 0.2382248 -0.094568186 0.10426684 -0.38585576 0.13338025 -0.25659156 -0.2038013
-0.61791134 -0.49037486 -0.029402236 -0.78156143 0.4182431 0.088284835 0.12867753 -0.14020023
0.7852583 0.057096157 -0.7784843 0.0069487686 -0.013950036 0.1829967 -0.19937813 0.0802973
0.60019547 -0.47155225 -0.35478708 -0.52974194 0.12766513 -0.2088971 -0.36679667 0.24976094
-0.2671773 -0.3118167 0.21392761 -0.2225201 -1.4313473 0.033136968 0.27363756 -0.07230329
00000000: 043e a7bf 46ee f43e 3e9a 16be b61a c2be
00000010: 18c4 1dbd 44cc 033e 9951 00be 8a41 ef3e
00000020: 8582 c4bf 3f68 1bbf 1a8e b93e 5e26 a53e
00000030: bdfb 89bf 797d 583d 7b6e 65bd 5630 843e
00000040: 3cda 7ebe e7e9 063e 8a17 2cbd 3466 36be
00000050: 2fd0 a63e 1bae 823e b7eb 36bf 4038 6bbd
00000060: 4a81 2cbf d665 033f aa54 47bf dc77 293f
00000070: aba1 803d bbb6 19bd b98b 8e3e 69ce 3dbe
00000080: 7613 23bf aa47 a0bf a983 813e 2f9c 95be
00000090: fb49 9fbe 56bd 283e 51cf f5bf ca07 90bc
000000a0: 54ab 17bc 1251 6a3d c387 923e 8e55 853e
000000b0: 0f6d 62bf 35d6 d93e e701 1dbf ee1c 69bd
000000c0: 3e90 163e fd69 9cbf 36f5 59bd 749b 3abf
000000d0: 6e61 b93e 7fbb c1be b9d2 d0bd 480f 04bd
000000e0: ed0a bb3e c443 0d3f cb3c aabd 2a94 a5bf
000000f0: c1a3 a2be ec8c 913e 4944 953e 06a6 5abe
00000100: 024a 11be c74d a0be 3e50 043e 46cc 873d
00000110: 705d 3abe f64c 45be 5247 9fbe 7180 25be
00000120: a6ae a8be 59d1 4fbd 4189 f13c f75e 29be
00000130: e959 103e 758d 073f 1bdb 90be 9a87 e3be
00000140: 5f16 25bf ca65 dbbe bfdf d33e 50b6 11bd
00000150: a90c a1bf 0432 b93e 9fb1 99be e2db 223f
00000160: dca1 d8be 1dfa 8fbe 4005 79be b71c fd3e
00000170: 6ed6 a73e 05f5 233f 3be0 e6be 4bbf b7be
00000180: 614a d1bd fddf 2dbe 713c 423f d373 0cbe
00000190: a163 0cbf adc0 fbbd cfba 043d dd03 44bd
000001a0: 0ec6 8d3e 6905 3abf 67b9 9a3e b117 123f
000001b0: 67c7 89be 9fb2 a73d 0a54 c0be f24f 213e
000001c0: b6c2 afbe b60c 8abe 07ea c83d e245 793d
000001d0: 9a15 26be 5a7a b43c a1b5 9b3e bb85 40bc
000001e0: c9a4 2f3f 9793 afbf 5141 cfbe dc29 a13e
000001f0: f4eb ed3d 598d 283d 7b1f 923e f048 e33e
00000200: 8b7b 443c bf45 42be 4e1d cd3e e8be f23e
00000210: 3cab efbc 6f35 263e ca3c 07bc 8af1 27be
00000220: ff4c a43d ab2b e8bc 0c20 57be 99b7 59be
00000230: ea90 133f a446 50be 5719 8ebf 9029 a03e
00000240: 3e52 a93b bfe3 28bf 3f5a a43d 860e abbd
00000250: 2ffa a9be ddc1 0b3d 29d7 853e d657 0fbe
00000260: 6912 6b3e 229c 45be 7f78 5abc 5227 0dbe
00000270: 93df 913e 428f 993c dee2 bfbe 2772 8c3d
00000280: 5b13 abbd 3740 973e c857 13c0 97d4 c03e
00000290: b413 63be 4640 54be 53d0 c53d afde bd3e
000002a0: fa00 efbd 393c 4f3f bcfe a5bc b3ff fc3d
000002b0: 767d b5bd 512d 9cbd 3e7a 8ebc df1c b5be
000002c0: f8d8 a1be 0ab4 a73d 6de3 b9bc 3642 93be
000002d0: 903b 323e 79bc 3d3e 9794 003e 55f3 193f
000002e0: d023 68bf b22e be3e 1c8d 11be 8fe8 e13e
000002f0: 5f9f 8ebd a5c1 13be b793 be3d 61f2 063d
00000300: 57e0 ed3d ab1f 94c0 df3c 05bd 60b4 593f
00000310: bd2e 363c 2a8f b03d 14c1 9abd 9700 bcbe
00000320: ccb1 b73e 85ca 83be 84ef b3be 4537 9dc0
00000330: 9621 c43e 9e74 d7bd 06f9 dd3e ff49 2b3e
00000340: f4e0 f5bc fe18 69be afe2 99be 2ece 59be
00000350: 9965 2b3e 7b2f 3b3e b271 933e 0786 893e
00000360: 6f6a 64be 34f1 733e f7ac c1bd da89 d53d
00000370: e38e c5be d594 083e f85f 83be 4ab1 50be
00000380: 702f 1ebf 6a12 fbbe f5dc f0bc 6914 48bf
00000390: f623 d63e aece b43d 0bc4 033e a690 0fbe
000003a0: b006 493f a9dd 693d bf4a 47bf 7fb2 e33b
000003b0: b18e 64bc 7d63 3b3e c829 4cbe e972 a43d
000003c0: 69a6 193f 4c6f f1be a7a6 b5be 2b9d 07bf
000003d0: a6ba 023e 1fe9 55be c6cc bbbe 55c1 7f3e
000003e0: 77cb 88be 70a6 9fbe d70f 5b3e 4fdc 63be
000003f0: 6336 b7bf a1ba 073d 391a 8c3e bf13 94bd

model.0.bias f4 [128]
0.3183025 -0.06066356 -0.37836137 0.13307041 0.135609 0.34651646 0.025630476 -0.22345528
0.11808655 -0.3623179 -0.040690456 0.4900288 0.36551547 -0.33222216 0.19067758 -0.010935745
-0.26940477 -0.10225042 -0.40629476 -0.24711321 0.12665097 -0.326015 -0.29325098 0.25727218
-0.27385253 -0.17542039 -0.42066032 -0.1248648 -0.19337316 -0.25100267 0.0652495 -0.32243705
0.48421168 0.08224001 0.3569034 -0.26950082 -0.22047359 -0.34315065 -0.3802649 0.31979272
0.0025930565 -0.37733912 0.19896978 0.2050319 0.44707942 -0.33799076 0.24863777 0.043131817
0.22738461 0.012755106 -0.239414 -0.25589558 -0.030546773 -0.34195912 0.036423232 -0.39492568
0.24151671 -0.29643568 -0.42202297 -0.1833528 -0.42130053 -0.10801887 0.26196927 0.107009664
-0.25386804 -0.6410795 -0.58718264 -0.45056117 0.14626913 0.003709845 0.1653041 -0.3286399
-0.1787927 0.2820674 0.15373443 -0.049700223 -0.3722522 -0.1995327 0.18418375 0.30487648
-0.14010008 -0.51553977 0.21270666 -0.3715632 0.27376935 0.23168057 -0.2160023 -0.17622696
0.2755492 0.45277107 -0.3509617 -0.18215731 0.11581997 0.29790494 0.28011104 -0.49007112
0.1964998 0.19149706 -0.45559594 -0.051356785 -0.38716075 -0.32316974 -0.29334927 -0.42245656
0.29671285 -0.306543 -0.15104042 -0.07806703 -0.0056163063 -0.32890445 -0.046477236 -0.071833484
-0.5160614 -0.053710226 0.30672747 -0.16426662 -0.17077006 -0.25390664 0.121236704 0.13835897
-0.15422308 0.07302647 -0.33270696 0.41186896 -0.4947724 -0.07446997 -0.025573105 -0.07246867
00000000: 8cf8 a23e 5a7a 78bd 95b8 c1be 9c43 083e
00000010: 16dd 0a3e 9b6a b13e 01f7 d13c 76d1 64be
00000020: 5cd7 f13d bb81 b9be 09ab 26bd 0ee5 fa3e
00000030: d824 bb3e 0619 aabe fc40 433e d72b 33bc
00000040: 6cef 89be ab68 d1bd de05 d0be 3f0b 7dbe
00000050: cbb0 013e 70eb a6be fe24 96be 2eb9 833e
00000060: 6636 8cbe 67a1 33be ca60 d7be 1eb9 ffbd
00000070: 9d03 46be 6c83 80be 88a1 853d 7816 a5be
00000080: 98ea f73e 736d a83d 0bbc b63e 03fc 89be
00000090: d4c3 61be 71b1 afbe 15b2 c2be dfbb a33e
000000a0: 45f0 293b 9832 c1be bcbe 4b3e e2f3 513e
000000b0: 98e7 e43e 200d adbe e69a 7e3e fdaa 303d
000000c0: 83d7 683e cbfa 503c f228 75be bf04 83be
000000d0: 3a3d fabc 4415 afbe 8730 153d b333 cabe
000000e0: 2850 773e 6bc6 97be 6513 d8be d6c0 3bbe
000000f0: b4b4 d7be ff38 ddbd d620 863e e227 db3d
00000100: fefa 81be c91d 24bf 9a51 16bf f4af e6be
00000110: 93c7 153e df20 733b 7a45 293e 7d43 a8be
00000120: 6f15 37be 236b 903e 8f6c 1d3e 7692 4bbd
00000130: d797 bebe 4d52 4cbe aa9a 3c3e c518 9c3e
00000140: 6576 0fbe 6afa 03bf c6cf 593e 883d bebe
00000150: 7f2b 8c3e ac3d 6d3e b52f 5dbe d774 34be
00000160: c914 8d3e 9cd1 e73e 40b1 b3be 7287 3abe
00000170: 0533 ed3d ff86 983e b76a 8f3e 9aea fabe
00000180: 3e37 493e ce17 443e df43 e9be 7e5b 52bd
00000190: ef39 c6be 8176 a5be e031 96be 3a4c d8be
000001a0: bfea 973e 34f3 9cbe 57aa 1abe 9be1 9fbd
000001b0: fe08 b8bb 2a66 a8be ea5e 3ebd 6f1d 93bd
000001c0: 9a1c 04bf 41ff 5bbd 620b 9d3e 8235 28be
000001d0: 59de 2ebe 0d00 82be f34a f83d f9ad 0d3e
000001e0: a8ec 1dbe e78e 953d 9158 aabe 7de0 d23e
000001f0: cf52 fdbe b683 98bd b07e d1bc 746a 94bd

model.2.weight f4 [64, 128]
-0.06758144 -0.024394827 -0.064286575 -0.09550025 0.034020636 0.022127284 -0.021618657 0.0009960459
-0.037195288 0.0016656962 -0.050759736 0.0578107 0.029569317 0.024724267 0.0061940886 -0.06800522
0.023202494 -0.06555927 -0.08295387 0.031933203 0.018258225 -0.005929292 0.050471768 -0.081573494
0.027703864 -0.008539373 -0.06532053 0.05077399 -0.047631513 -0.073326126 -0.07792099 0.086678594
-0.06754771 -0.04250393 -0.03536802 0.07416804 0.016761186 -0.11071624 -0.02033874 0.031139696
0.006816979 -0.03909136 0.0096768 -0.0015683357 0.046175767 0.00887778 -0.02100892 -0.045834463
-0.03011754 -0.0048577613 0.060660068 -0.0015620897 -0.056414157 -0.026362864 0.047122147 0.077038065
-0.05630091 0.009336327 0.07191738 -0.026749192 -0.07598583 0.05038606 0.06282701 0.032446023
-0.07725562 0.055171814 0.043944906 -0.08230042 0.017493565 0.018904814 0.067339845 -0.035017867
-0.0016062458 0.05046721 -0.015301612 -0.11388107 -0.063950814 0.0041516717 -0.07441426 0.006511709
-0.06437604 0.008768857 0.034502603 0.039100718 -0.08272703 -0.06364991 -0.00979537 0.045572065
-0.038611043 -0.014272777 0.03194844 0.024045652 0.023719056 -0.043678176 -0.112078495 -0.119291164
-0.048571482 -0.07461866 0.002931588 -0.071884386 0.025775379 -0.06318577 -0.0033952026 0.07987812
0.034539614 -0.10520938 -0.015610792 -0.017855868 -0.03624133 0.05187154 0.03260555 -0.02178541
0.04480267 -0.05446166 0.0020844883 0.00938335 0.07199697 -0.05879619 -0.059702877 -0.061127163
-0.0009831113 -0.084386565 -0.091200836 0.041506324 0.038119573 0.068759106 0.020149095 0.059386183
-0.12114326 0.2670815 -0.08275001 0.33443397 -0.13082916 -0.31070498 -0.1775407 -0.27906787
-0.021977032 -0.08663276 -0.007062347 -0.36125472 -0.15003228 -0.18931074 -0.17824534 -0.0864837
0.017577522 -0.46471632 -0.67598003 -0.04776986 0.008620147 -0.035117377 0.089467734 0.3382034
0.22657607 -0.0073200855 -0.21337672 -0.26640332 -0.046988953 -0.03746536 -0.38088414 0.27554348
-0.08487697 -0.62947404 -0.23275292 -0.08242858 -0.0020284364 -0.044655435 -0.06341088 0.91632384
-0.07325908 -0.08938873 -0.25354055 -0.41448066 0.024328522 0.06382417 -0.6484069 -0.1765028
-0.30739588 -0.03842111 -0.11911073 -0.20897809 -0.46415886 -0.950622 -0.08633929 0.08314903
-0.15327421 -0.014412136 -0.10881361 0.15455718 -0.085218325 0.14289063 0.019760488 0.101624064
0.056873083 0.032645192 -0.23108432 -0.28977075 -0.0019652082 -0.5535185 -0.39482352 -0.031132886
-0.5081576 0.11232569 -0.31819355 -0.15260075 -0.085846566 0.023499426 0.20499817 -0.39240718
0.0031126607 -0.016079986 -0.41213024 -0.05656991 -0.0037547268 -0.1755858 -0.010624999 -0.15463072
-0.356953 -0.15241382 0.04198372 -0.033793498 0.16757989 -0.35361516 -0.45024306 -0.28602284
0.06721318 -0.105309226 -0.14932428 -0.1965237 0.052739047 -0.12233389 -0.070711866 -0.9379335
-0.5223292 0.31558928 0.059479486 0.013393174 0.031689778 -0.19578685 0.03299507 -0.16064134
-0.25720078 0.054174498 -0.045645896 -0.10374219 -0.005480081 0.19576225 -0.079689756 -0.25574136
-0.046144262 -0.51890814 -0.20830758 -0.1270927 0.07315125 -0.1629492 -0.0026736308 0.57618254
00000000: 2368 8abd a9d7 c7bc aea8 83bd a395 c3bd
00000010: 3959 0b3d 4744 b53c 9c19 b1bc c18d 823a
00000020: 165a 18bd 7d53 da3a 71e9 4fbd eaca 6c3d
00000030: 5a3b f23c 8c8a ca3c c8f7 ca3b 5246 8bbd
00000040: 2813 be3c f043 86bd b8e3 a9bd 64cc 023d
00000050: 4692 953c 824a c2bb 7cbb 4e3d 0110 a7bd
00000060: 37f3 e23c bae8 0bbc c5c6 85bd 63f8 4f3d
00000070: 4319 43bd 022c 96bd 0a95 9fbd 8c84 b13d
00000080: 7456 8abd 9a18 2ebd 0fde 10bd 6ae5 973d
00000090: c14e 893c 32bf e2bd 6e9d a6bc ad18 ff3c
000000a0: f760 df3b 431e 20bd 718b 1e3c 9d90 cdba
000000b0: cd22 3d3d 1c74 113c e61a acbc ebbc 3bbd
000000c0: 0fb9 f6bc db2d 9fbb b176 783d 08bf ccba
000000d0: 8812 67bd eff6 d7bc 2703 413d 22c6 9d3d
000000e0: c89b 66bd 65f7 183c 6b49 933d 1f21 dbbc
000000f0: 759e 9bbd 9d61 4e3d 73ab 803d 1fe6 043d
00000100: 3238 9ebd d7fb 613d 93ff 333d 1f8d a8bd
00000110: aa4e 8f3c 45de 9a3c 79e9 893d e56e 0fbd
00000120: aa88 d2ba b5b6 4e3d 9db3 7abc 7a3a e9bd
00000130: a5f8 82bd bf0a 883b 8166 98bd 2d60 d53b
00000140: 96d7 83bd 41ab 0f3c 9a52 0d3d 1328 203d
00000150: ca6c a9bd e25a 82bd c27c 20bc c6a9 3a3d
00000160: 9d26 1ebd 5ed8 69bc 5edc 023d 63fb c43c
00000170: 774e c23c e3e7 32bd 6989 e5bd ed4e f4bd
00000180: e4f2 46bd abd1 98bd e31f 403b 1f38 93bd
00000190: e326 d33c 8a67 81bd 0c82 5ebb 2497 a33d
000001a0: 6979 0d3d 0478 d7bd 68c4 7fbc 7846 92bc
000001b0: ca71 14bd 4077 543d 668d 053d 5177 b2bc
000001c0: 0183 373d 3113 5fbd e99b 083b 9fbc 193c
000001d0: 2673 933d 46d4 70bd 018b 74bd 7a60 7abd
000001e0: bedb 80ba ddd2 acbd 81c7 babd 8902 2a3d
000001f0: 4523 1c3d 93d1 8c3d b70f a53c ed3e 733d
00000200: f519 f8bd e8be 883e d678 a9bd ee3a ab3e
00000210: 14f8 05be b914 9fbe 3bcd 35be fce1 8ebe
00000220: 2d09 b4bc 846c b1bd 436b e7bb 61f6 b8be
00000230: 10a2 19be adda 41be f285 36be 5e1e b1bd
00000240: bcfe 8f3c 4cef edbe 070d 2dbf 54aa 43bd
00000250: 843b 0d3c 3dd7 0fbd dc3a b73d ff28 ad3e
00000260: 8f03 683e 54dd efbb 6d7f 5abe 0466 88be
00000270: 7d77 40bd 4775 19bd 3f03 c3be 0914 8d3e
00000280: fad3 adbd 3625 21bf c856 6ebe 51d0 a8bd
00000290: 84ef 04bb 9ee8 36bd 90dd 81bd 3394 6a3f
000002a0: db08 96bd 7011 b7bd 11d0 81be cf36 d4be
000002b0: 9c4c c73c 3fb6 823d fffd 25bf 26bd 34be
000002c0: fe62 9dbe 745f 1dbd 54f0 f3bd 5afe 55be
000002d0: 3ba6 edbe f75b 73bf a7d2 b0bd 0a4a aa3d
000002e0: eaf3 1cbe e120 6cbc acd9 debd 3d44 1e3e
000002f0: f286 aebd ec51 123e bfe0 a13c 4720 d03d
00000300: c0f3 683d f7b6 053d 5ea1 6cbe d55c 94be
00000310: b9ca 00bb 63b3 0dbf 4f26 cabe 650a ffbc
00000320: 9e16 02bf 030b e63d 44ea a2be 5f43 1cbe
00000330: 53d0 afbd de81 c03c 0aeb 513e 98e9 c8be
00000340: c8fd 4b3b 2dba 83bc bc02 d3be dab5 67bd
00000350: dd11 76bb c4cc 33be 7a14 2ebc 8457 1ebe
00000360: 8bc2 b6be 5e12 1cbe 1ff7 2b3d 0d6b 0abd
00000370: 109a 2b3e 0c0d b5be 4286 e6be 9671 92be
00000380: 10a7 893d 5dac d7bd 77e8 18be 823d 49be
00000390: e604 583d 318a fabd 62d1 90bd 691c 70bf
000003a0: 5eb7 05bf eb94 a13e c3a0 733d 0b6f 5b3c
000003b0: 24cd 013d 597c 48be d725 073d 2a7f 24be
000003c0: d2af 83be 14e6 5d3d 31f7 3abd c976 d4bd
000003d0: 4092 b3bb e675 483e 6234 a3bd 88f0 82be
000003e0: c401 3dbd 2ad7 04bf 954e 55be 9724 02be
000003f0: 53d0 953d 28dc 26be 1538 2fbb b380 133f

model.2.bias f4 [64]
-0.1335702 -0.33023605 0.019817118 -0.07878995 -0.40706587 0.2698129 -0.025031766 -0.092141196
-0.026188169 0.016081411 -0.19699743 -0.36616537 0.09345936 -0.14037155 -0.11274027 -0.053598598
-0.08066116 -0.059715647 -0.075776525 0.14101677 -0.06690404 0.45191523 0.10507148 -0.07506195
-0.14540167 0.015613253 -0.113217674 0.21223778 0.087527804 -0.032614443 -0.13861065 -0.057566427
0.036676206 0.31044623 -0.09222674 -0.097237565 0.28860396 -0.002809477 -0.066538624 0.31418237
-0.10927683 -0.031798355 -0.039960638 -0.09461362 0.22146071 0.01633447 -0.10104139 0.00010520171
-0.22547722 -0.09638621 -0.18377122 -0.10544681 -0.09178804 0.44703615 -0.093335435 -0.035988387
-0.13545077 -0.11344915 -0.04635996 -0.10785802 -0.05726632 -0.09438761 -0.0871748 0.023358757
00000000: a0c6 08be b314 a9be 8257 a23c a05c a1bd
00000010: f06a d0be eb24 8a3e 6b0f cdbc 86b4 bcbd
00000020: 9288 d6bc 2abd 833c b2b9 49be 077a bbbe
00000030: 9f67 bf3d 8fbd 0fbe 5fe4 e6bd 348a 5bbd
00000040: ae31 a5bd 6598 74bd b930 9bbd b366 103e
00000050: fc04 89bd 6f61 e73e b72f d73d 14ba 99bd
00000060: 2de4 14be bbce 7f3c abde e7bd dc54 593e
00000070: c741 b33d b996 05bd f3ef 0dbe c6ca 6bbd
00000080: ca39 163d cff2 9e3e 60e1 bcbd 7d24 c7bd
00000090: e6c3 933e 341f 38bb 6745 88bd 83dc a03e
000000a0: 88cc dfbd fe3e 02bd c4ad 23bd c9c4 c1bd
000000b0: 99c6 623e decf 853c caee cebd bd9f dc38
000000c0: 80e3 66be 2266 c5bd 862e 3cbe 7ff4 d7bd
000000d0: 5efb bbbd ece1 e43e a626 bfbd 8f68 13bd
000000e0: 9bb3 0abe 0758 e8bd f1e3 3dbd aae4 dcbd
000000f0: 1790 6abd 4b4e c1bd b488 b2bd dd5a bf3c

model.4.weight f4 [4, 64]
0.006515287 0.58675385 0.0421636 -0.08040182 -0.8113458 0.1839359 0.11956806 0.07554445
0.6257602 -0.084033206 -0.3399158 0.18195008 0.32410863 0.31584165 0.090832815 0.10997991
-0.028771214 0.07757282 0.030508135 -0.09810516 -0.08526711 -0.014157099 0.35305974 0.07404525
-0.023707537 0.0061535984 0.12046875 0.39241582 0.164848 0.0342948 0.07979515 -0.18686566
-0.0376328 0.31849062 0.04789233 -0.07426566 -0.26521674 -0.058031626 -0.3274361 0.31246954
0.04129067 -0.121159665 -0.06549756 0.049912654 0.28233832 0.009199012 -0.07401163 0.036892492
0.29795343 -0.1565996 0.19646294 0.04301107 -0.014713179 0.0043169456 0.10037112 0.023856154
-0.061770614 0.03251778 -0.097341605 -0.018410323 0.042868637 -0.057698864 -0.23389533 0.048908263
-0.013723309 0.3494505 -0.043967433 0.07928246 -0.07567197 0.11099953 0.046462964 0.032596275
0.49857494 -0.07313493 -1.1961235 0.3855105 0.21511292 0.29537955 -0.0042179152 -0.00964649
-0.0760612 0.10934641 -0.05706779 0.42007115 0.010581481 0.2807173 0.09886703 0.050980814
-0.015169953 -0.0537211 -0.028411046 0.20992121 0.1743147 -0.028700817 -0.09186474 0.24887419
-0.050543264 0.38916418 0.059900388 -0.089551285 0.18211827 0.023648184 -0.5157147 0.10368349
-0.093882635 -0.06961713 0.07614992 0.06546222 -0.008042458 0.025431335 -0.034867976 -0.08128617
0.3650716 -0.6786104 0.31579664 -0.05291456 -0.061585292 -0.21081994 -0.11635142 0.09626733
-0.032512266 -0.08408778 0.06775248 0.004562089 -0.0022171729 0.02682558 -1.1318249 0.013251093
0.10966109 -0.53934324 -0.01774122 0.06608455 0.23551951 0.14804325 -0.043992992 -0.20938747
0.63457835 -0.08207568 0.10804367 0.009585267 -0.7006934 0.40721005 0.061613396 0.109547645
0.00676669 0.1131971 -0.13620734 0.4249242 -0.099012375 0.43011975 0.11297526 -0.063752376
-0.051161934 -0.06209964 0.056177594 0.17725419 0.27047703 -0.061475396 0.11671139 -0.23573887
-0.047776382 0.27263013 -0.07570013 0.062965006 -0.09042188 -0.03251752 0.21057782 0.20345001
0.004745783 -0.028567666 -0.033665933 0.09239477 0.28133446 0.050453942 -0.055335812 -0.04305602
0.11399319 -0.23862608 0.3594022 0.10227617 0.008494881 -0.45417818 -0.04885584 0.10310224
-0.014392109 -0.06951302 0.010427833 0.06954868 0.020435125 -0.0076018632 -0.33541992 -0.023465136
-0.01756955 0.13180225 0.048505012 0.058476523 0.64328897 0.17425641 0.06890241 -0.01160001
0.64404964 -0.009688002 -0.23645443 -0.07237603 0.3115174 0.37929946 0.097360626 -0.09447329
0.14349128 0.008968458 -0.024295464 0.1797189 -0.05807708 0.2559807 0.20798995 0.107381
-0.0377888 0.10918885 0.040337324 0.26005268 0.20542178 -0.09148437 0.007424738 -1.1510664
-0.05075631 0.27856585 -0.09087959 -0.056627624 -0.1878602 0.0059953933 0.14175718 0.26122838
0.09273447 0.02762589 0.064240396 -0.123764336 0.29189056 -0.0005398379 0.055859264 -0.08819962
0.14388223 -0.06474259 0.27518612 0.03680001 -0.099429235 -0.27639458 0.05352026 0.022247007
-0.02505581 0.06457503 -0.035889644 -0.050592806 0.002159989 -0.021920826 0.21419768 -0.033766557
00000000: 307e d53b 8035 163f bdb3 2c3d b6a9 a4bd
00000010: 5cb4 4fbf b159 3c3e 19e0 f43d 0cb7 9a3d
00000020: d231 203f 9a19 acbd 7209 aebe 1f51 3a3e
00000030: 91f1 a53e ffb5 a13e 8e06 ba3d 263d e13d
00000040: 9cb1 ebbc 80de 9e3d 32ec f93c 5ceb c8bd
00000050: 86a0 aebd 2df3 67bc 3fc4 b43e 09a5 973d
00000060: 4f36 c2bc 20a4 c93b 52b8 f63d baea c83e
00000070: eacd 283e b478 0c3d a46b a33d b659 3fbe
00000080: da24 1abd 3411 a33e bf2a 443d 9818 98bd
00000090: 7dca 87be 92b2 6dbd b4a5 a7be 02fc 9f3e
000000a0: 6820 293d 8f22 f8bd 9623 86bd 3671 4c3d
000000b0: a68e 903e 74b7 163c 6993 97bd 951c 173d
000000c0: 5a8d 983e a55b 20be 952d 493e 602c 303d
000000d0: 8c0f 71bc 2a75 8d3b 608f cd3d fb6d c33c
000000e0: 2f03 7dbd 5d31 053d 095b c7bd 3fd1 96bc
000000f0: 0697 2f3d a555 6cbd 4282 6fbe 0854 483d
00000100: bbd7 60bc 2deb b23e 3217 34bd d85e a23d
00000110: e8f9 9abd b953 e33d f34f 3e3d ac83 053d
00000120: 3745 ff3e c4c7 95bd 931a 99bf a261 c53e
00000130: 9046 5c3e fd3b 973e 7036 8abb 500c 1ebc
00000140: f9c5 9bbd 03f1 df3d eabf 69bd 9113 d73e
00000150: f35d 2d3c 2eba 8f3e cc7a ca3d 42d1 503d
00000160: 658b 78bc a80a 5cbd 48be e8bc 96f5 563e
00000170: 8d7f 323e fa1d ebbc 9523 bcbd e0d8 7e3e
00000180: 7406 4fbd 8740 c73e 1c5a 753d aa66 b7bd
00000190: 367d 3a3e d6b9 c13c e105 04bf 0258 d43d
000001a0: 8a45 c0bd 6d93 8ebd 7df4 9b3d 0e11 863d
000001b0: 84c4 03bc 6055 d03c b9d1 0ebd 5d79 a6bd
000001c0: aaea ba3e 69b9 2dbf 19b0 a13e f0bc 58bd
000001d0: dc40 7cbd 2fe1 57be a749 eebd ce27 c53d
000001e0: 952b 05bd 3736 acbd d0c1 8a3d 947d 953b
000001f0: fd4d 11bb 52c1 db3c a3df 90bf 1d1b 593c
00000200: fe95 e03d 6612 0abf 0956 91bc 5657 873d
00000210: 072c 713e a698 173e ff31 34bd ab69 56be
00000220: ba73 223f 4b17 a8bd 0046 dd3d 860b 1d3c
00000230: a560 33bf d67d d03e 545e 7c3d 845a e03d
00000240: 1cbb dd3b e2d3 e73d f079 0bbe aa8f d93e
00000250: 00c7 cabd a838 dc3e 935f e73d 9b90 82bd
00000260: 2d8f 51bd 315c 7ebd 7a1a 663d 1f82 353e
00000270: f77b 8a3e a0cd 7bbd 6206 ef3d 8865 71be
00000280: 2bb1 43bd 2d96 8b3e ab08 9bbd ccf3 803d
00000290: 1b2f b9bd 1731 05bd b6a1 573e 3355 503e
000002a0: 8382 9b3b bd06 eabc 4ae5 09bd 7839 bd3d
000002b0: 120b 903e cba8 4e3d cea7 62bd 825b 30bd
000002c0: 4375 e93d 655a 74be 9103 b83e 2b76 d13d
000002d0: 1d2e 0b3c 0b8a e8be 101d 48bd 4427 d33d
000002e0: e1cc 6bbc d85c 8ebd 80d9 2a3c 8a6f 8e3d
000002f0: 9067 a73c 0d19 f9bb 29bc abbe f539 c0bc
00000300: 04ee 8fbc 2bf7 063e 31ad 463d 1485 6f3d
00000310: 96ae 243f 4670 323e b51c 8d3d f80d 3ebc
00000320: 70e0 243f 6dba 1ebc 1c21 72be e239 94bd
00000330: 357f 9f3e 8a33 c23e 0265 c73d 367b c1bd
00000340: 61ef 123e 70f0 123c 4807 c7bc 3b08 383e
00000350: 3be2 6dbd e70f 833e 51fb 543e 92ea db3d
00000360: 6ec8 1abd 679e df3d c038 253d a025 853e
00000370: 165a 523e 285c bbbd 374b f33b 2556 93bf
00000380: d9e5 4fbd 2fa0 8e3e 141f babd 5ef2 67bd
00000390: 6d5e 40be 0175 c43b cb28 113e babf 853e
000003a0: 92eb bd3d b14f e23c 7890 833d 2878 fdbd
000003b0: ae72 953e e983 0dba afcc 643d 01a2 b4bd
000003c0: dd55 133e c397 84bd 32e5 8c3e 9bbb 163d
000003d0: 8ea1 cbbd 9783 8dbe 0f38 5b3d 5b3f b63c
000003e0: d841 cdbc ea3f 843d 0501 13bd 673a 4fbd
000003f0: 9a8e 0d3b 4e93 b3bc a356 5b3e cd4e 0abd

model.4.bias f4 [4]
0.05284056 0.113616295 0.1135233 0.09332011
00000000: 586f 583d a9af e83d e77e e83d 9d1e bf3d
