checkpoints/checkpoint_ep100.pt (torch, 163021 bytes, 24 tensors)

model.0.weight f4 [128, 7]
000000 72 a1 37 bf 39 cc 23 bc e6 73 97 3d a9 d4 a0 be
       -0.7173072 -0.009997421 0.07395153 -0.31412247
000010 d7 25 25 be 8d e8 77 3e 89 08 6e 3e 48 c8 05 3b
       -0.16127716 0.24209805 0.23245443 0.0020413566
000020 0b d2 ee be c4 13 bd bc ac bd b3 3d 70 7f 9d 3d
       -0.46644625 -0.023080714 0.087764114 0.076903224
000030 a6 39 33 3e 97 3a 16 3e 3b 42 06 3f 54 52 18 3c
       0.1750246 0.14670788 0.5244481 0.009296972
000040 ca 95 21 be 35 72 b3 be fc 17 01 bf 3a c2 a2 be
       -0.15779796 -0.3504807 -0.5042722 -0.31788808
000050 23 f4 f8 bc 33 c8 29 be b1 14 88 be fa 07 36 3e
       -0.030389851 -0.16580276 -0.26578286 0.1777648
000060 6e 4e e2 bd f1 00 d1 3d 82 23 19 3e f4 74 14 bd
       -0.110501155 0.10205258 0.14954951 -0.036244348
000070 61 12 02 c0 2a 91 89 bc 8e fc 9c be cb 47 95 3e
       -2.0323718 -0.016792852 -0.30661434 0.29156336
000080 af 4b c1 3e 72 72 22 3e dd ef be bc 13 be b3 be
       0.37753054 0.1586397 -0.023307735 -0.35105953
000090 31 25 a6 3c c5 a4 46 be 3a 21 48 be 0e cf 71 be
       0.020281406 -0.19398792 -0.19543925 -0.23614141
0000a0 f5 ee 41 3e 21 85 75 3d da ff 6f 3e b7 99 03 bf
       0.18938811 0.059941415 0.23437443 -0.51406425
0000b0 db ed 93 3e d2 6d 40 bd 4e aa 6d 3e 94 ed a2 be
       0.28892407 -0.046979733 0.23209497 -0.31821883
0000c0 2f df ea bd b0 e2 45 3e 8f da af bf a4 94 12 bf
       -0.1146835 0.19324756 -1.3738574 -0.5725806
0000d0 bb 05 36 3e 86 76 34 be 90 24 71 3d 24 29 45 bd
       0.17775624 -0.17623338 0.05887276 -0.048134938
0000e0 72 2e a0 be 6d 02 00 bd 44 f5 63 3c 62 f0 1b bc
       -0.31285435 -0.031252313 0.013913456 -0.009517761
0000f0 40 b6 6a be f1 d1 b2 3e 25 02 18 be f8 8d 25 be
       -0.22921085 0.34925798 -0.14844568 -0.16167438
000100 f7 9f 84 be 62 bf 85 3e c7 4a 59 be ad df f4 3a
       -0.25903293 0.26122576 -0.21219932 0.0018682383
000110 f5 b2 b0 be 52 28 97 be 07 94 0a bb a1 0e e9 be
       -0.34511533 -0.2952295 -0.002114536 -0.45518973
000120 7a 5a 67 bc 8c 7e 08 3f 62 ae 66 be d1 47 89 bd
       -0.014120692 0.53318095 -0.2252746 -0.06703151
000130 44 ce b0 be 38 bf 24 3e c1 a4 24 bc b6 41 b9 be
       -0.34532368 0.16088569 -0.010049046 -0.36182946
000140 19 51 d2 bd fb 71 15 be ac 7c a3 be a5 e2 ee bd
       -0.102693744 -0.14594261 -0.31931055 -0.11664323
000150 ff 12 0a 3e 6e b4 5f bf 2f d0 57 3e d3 34 8e 3e
       0.13483809 -0.8738469 0.2107551 0.27774677
000160 ca 2b 7e 3e cf 77 d6 be 43 87 41 3e 5b 05 90 be
       0.24821392 -0.41888282 0.18899255 -0.28129086
000170 be e4 95 bc 35 0f 6d 3e 7c 88 b0 3d d4 e7 bd 3e
       -0.01829755 0.23150332 0.08619782 0.37090933
000180 c7 c6 a8 be cf 9e 81 be 01 a1 ae be c3 fb d8 bd
       -0.32964155 -0.25316474 -0.3410721 -0.10594895
000190 ff 40 ec 3d 42 c1 58 3e 79 e0 a0 3e ac c8 9b 3d
       0.115358345 0.21167472 0.3142126 0.076066345
0001a0 84 17 76 be a0 21 24 3e 2b e5 92 bd 4c 15 cc 3e
       -0.24032408 0.16028452 -0.071726166 0.39859998
0001b0 0c ed 01 be 72 8a c9 3e 60 b7 28 be e2 08 a7 bd
       -0.12688082 0.39363438 -0.16476202 -0.08155991
0001c0 ac 34 8f bd a1 b4 4e be 94 1a 1a be 95 16 97 be
       -0.06992468 -0.20186092 -0.15049201 -0.29509416
0001d0 3d e7 07 3e 7e 69 d8 3e d6 c8 81 be a7 1e 98 be
       0.13271804 0.42267984 -0.25348538 -0.29710886
0001e0 45 6c 15 bd ed 7c 89 3e 54 63 f5 bc 50 b2 2b 3e
       -0.036480207 0.26853123 -0.02995459 0.1676724
0001f0 f9 f8 9c 3e ee 0c db bd 8e 24 60 3e 08 d2 f9 bc
       0.306587 -0.106958255 0.21888945 -0.030495659
000200 2d d5 28 bf 72 42 2b 3e ea f7 3e 3e b4 4b 13 be
       -0.6595028 0.16724566 0.18649259 -0.14384347
000210 a0 2b 81 3e b5 1b d0 3e 53 af 70 bd 42 b3 63 3d
       0.25228596 0.4064614 -0.058760952 0.055590875
000220 63 ad 83 3e 2a f4 cf 3d e4 7f d3 bd 96 c6 9d 3d
       0.2571822 0.101539925 -0.103271276 0.07703893
000230 7d e1 d3 bc bd df f6 be a6 57 5f 3d 91 fd d2 bd
       -0.025864357 -0.48217574 0.054526947 -0.1030227
000240 7c 7f ad be 4c 0c 79 bd 03 61 9e 3d f8 fa 21 3e
       -0.33886325 -0.060802743 0.07733347 0.15818393
000250 81 9f 94 3e 79 f4 c4 be 1a 4b d7 bd 7d 39 3b 3e
       0.29027942 -0.38467768 -0.10512371 0.18283649
000260 ba 35 65 3d 5d 28 78 bd d4 2f 0d 3f 36 4a fe bc
       0.05595944 -0.06058537 0.55151105 -0.031041246
000270 d7 5c 64 be 74 de d1 bd 6f be 9e 3e 2f c3 1d 3d
       -0.2230104 -0.10247508 0.31004664 0.03851622
000280 7c 9a 8c be 50 65 24 3e a8 ea ba be 6d c0 72 3e
       -0.27461612 0.16054273 -0.36507154 0.23706217
000290 30 67 7c 3d 93 0d 52 be d8 07 4f bc ca 7d 96 be
       0.061621845 -0.2051299 -0.012636147 -0.29392844
0002a0 0d 7f 9f 3e 15 7c 2c bf 51 11 88 bd d4 9d 66 be
       0.3115162 -0.67376834 -0.06643928 -0.22521144
0002b0 c4 6f 8a 3e 65 47 62 be 08 36 b5 3e 2d c9 72 be
       0.27038395 -0.22097547 0.35392785 -0.23709555
0002c0 6a 48 3b be a4 38 3c be 6b 90 17 bf da 10 be 3d
       -0.18289343 -0.18380982 -0.5920474 0.09280558
0002d0 a8 a5 ef 3e 74 af a7 3e 5e dc d4 3d 2d c4 5b be
       0.46806073 0.32751048 0.10393594 -0.21461554
0002e0 30 8e 50 be fa e2 a1 bd 12 26 61 bc 3e 37 ec bd
       -0.2036674 -0.079046205 -0.013741987 -0.11533974
0002f0 d6 4d 1c be 46 f5 12 bd 61 6f 5b be 85 dd 9a 3e
       -0.15264067 -0.035878442 -0.21429206 0.3024713
000300 b2 fd 79 3e 32 f2 aa 3e 69 d1 e5 3d 59 4b de bc
       0.24413183 0.33387905 0.112215824 -0.027135538
000310 d9 b5 26 bf 5b bb 74 3e 78 c9 df 3d b5 36 d1 3e
       -0.6512123 0.23899595 0.10927099 0.4086205
000320 78 4d ed 3d 24 58 a1 be b2 5b db bd c8 6d 8c 3e
       0.115870416 -0.31512558 -0.10710849 0.27427506
000330 12 05 a6 bd 41 29 16 3e 99 8e c2 be 6c 01 92 bd
       -0.08106436 0.14664175 -0.37999418 -0.071291775
000340 c3 4c 3e be 2f 0c 4d 3e 47 c4 d7 bf fe 6b a7 3e
       -0.1858397 0.20024179 -1.6856774 0.3269958
000350 e5 6b a0 3e e8 68 20 3e bc 9a 54 be 4f 2d 82 3e
       0.31332317 0.15665019 -0.20762151 0.25425193
000360 4c 35 a3 bd 09 63 3a 3e 12 ff 87 3d 8e de 18 be
       -0.0796915 0.18201841 0.06640448 -0.14928648
000370 25 b4 4c 3d 91 02 49 3e a0 13 d5 3c 95 4d d4 be
       0.049976487 0.19629885 0.026010334 -0.4146544
000380 19 4d 92 bd 52 4f ce 3d e8 ae 82 3e 25 27 3d be
       -0.071436115 0.10073723 0.25524068 -0.18471964
000390 a4 6c c7 be 83 26 87 3e b0 0a 1f 3e ef a2 8f 3e
       -0.38950074 0.2639657 0.1553142 0.28053996
0003a0 5b be ff bd 18 b1 90 be 64 0c 1c be 4c e1 67 3c
       -0.12487479 -0.28260112 -0.15239102 0.014152836
0003b0 03 c4 33 3d b3 a7 e3 3e c0 f0 12 3e c1 17 7d 3e
       0.043888103 0.44463882 0.14349651 0.24716093
0003c0 ba 3b 4b 3e 3f 14 b3 be 93 6c a3 be 78 b1 e5 be
       0.19847003 -0.34976384 -0.31918773 -0.4486196
0003d0 70 6d 4b 3e 9f 8e e4 3d b0 f0 e9 be 8d 43 42 3b
       0.19865966 0.11160015 -0.45691442 0.0029642314
0003e0 ab fc 73 3d fe 94 b3 be 24 17 4f be 7f a1 1f 3e
       0.059567135 -0.3507461 -0.20223671 0.1558895
0003f0 9b c7 cc bd 22 d4 43 bf 83 37 a2 3d 92 c4 a9 bd
       -0.09999009 -0.76495564 0.07920744 -0.08289446

model.0.bias f4 [128]
000000 dd ba 2b 3e 10 60 1f 3e 8b ae d7 bd ed 5a b7 be
       0.16770501 0.15563989 -0.10531338 -0.35811558
000010 b7 6e 18 3e c0 e1 af be 2a 31 71 be 91 0c d3 3d
       0.14885984 -0.3435192 -0.23553911 0.10305131
000020 8f 4d 14 be 26 0d 6e be d7 db d7 3c 8f f4 30 3e
       -0.14482711 -0.23247203 0.026349945 0.17280792
000030 9c 54 4d be 69 60 dc 3c bf 21 71 bc ce da a4 be
       -0.20051807 0.02690144 -0.014717518 -0.32198185
000040 bc 98 19 bc e1 4a 8f 3d 9b 3a a3 3d 3d e8 14 bf
       -0.009374794 0.06996704 0.079701625 -0.5816687
000050 d8 f5 ea 3d e2 1a 87 3d b2 25 ab be 26 ba 9f bd
       0.11472672 0.06596924 -0.33427197 -0.07799177
000060 0e 13 b4 3d 48 8d a2 3e cd b4 b6 be d7 62 55 be
       0.08792697 0.31748414 -0.35684815 -0.20838486
000070 03 14 79 be d2 15 d7 3d 7c 08 ac be 4d 36 d0 bd
       -0.2432404 0.10502209 -0.33600223 -0.10166607
000080 d7 35 cf be 03 27 6e 3e 71 1f 9c bd 69 f5 2f 3d
       -0.40470764 0.2325707 -0.076231845 0.04295865
000090 32 ff 3c 3e fe 80 aa 3d 79 d3 4d be 84 08 81 be
       0.18456724 0.083253846 -0.20100202 -0.2520181
0000a0 f9 80 5d ba cf 3c a5 be 73 39 02 3e 4c e5 1f be
       -0.00084496994 -0.32272956 0.12717228 -0.15614814
0000b0 e5 2d 3c 3e 89 f3 9f bd 8c 95 fc bd fc 84 9c 3c
       0.18376882 -0.078101225 -0.12333211 0.01910638
0000c0 c6 0a ef 3d 39 37 9b bd 26 bf 1f 3e e8 77 53 be
       0.11671977 -0.07578892 0.15600261 -0.2065121
0000d0 19 e5 4c 3e 44 ae 72 be 3b ac 6c 3e 6f 15 31 be
       0.20009269 -0.2369929 0.23112576 -0.17293333
0000e0 d2 0d 0d be 65 5f 94 be a7 e7 e7 be 0f 26 23 3e
       -0.13774803 -0.2897903 -0.45293924 0.15932487
0000f0 78 6f e4 3d 17 b2 84 3d 76 4a 28 be 3b b3 cb bd
       0.111540735 0.064792804 -0.16434655 -0.09946295
000100 dd 35 73 be 73 a4 de be 15 9d fb bd 3d fd 78 be
       -0.23751016 -0.4348484 -0.122858204 -0.24315353
000110 bb 31 86 be 7b d0 31 be db f9 3f bd 9d 2e d0 3d
       -0.26209816 -0.17364685 -0.04686914 0.10165141
000120 73 77 4b 3e 9d 2f d3 be 32 c0 5d 3d a6 38 10 be
       0.19869785 -0.41247264 0.05413837 -0.1408411
000130 6f d9 95 be 49 84 79 be e4 0e 94 bd 46 ee 6d be
       -0.2926745 -0.24366869 -0.07229403 -0.23235425
000140 ae ea 84 be c5 de db bd e9 9b af be 45 2a 39 be
       -0.25960296 -0.10735849 -0.34298638 -0.18082531
000150 0e 17 3e be 56 25 63 bd 7c 79 3f 3d f3 e0 a5 bd
       -0.18563482 -0.05545553 0.046746716 -0.08099546
000160 d3 11 e5 3d 83 80 8a be 4c f2 13 be ab e6 af 3c
       0.1118504 -0.27051172 -0.14447898 0.021472296
000170 51 c9 51 be 5a fb 59 3d db ed db 3d af 72 70 be
       -0.20486952 0.053218223 0.10738727 -0.23481248
000180 63 83 9f be f4 37 c3 3c fd f7 5d be ff d4 92 be
       -0.31154928 0.023830391 -0.21676631 -0.28678128
000190 03 e8 fe bc 1c d4 58 bd 32 49 cc be 63 80 9d 3d
       -0.031116491 -0.05293666 -0.39899594 0.076905034
0001a0 40 fa 1c be 5b a8 2b be ab 57 7e 3e 48 15 34 3e
       -0.15329838 -0.16763441 0.2483813 0.17586243
0001b0 c6 61 b8 be bf 92 3b be c6 1b 17 be 61 6d 17 be
       -0.36012095 -0.18317698 -0.14756688 -0.14787818
0001c0 d5 9b 38 3e 33 b8 32 bd 6b 39 94 3c 69 1d a3 3d
       0.18028195 -0.043632697 0.018093785 0.07964594
0001d0 c6 dc 6a 3e 86 f8 27 3e b2 8a 2b 3d e0 fa 9d 3c
       0.22935781 0.16403398 0.041880317 0.019284666
0001e0 7d f4 81 3e f3 b8 b4 3d 9f 54 76 3e 54 1c 22 3d
       0.25381842 0.08824339 0.24055718 0.039577797
0001f0 6e 47 0b 3d ea d1 2e be 56 37 a8 3d a7 90 1b bd
       0.034003668 -0.17072263 0.082136795 -0.037979748

model.2.weight f4 [64, 128]
000000 66 0f a6 bd 1e 6f a2 bd 8a f4 47 be f5 9c 13 bd
       -0.08108406 -0.0793135 -0.19526878 -0.036038358
000010 aa eb 20 bf 70 a9 9b bd 2d 0b 08 3e 6f 04 37 3e
       -0.62859595 -0.07600677 0.13285513 0.17872785
000020 a9 c5 f1 bb d7 ee d4 bc df e4 ce bc 72 9a f7 bd
       -0.0073782993 -0.025992794 -0.025255619 -0.12090005
000030 4b 23 60 3e 7a 55 0f 3e 66 7f 19 3d 55 8e e8 bd
       0.21888463 0.1399745 0.037475012 -0.11355273
000040 8d 40 8e 3c b8 1e d7 bd f2 f8 ba be b4 45 5c bd
       0.017364765 -0.10503906 -0.36518055 -0.05377741
000050 5a 3b 1e be 7c 89 1a 3e b3 03 43 be 87 27 37 be
       -0.15452328 0.15091509 -0.1904438 -0.17886172
000060 91 e6 88 be 4e c4 1d 3e 80 0e ae bd 3d ef 4e bd
       -0.26738408 0.15406916 -0.084988594 -0.050521124
000070 8a ee 09 3d f1 3d 76 be cd 33 b6 3d ae 1e 75 be
       0.033674754 -0.24047066 0.08896599 -0.23937485
000080 ed 89 8c 3d fe 53 da be 0d ea 8a 3d ec 0f 7e 3c
       0.06862245 -0.42642206 0.06782923 0.015506726
000090 df d7 4c be 2b e7 2a be 52 eb 55 bd 80 2e a6 bc
       -0.20004223 -0.16689746 -0.052226372 -0.020285845
0000a0 62 1e 7a be 02 64 80 bd 77 f3 30 3e 53 0a db 3c
       -0.24425653 -0.06269075 0.17280374 0.026738321
0000b0 45 f3 bd bd 68 d9 56 be ea 62 89 bd 2a 54 19 bd
       -0.092749156 -0.20981371 -0.067083195 -0.03743378
0000c0 cd 2d 82 3e 07 c3 d5 3e c6 7b 7b be fd 8a 07 be
       0.25425568 0.41750357 -0.24558935 -0.13236614
0000d0 45 04 40 bd 3e 93 a2 bd bb 8d f9 bd 08 bb 11 be
       -0.04687907 -0.079382405 -0.12185236 -0.14231503
0000e0 25 42 6b be 1e cc 8a 3d 42 7e c1 3c 2f 8f 9f bd
       -0.22974451 0.067772135 0.023619775 -0.07790982
0000f0 e5 eb 9e bd 99 80 9b 3d e3 25 77 be 8c 4e 09 3d
       -0.07759837 0.075928874 -0.24135546 0.033522174
000100 3c 97 7e bd 3a 93 a1 be d2 88 cd bd e1 ca 8a bc
       -0.062155947 -0.31557637 -0.10035862 -0.016942443
000110 6a 5c 13 3e c0 a6 14 be 66 50 49 3d 94 e3 67 3d
       0.14390722 -0.14516735 0.04914894 0.05661352
000120 73 31 60 3e 44 c0 af be bf 21 2c 3c 5a df d8 bc
       0.21893863 -0.34326375 0.010506093 -0.02647369
000130 9f 45 de 3d 38 50 1d be e7 4e 40 3d ad 52 33 3d
       0.10853123 -0.15362632 0.046950247 0.043780018
000140 05 5d bd 3d fe 1c 18 be a0 b3 09 3d 4e ad 48 3d
       0.09246258 -0.1485481 0.03361857 0.0489934
000150 c0 1c 86 bd bf 50 ed 3d 29 9f ee bd 5f a2 17 be
       -0.065484524 0.11587667 -0.11651451 -0.14808033
000160 f8 cd 70 3e b8 d8 22 3c 0e 45 fe bd ab 14 07 be
       0.23516071 0.009939365 -0.12415515 -0.13191478
000170 5d 52 27 3e 1b 3d 18 bd 87 06 db 3d de b5 0a bf
       0.16340013 -0.03716765 0.10694604 -0.5418376
000180 04 75 e4 bd 26 92 5b bd dd f1 7c be db a0 ab 3d
       -0.111551315 -0.053606175 -0.24701639 0.0838029
000190 0f 86 e2 bd 6a c9 ea 3d 0d 70 a5 3c 0f 3b cc bd
       -0.11060726 0.11464198 0.020195032 -0.09972202
0001a0 1d 38 7b 3d 15 14 18 3e ca 47 9d be 1f 06 1f bd
       0.06133281 0.1485141 -0.30718833 -0.038824197
0001b0 3d 91 12 3d 6d ac 14 3f da 71 aa bd 12 fb d2 3c
       0.03578304 0.580756 -0.08322497 0.025754485
0001c0 25 58 9a bd e0 b1 21 3e b7 11 fb bd fe 99 aa bc
       -0.075363435 0.1579051 -0.12259238 -0.020825382
0001d0 f3 41 1a bf d6 b9 fc bd 00 49 81 bd 08 28 bb be
       -0.6025688 -0.12340133 -0.06312752 -0.3655398
0001e0 57 92 81 be ea cd 08 3f 66 05 e0 bc 45 94 67 3c
       -0.2530696 0.534392 -0.027346324 0.014134471
0001f0 1f ff d8 3d b2 bc c8 bc 4b c0 19 bd cf 8c 77 be
       0.105955355 -0.02450404 -0.0375369 -0.24174808
000200 2d 32 b1 3e 06 bd 7e 3a 28 93 a3 be f6 14 2a bd
       0.34608594 0.0009717498 -0.3194821 -0.041523896
000210 c7 15 45 be 42 73 df bb 11 f8 ba be 76 2e ad 3e
       -0.19246589 -0.0068191597 -0.36517385 0.3382451
000220 52 a0 82 bd 8f cd 76 bd d3 88 16 3d 63 65 a0 3c
       -0.06378235 -0.06025463 0.03675158 0.019579595
000230 0f 48 c4 bd bd 36 87 3e a4 06 23 3e 1a a2 5c be
       -0.095840566 0.2640895 0.15920502 -0.21546212
000240 f0 05 37 3e 7d fe ac 3d 51 41 04 be ce b6 a9 be
       0.17873359 0.08446977 -0.12915541 -0.3314728
000250 27 7d 64 bc a2 8e de bd f4 11 58 bf 7b 76 8c bd
       -0.013945854 -0.10867049 -0.84402394 -0.06858536
000260 ae a9 f4 bd b6 69 b9 be f2 a7 59 3d 6e 23 c8 3c
       -0.11946426 -0.36213464 0.05313868 0.024430957
000270 7c 6a 22 3e 34 33 0d 3c b9 b8 0e bf ff c8 9b bd
       0.15860933 0.008618165 -0.55750614 -0.07606696
000280 63 17 b5 bd fe 48 9a 3b d2 02 95 3d 1d 0c d0 bd
       -0.08842351 0.0047084084 0.072759286 -0.101585604
000290 6f de ac bb 5f da aa bd b3 89 a3 be 05 62 e7 bd
       -0.0052755396 -0.08342432 -0.31940994 -0.112979926
0002a0 49 2f 2b 3e 44 56 b9 bf 92 2e 09 3e 77 2b 8f 3d
       0.16717257 -1.4479451 0.13396671 0.06990712
0002b0 9e a2 99 3d ad 0d 47 bd ec 80 d2 ba fc 9f f7 bf
       0.0750172 -0.048597027 -0.001606015 -1.9345698
0002c0 9e fd b2 bc 51 83 67 bf 1f 8b 32 bd 5c c9 6f bc
       -0.02184945 -0.9043475 -0.043589707 -0.01463541
0002d0 46 53 7f 3d 23 4c 35 bd c8 bb 70 be 94 6a be 3d
       0.062335275 -0.044262063 -0.23509133 0.09297672
0002e0 cc 52 47 3e a7 ce f0 bc 9e e3 cb 3c c7 12 c8 bc
       0.19465178 -0.029395415 0.02488881 -0.024423016
0002f0 c6 d9 05 3d 83 4d 8c 3d 41 3c 0a 3c 8b f1 0f be
       0.032678388 0.06850722 0.008437217 -0.14056985
000300 39 10 ac bd 3f 32 4a be 04 59 a7 3d 37 07 5d 3c
       -0.08401532 -0.1974573 0.08171275 0.01349049
000310 b7 0f f5 b9 ec a5 cb be 8a ed 79 be b7 bf b2 bd
       -0.0004674175 -0.39775026 -0.2440702 -0.08727973
000320 62 f6 94 be ff f4 b4 bd 1d 6a 02 bd ee 73 b6 bd
       -0.29094225 -0.08835792 -0.03183948 -0.089088306
000330 de 8c b3 be 61 4f 9c 3d 1c b6 68 3d 76 73 2a 3d
       -0.3506841 0.07632328 0.056814298 0.04161402
000340 7b f1 c0 3c de 5d 1f 3c 7c 6a ac bd c4 53 97 3d
       0.023552647 0.0097269695 -0.08418748 0.07389024
000350 ab 0d b4 3d 92 6f ea be 18 ea cf be fc 3a a5 bc
       0.087916695 -0.45788246 -0.40608287 -0.020169728
000360 33 55 63 bd 36 86 fe bb f1 f4 b6 3d a7 5b 03 3b
       -0.055501174 -0.007767464 0.089334376 0.0020043643
000370 5b 12 be bd 33 ff 02 bd 05 67 1b be 58 0e 26 be
       -0.09280845 -0.03198166 -0.15176018 -0.16216409
000380 9f c4 3a bd 98 6b 78 3d 4e 9d 19 3d f7 a6 3a bf
       -0.04559767 0.060649484 0.037503533 -0.7291102
000390 44 e2 1c 3d 72 15 8d bd 9d 4b 27 3d 40 8d 83 bd
       0.03830172 -0.06888856 0.040843595 -0.06423426
0003a0 b1 28 84 bd 91 03 e7 bd 8e 30 ea 3d 1c 98 13 be
       -0.06453074 -0.11279977 0.11435042 -0.14413494
0003b0 2c eb 8c bc 20 ef 9e 3e e5 c1 76 bd fc 9e d7 3c
       -0.017201982 0.31041813 -0.060243506 0.026320927
0003c0 76 fc 1f 3b 2e 8a 0d be 28 ef 5e bd 5f 96 e5 3c
       0.0024411953 -0.13822243 -0.054427296 0.028025804
0003d0 73 a2 2a bf 67 d2 9c bd af 67 00 3e a9 7f bd 3d
       -0.6665413 -0.076573186 0.12539552 0.09252865
0003e0 9f 61 c9 3d c9 97 fe be ff 35 da bc 88 2e 42 bd
       0.09833073 -0.49725178 -0.026637075 -0.047407657
0003f0 9c 3c cd 3c 3f 92 15 bc b6 d0 af 3d e8 c2 94 3e
       0.025053315 -0.009129106 0.0858473 0.29054952

model.2.bias f4 [64]
000000 6a 49 ad 3d 47 d7 d3 3d 0b 2a 21 3d 5b 34 d6 bd
       0.08461268 0.10343795 0.039346736 -0.10459205
000010 73 fc f6 3c 3d 71 56 bd 38 7c 0b 3e d8 7e 66 bd
       0.030149674 -0.052354086 0.13621604 -0.05627331
000020 45 fc fb bd 31 47 00 3e 7a 32 1e 3b 33 c0 ab 3c
       -0.12303976 0.12527157 0.0024138973 0.020965671
000030 fc 23 ee bc 25 f1 8e bd a0 8c 92 3d fd 10 5c bd
       -0.029069893 -0.069795884 0.07155728 -0.05372714
000040 23 96 1a 3e 4e 6a 9b bc ca 0d cc bd 73 64 01 3e
       0.15096335 -0.018971588 -0.099635676 0.12635975
000050 a1 98 42 3d 11 f1 f4 bd 66 00 1f bd 54 ae c9 bb
       0.04750884 -0.11960042 -0.03881874 -0.0061548147
000060 f1 38 f4 bc a7 1a 43 3c 42 5d b0 bd ee 69 8e bd
       -0.029812308 0.01190821 -0.086115375 -0.06953798
000070 6a 73 d3 bc 9a 43 fd bc 60 43 a6 bd 8b 67 36 bd
       -0.02581187 -0.030916024 -0.081183195 -0.04453234
000080 6d 48 b1 bd c5 83 f6 bd ae 16 53 bd 18 20 33 3e
       -0.08656392 -0.12036852 -0.0515353 0.17492712
000090 e3 29 22 bd 5e e2 14 3e 2d 9d 86 bb 02 e4 bf bc
       -0.039590728 0.14539477 -0.0041080923 -0.023424152
0000a0 71 22 72 3d 26 25 cb bd 03 87 6a bc f2 f6 62 bd
       0.059114877 -0.09919195 -0.014314416 -0.055411287
0000b0 ba 37 ef 3d 4c 50 03 ba 3c 10 d9 3b 86 22 85 bd
       0.11680551 -0.00050092186 0.0066242497 -0.065007254
0000c0 a8 b5 b4 bd c5 49 18 3d 7b d4 50 bd 8d 3a 05 be
       -0.08823711 0.037179727 -0.050983887 -0.13010617
0000d0 9c 43 44 bd d6 5e ba 3d 72 d8 b8 bc 9c 18 d1 bd
       -0.04791604 0.0910012 -0.022564147 -0.10209772
0000e0 21 6a 2f bd 01 bb ba 3d 1f 94 1c 3d 91 7f 07 bc
       -0.04282582 0.091176994 0.038227197 -0.00827016
0000f0 e6 37 35 bc a1 fd 9f bd 08 4f 59 be cf d0 47 bc
       -0.0110606905 -0.07812048 -0.21221554 -0.01219578

model.4.weight f4 [4, 64]
000000 e1 f9 39 3e ed 5f 63 3e 99 fc 3f 3e 92 fc 0d bc
       0.18161727 0.22204562 0.18748702 -0.0086661745
000010 1f d1 18 3e 40 4b c7 3d 1b e5 c2 3e fe 1f 72 3d
       0.14923523 0.0973115 0.3806542 0.05911254
000020 d0 6a 18 be 72 b1 86 3d ab 38 02 3e 3e cb 83 3d
       -0.14884496 0.06576814 0.1271693 0.0643525
000030 e7 d1 b6 bd c8 a5 87 bc 65 f3 e5 b9 39 59 6e bd
       -0.089267544 -0.016558543 -0.00043859627 -0.058190558
000040 3a d6 ed 3d fc d5 83 3e 1c ca 8f 3d 5f f7 3b 3b
       0.11613126 0.25749195 0.07020971 0.002868138
000050 1e cf 27 3e 3d 7f e4 3c 3d 40 ec bc c5 2b 8e 3d
       0.16387603 0.027892703 -0.028839225 0.06941942
000060 e0 f2 a2 3d ea 3b d6 3d ea 58 82 bd 83 ee a7 3c
       0.07956481 0.104606465 -0.06364615 0.020499473
000070 30 cd b7 3d 3c 1a bd 3c a2 19 f9 3d 7b c8 97 3d
       0.08974683 0.023083799 0.12163092 0.074112855
000080 dc 3a de bd d7 66 ff 3c 86 80 0d bc 36 10 3f 3e
       -0.1085107 0.031176968 -0.008636599 0.18658528
000090 99 5d 8b bd 9e da dd 3d 72 45 c6 3c 35 97 b0 3d
       -0.06804962 0.108327135 0.024203036 0.086225905
0000a0 72 35 ef bb 77 dd 15 3d 7b 5c 80 3e a0 96 28 bc
       -0.0073000723 0.03658816 0.25070557 -0.010289818
0000b0 dd e0 83 3c c1 10 5d 3d a2 fe 8e bd 93 0d 81 be
       0.016098434 0.053971056 -0.06982161 -0.2520567
0000c0 7c 3d f1 bd b7 bf b3 3d 7a e9 43 3e 71 dc 92 bd
       -0.11779305 0.08776801 0.19132033 -0.07170952
0000d0 67 fa d4 3c d6 fd 5e bd 55 48 8b 3d a3 cd 53 3c
       0.025998307 -0.054441296 0.068009056 0.012927446
0000e0 3a 59 d3 3d d3 32 b2 39 b4 30 55 3e ad ab 42 3d
       0.10319753 0.00033988673 0.2081936 0.047527004
0000f0 54 74 d9 3c f9 bb be bb 2e ed 3a bf 44 79 1b 3e
       0.026544727 -0.005820748 -0.7301816 0.15182978
000100 09 38 50 3e da 1f 1a bc f0 02 81 bd b7 c9 d0 3b
       0.20333876 -0.009407008 -0.062993884 0.0063717025
000110 17 41 8b 3d de 25 0b bd ae c2 fa 3d 5d 6d 68 bd
       0.06799524 -0.03397166 0.122441635 -0.056744922
000120 0e c7 60 3d fa 06 bd 3d e4 5e 24 3c a7 d1 25 3c
       0.054877333 0.09229846 0.010032389 0.010120786
000130 c8 d2 fb bd 0e 4b de bd 7f c8 90 3e 08 68 67 3d
       -0.12296063 -0.10854159 0.28277966 0.056495696
000140 aa 06 d6 3d df 96 b2 bd 46 98 8b bd 7b 77 bb be
       0.1045049 -0.087201826 -0.06816153 -0.36614594
000150 4b d4 47 3d 87 3f b4 bc 9a 19 ad bd 85 79 49 3c
       0.048786443 -0.022002948 -0.08452149 0.012297039
000160 dc e9 fe 3d 71 5b ba be 0a ce de bd b0 0b b2 3c
       0.12446949 -0.3639789 -0.108791426 0.021734089
000170 b1 92 bc bb a0 80 1b bd 68 a8 59 bd 32 79 d7 bd
       -0.0057547917 -0.037964463 -0.05313912 -0.10521163
000180 cc 6d bd bd fa 97 a2 bd 8e 11 f8 bd 63 d9 2a 3e
       -0.09249458 -0.079391435 -0.12112723 0.16684489
000190 48 07 8f bd ab 9d f4 3d f8 5d 28 bd 0d 96 91 bc
       -0.06983811 0.11944135 -0.04110524 -0.017771745
0001a0 8e b3 ad be 9b bb 97 3d ef 2b 50 3e 7a fb a7 bb
       -0.33926052 0.0740883 0.2032926 -0.005126414
0001b0 2a 34 c4 3c f4 bc 99 bd f0 c8 bc 3d c2 53 bb be
       0.023950655 -0.07506743 0.09218013 -0.3658734
0001c0 9a fc c8 bd 1f 5d 07 3f 62 34 7c 3e 8c 84 55 be
       -0.09813805 0.52876467 0.24629357 -0.20851344
0001d0 34 6a e9 bd a4 d6 27 3d 07 66 11 3e 44 14 eb bc
       -0.1139721 0.04097618 0.14199077 -0.028696187
0001e0 00 8d f1 ba 2e b3 cd 3d 0a 70 60 3e f0 9d 54 bc
       -0.0018428862 0.100439414 0.2191774 -0.012977108
0001f0 f9 d2 10 bc 19 1a e7 bc 19 1e 38 3d f0 74 dc 3d
       -0.008839362 -0.028210687 0.04495058 0.107644916
000200 6c 36 5c bc 75 fb fe bd 8b 7b 6b bd ac 4d 93 bc
       -0.01344071 -0.12450305 -0.057490867 -0.017981373
000210 4b 21 8a 3c 2c 61 03 3d 53 fd a0 3e 0e de 85 3a
       0.016861578 0.032075092 0.3144327 0.0010213272
000220 f8 1a 0a bc 17 c3 f6 3d 98 76 d2 3d ee be 94 bd
       -0.008429281 0.12048929 0.10276526 -0.072629794
000230 57 70 80 bd 70 de ff bd 94 d8 cd 3d 4a ea 6b bc
       -0.06271427 -0.124935985 0.100510746 -0.014399121
000240 52 90 e1 3d 55 d2 3e bc a0 61 86 3a 64 53 68 3c
       0.11013855 -0.011646827 0.0010252483 0.014180038
000250 4c b4 ee 3c 96 6b b2 bd 30 aa cf bd 6e 94 b1 bd
       0.029138707 -0.08711927 -0.101398826 -0.08670889
000260 e2 3a ab bd 84 cd 8e bb 8c e8 c9 3d b0 1d 68 bc
       -0.083608404 -0.0043579955 0.09858808 -0.014167234
000270 8d 84 ab 3d 05 c9 2f bd f8 e6 bc bd c6 83 1c bd
       0.083748914 -0.042916317 -0.09223741 -0.038211606
000280 be 36 93 bd 9c 78 3b bf 8d 33 32 3e 63 3c 16 3e
       -0.071881756 -0.7323091 0.17402478 0.14671473
000290 d6 b8 5b bd 6a 25 09 3c 3c aa 97 bd 56 7f 02 bd
       -0.05364307 0.008370737 -0.074055165 -0.03185972
0002a0 d5 4a 3a be 13 cc be bc dd 6a be 3d 6b 8c 32 3d
       -0.18192609 -0.02329067 0.09297726 0.043590944
0002b0 ce 73 d6 be 1e b5 ad 3d 78 54 ad 3d db 82 98 bd
       -0.41885227 0.08481811 0.08463377 -0.07446834
0002c0 dc bf 11 bd ea 36 9e 3d 7a b9 68 3e 48 aa bd be
       -0.035583362 0.07725318 0.22727004 -0.37043977
0002d0 b9 84 89 3c 06 12 49 3d 82 ab 93 3d dd b5 7a bd
       0.01678692 0.049089454 0.07210447 -0.061208595
0002e0 dc a5 fe 3d 25 70 85 3b a1 b6 4f 3e 92 72 db bb
       0.12433979 0.0040722066 0.20284511 -0.0066970075
0002f0 51 7f 81 bc 6d 74 c2 3d 81 0c ec 3b 6e 93 c9 3d
       -0.01580778 0.09494863 0.007203639 0.09842573
000300 d4 0a de 3d 00 26 dd 3b 27 90 5e 3b e1 83 a2 3d
       0.10841909 0.0067489147 0.0033960433 0.0793531
000310 30 8a 87 3d 95 fe 80 bd b9 39 3b 3e 23 23 24 3d
       0.06618154 -0.06298558 0.18283738 0.04007257
000320 75 b7 51 bc d2 29 23 3d c1 9a ef 3d cd fe e1 bd
       -0.012800087 0.039834805 0.11699439 -0.110349275
000330 24 fc 82 bc 40 1b 7c bd cf 54 3a 3e 99 8a 16 3c
       -0.01598937 -0.061549425 0.18196414 0.009188318
000340 ca bf e5 3d 89 26 51 3b 3d 3f 05 bd 0f 95 c5 3e
       0.112182215 0.0031913838 -0.03253101 0.38590285
000350 38 44 d1 3c 5e b0 4b 3d f5 82 9d bd a0 90 96 bd
       0.025545225 0.049728744 -0.07690994 -0.07351804
000360 54 6c 24 3d d5 8e 88 3e 9e 44 9b 3d 60 4b 47 bd
       0.040142372 0.26671472 0.07581447 -0.048655868
000370 fd 69 86 bc 28 cf 31 3b bc 5b c3 3d e9 d0 c0 3c
       -0.016407961 0.0027131531 0.09538981 0.023537116
000380 28 dd 88 3c e2 36 c1 bd fa 89 8b 3e f0 3b e4 3d
       0.016707018 -0.09434296 0.27253705 0.11144245
000390 ad 8a 3e 3d b8 10 1c 3e 1b 24 03 3d df 71 9b 3d
       0.04651897 0.15240753 0.032016855 0.075900786
0003a0 a6 b4 bc bd 88 b8 7f 3d ec 2a a0 3d fa e9 27 bd
       -0.092141435 0.062431842 0.07820687 -0.04099462
0003b0 24 98 87 bd cc c3 b3 3d 90 b0 9a 3d e0 b4 a6 bd
       -0.066208154 0.0877758 0.07553208 -0.08139968
0003c0 14 56 0a 3d 4b 07 27 be d7 a1 89 3e 41 df 60 be
       0.033773497 -0.16311376 0.26881287 -0.21960165
0003d0 5d 83 54 3d 96 ea de 3d 16 d1 a2 3b cb cd c7 bc
       0.05188309 0.108845875 0.0049687726 -0.024390122
0003e0 ec 4b cb bd 9a 62 1e 3e e8 ce d8 3d 42 d4 9e bc
       -0.0992659 0.15467301 0.10586339 -0.019388322
0003f0 55 bb 2c 3d d6 43 c0 3d 66 9e fd 3c 00 15 ca 3d
       0.04217084 0.09387939 0.03095932 0.09867287

model.4.bias f4 [4]
000000 d9 14 2a 3d e3 18 d5 3d 6f 4b 19 3e 25 0e 62 3d
       0.041523788 0.104051374 0.14970182 0.05518927

model.0.weight f4 [128, 7]
000000 72 a1 37 bf 39 cc 23 bc e6 73 97 3d a9 d4 a0 be
       -0.7173072 -0.009997421 0.07395153 -0.31412247
000010 d7 25 25 be 8d e8 77 3e 89 08 6e 3e 48 c8 05 3b
       -0.16127716 0.24209805 0.23245443 0.0020413566
000020 0b d2 ee be c4 13 bd bc ac bd b3 3d 70 7f 9d 3d
       -0.46644625 -0.023080714 0.087764114 0.076903224
000030 a6 39 33 3e 97 3a 16 3e 3b 42 06 3f 54 52 18 3c
       0.1750246 0.14670788 0.5244481 0.009296972
000040 ca 95 21 be 35 72 b3 be fc 17 01 bf 3a c2 a2 be
       -0.15779796 -0.3504807 -0.5042722 -0.31788808
000050 23 f4 f8 bc 33 c8 29 be b1 14 88 be fa 07 36 3e
       -0.030389851 -0.16580276 -0.26578286 0.1777648
000060 6e 4e e2 bd f1 00 d1 3d 82 23 19 3e f4 74 14 bd
       -0.110501155 0.10205258 0.14954951 -0.036244348
000070 61 12 02 c0 2a 91 89 bc 8e fc 9c be cb 47 95 3e
       -2.0323718 -0.016792852 -0.30661434 0.29156336
000080 af 4b c1 3e 72 72 22 3e dd ef be bc 13 be b3 be
       0.37753054 0.1586397 -0.023307735 -0.35105953
000090 31 25 a6 3c c5 a4 46 be 3a 21 48 be 0e cf 71 be
       0.020281406 -0.19398792 -0.19543925 -0.23614141
0000a0 f5 ee 41 3e 21 85 75 3d da ff 6f 3e b7 99 03 bf
       0.18938811 0.059941415 0.23437443 -0.51406425
0000b0 db ed 93 3e d2 6d 40 bd 4e aa 6d 3e 94 ed a2 be
       0.28892407 -0.046979733 0.23209497 -0.31821883
0000c0 2f df ea bd b0 e2 45 3e 8f da af bf a4 94 12 bf
       -0.1146835 0.19324756 -1.3738574 -0.5725806
0000d0 bb 05 36 3e 86 76 34 be 90 24 71 3d 24 29 45 bd
       0.17775624 -0.17623338 0.05887276 -0.048134938
0000e0 72 2e a0 be 6d 02 00 bd 44 f5 63 3c 62 f0 1b bc
       -0.31285435 -0.031252313 0.013913456 -0.009517761
0000f0 40 b6 6a be f1 d1 b2 3e 25 02 18 be f8 8d 25 be
       -0.22921085 0.34925798 -0.14844568 -0.16167438
000100 f7 9f 84 be 62 bf 85 3e c7 4a 59 be ad df f4 3a
       -0.25903293 0.26122576 -0.21219932 0.0018682383
000110 f5 b2 b0 be 52 28 97 be 07 94 0a bb a1 0e e9 be
       -0.34511533 -0.2952295 -0.002114536 -0.45518973
000120 7a 5a 67 bc 8c 7e 08 3f 62 ae 66 be d1 47 89 bd
       -0.014120692 0.53318095 -0.2252746 -0.06703151
000130 44 ce b0 be 38 bf 24 3e c1 a4 24 bc b6 41 b9 be
       -0.34532368 0.16088569 -0.010049046 -0.36182946
000140 19 51 d2 bd fb 71 15 be ac 7c a3 be a5 e2 ee bd
       -0.102693744 -0.14594261 -0.31931055 -0.11664323
000150 ff 12 0a 3e 6e b4 5f bf 2f d0 57 3e d3 34 8e 3e
       0.13483809 -0.8738469 0.2107551 0.27774677
000160 ca 2b 7e 3e cf 77 d6 be 43 87 41 3e 5b 05 90 be
       0.24821392 -0.41888282 0.18899255 -0.28129086
000170 be e4 95 bc 35 0f 6d 3e 7c 88 b0 3d d4 e7 bd 3e
       -0.01829755 0.23150332 0.08619782 0.37090933
000180 c7 c6 a8 be cf 9e 81 be 01 a1 ae be c3 fb d8 bd
       -0.32964155 -0.25316474 -0.3410721 -0.10594895
000190 ff 40 ec 3d 42 c1 58 3e 79 e0 a0 3e ac c8 9b 3d
       0.115358345 0.21167472 0.3142126 0.076066345
0001a0 84 17 76 be a0 21 24 3e 2b e5 92 bd 4c 15 cc 3e
       -0.24032408 0.16028452 -0.071726166 0.39859998
0001b0 0c ed 01 be 72 8a c9 3e 60 b7 28 be e2 08 a7 bd
       -0.12688082 0.39363438 -0.16476202 -0.08155991
0001c0 ac 34 8f bd a1 b4 4e be 94 1a 1a be 95 16 97 be
       -0.06992468 -0.20186092 -0.15049201 -0.29509416
0001d0 3d e7 07 3e 7e 69 d8 3e d6 c8 81 be a7 1e 98 be
       0.13271804 0.42267984 -0.25348538 -0.29710886
0001e0 45 6c 15 bd ed 7c 89 3e 54 63 f5 bc 50 b2 2b 3e
       -0.036480207 0.26853123 -0.02995459 0.1676724
0001f0 f9 f8 9c 3e ee 0c db bd 8e 24 60 3e 08 d2 f9 bc
       0.306587 -0.106958255 0.21888945 -0.030495659
000200 2d d5 28 bf 72 42 2b 3e ea f7 3e 3e b4 4b 13 be
       -0.6595028 0.16724566 0.18649259 -0.14384347
000210 a0 2b 81 3e b5 1b d0 3e 53 af 70 bd 42 b3 63 3d
       0.25228596 0.4064614 -0.058760952 0.055590875
000220 63 ad 83 3e 2a f4 cf 3d e4 7f d3 bd 96 c6 9d 3d
       0.2571822 0.101539925 -0.103271276 0.07703893
000230 7d e1 d3 bc bd df f6 be a6 57 5f 3d 91 fd d2 bd
       -0.025864357 -0.48217574 0.054526947 -0.1030227
000240 7c 7f ad be 4c 0c 79 bd 03 61 9e 3d f8 fa 21 3e
       -0.33886325 -0.060802743 0.07733347 0.15818393
000250 81 9f 94 3e 79 f4 c4 be 1a 4b d7 bd 7d 39 3b 3e
       0.29027942 -0.38467768 -0.10512371 0.18283649
000260 ba 35 65 3d 5d 28 78 bd d4 2f 0d 3f 36 4a fe bc
       0.05595944 -0.06058537 0.55151105 -0.031041246
000270 d7 5c 64 be 74 de d1 bd 6f be 9e 3e 2f c3 1d 3d
       -0.2230104 -0.10247508 0.31004664 0.03851622
000280 7c 9a 8c be 50 65 24 3e a8 ea ba be 6d c0 72 3e
       -0.27461612 0.16054273 -0.36507154 0.23706217
000290 30 67 7c 3d 93 0d 52 be d8 07 4f bc ca 7d 96 be
       0.061621845 -0.2051299 -0.012636147 -0.29392844
0002a0 0d 7f 9f 3e 15 7c 2c bf 51 11 88 bd d4 9d 66 be
       0.3115162 -0.67376834 -0.06643928 -0.22521144
0002b0 c4 6f 8a 3e 65 47 62 be 08 36 b5 3e 2d c9 72 be
       0.27038395 -0.22097547 0.35392785 -0.23709555
0002c0 6a 48 3b be a4 38 3c be 6b 90 17 bf da 10 be 3d
       -0.18289343 -0.18380982 -0.5920474 0.09280558
0002d0 a8 a5 ef 3e 74 af a7 3e 5e dc d4 3d 2d c4 5b be
       0.46806073 0.32751048 0.10393594 -0.21461554
0002e0 30 8e 50 be fa e2 a1 bd 12 26 61 bc 3e 37 ec bd
       -0.2036674 -0.079046205 -0.013741987 -0.11533974
0002f0 d6 4d 1c be 46 f5 12 bd 61 6f 5b be 85 dd 9a 3e
       -0.15264067 -0.035878442 -0.21429206 0.3024713
000300 b2 fd 79 3e 32 f2 aa 3e 69 d1 e5 3d 59 4b de bc
       0.24413183 0.33387905 0.112215824 -0.027135538
000310 d9 b5 26 bf 5b bb 74 3e 78 c9 df 3d b5 36 d1 3e
       -0.6512123 0.23899595 0.10927099 0.4086205
000320 78 4d ed 3d 24 58 a1 be b2 5b db bd c8 6d 8c 3e
       0.115870416 -0.31512558 -0.10710849 0.27427506
000330 12 05 a6 bd 41 29 16 3e 99 8e c2 be 6c 01 92 bd
       -0.08106436 0.14664175 -0.37999418 -0.071291775
000340 c3 4c 3e be 2f 0c 4d 3e 47 c4 d7 bf fe 6b a7 3e
       -0.1858397 0.20024179 -1.6856774 0.3269958
000350 e5 6b a0 3e e8 68 20 3e bc 9a 54 be 4f 2d 82 3e
       0.31332317 0.15665019 -0.20762151 0.25425193
000360 4c 35 a3 bd 09 63 3a 3e 12 ff 87 3d 8e de 18 be
       -0.0796915 0.18201841 0.06640448 -0.14928648
000370 25 b4 4c 3d 91 02 49 3e a0 13 d5 3c 95 4d d4 be
       0.049976487 0.19629885 0.026010334 -0.4146544
000380 19 4d 92 bd 52 4f ce 3d e8 ae 82 3e 25 27 3d be
       -0.071436115 0.10073723 0.25524068 -0.18471964
000390 a4 6c c7 be 83 26 87 3e b0 0a 1f 3e ef a2 8f 3e
       -0.38950074 0.2639657 0.1553142 0.28053996
0003a0 5b be ff bd 18 b1 90 be 64 0c 1c be 4c e1 67 3c
       -0.12487479 -0.28260112 -0.15239102 0.014152836
0003b0 03 c4 33 3d b3 a7 e3 3e c0 f0 12 3e c1 17 7d 3e
       0.043888103 0.44463882 0.14349651 0.24716093
0003c0 ba 3b 4b 3e 3f 14 b3 be 93 6c a3 be 78 b1 e5 be
       0.19847003 -0.34976384 -0.31918773 -0.4486196
0003d0 70 6d 4b 3e 9f 8e e4 3d b0 f0 e9 be 8d 43 42 3b
       0.19865966 0.11160015 -0.45691442 0.0029642314
0003e0 ab fc 73 3d fe 94 b3 be 24 17 4f be 7f a1 1f 3e
       0.059567135 -0.3507461 -0.20223671 0.1558895
0003f0 9b c7 cc bd 22 d4 43 bf 83 37 a2 3d 92 c4 a9 bd
       -0.09999009 -0.76495564 0.07920744 -0.08289446

model.0.bias f4 [128]
000000 dd ba 2b 3e 10 60 1f 3e 8b ae d7 bd ed 5a b7 be
       0.16770501 0.15563989 -0.10531338 -0.35811558
000010 b7 6e 18 3e c0 e1 af be 2a 31 71 be 91 0c d3 3d
       0.14885984 -0.3435192 -0.23553911 0.10305131
000020 8f 4d 14 be 26 0d 6e be d7 db d7 3c 8f f4 30 3e
       -0.14482711 -0.23247203 0.026349945 0.17280792
000030 9c 54 4d be 69 60 dc 3c bf 21 71 bc ce da a4 be
       -0.20051807 0.02690144 -0.014717518 -0.32198185
000040 bc 98 19 bc e1 4a 8f 3d 9b 3a a3 3d 3d e8 14 bf
       -0.009374794 0.06996704 0.079701625 -0.5816687
000050 d8 f5 ea 3d e2 1a 87 3d b2 25 ab be 26 ba 9f bd
       0.11472672 0.06596924 -0.33427197 -0.07799177
000060 0e 13 b4 3d 48 8d a2 3e cd b4 b6 be d7 62 55 be
       0.08792697 0.31748414 -0.35684815 -0.20838486
000070 03 14 79 be d2 15 d7 3d 7c 08 ac be 4d 36 d0 bd
       -0.2432404 0.10502209 -0.33600223 -0.10166607
000080 d7 35 cf be 03 27 6e 3e 71 1f 9c bd 69 f5 2f 3d
       -0.40470764 0.2325707 -0.076231845 0.04295865
000090 32 ff 3c 3e fe 80 aa 3d 79 d3 4d be 84 08 81 be
       0.18456724 0.083253846 -0.20100202 -0.2520181
0000a0 f9 80 5d ba cf 3c a5 be 73 39 02 3e 4c e5 1f be
       -0.00084496994 -0.32272956 0.12717228 -0.15614814
0000b0 e5 2d 3c 3e 89 f3 9f bd 8c 95 fc bd fc 84 9c 3c
       0.18376882 -0.078101225 -0.12333211 0.01910638
0000c0 c6 0a ef 3d 39 37 9b bd 26 bf 1f 3e e8 77 53 be
       0.11671977 -0.07578892 0.15600261 -0.2065121
0000d0 19 e5 4c 3e 44 ae 72 be 3b ac 6c 3e 6f 15 31 be
       0.20009269 -0.2369929 0.23112576 -0.17293333
0000e0 d2 0d 0d be 65 5f 94 be a7 e7 e7 be 0f 26 23 3e
       -0.13774803 -0.2897903 -0.45293924 0.15932487
0000f0 78 6f e4 3d 17 b2 84 3d 76 4a 28 be 3b b3 cb bd
       0.111540735 0.064792804 -0.16434655 -0.09946295
000100 dd 35 73 be 73 a4 de be 15 9d fb bd 3d fd 78 be
       -0.23751016 -0.4348484 -0.122858204 -0.24315353
000110 bb 31 86 be 7b d0 31 be db f9 3f bd 9d 2e d0 3d
       -0.26209816 -0.17364685 -0.04686914 0.10165141
000120 73 77 4b 3e 9d 2f d3 be 32 c0 5d 3d a6 38 10 be
       0.19869785 -0.41247264 0.05413837 -0.1408411
000130 6f d9 95 be 49 84 79 be e4 0e 94 bd 46 ee 6d be
       -0.2926745 -0.24366869 -0.07229403 -0.23235425
000140 ae ea 84 be c5 de db bd e9 9b af be 45 2a 39 be
       -0.25960296 -0.10735849 -0.34298638 -0.18082531
000150 0e 17 3e be 56 25 63 bd 7c 79 3f 3d f3 e0 a5 bd
       -0.18563482 -0.05545553 0.046746716 -0.08099546
000160 d3 11 e5 3d 83 80 8a be 4c f2 13 be ab e6 af 3c
       0.1118504 -0.27051172 -0.14447898 0.021472296
000170 51 c9 51 be 5a fb 59 3d db ed db 3d af 72 70 be
       -0.20486952 0.053218223 0.10738727 -0.23481248
000180 63 83 9f be f4 37 c3 3c fd f7 5d be ff d4 92 be
       -0.31154928 0.023830391 -0.21676631 -0.28678128
000190 03 e8 fe bc 1c d4 58 bd 32 49 cc be 63 80 9d 3d
       -0.031116491 -0.05293666 -0.39899594 0.076905034
0001a0 40 fa 1c be 5b a8 2b be ab 57 7e 3e 48 15 34 3e
       -0.15329838 -0.16763441 0.2483813 0.17586243
0001b0 c6 61 b8 be bf 92 3b be c6 1b 17 be 61 6d 17 be
       -0.36012095 -0.18317698 -0.14756688 -0.14787818
0001c0 d5 9b 38 3e 33 b8 32 bd 6b 39 94 3c 69 1d a3 3d
       0.18028195 -0.043632697 0.018093785 0.07964594
0001d0 c6 dc 6a 3e 86 f8 27 3e b2 8a 2b 3d e0 fa 9d 3c
       0.22935781 0.16403398 0.041880317 0.019284666
0001e0 7d f4 81 3e f3 b8 b4 3d 9f 54 76 3e 54 1c 22 3d
       0.25381842 0.08824339 0.24055718 0.039577797
0001f0 6e 47 0b 3d ea d1 2e be 56 37 a8 3d a7 90 1b bd
       0.034003668 -0.17072263 0.082136795 -0.037979748

model.2.weight f4 [64, 128]
000000 66 0f a6 bd 1e 6f a2 bd 8a f4 47 be f5 9c 13 bd
       -0.08108406 -0.0793135 -0.19526878 -0.036038358
000010 aa eb 20 bf 70 a9 9b bd 2d 0b 08 3e 6f 04 37 3e
       -0.62859595 -0.07600677 0.13285513 0.17872785
000020 a9 c5 f1 bb d7 ee d4 bc df e4 ce bc 72 9a f7 bd
       -0.0073782993 -0.025992794 -0.025255619 -0.12090005
000030 4b 23 60 3e 7a 55 0f 3e 66 7f 19 3d 55 8e e8 bd
       0.21888463 0.1399745 0.037475012 -0.11355273
000040 8d 40 8e 3c b8 1e d7 bd f2 f8 ba be b4 45 5c bd
       0.017364765 -0.10503906 -0.36518055 -0.05377741
000050 5a 3b 1e be 7c 89 1a 3e b3 03 43 be 87 27 37 be
       -0.15452328 0.15091509 -0.1904438 -0.17886172
000060 91 e6 88 be 4e c4 1d 3e 80 0e ae bd 3d ef 4e bd
       -0.26738408 0.15406916 -0.084988594 -0.050521124
000070 8a ee 09 3d f1 3d 76 be cd 33 b6 3d ae 1e 75 be
       0.033674754 -0.24047066 0.08896599 -0.23937485
000080 ed 89 8c 3d fe 53 da be 0d ea 8a 3d ec 0f 7e 3c
       0.06862245 -0.42642206 0.06782923 0.015506726
000090 df d7 4c be 2b e7 2a be 52 eb 55 bd 80 2e a6 bc
       -0.20004223 -0.16689746 -0.052226372 -0.020285845
0000a0 62 1e 7a be 02 64 80 bd 77 f3 30 3e 53 0a db 3c
       -0.24425653 -0.06269075 0.17280374 0.026738321
0000b0 45 f3 bd bd 68 d9 56 be ea 62 89 bd 2a 54 19 bd
       -0.092749156 -0.20981371 -0.067083195 -0.03743378
0000c0 cd 2d 82 3e 07 c3 d5 3e c6 7b 7b be fd 8a 07 be
       0.25425568 0.41750357 -0.24558935 -0.13236614
0000d0 45 04 40 bd 3e 93 a2 bd bb 8d f9 bd 08 bb 11 be
       -0.04687907 -0.079382405 -0.12185236 -0.14231503
0000e0 25 42 6b be 1e cc 8a 3d 42 7e c1 3c 2f 8f 9f bd
       -0.22974451 0.067772135 0.023619775 -0.07790982
0000f0 e5 eb 9e bd 99 80 9b 3d e3 25 77 be 8c 4e 09 3d
       -0.07759837 0.075928874 -0.24135546 0.033522174
000100 3c 97 7e bd 3a 93 a1 be d2 88 cd bd e1 ca 8a bc
       -0.062155947 -0.31557637 -0.10035862 -0.016942443
000110 6a 5c 13 3e c0 a6 14 be 66 50 49 3d 94 e3 67 3d
       0.14390722 -0.14516735 0.04914894 0.05661352
000120 73 31 60 3e 44 c0 af be bf 21 2c 3c 5a df d8 bc
       0.21893863 -0.34326375 0.010506093 -0.02647369
000130 9f 45 de 3d 38 50 1d be e7 4e 40 3d ad 52 33 3d
       0.10853123 -0.15362632 0.046950247 0.043780018
000140 05 5d bd 3d fe 1c 18 be a0 b3 09 3d 4e ad 48 3d
       0.09246258 -0.1485481 0.03361857 0.0489934
000150 c0 1c 86 bd bf 50 ed 3d 29 9f ee bd 5f a2 17 be
       -0.065484524 0.11587667 -0.11651451 -0.14808033
000160 f8 cd 70 3e b8 d8 22 3c 0e 45 fe bd ab 14 07 be
       0.23516071 0.009939365 -0.12415515 -0.13191478
000170 5d 52 27 3e 1b 3d 18 bd 87 06 db 3d de b5 0a bf
       0.16340013 -0.03716765 0.10694604 -0.5418376
000180 04 75 e4 bd 26 92 5b bd dd f1 7c be db a0 ab 3d
       -0.111551315 -0.053606175 -0.24701639 0.0838029
000190 0f 86 e2 bd 6a c9 ea 3d 0d 70 a5 3c 0f 3b cc bd
       -0.11060726 0.11464198 0.020195032 -0.09972202
0001a0 1d 38 7b 3d 15 14 18 3e ca 47 9d be 1f 06 1f bd
       0.06133281 0.1485141 -0.30718833 -0.038824197
0001b0 3d 91 12 3d 6d ac 14 3f da 71 aa bd 12 fb d2 3c
       0.03578304 0.580756 -0.08322497 0.025754485
0001c0 25 58 9a bd e0 b1 21 3e b7 11 fb bd fe 99 aa bc
       -0.075363435 0.1579051 -0.12259238 -0.020825382
0001d0 f3 41 1a bf d6 b9 fc bd 00 49 81 bd 08 28 bb be
       -0.6025688 -0.12340133 -0.06312752 -0.3655398
0001e0 57 92 81 be ea cd 08 3f 66 05 e0 bc 45 94 67 3c
       -0.2530696 0.534392 -0.027346324 0.014134471
0001f0 1f ff d8 3d b2 bc c8 bc 4b c0 19 bd cf 8c 77 be
       0.105955355 -0.02450404 -0.0375369 -0.24174808
000200 2d 32 b1 3e 06 bd 7e 3a 28 93 a3 be f6 14 2a bd
       0.34608594 0.0009717498 -0.3194821 -0.041523896
000210 c7 15 45 be 42 73 df bb 11 f8 ba be 76 2e ad 3e
       -0.19246589 -0.0068191597 -0.36517385 0.3382451
000220 52 a0 82 bd 8f cd 76 bd d3 88 16 3d 63 65 a0 3c
       -0.06378235 -0.06025463 0.03675158 0.019579595
000230 0f 48 c4 bd bd 36 87 3e a4 06 23 3e 1a a2 5c be
       -0.095840566 0.2640895 0.15920502 -0.21546212
000240 f0 05 37 3e 7d fe ac 3d 51 41 04 be ce b6 a9 be
       0.17873359 0.08446977 -0.12915541 -0.3314728
000250 27 7d 64 bc a2 8e de bd f4 11 58 bf 7b 76 8c bd
       -0.013945854 -0.10867049 -0.84402394 -0.06858536
000260 ae a9 f4 bd b6 69 b9 be f2 a7 59 3d 6e 23 c8 3c
       -0.11946426 -0.36213464 0.05313868 0.024430957
000270 7c 6a 22 3e 34 33 0d 3c b9 b8 0e bf ff c8 9b bd
       0.15860933 0.008618165 -0.55750614 -0.07606696
000280 63 17 b5 bd fe 48 9a 3b d2 02 95 3d 1d 0c d0 bd
       -0.08842351 0.0047084084 0.072759286 -0.101585604
000290 6f de ac bb 5f da aa bd b3 89 a3 be 05 62 e7 bd
       -0.0052755396 -0.08342432 -0.31940994 -0.112979926
0002a0 49 2f 2b 3e 44 56 b9 bf 92 2e 09 3e 77 2b 8f 3d
       0.16717257 -1.4479451 0.13396671 0.06990712
0002b0 9e a2 99 3d ad 0d 47 bd ec 80 d2 ba fc 9f f7 bf
       0.0750172 -0.048597027 -0.001606015 -1.9345698
0002c0 9e fd b2 bc 51 83 67 bf 1f 8b 32 bd 5c c9 6f bc
       -0.02184945 -0.9043475 -0.043589707 -0.01463541
0002d0 46 53 7f 3d 23 4c 35 bd c8 bb 70 be 94 6a be 3d
       0.062335275 -0.044262063 -0.23509133 0.09297672
0002e0 cc 52 47 3e a7 ce f0 bc 9e e3 cb 3c c7 12 c8 bc
       0.19465178 -0.029395415 0.02488881 -0.024423016
0002f0 c6 d9 05 3d 83 4d 8c 3d 41 3c 0a 3c 8b f1 0f be
       0.032678388 0.06850722 0.008437217 -0.14056985
000300 39 10 ac bd 3f 32 4a be 04 59 a7 3d 37 07 5d 3c
       -0.08401532 -0.1974573 0.08171275 0.01349049
000310 b7 0f f5 b9 ec a5 cb be 8a ed 79 be b7 bf b2 bd
       -0.0004674175 -0.39775026 -0.2440702 -0.08727973
000320 62 f6 94 be ff f4 b4 bd 1d 6a 02 bd ee 73 b6 bd
       -0.29094225 -0.08835792 -0.03183948 -0.089088306
000330 de 8c b3 be 61 4f 9c 3d 1c b6 68 3d 76 73 2a 3d
       -0.3506841 0.07632328 0.056814298 0.04161402
000340 7b f1 c0 3c de 5d 1f 3c 7c 6a ac bd c4 53 97 3d
       0.023552647 0.0097269695 -0.08418748 0.07389024
000350 ab 0d b4 3d 92 6f ea be 18 ea cf be fc 3a a5 bc
       0.087916695 -0.45788246 -0.40608287 -0.020169728
000360 33 55 63 bd 36 86 fe bb f1 f4 b6 3d a7 5b 03 3b
       -0.055501174 -0.007767464 0.089334376 0.0020043643
000370 5b 12 be bd 33 ff 02 bd 05 67 1b be 58 0e 26 be
       -0.09280845 -0.03198166 -0.15176018 -0.16216409
000380 9f c4 3a bd 98 6b 78 3d 4e 9d 19 3d f7 a6 3a bf
       -0.04559767 0.060649484 0.037503533 -0.7291102
000390 44 e2 1c 3d 72 15 8d bd 9d 4b 27 3d 40 8d 83 bd
       0.03830172 -0.06888856 0.040843595 -0.06423426
0003a0 b1 28 84 bd 91 03 e7 bd 8e 30 ea 3d 1c 98 13 be
       -0.06453074 -0.11279977 0.11435042 -0.14413494
0003b0 2c eb 8c bc 20 ef 9e 3e e5 c1 76 bd fc 9e d7 3c
       -0.017201982 0.31041813 -0.060243506 0.026320927
0003c0 76 fc 1f 3b 2e 8a 0d be 28 ef 5e bd 5f 96 e5 3c
       0.0024411953 -0.13822243 -0.054427296 0.028025804
0003d0 73 a2 2a bf 67 d2 9c bd af 67 00 3e a9 7f bd 3d
       -0.6665413 -0.076573186 0.12539552 0.09252865
0003e0 9f 61 c9 3d c9 97 fe be ff 35 da bc 88 2e 42 bd
       0.09833073 -0.49725178 -0.026637075 -0.047407657
0003f0 9c 3c cd 3c 3f 92 15 bc b6 d0 af 3d e8 c2 94 3e
       0.025053315 -0.009129106 0.0858473 0.29054952

model.2.bias f4 [64]
000000 6a 49 ad 3d 47 d7 d3 3d 0b 2a 21 3d 5b 34 d6 bd
       0.08461268 0.10343795 0.039346736 -0.10459205
000010 73 fc f6 3c 3d 71 56 bd 38 7c 0b 3e d8 7e 66 bd
       0.030149674 -0.052354086 0.13621604 -0.05627331
000020 45 fc fb bd 31 47 00 3e 7a 32 1e 3b 33 c0 ab 3c
       -0.12303976 0.12527157 0.0024138973 0.020965671
000030 fc 23 ee bc 25 f1 8e bd a0 8c 92 3d fd 10 5c bd
       -0.029069893 -0.069795884 0.07155728 -0.05372714
000040 23 96 1a 3e 4e 6a 9b bc ca 0d cc bd 73 64 01 3e
       0.15096335 -0.018971588 -0.099635676 0.12635975
000050 a1 98 42 3d 11 f1 f4 bd 66 00 1f bd 54 ae c9 bb
       0.04750884 -0.11960042 -0.03881874 -0.0061548147
000060 f1 38 f4 bc a7 1a 43 3c 42 5d b0 bd ee 69 8e bd
       -0.029812308 0.01190821 -0.086115375 -0.06953798
000070 6a 73 d3 bc 9a 43 fd bc 60 43 a6 bd 8b 67 36 bd
       -0.02581187 -0.030916024 -0.081183195 -0.04453234
000080 6d 48 b1 bd c5 83 f6 bd ae 16 53 bd 18 20 33 3e
       -0.08656392 -0.12036852 -0.0515353 0.17492712
000090 e3 29 22 bd 5e e2 14 3e 2d 9d 86 bb 02 e4 bf bc
       -0.039590728 0.14539477 -0.0041080923 -0.023424152
0000a0 71 22 72 3d 26 25 cb bd 03 87 6a bc f2 f6 62 bd
       0.059114877 -0.09919195 -0.014314416 -0.055411287
0000b0 ba 37 ef 3d 4c 50 03 ba 3c 10 d9 3b 86 22 85 bd
       0.11680551 -0.00050092186 0.0066242497 -0.065007254
0000c0 a8 b5 b4 bd c5 49 18 3d 7b d4 50 bd 8d 3a 05 be
       -0.08823711 0.037179727 -0.050983887 -0.13010617
0000d0 9c 43 44 bd d6 5e ba 3d 72 d8 b8 bc 9c 18 d1 bd
       -0.04791604 0.0910012 -0.022564147 -0.10209772
0000e0 21 6a 2f bd 01 bb ba 3d 1f 94 1c 3d 91 7f 07 bc
       -0.04282582 0.091176994 0.038227197 -0.00827016
0000f0 e6 37 35 bc a1 fd 9f bd 08 4f 59 be cf d0 47 bc
       -0.0110606905 -0.07812048 -0.21221554 -0.01219578
