checkpoints/checkpoint_ep600.pt (torch, 163021 bytes, 24 tensors)

model.0.weight f4 [128, 7]
0	0xbf8381be	-1.0273969
1	0x3e96c8c8	0.2945006
2	0xbe14e8af	-0.14541887
3	0xbea846bc	-0.32866466
4	0xbd328288	-0.043581516
5	0x3e54e8c2	0.20791915
6	0x3bf9402c	0.007606527
7	0x3e9b64ae	0.3035025
8	0xbf981d42	-1.1883929
9	0xbe6572fe	-0.22407147
10	0x3e89f35b	0.26943478
11	0x3edcc276	0.43117112
12	0xbf6d76ca	-0.9275938
13	0x3e1c0800	0.15237427
14	0xbd656e7b	-0.056013566
15	0x3e843056	0.25818127
16	0xbe7eda3c	-0.24887937
17	0x3e06e9e7	0.13175164
18	0xbd2c178a	-0.042014636
19	0xbe366634	-0.17812425
20	0x3ea6d02f	0.32580706
21	0x3d8185f6	0.06324379
22	0xbef5f524	-0.4803859
23	0x3ce0f6c7	0.027461423
24	0xbe79b690	-0.24386048
25	0x3f2bbd68	0.67085886
26	0xbf2213c6	-0.6331142
27	0x3e84821c	0.25880516
28	0xbe52fbad	-0.20603819
29	0xbdd6b873	-0.104844
30	0x3ec37c48	0.38180757
31	0xbe4de4bd	-0.20106788
32	0xbde5eadd	-0.11226437
33	0xbf877edb	-1.0585588
34	0x3e994a8e	0.29939693
35	0xbe9595b7	-0.29215786
36	0xbe0bdb77	-0.13657938
37	0x3e611ebb	0.21984379
38	0xbfde150a	-1.7350171
39	0x3e57dc25	0.21080072
40	0xbe56e818	-0.20986974
41	0xbcaa90b2	-0.02082095
42	0x3d8e73ec	0.06955704
43	0x3cdba380	0.026811361
44	0xbf7363a3	-0.9507391
45	0x3e2da28a	0.16956535
46	0xbec12a3c	-0.37727535
47	0x3e065848	0.13119614
48	0x3ea18431	0.31546167
49	0xbf674c9a	-0.9035126
50	0xbda813d5	-0.08206908
51	0xbf0726a2	-0.52793324
52	0x3ec4ab2c	0.38411844
53	0xbeac63ba	-0.33669835
54	0xbe239ec6	-0.15978536
55	0x3d59633c	0.053073153
56	0x3e771f34	0.24132997
57	0x3e991831	0.2990127
58	0xbe4ad784	-0.19808775
59	0xbfa4a481	-1.2862703
60	0xbea1e773	-0.31621894
61	0x3eca9404	0.39566052
62	0x3e114491	0.14186312
63	0xbe5aa606	-0.21352395
64	0xbe114a02	-0.14188388
65	0xbea04dc7	-0.3130934
66	0x3e04503e	0.12921235
67	0x3d87cc46	0.06630759
68	0xbe3a5d70	-0.18199706
69	0xbe454cf6	-0.1926764
70	0xbe9d1fee	-0.30688423
71	0xbe10d2f3	-0.1414297
72	0xbeb9e776	-0.36309403
73	0xbc317ac6	-0.010832494
74	0x3d818062	0.06323315
75	0xbdfb9b83	-0.12285521
76	0x3e382bc3	0.17985444
77	0x3e5fd038	0.21856773
78	0xbed0c8a8	-0.4077809
79	0xbee00796	-0.43755788
80	0xbf297ef3	-0.66209334
81	0xbe1e076a	-0.15432516
82	0x3eaf987e	0.3429603
83	0xbe4da337	-0.20081793
84	0xbf6031e7	-0.87576145
85	0x3f0b3481	0.5437699
86	0xbe46f19a	-0.19428101
87	0x3e2d7d65	0.16942365
88	0xbe88d7ee	-0.2672724
89	0xbea0794e	-0.31342548
90	0xbe863361	-0.26211074
91	0x3f0760c2	0.52882016
92	0xbb9d7070	-0.0048046634
93	0x3ef38f0c	0.47570074
94	0xbf0e0820	-0.5548115
95	0xbdbe47a0	-0.09291005
96	0x3e801ed0	0.25023508
97	0xbe9ecaa4	-0.31013978
98	0x3f49574e	0.7864884
99	0x3d39a828	0.045326382
100	0xbf19352c	-0.5984676
101	0xbe34543a	-0.17610255
102	0xbc299709	-0.010350951
103	0xbbed0b8e	-0.0072340434
104	0x3e9554e3	0.29166326
105	0xbf1091e8	-0.56472635
106	0x3e4dc14d	0.2009327
107	0x3ea71420	0.32632542
108	0xbe9f6b42	-0.3113652
109	0xbbe270bf	-0.006910413
110	0xbecfcab2	-0.40584332
111	0x3e9a4cc1	0.30136684
112	0xbe991d84	-0.2990533
113	0xbe7497f2	-0.23886088
114	0x3e115a0f	0.14194511
115	0x3dd66c5f	0.10469889
116	0xbdf35c9e	-0.118829
117	0x3d86dd1e	0.065851435
118	0x3eb22170	0.34791136
119	0x3eddc87c	0.4331702
120	0x3e9b89d8	0.30378604
121	0xbf7cd5f7	-0.98763984
122	0xbeac57c2	-0.33660704
123	0x3d2c3eaa	0.04205195
124	0x3d6b2ed8	0.05741772
125	0x3ea5017d	0.32227698
126	0x3ebdbdac	0.3705877
127	0x3e937be0	0.28805447
128	0x3d91c14a	0.07116945
129	0xbd7f6c81	-0.062359337
130	0x3ea04610	0.31303453
131	0x3e1622dc	0.14661735
132	0xbc5a54f2	-0.013325917
133	0x3e26356f	0.16231321
134	0xbc073cca	-0.008254239
135	0xbe27f18a	-0.16400734
136	0x3da44cff	0.08022498
137	0xbce82bab	-0.028341135
138	0xbe57200c	-0.21008319
139	0xbe59b799	-0.21261443
140	0x3f164b90	0.5870905
141	0xbbc78bf4	-0.0060896818
142	0xbf619de7	-0.88131565
143	0x3e05ab61	0.13053657
144	0xbc2b61aa	-0.010460297
145	0x3da22bdd	0.079185225
146	0x3db090d2	0.08621372
147	0xbdab0e86	-0.083523795
148	0xbea9fa2f	-0.33198687
149	0x3d0bc1dd	0.03412043
150	0x3e85d729	0.26140717
151	0xbe0f57d6	-0.1399835
152	0x3e6b1269	0.22956242
153	0xbe459c22	-0.19297841
154	0xbc5a787f	-0.013334393
155	0xbe0d2752	-0.13784531
156	0x3e91df93	0.28490886
157	0x3c998f42	0.018745068
158	0xbebfe2de	-0.37477773
159	0x3d8c7227	0.0685771
160	0xbdab135b	-0.08353301
161	0x3e152711	0.14565684
162	0xc01d22b1	-2.4552424
163	0x3e88d1a1	0.26722434
164	0xbdcaaf56	-0.09896724
165	0x3e39cbdc	0.18144172
166	0x3d87d6d6	0.066327736
167	0x3e3edb69	0.18638386
168	0xbe9921df	-0.29908654
169	0x3f17a0d4	0.5922978
170	0xbd13bed6	-0.036070667
171	0xbe64db21	-0.22349216
172	0x3f000339	0.5000492
173	0xbea138e8	-0.3148873
174	0x3e33fa2e	0.17575905
175	0xbeb51cdf	-0.3537359
176	0xbea1d8f8	-0.31610847
177	0x3da7b40a	0.081886366
178	0xbcb9e36d	-0.022691453
179	0xbe934236	-0.28761452
180	0x3e323b90	0.17405534
181	0x3e3dbc79	0.18528928
182	0xbd6a43a2	-0.057193406
183	0x3ec25e2e	0.37962478
184	0xbf5f75fa	-0.8728939
185	0x3e929b1b	0.2863396
186	0xbe47edb9	-0.19524278
187	0x3e5b7b56	0.21433768
188	0xbe05a006	-0.13049325
189	0xbddc57f4	-0.10758963
190	0x3e87a905	0.2649614
191	0x3e9662da	0.29372293
192	0x3da3312b	0.079683624
193	0xc041e784	-3.0297556
194	0x3d8e6895	0.06953541
195	0x3f446e89	0.76731163
196	0x3c362ebd	0.011119542
197	0x3db08f2a	0.086210564
198	0xbd9ac114	-0.07556358
199	0xbebc0097	-0.367192
200	0x3eb7b1cc	0.35877836
201	0xbe83ca85	-0.25740448
202	0xbeb3ef84	-0.35143673
203	0xc029a01d	-2.6503975
204	0x3f044aed	0.5167683
205	0xbdb3e459	-0.08783788
206	0x3e44284c	0.19155997
207	0x3eeca6a7	0.46220896
208	0xbe56fc5f	-0.2099471
209	0xbcaed337	-0.02134095
210	0xbe111ba2	-0.14170697
211	0xbe24e884	-0.16104323
212	0x3e0f11b7	0.13971601
213	0x3da108b4	0.07862988
214	0x3f005baa	0.5013987
215	0x3dd2281e	0.10261558
216	0xbe2ac6bc	-0.16677374
217	0x3e73f134	0.2382248
218	0xbdc1acf7	-0.094568186
219	0x3dd589da	0.10426684
220	0xbec58ee3	-0.38585576
221	0x3e0894d5	0.13338025
222	0xbe835ff8	-0.25659156
223	0xbe50b14a	-0.2038013
224	0xbf132108	-0.57472277
225	0xbeead74a	-0.45867378
226	0xbdb94d10	-0.09047902
227	0xbf25f257	-0.64822906
228	0x3edb1b01	0.4279404
229	0xbe33a178	-0.17542064
230	0x3e5a8428	0.21339476
231	0x3d9db5f3	0.0770072
232	0x3f27ca5c	0.6554315
233	0x3bba1c85	0.0056796693
234	0xbf27653f	-0.65388864
235	0xbe13c9bd	-0.14432426
236	0xbc81d982	-0.015850786
237	0x3e3209fd	0.17386623
238	0x3d5d26b8	0.053992003
239	0xbda30095	-0.079590954
240	0x3f2a7163	0.66579264
241	0xbec443df	-0.38333032
242	0xbf009a01	-0.5023499
243	0xbebf8749	-0.37407902
244	0x3e13c323	0.14429908
245	0xbe55e91f	-0.2088971
246	0xbebbccc6	-0.36679667
247	0x3e7fc155	0.24976094
248	0xbe88cb77	-0.2671773
249	0xbe9fa670	-0.3118167
250	0x3e5b0fd7	0.21392761
251	0xbe63dc4f	-0.2225201
252	0xbf351e96	-0.70749795
253	0x3ee6d65a	0.45085412
254	0x3ef651c8	0.4810927
255	0xbdc4b0c5	-0.096040286

model.0.bias f4 [128]
0	0x3eb733dc	0.35781753
1	0xbcc61b67	-0.024182988
2	0xbec1b895	-0.37836137
3	0x3d351376	0.044208013
4	0x3e30c155	0.1726125
5	0x3ebc9106	0.36829394
6	0x3ddd62e7	0.1080988
7	0xbe0c65f0	-0.13710761
8	0x3d8a2264	0.06744841
9	0xbeb981bb	-0.3623179
10	0xbad1ecd7	-0.0016016018
11	0x3ea48a5b	0.32136807
12	0x3e8d222c	0.27565134
13	0xbed218ee	-0.41034645
14	0x3e1c0acf	0.15238498
15	0x3df90760	0.1215961
16	0xbe66f97e	-0.22556111
17	0x3d9919a2	0.07475592
18	0xbef46b7c	-0.47738254
19	0xbe7d0b3f	-0.24711321
20	0x3da93eb5	0.082639135
21	0xbea6eb70	-0.326015
22	0xbe9624fe	-0.29325098
23	0x3d0ccbfd	0.034374226
24	0xbd1ba6f7	-0.038001027
25	0xbe33a167	-0.17542039
26	0xbe9d9e20	-0.30784702
27	0xbe29d158	-0.16583765
28	0xbe46039d	-0.19337316
29	0xbd4c8520	-0.049931645
30	0x3e363bf3	0.17796306
31	0xbea51678	-0.32243705
32	0x3eb60092	0.3554731
33	0x3e17af44	0.14812952
34	0x3eb2534d	0.34829178
35	0xbe89fc03	-0.26950082
36	0xbea88f97	-0.3292205
37	0xbe85f103	-0.2616044
38	0xbeb27c77	-0.34860584
39	0x3dd35c38	0.10320324
40	0x3d056523	0.032567155
41	0xbec13298	-0.37733912
42	0x3e446a61	0.19181205
43	0x3e42a4d0	0.19008183
44	0x3efb7958	0.49116015
45	0xbead0d20	-0.33799076
46	0x3df83d1a	0.12121029
47	0xbdd272a0	-0.10275769
48	0x3e3bb96f	0.18332456
49	0x3c50facb	0.012755106
50	0xbe6b7268	-0.22992861
51	0xbe8304bf	-0.25589558
52	0xbcc10ecb	-0.023566624
53	0xbe3e4512	-0.18581036
54	0xbd6730b6	-0.05644294
55	0xbeb9f2ae	-0.36317962
56	0x3e872772	0.26397282
57	0xbe8a7425	-0.27041736
58	0xbed81365	-0.42202297
59	0xbe3bc0d6	-0.1833528
60	0xbeb83a5c	-0.35982025
61	0xbddd38ff	-0.10801887
62	0x3df6d8e9	0.12053091
63	0x3db1057a	0.08643623
64	0xbe81fafe	-0.25386804
65	0xbf02eeb3	-0.51145476
66	0xbf050811	-0.51965433
67	0xbeee5018	-0.46545482
68	0x3cfff7d9	0.031246113
69	0x3b929f5b	0.004474563
70	0xbc1cb511	-0.009564654
71	0xbea8437d	-0.3286399
72	0x3d724a6d	0.05915301
73	0x3e906b23	0.2820674
74	0x3db8f346	0.09030776
75	0xbd875d67	-0.06609612
76	0xbebe97d7	-0.3722522
77	0xbe77a07b	-0.24182312
78	0x3e3c9aaa	0.18418375
79	0x3e93ed23	0.28891858
80	0xbe0f7665	-0.14010008
81	0xbef8a6f2	-0.4856487
82	0x3ea934e5	0.33048168
83	0xbebe3d88	-0.3715632
84	0x3ea50a65	0.32234493
85	0x3e60a00b	0.21936052
86	0xbe5d2fb5	-0.2160023
87	0xbe3474d7	-0.17622696
88	0x3dfda227	0.12384444
89	0x3ef2a375	0.47390333
90	0xbeb3b140	-0.3509617
91	0xbd30cad0	-0.043162167
92	0x3e398832	0.1811836
93	0x3ebec10a	0.37256652
94	0x3eb2566d	0.34831563
95	0xbe95c9d5	-0.29255548
96	0x3e904c33	0.28183135
97	0x3dd8dd32	0.10589065
98	0xbe7ea58c	-0.24867839
99	0x3df77bf6	0.120841905
100	0xbec639ef	-0.38716075
101	0xbecc4a97	-0.39900658
102	0xbe9631e0	-0.29334927
103	0xbec6cfdb	-0.38830456
104	0x3e802a0a	0.25032073
105	0xbe8e411e	-0.27784055
106	0xbe1aaa57	-0.15104042
107	0xbce091ae	-0.027413215
108	0xbdbefef1	-0.0932597
109	0xbea8662a	-0.32890445
110	0xbd87ab58	-0.06624478
111	0xbd931d6f	-0.071833484
112	0xbf023a34	-0.5087006
113	0xbcd594e8	-0.02607198
114	0x3e1c11fa	0.15241233
115	0x3e19d918	0.15024221
116	0xbe0ff080	-0.14056587
117	0xbde77228	-0.113010705
118	0x3df84af3	0.121236704
119	0x3e935473	0.28775367
120	0x3da6d790	0.08146584
121	0x3e489cb0	0.19591022
122	0xbdf55466	-0.11978988
123	0x3ed87080	0.4227333
124	0xbef0bb6e	-0.47017998
125	0xbd2f355f	-0.042775508
126	0xbd8c1763	-0.06840398
127	0xbd946a74	-0.07246867

model.2.weight f4 [64, 128]
0	0xbd1fb590	-0.03899151
1	0xbcc7d7a9	-0.024394827
2	0xbd83a8ae	-0.064286575
3	0xbdc395a3	-0.09550025
4	0x3d0b5939	0.034020636
5	0x3cb54447	0.022127284
6	0x3c1a8530	0.009431168
7	0x3a828dc1	0.0009960459
8	0xbd185a16	-0.037195288
9	0x3ada537d	0.0016656962
10	0xbd4fe971	-0.050759736
11	0x3d6ccaea	0.0578107
12	0x3d772ac5	0.060343523
13	0x3cca8a8c	0.024724267
14	0x3d16274c	0.03665857
15	0xbd8b4652	-0.06800522
16	0x3cbe1328	0.023202494
17	0xbd8643f0	-0.06555927
18	0xbda9e3b8	-0.08295387
19	0x3d02cc64	0.031933203
20	0x3d49edb4	0.049298957
21	0xbbc24a82	-0.005929292
22	0x3d4ebb7c	0.050471768
23	0xbda71001	-0.081573494
24	0x3ce2f337	0.027703864
25	0xbc0be8ba	-0.008539373
26	0xbd0cbc48	-0.034359246
27	0x3d4ff863	0.05077399
28	0xbd431943	-0.047631513
29	0xbd962c02	-0.073326126
30	0xbd41c33b	-0.047305327
31	0x3db1848c	0.086678594
32	0xbd8a5674	-0.06754771
33	0xbd2e189a	-0.04250393
34	0xbd10de0f	-0.03536802
35	0x3d97e56a	0.07416804
36	0x3c894ec1	0.016761186
37	0xbde2bf32	-0.11071624
38	0xbca69d6e	-0.02033874
39	0x3cff18ad	0.031139696
40	0x3bdf60f7	0.006816979
41	0xbd201e43	-0.03909136
42	0x3d11bd8a	0.03558115
43	0x3cec0fce	0.02881613
44	0x3d9de8a7	0.077103905
45	0x3c11741c	0.00887778
46	0xbcac1ae6	-0.02100892
47	0xbd3bbceb	-0.045834463
48	0xba362296	-0.0006947903
49	0xbb9f2ddb	-0.0048577613
50	0x3d7876b1	0.060660068
51	0xbaccbf08	-0.0015620897
52	0xbd671288	-0.056414157
53	0xbcd7f6ef	-0.026362864
54	0x3d410327	0.047122147
55	0x3d9dc622	0.077038065
56	0xbd669bc8	-0.05630091
57	0x3c18f765	0.009336327
58	0x3d93496b	0.07191738
59	0xbcdb211f	-0.026749192
60	0xbd9b9e75	-0.07598583
61	0x3d4e619d	0.05038606
62	0x3dc024e8	0.09382039
63	0x3d828be8	0.06374341
64	0xbd9e3832	-0.07725562
65	0x3d61fbd7	0.055171814
66	0x3d33ff93	0.043944906
67	0xbda88d1f	-0.08230042
68	0x3c8f4eaa	0.017493565
69	0x3d4cb716	0.04997929
70	0x3d89e979	0.067339845
71	0xbd0f6ee5	-0.035017867
72	0x3cc0c3f4	0.023530938
73	0x3d4eb6b5	0.05046721
74	0x3c7c0749	0.015382596
75	0xbdb1623a	-0.08661313
76	0xbd82f8a5	-0.063950814
77	0x3d0b2615	0.033971865
78	0xbd986681	-0.07441426
79	0x3bd5602d	0.006511709
80	0xbd83d796	-0.06437604
81	0x3c0fab41	0.008768857
82	0x3d0d529a	0.034502603
83	0x3d202813	0.039100718
84	0xbda96cca	-0.08272703
85	0xbd825ae2	-0.06364991
86	0xbc207cc2	-0.00979537
87	0x3d3aa9c6	0.045572065
88	0xbbf95a09	-0.00760961
89	0xbc69d85e	-0.014272777
90	0x3d02dc5e	0.03194844
91	0x3cc4fb63	0.024045652
92	0x3cc24e77	0.023719056
93	0xbc929ed3	-0.017897999
94	0xbde58969	-0.112078495
95	0xbdb50af0	-0.08839977
96	0xbc97fce7	-0.01855321
97	0xbd39022b	-0.045168083
98	0x3b401fe3	0.002931588
99	0xbd28fd33	-0.041257095
100	0x3cd326e3	0.025775379
101	0xbd81678a	-0.06318577
102	0xbb5e820c	-0.0033952026
103	0x3da39724	0.07987812
104	0x3d0d7969	0.034539614
105	0xbdd77804	-0.10520938
106	0xbc7fc468	-0.015610792
107	0xbc924678	-0.017855868
108	0xbd1471ca	-0.03624133
109	0x3d547740	0.05187154
110	0x3d058d66	0.03260555
111	0xbcb27751	-0.02178541
112	0x3d378301	0.04480267
113	0xbd5f1331	-0.05446166
114	0x3b089be9	0.0020844883
115	0x3c19bc9f	0.00938335
116	0x3d937326	0.07199697
117	0xbd70d446	-0.05879619
118	0xbd748b01	-0.059702877
119	0xbcfefdb1	-0.031126829
120	0xba80dbbe	-0.0009831113
121	0xbdacd2dd	-0.084386565
122	0xbdbac781	-0.091200836
123	0x3d2a0289	0.041506324
124	0x3d1c2345	0.038119573
125	0x3d8cd193	0.068759106
126	0x3ca50fb7	0.020149095
127	0x3d733eed	0.059386183
128	0xbdf819f5	-0.12114326
129	0x3e99018e	0.29884
130	0xbda978d6	-0.08275001
131	0x3ee55b3f	0.44796178
132	0xbd4a5ae4	-0.049403086
133	0xbe85718c	-0.26063192
134	0xbe35cd3b	-0.1775407
135	0xbe8ee1fc	-0.27906787
136	0x3ce5820b	0.02801611
137	0xbdb16c84	-0.08663276
138	0xbbe76b43	-0.007062347
139	0xbe7d8608	-0.2475816
140	0xbe19a210	-0.15003228
141	0xbe0e4a66	-0.13895568
142	0xbd848d76	-0.06472294
143	0xbdb11e5e	-0.0864837
144	0x3c8ffebc	0.017577522
145	0xbeedef4c	-0.46471632
146	0xbf2d0d07	-0.67598003
147	0xbd43aa54	-0.04776986
148	0x3d939428	0.07205993
149	0xbd0fd73d	-0.035117377
150	0x3db73adc	0.089467734
151	0x3ee75152	0.4517923
152	0x3e68038f	0.22657607
153	0xbbefdd54	-0.0073200855
154	0xbe5a7f6d	-0.21337672
155	0xbe886604	-0.26640332
156	0xbd40777d	-0.046988953
157	0xbd197547	-0.03746536
158	0xbe8908cb	-0.2676452
159	0x3e8d1409	0.27554348
160	0xbd0d260d	-0.034460116
161	0xbf14e354	-0.58159375
162	0xbdf4615b	-0.119326316
163	0xbda8d051	-0.08242858
164	0xbb04ef84	-0.0020284364
165	0xbd36e89e	-0.044655435
166	0xbd81dd90	-0.06341088
167	0x3f83cfd8	1.0297804
168	0xbd9608db	-0.07325908
169	0xbdb71170	-0.08938873
170	0xbe0f5c55	-0.14000066
171	0xbed436cf	-0.41448066
172	0x3e0d2e4b	0.1378719
173	0x3d82b63f	0.06382417
174	0xbf25fdff	-0.6484069
175	0xbe34bd26	-0.1765028
176	0xbe46954e	-0.19392893
177	0xbd1d5f74	-0.03842111
178	0xbdf3f054	-0.11911073
179	0xbe55fe5a	-0.20897809
180	0xbec35fb1	-0.38158944
181	0xbf6d2324	-0.92631745
182	0xbdb0d2a7	-0.08633929
183	0x3daa4a0a	0.08314903
184	0xbe1cf3ea	-0.15327421
185	0xbc6c20e1	-0.014412136
186	0xbdded9ac	-0.10881361
187	0x3e1e443d	0.15455718
188	0xbdae86f2	-0.085218325
189	0x3e1251ec	0.14289063
190	0x3ca1e0bf	0.019760488
191	0x3dd02047	0.101624064
192	0x3d68f3c0	0.056873083
193	0x3d05b6f7	0.032645192
194	0xbe6ca15e	-0.23108432
195	0xbe945cd5	-0.28977075
196	0xbb00cab9	-0.0019652082
197	0xbf0db363	-0.5535185
198	0xbeca264f	-0.39482352
199	0xbcff0a65	-0.031132886
200	0xbeea5ce8	-0.45774007
201	0x3de60b03	0.11232569
202	0xbea2ea44	-0.31819355
203	0xbd0f9bbc	-0.03506063
204	0xbdafd053	-0.085846566
205	0x3cc081de	0.023499426
206	0x3e51eb0a	0.20499817
207	0xbec8e998	-0.39240718
208	0x3b4bfdc8	0.0031126607
209	0xbc83ba2d	-0.016079986
210	0xbec95047	-0.3931906
211	0xbd67b5da	-0.05656991
212	0x3cbd2493	0.023088729
213	0xbdc32a35	-0.09529535
214	0xbc2e147a	-0.010624999
215	0xbe1e5784	-0.15463072
216	0xbeb6c28b	-0.356953
217	0xbdd0fbfb	-0.102043115
218	0x3d2bf71f	0.04198372
219	0xbd0a6b0d	-0.033793498
220	0x3e2b9a10	0.16757989
221	0xbeb50d0c	-0.35361516
222	0xbeabb3d7	-0.33535644
223	0xbe927196	-0.28602284
224	0x3d89a710	0.06721318
225	0xbdd7ac5d	-0.105309226
226	0xbe18e877	-0.14932428
227	0xbe493d82	-0.1965237
228	0x3d5804e6	0.052739047
229	0xbdfa8a31	-0.12233389
230	0xbd90d162	-0.070711866
231	0xbf701c69	-0.9379335
232	0xbeeb0786	-0.45904177
233	0x3ec213e9	0.37905815
234	0x3d73a0c3	0.059479486
235	0x3c5b6f0b	0.013393174
236	0x3d01cd24	0.031689778
237	0xbe487c59	-0.19578685
238	0x3d5de579	0.05417392
239	0xbe247f2a	-0.16064134
240	0xbe83afd2	-0.25720078
241	0x3d5de614	0.054174498
242	0x3d8aebd6	0.067832634
243	0xbdd476c9	-0.10374219
244	0xbbb39240	-0.005480081
245	0x3e68f6cf	0.227504
246	0xbda33462	-0.079689756
247	0xbe82f088	-0.25574136
248	0xbd3d01c4	-0.046144262
249	0xbf04d72a	-0.51890814
250	0xbe213f6f	-0.15746854
251	0xbc5ed4de	-0.013600556
252	0x3d95d053	0.07315125
253	0xbe26dc28	-0.1629492
254	0x3de3139a	0.11087723
255	0x3f1380b3	0.57618254

model.2.bias f4 [64]
0	0xbdd12005	-0.10211185
1	0xbe5df7d9	-0.21676578
2	0x3ca25782	0.019817118
3	0xbda15ca0	-0.07878995
4	0xbe68c3e1	-0.22730972
5	0x3ea87379	0.329006
6	0xbccd0f6b	-0.025031766
7	0xbd792236	-0.06082364
8	0xbbea4b9c	-0.0071501266
9	0x3c83bd2a	0.016081411
10	0xbd790d39	-0.060803626
11	0xbe8a8f2b	-0.27062353
12	0x3d3faa3a	0.0467932
13	0xbe29c161	-0.16577674
14	0xbde6e45f	-0.11274027
15	0xbd5b8a34	-0.053598598
16	0xbda531ae	-0.08066116
17	0xbd103f41	-0.035216574
18	0xbd355ecb	-0.044279855
19	0x3e697d1f	0.22801636
20	0xbd8904fc	-0.06690404
21	0x3e9bec05	0.30453506
22	0x3e3c5cb4	0.18394738
23	0xbd99ba14	-0.07506195
24	0xbe14e42d	-0.14540167
25	0x3c7fcebb	0.015613253
26	0xbda70ec0	-0.0815711
27	0x3e6ecc43	0.23320107
28	0x3c046070	0.008079633
29	0xbd0596b9	-0.032614443
30	0xbe0deff3	-0.13861065
31	0xbd79eb1e	-0.06101524
32	0x3d1639ca	0.036676206
33	0x3e751906	0.23935327
34	0xbdbce160	-0.09222674
35	0xbdc7247d	-0.097237565
36	0x3e3c5a3f	0.18393801
37	0xbb381f34	-0.002809477
38	0x3d3222e8	0.04349032
39	0x3ea2256d	0.3166918
40	0xbddfcc88	-0.10927683
41	0xbd023efe	-0.031798355
42	0xbc08e481	-0.008355261
43	0xbdc1c4c9	-0.09461362
44	0x3df13f2d	0.11779628
45	0x3c85cfde	0.01633447
46	0xbdceeeca	-0.10104139
47	0x38dc9fbd	0.00010520171
48	0xbdc5bda4	-0.09655312
49	0xbdc56622	-0.09638621
50	0xbd95eb20	-0.07320237
51	0xbdd7f47f	-0.10544681
52	0xbd76a508	-0.06021598
53	0x3e9f2c5f	0.3108854
54	0xbdbf26a6	-0.093335435
55	0xbbc9006e	-0.0061340844
56	0xbdb04d9c	-0.08608553
57	0xbda7b220	-0.081882715
58	0xbd3de3f1	-0.04635996
59	0xbda60e05	-0.08108143
60	0xbce9de3b	-0.02854835
61	0xbdc14e4b	-0.09438761
62	0xbcf89b81	-0.030347588
63	0x3cbf5add	0.023358757

model.4.weight f4 [4, 64]
0	0x3bd57e30	0.006515287
1	0x3f163580	0.58675385
2	0x3d2cb3bd	0.0421636
3	0xbda4a9b6	-0.08040182
4	0xbf65107c	-0.8947828
5	0x3e322a43	0.17398934
6	0x3df4e019	0.11956806
7	0x3d9ab70c	0.07554445
8	0x3e8eab7f	0.27865216
9	0xbdac199a	-0.084033206
10	0xbf0276e1	-0.50962645
11	0x3df10c29	0.117698975
12	0xbe4f2a32	-0.2023094
13	0x3ef5e4ca	0.48026115
14	0x3dba068e	0.090832815
15	0x3de13d26	0.10997991
16	0xbcebb19c	-0.028771214
17	0x3d9ede80	0.07757282
18	0x3cf9ec32	0.030508135
19	0x3e432fdf	0.1906123
20	0xbdaea086	-0.08526711
21	0x3e10358b	0.14082925
22	0x3e8abbdc	0.2709645
23	0x3d97a509	0.07404525
24	0xbcc2364f	-0.023707537
25	0x3bc9a420	0.0061535984
26	0x3df6b852	0.12046875
27	0x3ee449c4	0.4458753
28	0x3ea2880a	0.31744415
29	0x3d0c78b4	0.0342948
30	0x3da36ba4	0.07979515
31	0xbe1eed2e	-0.15520164
32	0xbd1a24da	-0.0376328
33	0x3e68c97e	0.22733113
34	0x3d442abf	0.04789233
35	0xbd981898	-0.07426566
36	0xbe29523c	-0.16535276
37	0xbd6db292	-0.058031626
38	0xbd821e12	-0.06353392
39	0x3ed2a45f	0.4114103
40	0x3d292068	0.04129067
41	0xbdf8228f	-0.121159665
42	0xbd862396	-0.06549756
43	0x3d4c7136	0.049912654
44	0x3e595a28	0.21225798
45	0x3c16b774	0.009199012
46	0xbd979369	-0.07401163
47	0x3d171c95	0.036892492
48	0xbd8dde25	-0.06927136
49	0xbe205ba5	-0.1565996
50	0x3f26ad72	0.65108407
51	0x3d302c60	0.04301107
52	0xbc710f8c	-0.014713179
53	0xbda46156	-0.08026378
54	0x3dcd8f60	0.10037112
55	0xbb41d9d2	-0.0029579294
56	0xbdac2d00	-0.084070206
57	0x3d05315d	0.03251778
58	0xbdc75b09	-0.097341605
59	0xbd14146c	-0.03615229
60	0x3d3353f4	0.043781236
61	0xbd6c55a5	-0.057698864
62	0xbf0085e5	-0.50204307
63	0x3d485408	0.048908263
64	0x3c83f317	0.016107125
65	0x3ee1ef54	0.44127905
66	0xbd341732	-0.043967433
67	0x3da25ed8	0.07928246
68	0x3d1249ac	0.03571479
69	0x3e5be485	0.21473892
70	0x3d3e4ff3	0.046462964
71	0x3d0583ac	0.032596275
72	0x3d3c1554	0.045918778
73	0xbd95c7c4	-0.07313493
74	0xbfb67b3e	-1.425636
75	0x3f38e305	0.72221404
76	0x3e3659f0	0.17807746
77	0x3f3883a7	0.72075886
78	0xbb8a3670	-0.0042179152
79	0xbc1e0c50	-0.00964649
80	0xbd9bc5f9	-0.0760612
81	0x3ddff103	0.10934641
82	0xbd69bfea	-0.05706779
83	0x3e90409e	0.281743
84	0x3c2d5df3	0.010581481
85	0x3e63a8a2	0.22232297
86	0x3df6bcfc	0.12047765
87	0x3d50d142	0.050980814
88	0xbc788b65	-0.015169953
89	0xbd5c0aa8	-0.0537211
90	0xbce8be48	-0.028411046
91	0x3ebba810	0.3665166
92	0x3e27ce9b	0.16387407
93	0xbceb1dfa	-0.028700817
94	0xbdbc2395	-0.09186474
95	0x3dae5621	0.085125215
96	0xbd4f0674	-0.050543264
97	0x3ec78786	0.38970584
98	0x3d755a1c	0.059900388
99	0xbdb766aa	-0.089551285
100	0x3da39271	0.07986916
101	0x3cc1b9d6	0.023648184
102	0x3c82de32	0.015975092
103	0x3e8ccc76	0.2749974
104	0xbdc0458a	-0.093882635
105	0xbd8e936d	-0.06961713
106	0x3d9bf47d	0.07614992
107	0x3d86110e	0.06546222
108	0xbe05261d	-0.1300282
109	0x3cd05560	0.025431335
110	0xbd0ed1b9	-0.034867976
111	0xbda6795d	-0.08128617
112	0x3dc27ceb	0.094964825
113	0xbf2db969	-0.6786104
114	0x3ef386a0	0.47563648
115	0xbd58bcf0	-0.05291456
116	0xbda5cd1b	-0.080957614
117	0xbe475457	-0.19465767
118	0xbdee49a7	-0.11635142
119	0x3dc527ce	0.09626733
120	0xbdb340ee	-0.08752619
121	0xbdb40509	-0.08790023
122	0x3d8ac1d0	0.06775248
123	0xbd2832a4	-0.04106392
124	0xbb114dfd	-0.0022171729
125	0x3cdbc152	0.02682558
126	0xbf9f5279	-1.2447044
127	0x3c591b1d	0.013251093
128	0x3de095fe	0.10966109
129	0xbf0a1266	-0.53934324
130	0xbc915609	-0.01774122
131	0x3d875756	0.06608455
132	0x3ea9220b	0.33033785
133	0x3e57675b	0.2103552
134	0xbd3431ff	-0.043992992
135	0xbe5669ab	-0.20938747
136	0x3ee43964	0.44575036
137	0xbda8174b	-0.08207568
138	0x3d8588d2	0.06520237
139	0x3db5d567	0.08878594
140	0xbdb1ffe2	-0.08691384
141	0x3f01f2a9	0.50760895
142	0x3d7c5e54	0.061613396
143	0x3de05a84	0.109547645
144	0x3bddbb1c	0.00676669
145	0x3de83610	0.113384366
146	0xbe0b79f0	-0.13620734
147	0x3e6f7a6a	0.23386541
148	0xbdcac700	-0.099012375
149	0x3eebfb74	0.4609028
150	0x3e44443c	0.19166654
151	0xbd82909b	-0.063752376
152	0xbd518f2d	-0.051161934
153	0xbd7e5c31	-0.06209964
154	0x3d9598ff	0.07304572
155	0x3e9d5526	0.30729026
156	0x3c52a349	0.012856313
157	0xbd7bcda0	-0.061475396
158	0x3def0662	0.11671139
159	0xbf14bdee	-0.5810231
160	0xbd43b12b	-0.047776382
161	0x3ea3effc	0.3201903
162	0xbd9b08ab	-0.07570013
163	0x3d80f3cc	0.062965006
164	0xbe1a89fb	-0.15091698
165	0xbd053117	-0.03251752
166	0xbd6e9490	-0.05824715
167	0x3e180f62	0.14849618
168	0x3b9b8283	0.004745783
169	0xbcea06bd	-0.028567666
170	0xbd09e54a	-0.033665933
171	0x3dbd3978	0.09239477
172	0x3d51dc23	0.05123533
173	0x3d4ea8cb	0.050453942
174	0xbd62a7ce	-0.055335812
175	0xbd305b82	-0.04305602
176	0xbe22938c	-0.15876597
177	0xbe745a65	-0.23862608
178	0x3ea7f33c	0.3280276
179	0x3dd1762b	0.10227617
180	0x3c0b2e1d	0.008494881
181	0xbece770b	-0.40325198
182	0xbd481d10	-0.04885584
183	0x3dd32744	0.10310224
184	0xbd351dea	-0.04421798
185	0xbd8e5cd8	-0.06951302
186	0x3c2ad980	0.010427833
187	0x3d8e6f8a	0.06954868
188	0x3ca76790	0.020435125
189	0xbbf9190d	-0.0076018632
190	0xbe0101b0	-0.125983
191	0xbcc039f5	-0.023465136
192	0xbc8fee04	-0.01756955
193	0x3e275e53	0.16344576
194	0x3d46ad31	0.048505012
195	0x3d6f8514	0.058476523
196	0x3f3494bb	0.70539445
197	0x3e47cebc	0.19512457
198	0x3d8d1cb5	0.06890241
199	0x3bdf7b56	0.0068201227
200	0x3f15fa2a	0.58584845
201	0xbc1eba6d	-0.009688002
202	0xbe4971fd	-0.1967239
203	0xbb89639d	-0.004192783
204	0xbe7be36e	-0.24598476
205	0x3f204958	0.62611914
206	0x3dc76502	0.097360626
207	0xbdc17b36	-0.09447329
208	0x3e12ef61	0.14349128
209	0x3c12f070	0.008968458
210	0x3bf0d7d9	0.00734995
211	0xbd0cd691	-0.034384314
212	0xbd6de23b	-0.05807708
213	0x3e78af38	0.2428559
214	0x3ed99b7c	0.42501438
215	0x3ddbea92	0.107381
216	0xbd1ac86e	-0.0377888
217	0x3ddf9e67	0.10918885
218	0x3d2538c0	0.040337324
219	0x3eda6617	0.42656013
220	0x3e9eb5c6	0.30998057
221	0xbdbb5c28	-0.09148437
222	0x3bf34b37	0.007424738
223	0xbfa274ca	-1.2691891
224	0xbd4fe5d9	-0.05075631
225	0x3e8e7aa2	0.27827936
226	0xbdba1f14	-0.09087959
227	0xbd67f25e	-0.056627624
228	0xbeba1634	-0.36345065
229	0x3bc47501	0.0059953933
230	0xbd0b4437	-0.0340006
231	0x3ea5bbf0	0.32369947
232	0x3dbdeb92	0.09273447
233	0x3ce24fb1	0.02762589
234	0x3db1553f	0.086588375
235	0xbdfd7828	-0.123764336
236	0x3e825303	0.25453958
237	0xba0d83e9	-0.0005398379
238	0x3d64ccaf	0.055859264
239	0xbdb4a201	-0.08819962
240	0xbe1cc4ee	-0.15309498
241	0xbd8497c3	-0.06474259
242	0xbe95440a	-0.29153472
243	0x3d16bb9b	0.03680001
244	0xbdcba18e	-0.099429235
245	0xbe984b31	-0.29744866
246	0x3d5b380f	0.05352026
247	0x3cb63f5b	0.022247007
248	0xbccd41d8	-0.02505581
249	0x3d843fea	0.06457503
250	0xbd130105	-0.035889644
251	0xbc69c4e9	-0.014268138
252	0x3b0d8e9a	0.002159989
253	0xbcb3934e	-0.021920826
254	0xbb5041f6	-0.0031777597
255	0xbd0a4ecd	-0.033766557

model.4.bias f4 [4]
0	0x3d4386d0	0.04773599
1	0x3dd7ac92	0.10530962
2	0x3e6e1805	0.2325135
3	0x3e2526e0	0.16128111

model.0.weight f4 [128, 7]
0	0xbf8381be	-1.0273969
1	0x3e96c8c8	0.2945006
2	0xbe14e8af	-0.14541887
3	0xbea846bc	-0.32866466
4	0xbd328288	-0.043581516
5	0x3e54e8c2	0.20791915
6	0x3bf9402c	0.007606527
7	0x3e9b64ae	0.3035025
8	0xbf981d42	-1.1883929
9	0xbe6572fe	-0.22407147
10	0x3e89f35b	0.26943478
11	0x3edcc276	0.43117112
12	0xbf6d76ca	-0.9275938
13	0x3e1c0800	0.15237427
14	0xbd656e7b	-0.056013566
15	0x3e843056	0.25818127
16	0xbe7eda3c	-0.24887937
17	0x3e06e9e7	0.13175164
18	0xbd2c178a	-0.042014636
19	0xbe366634	-0.17812425
20	0x3ea6d02f	0.32580706
21	0x3d8185f6	0.06324379
22	0xbef5f524	-0.4803859
23	0x3ce0f6c7	0.027461423
24	0xbe79b690	-0.24386048
25	0x3f2bbd68	0.67085886
26	0xbf2213c6	-0.6331142
27	0x3e84821c	0.25880516
28	0xbe52fbad	-0.20603819
29	0xbdd6b873	-0.104844
30	0x3ec37c48	0.38180757
31	0xbe4de4bd	-0.20106788
32	0xbde5eadd	-0.11226437
33	0xbf877edb	-1.0585588
34	0x3e994a8e	0.29939693
35	0xbe9595b7	-0.29215786
36	0xbe0bdb77	-0.13657938
37	0x3e611ebb	0.21984379
38	0xbfde150a	-1.7350171
39	0x3e57dc25	0.21080072
40	0xbe56e818	-0.20986974
41	0xbcaa90b2	-0.02082095
42	0x3d8e73ec	0.06955704
43	0x3cdba380	0.026811361
44	0xbf7363a3	-0.9507391
45	0x3e2da28a	0.16956535
46	0xbec12a3c	-0.37727535
47	0x3e065848	0.13119614
48	0x3ea18431	0.31546167
49	0xbf674c9a	-0.9035126
50	0xbda813d5	-0.08206908
51	0xbf0726a2	-0.52793324
52	0x3ec4ab2c	0.38411844
53	0xbeac63ba	-0.33669835
54	0xbe239ec6	-0.15978536
55	0x3d59633c	0.053073153
56	0x3e771f34	0.24132997
57	0x3e991831	0.2990127
58	0xbe4ad784	-0.19808775
59	0xbfa4a481	-1.2862703
60	0xbea1e773	-0.31621894
61	0x3eca9404	0.39566052
62	0x3e114491	0.14186312
63	0xbe5aa606	-0.21352395
64	0xbe114a02	-0.14188388
65	0xbea04dc7	-0.3130934
66	0x3e04503e	0.12921235
67	0x3d87cc46	0.06630759
68	0xbe3a5d70	-0.18199706
69	0xbe454cf6	-0.1926764
70	0xbe9d1fee	-0.30688423
71	0xbe10d2f3	-0.1414297
72	0xbeb9e776	-0.36309403
73	0xbc317ac6	-0.010832494
74	0x3d818062	0.06323315
75	0xbdfb9b83	-0.12285521
76	0x3e382bc3	0.17985444
77	0x3e5fd038	0.21856773
78	0xbed0c8a8	-0.4077809
79	0xbee00796	-0.43755788
80	0xbf297ef3	-0.66209334
81	0xbe1e076a	-0.15432516
82	0x3eaf987e	0.3429603
83	0xbe4da337	-0.20081793
84	0xbf6031e7	-0.87576145
85	0x3f0b3481	0.5437699
86	0xbe46f19a	-0.19428101
87	0x3e2d7d65	0.16942365
88	0xbe88d7ee	-0.2672724
89	0xbea0794e	-0.31342548
90	0xbe863361	-0.26211074
91	0x3f0760c2	0.52882016
92	0xbb9d7070	-0.0048046634
93	0x3ef38f0c	0.47570074
94	0xbf0e0820	-0.5548115
95	0xbdbe47a0	-0.09291005
96	0x3e801ed0	0.25023508
97	0xbe9ecaa4	-0.31013978
98	0x3f49574e	0.7864884
99	0x3d39a828	0.045326382
100	0xbf19352c	-0.5984676
101	0xbe34543a	-0.17610255
102	0xbc299709	-0.010350951
103	0xbbed0b8e	-0.0072340434
104	0x3e9554e3	0.29166326
105	0xbf1091e8	-0.56472635
106	0x3e4dc14d	0.2009327
107	0x3ea71420	0.32632542
108	0xbe9f6b42	-0.3113652
109	0xbbe270bf	-0.006910413
110	0xbecfcab2	-0.40584332
111	0x3e9a4cc1	0.30136684
112	0xbe991d84	-0.2990533
113	0xbe7497f2	-0.23886088
114	0x3e115a0f	0.14194511
115	0x3dd66c5f	0.10469889
116	0xbdf35c9e	-0.118829
117	0x3d86dd1e	0.065851435
118	0x3eb22170	0.34791136
119	0x3eddc87c	0.4331702
120	0x3e9b89d8	0.30378604
121	0xbf7cd5f7	-0.98763984
122	0xbeac57c2	-0.33660704
123	0x3d2c3eaa	0.04205195
124	0x3d6b2ed8	0.05741772
125	0x3ea5017d	0.32227698
126	0x3ebdbdac	0.3705877
127	0x3e937be0	0.28805447
128	0x3d91c14a	0.07116945
129	0xbd7f6c81	-0.062359337
130	0x3ea04610	0.31303453
131	0x3e1622dc	0.14661735
132	0xbc5a54f2	-0.013325917
133	0x3e26356f	0.16231321
134	0xbc073cca	-0.008254239
135	0xbe27f18a	-0.16400734
136	0x3da44cff	0.08022498
137	0xbce82bab	-0.028341135
138	0xbe57200c	-0.21008319
139	0xbe59b799	-0.21261443
140	0x3f164b90	0.5870905
141	0xbbc78bf4	-0.0060896818
142	0xbf619de7	-0.88131565
143	0x3e05ab61	0.13053657
144	0xbc2b61aa	-0.010460297
145	0x3da22bdd	0.079185225
146	0x3db090d2	0.08621372
147	0xbdab0e86	-0.083523795
148	0xbea9fa2f	-0.33198687
149	0x3d0bc1dd	0.03412043
150	0x3e85d729	0.26140717
151	0xbe0f57d6	-0.1399835
152	0x3e6b1269	0.22956242
153	0xbe459c22	-0.19297841
154	0xbc5a787f	-0.013334393
155	0xbe0d2752	-0.13784531
156	0x3e91df93	0.28490886
157	0x3c998f42	0.018745068
158	0xbebfe2de	-0.37477773
159	0x3d8c7227	0.0685771
160	0xbdab135b	-0.08353301
161	0x3e152711	0.14565684
162	0xc01d22b1	-2.4552424
163	0x3e88d1a1	0.26722434
164	0xbdcaaf56	-0.09896724
165	0x3e39cbdc	0.18144172
166	0x3d87d6d6	0.066327736
167	0x3e3edb69	0.18638386
168	0xbe9921df	-0.29908654
169	0x3f17a0d4	0.5922978
170	0xbd13bed6	-0.036070667
171	0xbe64db21	-0.22349216
172	0x3f000339	0.5000492
173	0xbea138e8	-0.3148873
174	0x3e33fa2e	0.17575905
175	0xbeb51cdf	-0.3537359
176	0xbea1d8f8	-0.31610847
177	0x3da7b40a	0.081886366
178	0xbcb9e36d	-0.022691453
179	0xbe934236	-0.28761452
180	0x3e323b90	0.17405534
181	0x3e3dbc79	0.18528928
182	0xbd6a43a2	-0.057193406
183	0x3ec25e2e	0.37962478
184	0xbf5f75fa	-0.8728939
185	0x3e929b1b	0.2863396
186	0xbe47edb9	-0.19524278
187	0x3e5b7b56	0.21433768
188	0xbe05a006	-0.13049325
189	0xbddc57f4	-0.10758963
190	0x3e87a905	0.2649614
191	0x3e9662da	0.29372293
192	0x3da3312b	0.079683624
193	0xc041e784	-3.0297556
194	0x3d8e6895	0.06953541
195	0x3f446e89	0.76731163
196	0x3c362ebd	0.011119542
197	0x3db08f2a	0.086210564
198	0xbd9ac114	-0.07556358
199	0xbebc0097	-0.367192
200	0x3eb7b1cc	0.35877836
201	0xbe83ca85	-0.25740448
202	0xbeb3ef84	-0.35143673
203	0xc029a01d	-2.6503975
204	0x3f044aed	0.5167683
205	0xbdb3e459	-0.08783788
206	0x3e44284c	0.19155997
207	0x3eeca6a7	0.46220896
208	0xbe56fc5f	-0.2099471
209	0xbcaed337	-0.02134095
210	0xbe111ba2	-0.14170697
211	0xbe24e884	-0.16104323
212	0x3e0f11b7	0.13971601
213	0x3da108b4	0.07862988
214	0x3f005baa	0.5013987
215	0x3dd2281e	0.10261558
216	0xbe2ac6bc	-0.16677374
217	0x3e73f134	0.2382248
218	0xbdc1acf7	-0.094568186
219	0x3dd589da	0.10426684
220	0xbec58ee3	-0.38585576
221	0x3e0894d5	0.13338025
222	0xbe835ff8	-0.25659156
223	0xbe50b14a	-0.2038013
224	0xbf132108	-0.57472277
225	0xbeead74a	-0.45867378
226	0xbdb94d10	-0.09047902
227	0xbf25f257	-0.64822906
228	0x3edb1b01	0.4279404
229	0xbe33a178	-0.17542064
230	0x3e5a8428	0.21339476
231	0x3d9db5f3	0.0770072
232	0x3f27ca5c	0.6554315
233	0x3bba1c85	0.0056796693
234	0xbf27653f	-0.65388864
235	0xbe13c9bd	-0.14432426
236	0xbc81d982	-0.015850786
237	0x3e3209fd	0.17386623
238	0x3d5d26b8	0.053992003
239	0xbda30095	-0.079590954
240	0x3f2a7163	0.66579264
241	0xbec443df	-0.38333032
242	0xbf009a01	-0.5023499
243	0xbebf8749	-0.37407902
244	0x3e13c323	0.14429908
245	0xbe55e91f	-0.2088971
246	0xbebbccc6	-0.36679667
247	0x3e7fc155	0.24976094
248	0xbe88cb77	-0.2671773
249	0xbe9fa670	-0.3118167
250	0x3e5b0fd7	0.21392761
251	0xbe63dc4f	-0.2225201
252	0xbf351e96	-0.70749795
253	0x3ee6d65a	0.45085412
254	0x3ef651c8	0.4810927
255	0xbdc4b0c5	-0.096040286

model.0.bias f4 [128]
0	0x3eb733dc	0.35781753
1	0xbcc61b67	-0.024182988
2	0xbec1b895	-0.37836137
3	0x3d351376	0.044208013
4	0x3e30c155	0.1726125
5	0x3ebc9106	0.36829394
6	0x3ddd62e7	0.1080988
7	0xbe0c65f0	-0.13710761
8	0x3d8a2264	0.06744841
9	0xbeb981bb	-0.3623179
10	0xbad1ecd7	-0.0016016018
11	0x3ea48a5b	0.32136807
12	0x3e8d222c	0.27565134
13	0xbed218ee	-0.41034645
14	0x3e1c0acf	0.15238498
15	0x3df90760	0.1215961
16	0xbe66f97e	-0.22556111
17	0x3d9919a2	0.07475592
18	0xbef46b7c	-0.47738254
19	0xbe7d0b3f	-0.24711321
20	0x3da93eb5	0.082639135
21	0xbea6eb70	-0.326015
22	0xbe9624fe	-0.29325098
23	0x3d0ccbfd	0.034374226
24	0xbd1ba6f7	-0.038001027
25	0xbe33a167	-0.17542039
26	0xbe9d9e20	-0.30784702
27	0xbe29d158	-0.16583765
28	0xbe46039d	-0.19337316
29	0xbd4c8520	-0.049931645
30	0x3e363bf3	0.17796306
31	0xbea51678	-0.32243705
32	0x3eb60092	0.3554731
33	0x3e17af44	0.14812952
34	0x3eb2534d	0.34829178
35	0xbe89fc03	-0.26950082
36	0xbea88f97	-0.3292205
37	0xbe85f103	-0.2616044
38	0xbeb27c77	-0.34860584
39	0x3dd35c38	0.10320324
40	0x3d056523	0.032567155
41	0xbec13298	-0.37733912
42	0x3e446a61	0.19181205
43	0x3e42a4d0	0.19008183
44	0x3efb7958	0.49116015
45	0xbead0d20	-0.33799076
46	0x3df83d1a	0.12121029
47	0xbdd272a0	-0.10275769
48	0x3e3bb96f	0.18332456
49	0x3c50facb	0.012755106
50	0xbe6b7268	-0.22992861
51	0xbe8304bf	-0.25589558
52	0xbcc10ecb	-0.023566624
53	0xbe3e4512	-0.18581036
54	0xbd6730b6	-0.05644294
55	0xbeb9f2ae	-0.36317962
56	0x3e872772	0.26397282
57	0xbe8a7425	-0.27041736
58	0xbed81365	-0.42202297
59	0xbe3bc0d6	-0.1833528
60	0xbeb83a5c	-0.35982025
61	0xbddd38ff	-0.10801887
62	0x3df6d8e9	0.12053091
63	0x3db1057a	0.08643623
64	0xbe81fafe	-0.25386804
65	0xbf02eeb3	-0.51145476
66	0xbf050811	-0.51965433
67	0xbeee5018	-0.46545482
68	0x3cfff7d9	0.031246113
69	0x3b929f5b	0.004474563
70	0xbc1cb511	-0.009564654
71	0xbea8437d	-0.3286399
72	0x3d724a6d	0.05915301
73	0x3e906b23	0.2820674
74	0x3db8f346	0.09030776
75	0xbd875d67	-0.06609612
76	0xbebe97d7	-0.3722522
77	0xbe77a07b	-0.24182312
78	0x3e3c9aaa	0.18418375
79	0x3e93ed23	0.28891858
80	0xbe0f7665	-0.14010008
81	0xbef8a6f2	-0.4856487
82	0x3ea934e5	0.33048168
83	0xbebe3d88	-0.3715632
84	0x3ea50a65	0.32234493
85	0x3e60a00b	0.21936052
86	0xbe5d2fb5	-0.2160023
87	0xbe3474d7	-0.17622696
88	0x3dfda227	0.12384444
89	0x3ef2a375	0.47390333
90	0xbeb3b140	-0.3509617
91	0xbd30cad0	-0.043162167
92	0x3e398832	0.1811836
93	0x3ebec10a	0.37256652
94	0x3eb2566d	0.34831563
95	0xbe95c9d5	-0.29255548
96	0x3e904c33	0.28183135
97	0x3dd8dd32	0.10589065
98	0xbe7ea58c	-0.24867839
99	0x3df77bf6	0.120841905
100	0xbec639ef	-0.38716075
101	0xbecc4a97	-0.39900658
102	0xbe9631e0	-0.29334927
103	0xbec6cfdb	-0.38830456
104	0x3e802a0a	0.25032073
105	0xbe8e411e	-0.27784055
106	0xbe1aaa57	-0.15104042
107	0xbce091ae	-0.027413215
108	0xbdbefef1	-0.0932597
109	0xbea8662a	-0.32890445
110	0xbd87ab58	-0.06624478
111	0xbd931d6f	-0.071833484
112	0xbf023a34	-0.5087006
113	0xbcd594e8	-0.02607198
114	0x3e1c11fa	0.15241233
115	0x3e19d918	0.15024221
116	0xbe0ff080	-0.14056587
117	0xbde77228	-0.113010705
118	0x3df84af3	0.121236704
119	0x3e935473	0.28775367
120	0x3da6d790	0.08146584
121	0x3e489cb0	0.19591022
122	0xbdf55466	-0.11978988
123	0x3ed87080	0.4227333
124	0xbef0bb6e	-0.47017998
125	0xbd2f355f	-0.042775508
126	0xbd8c1763	-0.06840398
127	0xbd946a74	-0.07246867

model.2.weight f4 [64, 128]
0	0xbd1fb590	-0.03899151
1	0xbcc7d7a9	-0.024394827
2	0xbd83a8ae	-0.064286575
3	0xbdc395a3	-0.09550025
4	0x3d0b5939	0.034020636
5	0x3cb54447	0.022127284
6	0x3c1a8530	0.009431168
7	0x3a828dc1	0.0009960459
8	0xbd185a16	-0.037195288
9	0x3ada537d	0.0016656962
10	0xbd4fe971	-0.050759736
11	0x3d6ccaea	0.0578107
12	0x3d772ac5	0.060343523
13	0x3cca8a8c	0.024724267
14	0x3d16274c	0.03665857
15	0xbd8b4652	-0.06800522
16	0x3cbe1328	0.023202494
17	0xbd8643f0	-0.06555927
18	0xbda9e3b8	-0.08295387
19	0x3d02cc64	0.031933203
20	0x3d49edb4	0.049298957
21	0xbbc24a82	-0.005929292
22	0x3d4ebb7c	0.050471768
23	0xbda71001	-0.081573494
24	0x3ce2f337	0.027703864
25	0xbc0be8ba	-0.008539373
26	0xbd0cbc48	-0.034359246
27	0x3d4ff863	0.05077399
28	0xbd431943	-0.047631513
29	0xbd962c02	-0.073326126
30	0xbd41c33b	-0.047305327
31	0x3db1848c	0.086678594
32	0xbd8a5674	-0.06754771
33	0xbd2e189a	-0.04250393
34	0xbd10de0f	-0.03536802
35	0x3d97e56a	0.07416804
36	0x3c894ec1	0.016761186
37	0xbde2bf32	-0.11071624
38	0xbca69d6e	-0.02033874
39	0x3cff18ad	0.031139696
40	0x3bdf60f7	0.006816979
41	0xbd201e43	-0.03909136
42	0x3d11bd8a	0.03558115
43	0x3cec0fce	0.02881613
44	0x3d9de8a7	0.077103905
45	0x3c11741c	0.00887778
46	0xbcac1ae6	-0.02100892
47	0xbd3bbceb	-0.045834463
48	0xba362296	-0.0006947903
49	0xbb9f2ddb	-0.0048577613
50	0x3d7876b1	0.060660068
51	0xbaccbf08	-0.0015620897
52	0xbd671288	-0.056414157
53	0xbcd7f6ef	-0.026362864
54	0x3d410327	0.047122147
55	0x3d9dc622	0.077038065
56	0xbd669bc8	-0.05630091
57	0x3c18f765	0.009336327
58	0x3d93496b	0.07191738
59	0xbcdb211f	-0.026749192
60	0xbd9b9e75	-0.07598583
61	0x3d4e619d	0.05038606
62	0x3dc024e8	0.09382039
63	0x3d828be8	0.06374341
64	0xbd9e3832	-0.07725562
65	0x3d61fbd7	0.055171814
66	0x3d33ff93	0.043944906
67	0xbda88d1f	-0.08230042
68	0x3c8f4eaa	0.017493565
69	0x3d4cb716	0.04997929
70	0x3d89e979	0.067339845
71	0xbd0f6ee5	-0.035017867
72	0x3cc0c3f4	0.023530938
73	0x3d4eb6b5	0.05046721
74	0x3c7c0749	0.015382596
75	0xbdb1623a	-0.08661313
76	0xbd82f8a5	-0.063950814
77	0x3d0b2615	0.033971865
78	0xbd986681	-0.07441426
79	0x3bd5602d	0.006511709
80	0xbd83d796	-0.06437604
81	0x3c0fab41	0.008768857
82	0x3d0d529a	0.034502603
83	0x3d202813	0.039100718
84	0xbda96cca	-0.08272703
85	0xbd825ae2	-0.06364991
86	0xbc207cc2	-0.00979537
87	0x3d3aa9c6	0.045572065
88	0xbbf95a09	-0.00760961
89	0xbc69d85e	-0.014272777
90	0x3d02dc5e	0.03194844
91	0x3cc4fb63	0.024045652
92	0x3cc24e77	0.023719056
93	0xbc929ed3	-0.017897999
94	0xbde58969	-0.112078495
95	0xbdb50af0	-0.08839977
96	0xbc97fce7	-0.01855321
97	0xbd39022b	-0.045168083
98	0x3b401fe3	0.002931588
99	0xbd28fd33	-0.041257095
100	0x3cd326e3	0.025775379
101	0xbd81678a	-0.06318577
102	0xbb5e820c	-0.0033952026
103	0x3da39724	0.07987812
104	0x3d0d7969	0.034539614
105	0xbdd77804	-0.10520938
106	0xbc7fc468	-0.015610792
107	0xbc924678	-0.017855868
108	0xbd1471ca	-0.03624133
109	0x3d547740	0.05187154
110	0x3d058d66	0.03260555
111	0xbcb27751	-0.02178541
112	0x3d378301	0.04480267
113	0xbd5f1331	-0.05446166
114	0x3b089be9	0.0020844883
115	0x3c19bc9f	0.00938335
116	0x3d937326	0.07199697
117	0xbd70d446	-0.05879619
118	0xbd748b01	-0.059702877
119	0xbcfefdb1	-0.031126829
120	0xba80dbbe	-0.0009831113
121	0xbdacd2dd	-0.084386565
122	0xbdbac781	-0.091200836
123	0x3d2a0289	0.041506324
124	0x3d1c2345	0.038119573
125	0x3d8cd193	0.068759106
126	0x3ca50fb7	0.020149095
127	0x3d733eed	0.059386183
128	0xbdf819f5	-0.12114326
129	0x3e99018e	0.29884
130	0xbda978d6	-0.08275001
131	0x3ee55b3f	0.44796178
132	0xbd4a5ae4	-0.049403086
133	0xbe85718c	-0.26063192
134	0xbe35cd3b	-0.1775407
135	0xbe8ee1fc	-0.27906787
136	0x3ce5820b	0.02801611
137	0xbdb16c84	-0.08663276
138	0xbbe76b43	-0.007062347
139	0xbe7d8608	-0.2475816
140	0xbe19a210	-0.15003228
141	0xbe0e4a66	-0.13895568
142	0xbd848d76	-0.06472294
143	0xbdb11e5e	-0.0864837
144	0x3c8ffebc	0.017577522
145	0xbeedef4c	-0.46471632
146	0xbf2d0d07	-0.67598003
147	0xbd43aa54	-0.04776986
148	0x3d939428	0.07205993
149	0xbd0fd73d	-0.035117377
150	0x3db73adc	0.089467734
151	0x3ee75152	0.4517923
152	0x3e68038f	0.22657607
153	0xbbefdd54	-0.0073200855
154	0xbe5a7f6d	-0.21337672
155	0xbe886604	-0.26640332
156	0xbd40777d	-0.046988953
157	0xbd197547	-0.03746536
158	0xbe8908cb	-0.2676452
159	0x3e8d1409	0.27554348
160	0xbd0d260d	-0.034460116
161	0xbf14e354	-0.58159375
162	0xbdf4615b	-0.119326316
163	0xbda8d051	-0.08242858
164	0xbb04ef84	-0.0020284364
165	0xbd36e89e	-0.044655435
166	0xbd81dd90	-0.06341088
167	0x3f83cfd8	1.0297804
168	0xbd9608db	-0.07325908
169	0xbdb71170	-0.08938873
170	0xbe0f5c55	-0.14000066
171	0xbed436cf	-0.41448066
172	0x3e0d2e4b	0.1378719
173	0x3d82b63f	0.06382417
174	0xbf25fdff	-0.6484069
175	0xbe34bd26	-0.1765028
176	0xbe46954e	-0.19392893
177	0xbd1d5f74	-0.03842111
178	0xbdf3f054	-0.11911073
179	0xbe55fe5a	-0.20897809
180	0xbec35fb1	-0.38158944
181	0xbf6d2324	-0.92631745
182	0xbdb0d2a7	-0.08633929
183	0x3daa4a0a	0.08314903
184	0xbe1cf3ea	-0.15327421
185	0xbc6c20e1	-0.014412136
186	0xbdded9ac	-0.10881361
187	0x3e1e443d	0.15455718
188	0xbdae86f2	-0.085218325
189	0x3e1251ec	0.14289063
190	0x3ca1e0bf	0.019760488
191	0x3dd02047	0.101624064
192	0x3d68f3c0	0.056873083
193	0x3d05b6f7	0.032645192
194	0xbe6ca15e	-0.23108432
195	0xbe945cd5	-0.28977075
196	0xbb00cab9	-0.0019652082
197	0xbf0db363	-0.5535185
198	0xbeca264f	-0.39482352
199	0xbcff0a65	-0.031132886
200	0xbeea5ce8	-0.45774007
201	0x3de60b03	0.11232569
202	0xbea2ea44	-0.31819355
203	0xbd0f9bbc	-0.03506063
204	0xbdafd053	-0.085846566
205	0x3cc081de	0.023499426
206	0x3e51eb0a	0.20499817
207	0xbec8e998	-0.39240718
208	0x3b4bfdc8	0.0031126607
209	0xbc83ba2d	-0.016079986
210	0xbec95047	-0.3931906
211	0xbd67b5da	-0.05656991
212	0x3cbd2493	0.023088729
213	0xbdc32a35	-0.09529535
214	0xbc2e147a	-0.010624999
215	0xbe1e5784	-0.15463072
216	0xbeb6c28b	-0.356953
217	0xbdd0fbfb	-0.102043115
218	0x3d2bf71f	0.04198372
219	0xbd0a6b0d	-0.033793498
220	0x3e2b9a10	0.16757989
221	0xbeb50d0c	-0.35361516
222	0xbeabb3d7	-0.33535644
223	0xbe927196	-0.28602284
224	0x3d89a710	0.06721318
225	0xbdd7ac5d	-0.105309226
226	0xbe18e877	-0.14932428
227	0xbe493d82	-0.1965237
228	0x3d5804e6	0.052739047
229	0xbdfa8a31	-0.12233389
230	0xbd90d162	-0.070711866
231	0xbf701c69	-0.9379335
232	0xbeeb0786	-0.45904177
233	0x3ec213e9	0.37905815
234	0x3d73a0c3	0.059479486
235	0x3c5b6f0b	0.013393174
236	0x3d01cd24	0.031689778
237	0xbe487c59	-0.19578685
238	0x3d5de579	0.05417392
239	0xbe247f2a	-0.16064134
240	0xbe83afd2	-0.25720078
241	0x3d5de614	0.054174498
242	0x3d8aebd6	0.067832634
243	0xbdd476c9	-0.10374219
244	0xbbb39240	-0.005480081
245	0x3e68f6cf	0.227504
246	0xbda33462	-0.079689756
247	0xbe82f088	-0.25574136
248	0xbd3d01c4	-0.046144262
249	0xbf04d72a	-0.51890814
250	0xbe213f6f	-0.15746854
251	0xbc5ed4de	-0.013600556
252	0x3d95d053	0.07315125
253	0xbe26dc28	-0.1629492
254	0x3de3139a	0.11087723
255	0x3f1380b3	0.57618254

model.2.bias f4 [64]
0	0xbdd12005	-0.10211185
1	0xbe5df7d9	-0.21676578
2	0x3ca25782	0.019817118
3	0xbda15ca0	-0.07878995
4	0xbe68c3e1	-0.22730972
5	0x3ea87379	0.329006
6	0xbccd0f6b	-0.025031766
7	0xbd792236	-0.06082364
8	0xbbea4b9c	-0.0071501266
9	0x3c83bd2a	0.016081411
10	0xbd790d39	-0.060803626
11	0xbe8a8f2b	-0.27062353
12	0x3d3faa3a	0.0467932
13	0xbe29c161	-0.16577674
14	0xbde6e45f	-0.11274027
15	0xbd5b8a34	-0.053598598
16	0xbda531ae	-0.08066116
17	0xbd103f41	-0.035216574
18	0xbd355ecb	-0.044279855
19	0x3e697d1f	0.22801636
20	0xbd8904fc	-0.06690404
21	0x3e9bec05	0.30453506
22	0x3e3c5cb4	0.18394738
23	0xbd99ba14	-0.07506195
24	0xbe14e42d	-0.14540167
25	0x3c7fcebb	0.015613253
26	0xbda70ec0	-0.0815711
27	0x3e6ecc43	0.23320107
28	0x3c046070	0.008079633
29	0xbd0596b9	-0.032614443
30	0xbe0deff3	-0.13861065
31	0xbd79eb1e	-0.06101524
32	0x3d1639ca	0.036676206
33	0x3e751906	0.23935327
34	0xbdbce160	-0.09222674
35	0xbdc7247d	-0.097237565
36	0x3e3c5a3f	0.18393801
37	0xbb381f34	-0.002809477
38	0x3d3222e8	0.04349032
39	0x3ea2256d	0.3166918
40	0xbddfcc88	-0.10927683
41	0xbd023efe	-0.031798355
42	0xbc08e481	-0.008355261
43	0xbdc1c4c9	-0.09461362
44	0x3df13f2d	0.11779628
45	0x3c85cfde	0.01633447
46	0xbdceeeca	-0.10104139
47	0x38dc9fbd	0.00010520171
48	0xbdc5bda4	-0.09655312
49	0xbdc56622	-0.09638621
50	0xbd95eb20	-0.07320237
51	0xbdd7f47f	-0.10544681
52	0xbd76a508	-0.06021598
53	0x3e9f2c5f	0.3108854
54	0xbdbf26a6	-0.093335435
55	0xbbc9006e	-0.0061340844
56	0xbdb04d9c	-0.08608553
57	0xbda7b220	-0.081882715
58	0xbd3de3f1	-0.04635996
59	0xbda60e05	-0.08108143
60	0xbce9de3b	-0.02854835
61	0xbdc14e4b	-0.09438761
62	0xbcf89b81	-0.030347588
63	0x3cbf5add	0.023358757
