checkpoints/checkpoint_ep400.pt (torch, 163021 bytes, 24 tensors)

model.0.weight f4 [128, 7]
0	0xbf3c7edf	-0.7363109
1	0x3ef4fd4e	0.47849506
2	0xbd472abe	-0.048624747
3	0xbedf7a4c	-0.43647993
4	0x3c1e0467	0.009644604
5	0x3e0c756f	0.13716672
6	0xbda7a0e6	-0.08184986
7	0x3e75d0ce	0.24005434
8	0xbf5c1eb3	-0.85984343
9	0xbe89febb	-0.26952156
10	0x3ed0e07a	0.40796262
11	0x3e966621	0.29374793
12	0xbefd8a3c	-0.49519527
13	0x3e3fb638	0.18721855
14	0xbd656e7b	-0.056013566
15	0x3e843056	0.25818127
16	0xbe7eda3c	-0.24887937
17	0x3e06e9e7	0.13175164
18	0xbd2c178a	-0.042014636
19	0xbe366634	-0.17812425
20	0x3ea6d02f	0.32580706
21	0x3d8f7baa	0.07006009
22	0xbeb0b93c	-0.34516323
23	0x3c4b44e0	0.012406558
24	0xbeb04e67	-0.34434816
25	0x3ed35c3f	0.41281316
26	0xbef4c1bf	-0.47804067
27	0x3ec48848	0.38385224
28	0xbdc21a19	-0.09477634
29	0xbe797a30	-0.24363017
30	0x3ed69f06	0.419182
31	0xbe7fa670	-0.24965835
32	0x3e39bbb2	0.18138006
33	0xbf2771ca	-0.65408003
34	0x3e29592c	0.16537923
35	0xbe7f10bc	-0.24908727
36	0xbef07826	-0.46966666
37	0x3e123813	0.14279203
38	0xbfb5b445	-1.4195639
39	0x3e067c8d	0.1313345
40	0xbe86ad48	-0.26304078
41	0x3c74f687	0.014951355
42	0x3e18ac31	0.14909436
43	0x3b1c62cf	0.0023862605
44	0xbf80c024	-1.0058637
45	0x3e9546a9	0.29155472
46	0xbeaa5004	-0.33264172
47	0x3e866382	0.26247793
48	0x3eab32cd	0.33437195
49	0xbf674c9a	-0.9035126
50	0xbd868d0a	-0.0656987
51	0xbf0d382a	-0.55163825
52	0x3ecc992c	0.3996061
53	0xbea1d72c	-0.31609476
54	0xbe13cd0f	-0.14433692
55	0x3d920bb8	0.071311414
56	0x3ecbcd25	0.3980495
57	0x3e22fdf7	0.15917192
58	0xbe900050	-0.28125238
59	0xbfb41e36	-1.407172
60	0xbd2f57d4	-0.04280837
61	0x3ebb4629	0.36576965
62	0x3dfa4198	0.12219542
63	0xbe5aa606	-0.21352395
64	0xbe114a02	-0.14188388
65	0xbea04dc7	-0.3130934
66	0x3e04503e	0.12921235
67	0x3d87cc46	0.06630759
68	0xbe3a5d70	-0.18199706
69	0xbe454cf6	-0.1926764
70	0xbe82d75d	-0.25554934
71	0xbdf84553	-0.121225975
72	0xbea9e973	-0.3318592
73	0xbc4bfd76	-0.0124505665
74	0x3d8912f4	0.06693068
75	0xbdf78d0b	-0.12087449
76	0x3e433ac3	0.19065385
77	0x3e5c48f4	0.21512204
78	0xbef62a1f	-0.4807901
79	0xbee6a104	-0.4504472
80	0xbefd9506	-0.49527758
81	0xbbadbf86	-0.0053023724
82	0x3eb33d95	0.3500792
83	0xbe7d43d3	-0.24732904
84	0xbf86af4e	-1.0522249
85	0x3e95364e	0.29142994
86	0xbe5473ee	-0.20747349
87	0x3e485682	0.1956425
88	0xbbfb4406	-0.007668021
89	0x3c254474	0.010087121
90	0xbea0360a	-0.3129123
91	0x3ef4bdfe	0.47801203
92	0xbd944f2d	-0.07241664
93	0x3ecf49f0	0.40486097
94	0xbea1e5bd	-0.3162059
95	0xbe08a16a	-0.13342825
96	0x3dcff295	0.10153691
97	0xbeb32026	-0.34985465
98	0x3f51c190	0.8193598
99	0x3c80a661	0.015704336
100	0xbf3c3502	-0.73518384
101	0xbdbb9e75	-0.09161083
102	0xbcce3ea0	-0.025176346
103	0xbcc366ea	-0.023852784
104	0x3e823e01	0.2543793
105	0xbe38e602	-0.18056491
106	0x3e8fc68b	0.28081164
107	0x3db6877e	0.08912562
108	0xbdcdf9fd	-0.10057447
109	0xbdfda109	-0.12384231
110	0xbe307b9b	-0.17234652
111	0x3e7e6d33	0.24846344
112	0xbe991d84	-0.2990533
113	0xbe7497f2	-0.23886088
114	0x3e115a0f	0.14194511
115	0x3dd66c5f	0.10469889
116	0xbdf35c9e	-0.118829
117	0x3d86dd1e	0.065851435
118	0x3eb22170	0.34791136
119	0x3e715202	0.2356644
120	0x3df0488e	0.11732589
121	0xbf74a3b8	-0.95562315
122	0xbcee3b2a	-0.029080946
123	0x3e8ed860	0.27899456
124	0x3e6cf868	0.23141634
125	0x3ea1f708	0.31633782
126	0x3ed188a4	0.4092456
127	0x3e80ffea	0.25195247
128	0xbe1bc67f	-0.15212439
129	0xbcf43efd	-0.029815191
130	0x3e69cc90	0.2283194
131	0x3cd4f7d4	0.02599708
132	0x3e19a381	0.15003778
133	0x3e26356f	0.16231321
134	0xbc073cca	-0.008254239
135	0xbe27f18a	-0.16400734
136	0x3da44cff	0.08022498
137	0xbce82bab	-0.028341135
138	0xbe57200c	-0.21008319
139	0xbe59b799	-0.21261443
140	0x3f176de7	0.5915207
141	0xbc8f107a	-0.017463911
142	0xbf322169	-0.6958223
143	0x3da5c85c	0.08094856
144	0xbe163fcc	-0.14672774
145	0x3d88fe51	0.06689132
146	0x3d421049	0.047378812
147	0xbdab0e86	-0.083523795
148	0xbea9fa2f	-0.33198687
149	0x3d0bc1dd	0.03412043
150	0x3e85d729	0.26140717
151	0xbe0f57d6	-0.1399835
152	0x3e6b1269	0.22956242
153	0xbe459c22	-0.19297841
154	0xbc5a787f	-0.013334393
155	0xbe0d2752	-0.13784531
156	0x3e91df93	0.28490886
157	0x3c998f42	0.018745068
158	0xbebfe2de	-0.37477773
159	0x3d8c7227	0.0685771
160	0xbdab135b	-0.08353301
161	0x3d0b3101	0.03398228
162	0xbfe5daab	-1.7957357
163	0x3e747298	0.23871839
164	0xbe826e72	-0.25474888
165	0x3e868080	0.26269913
166	0x3c8ab808	0.016933456
167	0x3e0f8f79	0.14019574
168	0xbdf7ba14	-0.120960385
169	0x3f31eb3e	0.69499576
170	0x3d0772b7	0.033068385
171	0xbed9a642	-0.42509657
172	0x3e9344b8	0.28763366
173	0xbe8e08b7	-0.27741024
174	0x3e1d5373	0.15363865
175	0xbeb51cdf	-0.3537359
176	0xbea1d8f8	-0.31610847
177	0x3da7b40a	0.081886366
178	0xbcb9e36d	-0.022691453
179	0xbe934236	-0.28761452
180	0x3e323b90	0.17405534
181	0x3e3dbc79	0.18528928
182	0xbd33026f	-0.043703493
183	0x3e8eed30	0.27915335
184	0xbf171a47	-0.5902447
185	0x3ea4a5a2	0.32157618
186	0xbe718aa9	-0.23588051
187	0x3e0c3001	0.13690187
188	0xbd36c805	-0.044624347
189	0xbe6b3dc6	-0.22972783
190	0x3eb92eba	0.36168462
191	0x3e8e4e9d	0.27794352
192	0x3d77c444	0.060489908
193	0xc003cc4b	-2.059344
194	0xbdcfec93	-0.10152545
195	0x3f4cd557	0.8001303
196	0x3c362ebd	0.011119542
197	0x3db08f2a	0.086210564
198	0xbd9ac114	-0.07556358
199	0xbebc0097	-0.367192
200	0x3eb7b1cc	0.35877836
201	0xbe83ca85	-0.25740448
202	0xbeb3ef84	-0.35143673
203	0xc007d960	-2.1226425
204	0x3ef708f9	0.48249033
205	0xbd2e7213	-0.04258926
206	0x3d58fa2a	0.05297295
207	0x3f236bb7	0.63836235
208	0xbdeade4c	-0.11468181
209	0x3c5b36b0	0.013379738
210	0xbe33f3a6	-0.17573413
211	0xbea5a52e	-0.32352585
212	0x3ddef6c9	0.10886914
213	0x3d1e2209	0.038606677
214	0x3efba70f	0.49150893
215	0x3e08fe06	0.13378152
216	0xbe49316a	-0.19647756
217	0x3e73f134	0.2382248
218	0xbdc1acf7	-0.094568186
219	0x3dd589da	0.10426684
220	0xbec58ee3	-0.38585576
221	0x3e0894d5	0.13338025
222	0xbe835ff8	-0.25659156
223	0xbe50b14a	-0.2038013
224	0xbf6ae9c0	-0.91762924
225	0xbeb91f91	-0.36156896
226	0xbeb0c87c	-0.34527957
227	0xbefe6b13	-0.49691066
228	0x3ebe9ed7	0.3723056
229	0xbea10a9e	-0.31453413
230	0x3e0d029f	0.13770531
231	0x3dda8c29	0.10671265
232	0x3f28378b	0.6570975
233	0x3d5a8d01	0.053357128
234	0xbf28cc61	-0.6593686
235	0xbe5fadcb	-0.2184364
236	0x3e32f90f	0.17477821
237	0x3daca5ca	0.08430059
238	0x3d247938	0.040154666
239	0x3dddcc4e	0.10829984
240	0x3f0444b1	0.51667315
241	0xbeaad413	-0.33364925
242	0xbedebb92	-0.4350248
243	0xbe339bb6	-0.17539868
244	0x3d923366	0.0713871
245	0xbe55e91f	-0.2088971
246	0xbebbccc6	-0.36679667
247	0x3e7fc155	0.24976094
248	0xbe88cb77	-0.2671773
249	0xbe9fa670	-0.3118167
250	0x3e5b0fd7	0.21392761
251	0xbe63dc4f	-0.2225201
252	0xbea86b41	-0.32894328
253	0x3ec39c32	0.38205105
254	0x3ecf0565	0.40433803
255	0xbe0052e4	-0.1253162

model.0.bias f4 [128]
0	0x3e896642	0.2683583
1	0x3c2eaa4f	0.010660722
2	0xbec1b895	-0.37836137
3	0x3e2d5448	0.16926682
4	0x3d1e0233	0.038576316
5	0x3ecee18c	0.40406454
6	0x3e020f9b	0.12701266
7	0xbdf370f2	-0.11886777
8	0x3d43b05f	0.047775622
9	0xbeb981bb	-0.3623179
10	0x3bcb13e1	0.006197438
11	0x3e8cb99f	0.27485368
12	0x3e663e13	0.22484617
13	0xbee66fba	-0.45007116
14	0x3debb8fe	0.11509894
15	0x3d8ca43b	0.06867262
16	0xbe66f97e	-0.22556111
17	0x3d8cf047	0.06881767
18	0xbea0c5ec	-0.31401002
19	0xbe7d0b3f	-0.24711321
20	0x3d336aab	0.0438029
21	0xbea6eb70	-0.326015
22	0xbe9624fe	-0.29325098
23	0xbc41b356	-0.011822542
24	0xbd7644a4	-0.060124055
25	0xbe33a167	-0.17542039
26	0xbe634e06	-0.22197732
27	0xbe0835a7	-0.13301717
28	0xbe46039d	-0.19337316
29	0xbc792ef0	-0.015208945
30	0x3e17d13b	0.14825909
31	0xbea51678	-0.32243705
32	0x3e8f3d3e	0.27976412
33	0x3d6fded7	0.058562126
34	0x3e8cfda8	0.27537274
35	0xbe89fc03	-0.26950082
36	0xbeb8c8f6	-0.3609082
37	0xbe1cb8ea	-0.15304914
38	0xbeb27c77	-0.34860584
39	0x3e542bf1	0.20719887
40	0x3c21ab9f	0.009867578
41	0xbec13298	-0.37733912
42	0x3e1e86b8	0.15481079
43	0x3e7974f1	0.24361016
44	0x3eb5cb99	0.35506895
45	0xbead0d20	-0.33799076
46	0x3db827e3	0.08991983
47	0xbd5d6407	-0.05405047
48	0x3e359576	0.17732796
49	0x3c50facb	0.012755106
50	0xbe4c66ba	-0.19961062
51	0xbe4d6d9e	-0.20061347
52	0x3b339d3f	0.0027406958
53	0xbe846271	-0.25856355
54	0xbdeda2b9	-0.116033025
55	0xbeb9f2ae	-0.36317962
56	0x3e388826	0.18020687
57	0xbe8a7425	-0.27041736
58	0xbed81365	-0.42202297
59	0xbe3bc0d6	-0.1833528
60	0xbe9eba0d	-0.3100132
61	0xbdc62e83	-0.0967684
62	0x3df76dd4	0.12081495
63	0x3dd23ca1	0.1026547
64	0xbe81fafe	-0.25386804
65	0xbef1633b	-0.4714602
66	0xbef79cc4	-0.4836179
67	0xbea53447	-0.32266447
68	0xbdb4e235	-0.08832208
69	0xbda6a4a8	-0.081368744
70	0x3ce4816e	0.027893748
71	0xbea8437d	-0.3286399
72	0x3e0f5c02	0.13999942
73	0x3e906b23	0.2820674
74	0x3e58f3e1	0.21186782
75	0xbcf46ef7	-0.029838068
76	0xbebe97d7	-0.3722522
77	0xbe49c1b0	-0.19702792
78	0x3e3c9aaa	0.18418375
79	0x3e57474b	0.2102329
80	0xbe0f7665	-0.14010008
81	0xbed4768e	-0.414967
82	0x3e59c7f5	0.21267684
83	0xbebe3d88	-0.3715632
84	0x3e66ea2e	0.2255027
85	0x3ea34929	0.31891754
86	0xbe5d2fb5	-0.2160023
87	0xbe3474d7	-0.17622696
88	0x3d2a8c2f	0.041637596
89	0x3ec4c592	0.38431984
90	0xbeb3b140	-0.3509617
91	0x3d19afc4	0.03752114
92	0x3e897a8e	0.26851314
93	0x3e9cf82c	0.3065809
94	0x3e98e012	0.29858452
95	0xbe43f9a4	-0.19138199
96	0x3e7a7867	0.24459992
97	0xbc8705c2	-0.016482238
98	0xbe057646	-0.13033399
99	0x3e0fed06	0.14055261
100	0xbec639ef	-0.38716075
101	0xbea1195d	-0.31464663
102	0xbe9631e0	-0.29334927
103	0xbe3aeb04	-0.18253714
104	0x3e5f7f03	0.21825795
105	0xbdb8b95a	-0.09019728
106	0xbe1aaa57	-0.15104042
107	0xbce091ae	-0.027413215
108	0x3d1e30b0	0.03862065
109	0xbea1d312	-0.31606346
110	0xbd5fb7d2	-0.054618664
111	0xbd931d6f	-0.071833484
112	0xbeb0dc87	-0.3454325
113	0x3d3f9924	0.046776906
114	0x3e3d12a7	0.18464147
115	0x3dc5124a	0.09622629
116	0xbe0ff080	-0.14056587
117	0xbe36a2e5	-0.17835577
118	0x3df84af3	0.121236704
119	0x3e891a02	0.26777655
120	0x3d71d79a	0.059043504
121	0x3e2704f6	0.16310486
122	0xbdeb0c27	-0.11476927
123	0x3ed5a50c	0.41727483
124	0xbea9b853	-0.3314844
125	0xbb94eac9	-0.00454459
126	0xbe14fc23	-0.14549308
127	0xbd946a74	-0.07246867

model.2.weight f4 [64, 128]
0	0xbd1fb590	-0.03899151
1	0xbcc7d7a9	-0.024394827
2	0xbd83a8ae	-0.064286575
3	0xbdc395a3	-0.09550025
4	0x3d0b5939	0.034020636
5	0x3cb54447	0.022127284
6	0x3c1a8530	0.009431168
7	0x3a828dc1	0.0009960459
8	0xbd185a16	-0.037195288
9	0x3ada537d	0.0016656962
10	0xbd4fe971	-0.050759736
11	0x3d6ccaea	0.0578107
12	0x3d772ac5	0.060343523
13	0x3cca8a8c	0.024724267
14	0x3d16274c	0.03665857
15	0xbd8b4652	-0.06800522
16	0x3cbe1328	0.023202494
17	0xbd8643f0	-0.06555927
18	0xbda9e3b8	-0.08295387
19	0x3d02cc64	0.031933203
20	0x3d49edb4	0.049298957
21	0xbbc24a82	-0.005929292
22	0x3d4ebb7c	0.050471768
23	0xbda71001	-0.081573494
24	0x3ce2f337	0.027703864
25	0xbc0be8ba	-0.008539373
26	0xbd0cbc48	-0.034359246
27	0x3d4ff863	0.05077399
28	0xbd431943	-0.047631513
29	0xbd962c02	-0.073326126
30	0xbd41c33b	-0.047305327
31	0x3db1848c	0.086678594
32	0xbd8a5674	-0.06754771
33	0xbd2e189a	-0.04250393
34	0xbd10de0f	-0.03536802
35	0x3d97e56a	0.07416804
36	0x3c894ec1	0.016761186
37	0xbde2bf32	-0.11071624
38	0xbca69d6e	-0.02033874
39	0x3cff18ad	0.031139696
40	0x3bdf60f7	0.006816979
41	0xbd201e43	-0.03909136
42	0x3d11bd8a	0.03558115
43	0x3cec0fce	0.02881613
44	0x3d9de8a7	0.077103905
45	0x3c11741c	0.00887778
46	0xbcac1ae6	-0.02100892
47	0xbd3bbceb	-0.045834463
48	0xba362296	-0.0006947903
49	0xbb9f2ddb	-0.0048577613
50	0x3d7876b1	0.060660068
51	0xbaccbf08	-0.0015620897
52	0xbd671288	-0.056414157
53	0xbcd7f6ef	-0.026362864
54	0x3d410327	0.047122147
55	0x3d9dc622	0.077038065
56	0xbd669bc8	-0.05630091
57	0x3c18f765	0.009336327
58	0x3d93496b	0.07191738
59	0xbcdb211f	-0.026749192
60	0xbd9b9e75	-0.07598583
61	0x3d4e619d	0.05038606
62	0x3dc024e8	0.09382039
63	0x3d828be8	0.06374341
64	0xbd9e3832	-0.07725562
65	0x3d61fbd7	0.055171814
66	0x3d33ff93	0.043944906
67	0xbda88d1f	-0.08230042
68	0x3c8f4eaa	0.017493565
69	0x3d4cb716	0.04997929
70	0x3d89e979	0.067339845
71	0xbd0f6ee5	-0.035017867
72	0x3cc0c3f4	0.023530938
73	0x3d4eb6b5	0.05046721
74	0x3c7c0749	0.015382596
75	0xbdb1623a	-0.08661313
76	0xbd82f8a5	-0.063950814
77	0x3d0b2615	0.033971865
78	0xbd986681	-0.07441426
79	0x3bd5602d	0.006511709
80	0xbd83d796	-0.06437604
81	0x3c0fab41	0.008768857
82	0x3d0d529a	0.034502603
83	0x3d202813	0.039100718
84	0xbda96cca	-0.08272703
85	0xbd825ae2	-0.06364991
86	0xbc207cc2	-0.00979537
87	0x3d3aa9c6	0.045572065
88	0xbbf95a09	-0.00760961
89	0xbc69d85e	-0.014272777
90	0x3d02dc5e	0.03194844
91	0x3cc4fb63	0.024045652
92	0x3cc24e77	0.023719056
93	0xbc929ed3	-0.017897999
94	0xbde58969	-0.112078495
95	0xbdb50af0	-0.08839977
96	0xbc97fce7	-0.01855321
97	0xbd39022b	-0.045168083
98	0x3b401fe3	0.002931588
99	0xbd28fd33	-0.041257095
100	0x3cd326e3	0.025775379
101	0xbd81678a	-0.06318577
102	0xbb5e820c	-0.0033952026
103	0x3da39724	0.07987812
104	0x3d0d7969	0.034539614
105	0xbdd77804	-0.10520938
106	0xbc7fc468	-0.015610792
107	0xbc924678	-0.017855868
108	0xbd1471ca	-0.03624133
109	0x3d547740	0.05187154
110	0x3d058d66	0.03260555
111	0xbcb27751	-0.02178541
112	0x3d378301	0.04480267
113	0xbd5f1331	-0.05446166
114	0x3b089be9	0.0020844883
115	0x3c19bc9f	0.00938335
116	0x3d937326	0.07199697
117	0xbd70d446	-0.05879619
118	0xbd748b01	-0.059702877
119	0xbcfefdb1	-0.031126829
120	0xba80dbbe	-0.0009831113
121	0xbdacd2dd	-0.084386565
122	0xbdbac781	-0.091200836
123	0x3d2a0289	0.041506324
124	0x3d1c2345	0.038119573
125	0x3d8cd193	0.068759106
126	0x3ca50fb7	0.020149095
127	0x3d733eed	0.059386183
128	0xbdf819f5	-0.12114326
129	0x3eca5fcb	0.3952621
130	0xbda978d6	-0.08275001
131	0x3f09bc24	0.53802705
132	0x3c83ac53	0.016073382
133	0xbe85718c	-0.26063192
134	0xbe35cd3b	-0.1775407
135	0xbe8ee1fc	-0.27906787
136	0x3ce5820b	0.02801611
137	0xbdb16c84	-0.08663276
138	0xbbe76b43	-0.007062347
139	0xbe3013f7	-0.17195116
140	0xbe19a210	-0.15003228
141	0xbe0d1914	-0.13779098
142	0x3d1f376c	0.038871214
143	0xbdb11e5e	-0.0864837
144	0x3c8ffebc	0.017577522
145	0xbeb6812a	-0.3564542
146	0xbf14e6d9	-0.58164746
147	0xbd43aa54	-0.04776986
148	0x3e39e57f	0.18153952
149	0xbd0fd73d	-0.035117377
150	0x3db73adc	0.089467734
151	0x3f08c005	0.53418
152	0x3e68038f	0.22657607
153	0xbbefdd54	-0.0073200855
154	0xbe5a7f6d	-0.21337672
155	0xbe886604	-0.26640332
156	0xbd40777d	-0.046988953
157	0xbd197547	-0.03746536
158	0xbe2e03b4	-0.169936
159	0x3e8d1409	0.27554348
160	0xbd0d260d	-0.034460116
161	0xbf14e354	-0.58159375
162	0xbd0e5101	-0.03474522
163	0xbda8d051	-0.08242858
164	0xbb04ef84	-0.0020284364
165	0x3d2dd7be	0.042442076
166	0xbd81dd90	-0.06341088
167	0x3f87d4da	1.0611832
168	0xbd7d06f3	-0.061774205
169	0xbdb71170	-0.08938873
170	0xbd28e0f1	-0.041230146
171	0xbed436cf	-0.41448066
172	0x3e6ab1c6	0.22919378
173	0x3d82b63f	0.06382417
174	0xbf25fdff	-0.6484069
175	0xbe34bd26	-0.1765028
176	0xbdce0256	-0.10059039
177	0xbd1d5f74	-0.03842111
178	0xbdf3f054	-0.11911073
179	0xbe55fe5a	-0.20897809
180	0xbebf4a4e	-0.37361377
181	0xbf4f8e9b	-0.81076974
182	0xbdb0d2a7	-0.08633929
183	0x3daa4a0a	0.08314903
184	0xbe1cf3ea	-0.15327421
185	0xbc6c20e1	-0.014412136
186	0xbdded9ac	-0.10881361
187	0x3e1e443d	0.15455718
188	0xbdae86f2	-0.085218325
189	0x3e1251ec	0.14289063
190	0x3d525adf	0.051356193
191	0x3e5b34f9	0.21406926
192	0x3d68f3c0	0.056873083
193	0x3d05b6f7	0.032645192
194	0xbe6ca15e	-0.23108432
195	0xbe945cd5	-0.28977075
196	0xbb00cab9	-0.0019652082
197	0xbf0db363	-0.5535185
198	0xbeca264f	-0.39482352
199	0xbcff0a65	-0.031132886
200	0xbee5c176	-0.4487416
201	0x3de60b03	0.11232569
202	0xbe5c2020	-0.2149663
203	0x3d8612e1	0.065465696
204	0xbdafd053	-0.085846566
205	0x3d4d9770	0.05019325
206	0x3e51eb0a	0.20499817
207	0xbec8e998	-0.39240718
208	0x3b4bfdc8	0.0031126607
209	0xbc83ba2d	-0.016079986
210	0xbec95047	-0.3931906
211	0xbd67b5da	-0.05656991
212	0x3cbd2493	0.023088729
213	0xbdc0084a	-0.09376581
214	0xbc2e147a	-0.010624999
215	0xbe1e5784	-0.15463072
216	0xbeb6c28b	-0.356953
217	0xbbfe4ed4	-0.007760862
218	0x3d2bf71f	0.04198372
219	0x3d99890c	0.07496843
220	0x3e2b9a10	0.16757989
221	0xbeb50d0c	-0.35361516
222	0xbe8327b0	-0.25616217
223	0xbe8ad8a2	-0.27118403
224	0x3d89a710	0.06721318
225	0xbdd7ac5d	-0.105309226
226	0xbe18e877	-0.14932428
227	0xbdb47e6c	-0.088131756
228	0x3d5804e6	0.052739047
229	0xbdd40a27	-0.10353499
230	0xbd90d162	-0.070711866
231	0xbf68abe1	-0.90887266
232	0xbeeb0786	-0.45904177
233	0x3ef7646b	0.483188
234	0x3d73a0c3	0.059479486
235	0x3c5b6f0b	0.013393174
236	0x3d86092e	0.0654472
237	0xbe487c59	-0.19578685
238	0x3d9e1295	0.07718388
239	0xbe247f2a	-0.16064134
240	0xbe83afd2	-0.25720078
241	0x3dabb163	0.08383443
242	0x3e271e3c	0.16320127
243	0xbdd476c9	-0.10374219
244	0xbbb39240	-0.005480081
245	0x3e68f6cf	0.227504
246	0xbda33462	-0.079689756
247	0xbe82f088	-0.25574136
248	0xbd3d01c4	-0.046144262
249	0xbf04d72a	-0.51890814
250	0xbd75598e	-0.05989986
251	0x3d998a5a	0.074970916
252	0x3da3721d	0.0798075
253	0xbe26dc28	-0.1629492
254	0x3e49a555	0.19691975
255	0x3f1380b3	0.57618254

model.2.bias f4 [64]
0	0xbdd12005	-0.10211185
1	0xbdf28ef9	-0.11843676
2	0x3ca25782	0.019817118
3	0xbda15ca0	-0.07878995
4	0xbdade873	-0.08491602
5	0x3e8b9236	0.27259988
6	0xbccd0f6b	-0.025031766
7	0xbd792236	-0.06082364
8	0x3c9e6b2f	0.019338218
9	0x3c83bd2a	0.016081411
10	0x3d4e6f0f	0.050398882
11	0xbe700bd9	-0.2344202
12	0x3da89d8d	0.082331754
13	0x3bc2c9db	0.005944473
14	0xbde6e45f	-0.11274027
15	0xbd5b8a34	-0.053598598
16	0xbda531ae	-0.08066116
17	0xbd103f41	-0.035216574
18	0xbd355ecb	-0.044279855
19	0x3e501d78	0.20323741
20	0xbd21a35f	-0.039462443
21	0x3e75057a	0.2392787
22	0x3e37810c	0.17920321
23	0xbd99ba14	-0.07506195
24	0xbdeae2cc	-0.11469039
25	0x3c7fcebb	0.015613253
26	0xbda70ec0	-0.0815711
27	0x3e41875a	0.18899289
28	0xbdb18395	-0.086676754
29	0xbd0596b9	-0.032614443
30	0xbda455bf	-0.08024167
31	0xbcd216d6	-0.025645655
32	0x3d1639ca	0.036676206
33	0x3e0e9563	0.13924174
34	0xbdbce160	-0.09222674
35	0xbdc7247d	-0.097237565
36	0x3e200489	0.1562673
37	0xbb381f34	-0.002809477
38	0x3d3222e8	0.04349032
39	0x3e64f147	0.22357665
40	0xbddfcc88	-0.10927683
41	0xbd023efe	-0.031798355
42	0xbc08e481	-0.008355261
43	0xbdc1c4c9	-0.09461362
44	0x3d70ae40	0.058759928
45	0x3d3a2663	0.045446765
46	0xbdceeeca	-0.10104139
47	0x38dc9fbd	0.00010520171
48	0x3de2bd00	0.11071205
49	0xbdb68687	-0.08912378
50	0xbd0b4bf5	-0.034007985
51	0xbdd7f47f	-0.10544681
52	0xbd76a508	-0.06021598
53	0x3e7df122	0.24799016
54	0xbdbf26a6	-0.093335435
55	0xbbc9006e	-0.0061340844
56	0xbdb04d9c	-0.08608553
57	0xbda7b220	-0.081882715
58	0xbd3de3f1	-0.04635996
59	0xbda60e05	-0.08108143
60	0xbcf9643e	-0.030443307
61	0xbd808933	-0.06276169
62	0x3d741fff	0.059600826
63	0x3cbf5add	0.023358757

model.4.weight f4 [4, 64]
0	0x3bd57e30	0.006515287
1	0x3f15b138	0.5847354
2	0x3d2cb3bd	0.0421636
3	0xbda4a9b6	-0.08040182
4	0xbee67ada	-0.45015603
5	0x3e88c871	0.26715425
6	0x3df4e019	0.11956806
7	0x3d9ab70c	0.07554445
8	0xbf401f3c	-0.7504766
9	0xbdac199a	-0.084033206
10	0xbe376709	-0.17910399
11	0x3e1903d0	0.1494286
12	0xbe1b4db0	-0.15166354
13	0x3f21c828	0.6319604
14	0x3dba068e	0.090832815
15	0x3de13d26	0.10997991
16	0xbcebb19c	-0.028771214
17	0x3d9ede80	0.07757282
18	0x3cf9ec32	0.030508135
19	0x3e846590	0.25858736
20	0xbdaea086	-0.08526711
21	0x3c714b67	0.01472745
22	0x3e8e372b	0.27776465
23	0x3d97a509	0.07404525
24	0xbcc2364f	-0.023707537
25	0x3bc9a420	0.0061535984
26	0x3df6b852	0.12046875
27	0x3ecc80a7	0.39941904
28	0x3e446029	0.19177307
29	0x3d0c78b4	0.0342948
30	0xbc190808	-0.009340294
31	0xbe1eed2e	-0.15520164
32	0xbd1a24da	-0.0376328
33	0x3e063f2a	0.13110033
34	0x3d442abf	0.04789233
35	0xbd981898	-0.07426566
36	0xbe2dd50e	-0.16975805
37	0xbd6db292	-0.058031626
38	0xbd821e12	-0.06353392
39	0x3e025a6e	0.12729809
40	0x3d292068	0.04129067
41	0xbdf8228f	-0.121159665
42	0xbd862396	-0.06549756
43	0x3d4c7136	0.049912654
44	0x3e847d70	0.2587695
45	0x3cf561b5	0.029953817
46	0xbd979369	-0.07401163
47	0x3d171c95	0.036892492
48	0xbe1077e7	-0.14108239
49	0xbe205ba5	-0.1565996
50	0x3e7bc659	0.24587382
51	0x3d302c60	0.04301107
52	0xbc710f8c	-0.014713179
53	0xbac1478c	-0.0014746054
54	0x3dcd8f60	0.10037112
55	0xbb41d9d2	-0.0029579294
56	0xbdac2d00	-0.084070206
57	0x3d05315d	0.03251778
58	0xbdc75b09	-0.097341605
59	0xbd14146c	-0.03615229
60	0x3c1d1162	0.009586664
61	0xbd6c55a5	-0.057698864
62	0xbe4771e6	-0.19477043
63	0x3d485408	0.048908263
64	0x3c83f317	0.016107125
65	0x3efc3e74	0.49266398
66	0xbd341732	-0.043967433
67	0x3da25ed8	0.07928246
68	0xbdf44252	-0.11926712
69	0x3eb42a5d	0.3518857
70	0x3d3e4ff3	0.046462964
71	0x3d0583ac	0.032596275
72	0xbe6b491f	-0.22977112
73	0xbd95c7c4	-0.07313493
74	0xbf928f8d	-1.1450058
75	0x3f41024e	0.7539414
76	0xbd9feb9a	-0.07808609
77	0x3ece2013	0.40258846
78	0xbb8a3670	-0.0042179152
79	0xbc1e0c50	-0.00964649
80	0xbd9bc5f9	-0.0760612
81	0x3ddff103	0.10934641
82	0xbd69bfea	-0.05706779
83	0x3e73fe04	0.23827368
84	0xbbb1e140	-0.005428463
85	0x3e098c87	0.13432513
86	0x3e22f5ac	0.15914029
87	0x3d50d142	0.050980814
88	0xbc788b65	-0.015169953
89	0xbd5c0aa8	-0.0537211
90	0xbce8be48	-0.028411046
91	0x3efdc5aa	0.49564868
92	0x3d573922	0.05254472
93	0xbceb1dfa	-0.028700817
94	0xbd8c7ed8	-0.06860131
95	0x3e4371b2	0.1908634
96	0xbd4f0674	-0.050543264
97	0x3ebcaecb	0.36852106
98	0x3d755a1c	0.059900388
99	0xbdb766aa	-0.089551285
100	0x3c926492	0.017870221
101	0x3cc1b9d6	0.023648184
102	0x3c82de32	0.015975092
103	0x3e98ad48	0.29819703
104	0xbdc0458a	-0.093882635
105	0xbd8e936d	-0.06961713
106	0x3d9bf47d	0.07614992
107	0x3d86110e	0.06546222
108	0xbdd81403	-0.10550692
109	0xbb9fae0c	-0.004873043
110	0xbd0ed1b9	-0.034867976
111	0xbda6795d	-0.08128617
112	0x3cb9fb59	0.02270286
113	0xbf2dfe44	-0.67966104
114	0x3ea6cd0b	0.3257831
115	0xbd58bcf0	-0.05291456
116	0xbda5cd1b	-0.080957614
117	0xbea01571	-0.31266358
118	0xbdee49a7	-0.11635142
119	0x3dc527ce	0.09626733
120	0xbdb340ee	-0.08752619
121	0xbdb40509	-0.08790023
122	0x3d8ac1d0	0.06775248
123	0xbd2832a4	-0.04106392
124	0x3d30de9f	0.043181058
125	0x3d65983d	0.05605339
126	0xbece9bcc	-0.4035324
127	0x3c591b1d	0.013251093
128	0x3de095fe	0.10966109
129	0xbf188f55	-0.5959371
130	0xbc915609	-0.01774122
131	0x3d875756	0.06608455
132	0x3e697ef5	0.22802337
133	0x3e8abdc0	0.27097893
134	0xbd3431ff	-0.043992992
135	0xbe5669ab	-0.20938747
136	0x3ed58a86	0.41707247
137	0xbda8174b	-0.08207568
138	0x3df05cc0	0.11736441
139	0x3dd24c88	0.102685034
140	0xbeb70896	-0.35748738
141	0x3ef88d7f	0.48545453
142	0x3d7c5e54	0.061613396
143	0x3de05a84	0.109547645
144	0x3bddbb1c	0.00676669
145	0x3de83610	0.113384366
146	0xbe0b79f0	-0.13620734
147	0x3e663fba	0.22485247
148	0xbdcac700	-0.099012375
149	0x3f0a3d43	0.5399973
150	0x3e8b4461	0.27200606
151	0xbd82909b	-0.063752376
152	0xbd8632f2	-0.06552686
153	0xbd7e5c31	-0.06209964
154	0x3d9598ff	0.07304572
155	0x3e5043ac	0.20338315
156	0x3e68e748	0.22744477
157	0xbd7bcda0	-0.061475396
158	0x3d80b54e	0.06284581
159	0xbf276a82	-0.65396893
160	0xbd43b12b	-0.047776382
161	0x3e67a1b4	0.22620279
162	0xbd9b08ab	-0.07570013
163	0x3d80f3cc	0.062965006
164	0xbe193c15	-0.14964326
165	0xbd053117	-0.03251752
166	0xbd6e9490	-0.05824715
167	0x3e3810c7	0.1797515
168	0x3b9b8283	0.004745783
169	0xbcea06bd	-0.028567666
170	0xbd09e54a	-0.033665933
171	0x3dbd3978	0.09239477
172	0x3de404ea	0.1113375
173	0x3da63486	0.08115487
174	0xbd62a7ce	-0.055335812
175	0xbd305b82	-0.04305602
176	0xbe10385f	-0.14084004
177	0xbe3dab5b	-0.18522398
178	0x3edd012c	0.43164957
179	0x3dd1762b	0.10227617
180	0x3c0b2e1d	0.008494881
181	0xbef8e1a5	-0.48609653
182	0xbd481d10	-0.04885584
183	0x3dd32744	0.10310224
184	0xbd351dea	-0.04421798
185	0xbd8e5cd8	-0.06951302
186	0x3c2ad980	0.010427833
187	0x3d8e6f8a	0.06954868
188	0x3d79dfcc	0.061004445
189	0xbbf9190d	-0.0076018632
190	0xbf616326	-0.88041914
191	0xbcc039f5	-0.023465136
192	0xbc8fee04	-0.01756955
193	0x3e2f0fe8	0.17095912
194	0x3d46ad31	0.048505012
195	0x3d6f8514	0.058476523
196	0x3f0f8f3b	0.5607793
197	0x3e9140e2	0.28369814
198	0x3d8d1cb5	0.06890241
199	0x3bdf7b56	0.0068201227
200	0x3e8b6b51	0.27230313
201	0xbc1eba6d	-0.009688002
202	0x3cc0661d	0.023486191
203	0x3d09d5ee	0.033651285
204	0xbea98941	-0.3311253
205	0x3f22c771	0.63585573
206	0x3dc76502	0.097360626
207	0xbdc17b36	-0.09447329
208	0x3e12ef61	0.14349128
209	0x3c12f070	0.008968458
210	0x3bf0d7d9	0.00734995
211	0xbd3e57d9	-0.046470497
212	0xbd6de23b	-0.05807708
213	0x3e97c50d	0.29642525
214	0x3ec5996a	0.38593608
215	0x3ddbea92	0.107381
216	0xbd1ac86e	-0.0377888
217	0x3ddf9e67	0.10918885
218	0x3d2538c0	0.040337324
219	0x3eb7af30	0.35875845
220	0x3ebec59c	0.3726014
221	0xbdbb5c28	-0.09148437
222	0xbd8e0fc3	-0.069366
223	0xbfa274ca	-1.2691891
224	0xbd4fe5d9	-0.05075631
225	0x3e7096a8	0.23494971
226	0xbdba1f14	-0.09087959
227	0xbd67f25e	-0.056627624
228	0xbee03b7c	-0.43795383
229	0x3bc47501	0.0059953933
230	0xbd0b4437	-0.0340006
231	0x3e944cd1	0.28964856
232	0x3dbdeb92	0.09273447
233	0x3ce24fb1	0.02762589
234	0x3db1553f	0.086588375
235	0xbdfd7828	-0.123764336
236	0x3e7919de	0.24326274
237	0x3ce73f55	0.028228441
238	0x3d64ccaf	0.055859264
239	0xbdb4a201	-0.08819962
240	0xbf14df9d	-0.58153707
241	0xbd8497c3	-0.06474259
242	0xbeb60032	-0.35547024
243	0x3d16bb9b	0.03680001
244	0xbdcba18e	-0.099429235
245	0xbe90f36d	-0.2831072
246	0x3d5b380f	0.05352026
247	0x3cb63f5b	0.022247007
248	0xbccd41d8	-0.02505581
249	0x3d843fea	0.06457503
250	0xbd130105	-0.035889644
251	0xbc69c4e9	-0.014268138
252	0xbd4b721e	-0.049669378
253	0xbcb3934e	-0.021920826
254	0x3e043696	0.12911448
255	0xbd0a4ecd	-0.033766557

model.4.bias f4 [4]
0	0x3da345fd	0.079723336
1	0x3d274ff4	0.040847734
2	0x3e1d7d71	0.15379883
3	0x3e57020f	0.20996879

model.0.weight f4 [128, 7]
0	0xbf3c7edf	-0.7363109
1	0x3ef4fd4e	0.47849506
2	0xbd472abe	-0.048624747
3	0xbedf7a4c	-0.43647993
4	0x3c1e0467	0.009644604
5	0x3e0c756f	0.13716672
6	0xbda7a0e6	-0.08184986
7	0x3e75d0ce	0.24005434
8	0xbf5c1eb3	-0.85984343
9	0xbe89febb	-0.26952156
10	0x3ed0e07a	0.40796262
11	0x3e966621	0.29374793
12	0xbefd8a3c	-0.49519527
13	0x3e3fb638	0.18721855
14	0xbd656e7b	-0.056013566
15	0x3e843056	0.25818127
16	0xbe7eda3c	-0.24887937
17	0x3e06e9e7	0.13175164
18	0xbd2c178a	-0.042014636
19	0xbe366634	-0.17812425
20	0x3ea6d02f	0.32580706
21	0x3d8f7baa	0.07006009
22	0xbeb0b93c	-0.34516323
23	0x3c4b44e0	0.012406558
24	0xbeb04e67	-0.34434816
25	0x3ed35c3f	0.41281316
26	0xbef4c1bf	-0.47804067
27	0x3ec48848	0.38385224
28	0xbdc21a19	-0.09477634
29	0xbe797a30	-0.24363017
30	0x3ed69f06	0.419182
31	0xbe7fa670	-0.24965835
32	0x3e39bbb2	0.18138006
33	0xbf2771ca	-0.65408003
34	0x3e29592c	0.16537923
35	0xbe7f10bc	-0.24908727
36	0xbef07826	-0.46966666
37	0x3e123813	0.14279203
38	0xbfb5b445	-1.4195639
39	0x3e067c8d	0.1313345
40	0xbe86ad48	-0.26304078
41	0x3c74f687	0.014951355
42	0x3e18ac31	0.14909436
43	0x3b1c62cf	0.0023862605
44	0xbf80c024	-1.0058637
45	0x3e9546a9	0.29155472
46	0xbeaa5004	-0.33264172
47	0x3e866382	0.26247793
48	0x3eab32cd	0.33437195
49	0xbf674c9a	-0.9035126
50	0xbd868d0a	-0.0656987
51	0xbf0d382a	-0.55163825
52	0x3ecc992c	0.3996061
53	0xbea1d72c	-0.31609476
54	0xbe13cd0f	-0.14433692
55	0x3d920bb8	0.071311414
56	0x3ecbcd25	0.3980495
57	0x3e22fdf7	0.15917192
58	0xbe900050	-0.28125238
59	0xbfb41e36	-1.407172
60	0xbd2f57d4	-0.04280837
61	0x3ebb4629	0.36576965
62	0x3dfa4198	0.12219542
63	0xbe5aa606	-0.21352395
64	0xbe114a02	-0.14188388
65	0xbea04dc7	-0.3130934
66	0x3e04503e	0.12921235
67	0x3d87cc46	0.06630759
68	0xbe3a5d70	-0.18199706
69	0xbe454cf6	-0.1926764
70	0xbe82d75d	-0.25554934
71	0xbdf84553	-0.121225975
72	0xbea9e973	-0.3318592
73	0xbc4bfd76	-0.0124505665
74	0x3d8912f4	0.06693068
75	0xbdf78d0b	-0.12087449
76	0x3e433ac3	0.19065385
77	0x3e5c48f4	0.21512204
78	0xbef62a1f	-0.4807901
79	0xbee6a104	-0.4504472
80	0xbefd9506	-0.49527758
81	0xbbadbf86	-0.0053023724
82	0x3eb33d95	0.3500792
83	0xbe7d43d3	-0.24732904
84	0xbf86af4e	-1.0522249
85	0x3e95364e	0.29142994
86	0xbe5473ee	-0.20747349
87	0x3e485682	0.1956425
88	0xbbfb4406	-0.007668021
89	0x3c254474	0.010087121
90	0xbea0360a	-0.3129123
91	0x3ef4bdfe	0.47801203
92	0xbd944f2d	-0.07241664
93	0x3ecf49f0	0.40486097
94	0xbea1e5bd	-0.3162059
95	0xbe08a16a	-0.13342825
96	0x3dcff295	0.10153691
97	0xbeb32026	-0.34985465
98	0x3f51c190	0.8193598
99	0x3c80a661	0.015704336
100	0xbf3c3502	-0.73518384
101	0xbdbb9e75	-0.09161083
102	0xbcce3ea0	-0.025176346
103	0xbcc366ea	-0.023852784
104	0x3e823e01	0.2543793
105	0xbe38e602	-0.18056491
106	0x3e8fc68b	0.28081164
107	0x3db6877e	0.08912562
108	0xbdcdf9fd	-0.10057447
109	0xbdfda109	-0.12384231
110	0xbe307b9b	-0.17234652
111	0x3e7e6d33	0.24846344
112	0xbe991d84	-0.2990533
113	0xbe7497f2	-0.23886088
114	0x3e115a0f	0.14194511
115	0x3dd66c5f	0.10469889
116	0xbdf35c9e	-0.118829
117	0x3d86dd1e	0.065851435
118	0x3eb22170	0.34791136
119	0x3e715202	0.2356644
120	0x3df0488e	0.11732589
121	0xbf74a3b8	-0.95562315
122	0xbcee3b2a	-0.029080946
123	0x3e8ed860	0.27899456
124	0x3e6cf868	0.23141634
125	0x3ea1f708	0.31633782
126	0x3ed188a4	0.4092456
127	0x3e80ffea	0.25195247
128	0xbe1bc67f	-0.15212439
129	0xbcf43efd	-0.029815191
130	0x3e69cc90	0.2283194
131	0x3cd4f7d4	0.02599708
132	0x3e19a381	0.15003778
133	0x3e26356f	0.16231321
134	0xbc073cca	-0.008254239
135	0xbe27f18a	-0.16400734
136	0x3da44cff	0.08022498
137	0xbce82bab	-0.028341135
138	0xbe57200c	-0.21008319
139	0xbe59b799	-0.21261443
140	0x3f176de7	0.5915207
141	0xbc8f107a	-0.017463911
142	0xbf322169	-0.6958223
143	0x3da5c85c	0.08094856
144	0xbe163fcc	-0.14672774
145	0x3d88fe51	0.06689132
146	0x3d421049	0.047378812
147	0xbdab0e86	-0.083523795
148	0xbea9fa2f	-0.33198687
149	0x3d0bc1dd	0.03412043
150	0x3e85d729	0.26140717
151	0xbe0f57d6	-0.1399835
152	0x3e6b1269	0.22956242
153	0xbe459c22	-0.19297841
154	0xbc5a787f	-0.013334393
155	0xbe0d2752	-0.13784531
156	0x3e91df93	0.28490886
157	0x3c998f42	0.018745068
158	0xbebfe2de	-0.37477773
159	0x3d8c7227	0.0685771
160	0xbdab135b	-0.08353301
161	0x3d0b3101	0.03398228
162	0xbfe5daab	-1.7957357
163	0x3e747298	0.23871839
164	0xbe826e72	-0.25474888
165	0x3e868080	0.26269913
166	0x3c8ab808	0.016933456
167	0x3e0f8f79	0.14019574
168	0xbdf7ba14	-0.120960385
169	0x3f31eb3e	0.69499576
170	0x3d0772b7	0.033068385
171	0xbed9a642	-0.42509657
172	0x3e9344b8	0.28763366
173	0xbe8e08b7	-0.27741024
174	0x3e1d5373	0.15363865
175	0xbeb51cdf	-0.3537359
176	0xbea1d8f8	-0.31610847
177	0x3da7b40a	0.081886366
178	0xbcb9e36d	-0.022691453
179	0xbe934236	-0.28761452
180	0x3e323b90	0.17405534
181	0x3e3dbc79	0.18528928
182	0xbd33026f	-0.043703493
183	0x3e8eed30	0.27915335
184	0xbf171a47	-0.5902447
185	0x3ea4a5a2	0.32157618
186	0xbe718aa9	-0.23588051
187	0x3e0c3001	0.13690187
188	0xbd36c805	-0.044624347
189	0xbe6b3dc6	-0.22972783
190	0x3eb92eba	0.36168462
191	0x3e8e4e9d	0.27794352
192	0x3d77c444	0.060489908
193	0xc003cc4b	-2.059344
194	0xbdcfec93	-0.10152545
195	0x3f4cd557	0.8001303
196	0x3c362ebd	0.011119542
197	0x3db08f2a	0.086210564
198	0xbd9ac114	-0.07556358
199	0xbebc0097	-0.367192
200	0x3eb7b1cc	0.35877836
201	0xbe83ca85	-0.25740448
202	0xbeb3ef84	-0.35143673
203	0xc007d960	-2.1226425
204	0x3ef708f9	0.48249033
205	0xbd2e7213	-0.04258926
206	0x3d58fa2a	0.05297295
207	0x3f236bb7	0.63836235
208	0xbdeade4c	-0.11468181
209	0x3c5b36b0	0.013379738
210	0xbe33f3a6	-0.17573413
211	0xbea5a52e	-0.32352585
212	0x3ddef6c9	0.10886914
213	0x3d1e2209	0.038606677
214	0x3efba70f	0.49150893
215	0x3e08fe06	0.13378152
216	0xbe49316a	-0.19647756
217	0x3e73f134	0.2382248
218	0xbdc1acf7	-0.094568186
219	0x3dd589da	0.10426684
220	0xbec58ee3	-0.38585576
221	0x3e0894d5	0.13338025
222	0xbe835ff8	-0.25659156
223	0xbe50b14a	-0.2038013
224	0xbf6ae9c0	-0.91762924
225	0xbeb91f91	-0.36156896
226	0xbeb0c87c	-0.34527957
227	0xbefe6b13	-0.49691066
228	0x3ebe9ed7	0.3723056
229	0xbea10a9e	-0.31453413
230	0x3e0d029f	0.13770531
231	0x3dda8c29	0.10671265
232	0x3f28378b	0.6570975
233	0x3d5a8d01	0.053357128
234	0xbf28cc61	-0.6593686
235	0xbe5fadcb	-0.2184364
236	0x3e32f90f	0.17477821
237	0x3daca5ca	0.08430059
238	0x3d247938	0.040154666
239	0x3dddcc4e	0.10829984
240	0x3f0444b1	0.51667315
241	0xbeaad413	-0.33364925
242	0xbedebb92	-0.4350248
243	0xbe339bb6	-0.17539868
244	0x3d923366	0.0713871
245	0xbe55e91f	-0.2088971
246	0xbebbccc6	-0.36679667
247	0x3e7fc155	0.24976094
248	0xbe88cb77	-0.2671773
249	0xbe9fa670	-0.3118167
250	0x3e5b0fd7	0.21392761
251	0xbe63dc4f	-0.2225201
252	0xbea86b41	-0.32894328
253	0x3ec39c32	0.38205105
254	0x3ecf0565	0.40433803
255	0xbe0052e4	-0.1253162

model.0.bias f4 [128]
0	0x3e896642	0.2683583
1	0x3c2eaa4f	0.010660722
2	0xbec1b895	-0.37836137
3	0x3e2d5448	0.16926682
4	0x3d1e0233	0.038576316
5	0x3ecee18c	0.40406454
6	0x3e020f9b	0.12701266
7	0xbdf370f2	-0.11886777
8	0x3d43b05f	0.047775622
9	0xbeb981bb	-0.3623179
10	0x3bcb13e1	0.006197438
11	0x3e8cb99f	0.27485368
12	0x3e663e13	0.22484617
13	0xbee66fba	-0.45007116
14	0x3debb8fe	0.11509894
15	0x3d8ca43b	0.06867262
16	0xbe66f97e	-0.22556111
17	0x3d8cf047	0.06881767
18	0xbea0c5ec	-0.31401002
19	0xbe7d0b3f	-0.24711321
20	0x3d336aab	0.0438029
21	0xbea6eb70	-0.326015
22	0xbe9624fe	-0.29325098
23	0xbc41b356	-0.011822542
24	0xbd7644a4	-0.060124055
25	0xbe33a167	-0.17542039
26	0xbe634e06	-0.22197732
27	0xbe0835a7	-0.13301717
28	0xbe46039d	-0.19337316
29	0xbc792ef0	-0.015208945
30	0x3e17d13b	0.14825909
31	0xbea51678	-0.32243705
32	0x3e8f3d3e	0.27976412
33	0x3d6fded7	0.058562126
34	0x3e8cfda8	0.27537274
35	0xbe89fc03	-0.26950082
36	0xbeb8c8f6	-0.3609082
37	0xbe1cb8ea	-0.15304914
38	0xbeb27c77	-0.34860584
39	0x3e542bf1	0.20719887
40	0x3c21ab9f	0.009867578
41	0xbec13298	-0.37733912
42	0x3e1e86b8	0.15481079
43	0x3e7974f1	0.24361016
44	0x3eb5cb99	0.35506895
45	0xbead0d20	-0.33799076
46	0x3db827e3	0.08991983
47	0xbd5d6407	-0.05405047
48	0x3e359576	0.17732796
49	0x3c50facb	0.012755106
50	0xbe4c66ba	-0.19961062
51	0xbe4d6d9e	-0.20061347
52	0x3b339d3f	0.0027406958
53	0xbe846271	-0.25856355
54	0xbdeda2b9	-0.116033025
55	0xbeb9f2ae	-0.36317962
56	0x3e388826	0.18020687
57	0xbe8a7425	-0.27041736
58	0xbed81365	-0.42202297
59	0xbe3bc0d6	-0.1833528
60	0xbe9eba0d	-0.3100132
61	0xbdc62e83	-0.0967684
62	0x3df76dd4	0.12081495
63	0x3dd23ca1	0.1026547
64	0xbe81fafe	-0.25386804
65	0xbef1633b	-0.4714602
66	0xbef79cc4	-0.4836179
67	0xbea53447	-0.32266447
68	0xbdb4e235	-0.08832208
69	0xbda6a4a8	-0.081368744
70	0x3ce4816e	0.027893748
71	0xbea8437d	-0.3286399
72	0x3e0f5c02	0.13999942
73	0x3e906b23	0.2820674
74	0x3e58f3e1	0.21186782
75	0xbcf46ef7	-0.029838068
76	0xbebe97d7	-0.3722522
77	0xbe49c1b0	-0.19702792
78	0x3e3c9aaa	0.18418375
79	0x3e57474b	0.2102329
80	0xbe0f7665	-0.14010008
81	0xbed4768e	-0.414967
82	0x3e59c7f5	0.21267684
83	0xbebe3d88	-0.3715632
84	0x3e66ea2e	0.2255027
85	0x3ea34929	0.31891754
86	0xbe5d2fb5	-0.2160023
87	0xbe3474d7	-0.17622696
88	0x3d2a8c2f	0.041637596
89	0x3ec4c592	0.38431984
90	0xbeb3b140	-0.3509617
91	0x3d19afc4	0.03752114
92	0x3e897a8e	0.26851314
93	0x3e9cf82c	0.3065809
94	0x3e98e012	0.29858452
95	0xbe43f9a4	-0.19138199
96	0x3e7a7867	0.24459992
97	0xbc8705c2	-0.016482238
98	0xbe057646	-0.13033399
99	0x3e0fed06	0.14055261
100	0xbec639ef	-0.38716075
101	0xbea1195d	-0.31464663
102	0xbe9631e0	-0.29334927
103	0xbe3aeb04	-0.18253714
104	0x3e5f7f03	0.21825795
105	0xbdb8b95a	-0.09019728
106	0xbe1aaa57	-0.15104042
107	0xbce091ae	-0.027413215
108	0x3d1e30b0	0.03862065
109	0xbea1d312	-0.31606346
110	0xbd5fb7d2	-0.054618664
111	0xbd931d6f	-0.071833484
112	0xbeb0dc87	-0.3454325
113	0x3d3f9924	0.046776906
114	0x3e3d12a7	0.18464147
115	0x3dc5124a	0.09622629
116	0xbe0ff080	-0.14056587
117	0xbe36a2e5	-0.17835577
118	0x3df84af3	0.121236704
119	0x3e891a02	0.26777655
120	0x3d71d79a	0.059043504
121	0x3e2704f6	0.16310486
122	0xbdeb0c27	-0.11476927
123	0x3ed5a50c	0.41727483
124	0xbea9b853	-0.3314844
125	0xbb94eac9	-0.00454459
126	0xbe14fc23	-0.14549308
127	0xbd946a74	-0.07246867

model.2.weight f4 [64, 128]
0	0xbd1fb590	-0.03899151
1	0xbcc7d7a9	-0.024394827
2	0xbd83a8ae	-0.064286575
3	0xbdc395a3	-0.09550025
4	0x3d0b5939	0.034020636
5	0x3cb54447	0.022127284
6	0x3c1a8530	0.009431168
7	0x3a828dc1	0.0009960459
8	0xbd185a16	-0.037195288
9	0x3ada537d	0.0016656962
10	0xbd4fe971	-0.050759736
11	0x3d6ccaea	0.0578107
12	0x3d772ac5	0.060343523
13	0x3cca8a8c	0.024724267
14	0x3d16274c	0.03665857
15	0xbd8b4652	-0.06800522
16	0x3cbe1328	0.023202494
17	0xbd8643f0	-0.06555927
18	0xbda9e3b8	-0.08295387
19	0x3d02cc64	0.031933203
20	0x3d49edb4	0.049298957
21	0xbbc24a82	-0.005929292
22	0x3d4ebb7c	0.050471768
23	0xbda71001	-0.081573494
24	0x3ce2f337	0.027703864
25	0xbc0be8ba	-0.008539373
26	0xbd0cbc48	-0.034359246
27	0x3d4ff863	0.05077399
28	0xbd431943	-0.047631513
29	0xbd962c02	-0.073326126
30	0xbd41c33b	-0.047305327
31	0x3db1848c	0.086678594
32	0xbd8a5674	-0.06754771
33	0xbd2e189a	-0.04250393
34	0xbd10de0f	-0.03536802
35	0x3d97e56a	0.07416804
36	0x3c894ec1	0.016761186
37	0xbde2bf32	-0.11071624
38	0xbca69d6e	-0.02033874
39	0x3cff18ad	0.031139696
40	0x3bdf60f7	0.006816979
41	0xbd201e43	-0.03909136
42	0x3d11bd8a	0.03558115
43	0x3cec0fce	0.02881613
44	0x3d9de8a7	0.077103905
45	0x3c11741c	0.00887778
46	0xbcac1ae6	-0.02100892
47	0xbd3bbceb	-0.045834463
48	0xba362296	-0.0006947903
49	0xbb9f2ddb	-0.0048577613
50	0x3d7876b1	0.060660068
51	0xbaccbf08	-0.0015620897
52	0xbd671288	-0.056414157
53	0xbcd7f6ef	-0.026362864
54	0x3d410327	0.047122147
55	0x3d9dc622	0.077038065
56	0xbd669bc8	-0.05630091
57	0x3c18f765	0.009336327
58	0x3d93496b	0.07191738
59	0xbcdb211f	-0.026749192
60	0xbd9b9e75	-0.07598583
61	0x3d4e619d	0.05038606
62	0x3dc024e8	0.09382039
63	0x3d828be8	0.06374341
64	0xbd9e3832	-0.07725562
65	0x3d61fbd7	0.055171814
66	0x3d33ff93	0.043944906
67	0xbda88d1f	-0.08230042
68	0x3c8f4eaa	0.017493565
69	0x3d4cb716	0.04997929
70	0x3d89e979	0.067339845
71	0xbd0f6ee5	-0.035017867
72	0x3cc0c3f4	0.023530938
73	0x3d4eb6b5	0.05046721
74	0x3c7c0749	0.015382596
75	0xbdb1623a	-0.08661313
76	0xbd82f8a5	-0.063950814
77	0x3d0b2615	0.033971865
78	0xbd986681	-0.07441426
79	0x3bd5602d	0.006511709
80	0xbd83d796	-0.06437604
81	0x3c0fab41	0.008768857
82	0x3d0d529a	0.034502603
83	0x3d202813	0.039100718
84	0xbda96cca	-0.08272703
85	0xbd825ae2	-0.06364991
86	0xbc207cc2	-0.00979537
87	0x3d3aa9c6	0.045572065
88	0xbbf95a09	-0.00760961
89	0xbc69d85e	-0.014272777
90	0x3d02dc5e	0.03194844
91	0x3cc4fb63	0.024045652
92	0x3cc24e77	0.023719056
93	0xbc929ed3	-0.017897999
94	0xbde58969	-0.112078495
95	0xbdb50af0	-0.08839977
96	0xbc97fce7	-0.01855321
97	0xbd39022b	-0.045168083
98	0x3b401fe3	0.002931588
99	0xbd28fd33	-0.041257095
100	0x3cd326e3	0.025775379
101	0xbd81678a	-0.06318577
102	0xbb5e820c	-0.0033952026
103	0x3da39724	0.07987812
104	0x3d0d7969	0.034539614
105	0xbdd77804	-0.10520938
106	0xbc7fc468	-0.015610792
107	0xbc924678	-0.017855868
108	0xbd1471ca	-0.03624133
109	0x3d547740	0.05187154
110	0x3d058d66	0.03260555
111	0xbcb27751	-0.02178541
112	0x3d378301	0.04480267
113	0xbd5f1331	-0.05446166
114	0x3b089be9	0.0020844883
115	0x3c19bc9f	0.00938335
116	0x3d937326	0.07199697
117	0xbd70d446	-0.05879619
118	0xbd748b01	-0.059702877
119	0xbcfefdb1	-0.031126829
120	0xba80dbbe	-0.0009831113
121	0xbdacd2dd	-0.084386565
122	0xbdbac781	-0.091200836
123	0x3d2a0289	0.041506324
124	0x3d1c2345	0.038119573
125	0x3d8cd193	0.068759106
126	0x3ca50fb7	0.020149095
127	0x3d733eed	0.059386183
128	0xbdf819f5	-0.12114326
129	0x3eca5fcb	0.3952621
130	0xbda978d6	-0.08275001
131	0x3f09bc24	0.53802705
132	0x3c83ac53	0.016073382
133	0xbe85718c	-0.26063192
134	0xbe35cd3b	-0.1775407
135	0xbe8ee1fc	-0.27906787
136	0x3ce5820b	0.02801611
137	0xbdb16c84	-0.08663276
138	0xbbe76b43	-0.007062347
139	0xbe3013f7	-0.17195116
140	0xbe19a210	-0.15003228
141	0xbe0d1914	-0.13779098
142	0x3d1f376c	0.038871214
143	0xbdb11e5e	-0.0864837
144	0x3c8ffebc	0.017577522
145	0xbeb6812a	-0.3564542
146	0xbf14e6d9	-0.58164746
147	0xbd43aa54	-0.04776986
148	0x3e39e57f	0.18153952
149	0xbd0fd73d	-0.035117377
150	0x3db73adc	0.089467734
151	0x3f08c005	0.53418
152	0x3e68038f	0.22657607
153	0xbbefdd54	-0.0073200855
154	0xbe5a7f6d	-0.21337672
155	0xbe886604	-0.26640332
156	0xbd40777d	-0.046988953
157	0xbd197547	-0.03746536
158	0xbe2e03b4	-0.169936
159	0x3e8d1409	0.27554348
160	0xbd0d260d	-0.034460116
161	0xbf14e354	-0.58159375
162	0xbd0e5101	-0.03474522
163	0xbda8d051	-0.08242858
164	0xbb04ef84	-0.0020284364
165	0x3d2dd7be	0.042442076
166	0xbd81dd90	-0.06341088
167	0x3f87d4da	1.0611832
168	0xbd7d06f3	-0.061774205
169	0xbdb71170	-0.08938873
170	0xbd28e0f1	-0.041230146
171	0xbed436cf	-0.41448066
172	0x3e6ab1c6	0.22919378
173	0x3d82b63f	0.06382417
174	0xbf25fdff	-0.6484069
175	0xbe34bd26	-0.1765028
176	0xbdce0256	-0.10059039
177	0xbd1d5f74	-0.03842111
178	0xbdf3f054	-0.11911073
179	0xbe55fe5a	-0.20897809
180	0xbebf4a4e	-0.37361377
181	0xbf4f8e9b	-0.81076974
182	0xbdb0d2a7	-0.08633929
183	0x3daa4a0a	0.08314903
184	0xbe1cf3ea	-0.15327421
185	0xbc6c20e1	-0.014412136
186	0xbdded9ac	-0.10881361
187	0x3e1e443d	0.15455718
188	0xbdae86f2	-0.085218325
189	0x3e1251ec	0.14289063
190	0x3d525adf	0.051356193
191	0x3e5b34f9	0.21406926
192	0x3d68f3c0	0.056873083
193	0x3d05b6f7	0.032645192
194	0xbe6ca15e	-0.23108432
195	0xbe945cd5	-0.28977075
196	0xbb00cab9	-0.0019652082
197	0xbf0db363	-0.5535185
198	0xbeca264f	-0.39482352
199	0xbcff0a65	-0.031132886
200	0xbee5c176	-0.4487416
201	0x3de60b03	0.11232569
202	0xbe5c2020	-0.2149663
203	0x3d8612e1	0.065465696
204	0xbdafd053	-0.085846566
205	0x3d4d9770	0.05019325
206	0x3e51eb0a	0.20499817
207	0xbec8e998	-0.39240718
208	0x3b4bfdc8	0.0031126607
209	0xbc83ba2d	-0.016079986
210	0xbec95047	-0.3931906
211	0xbd67b5da	-0.05656991
212	0x3cbd2493	0.023088729
213	0xbdc0084a	-0.09376581
214	0xbc2e147a	-0.010624999
215	0xbe1e5784	-0.15463072
216	0xbeb6c28b	-0.356953
217	0xbbfe4ed4	-0.007760862
218	0x3d2bf71f	0.04198372
219	0x3d99890c	0.07496843
220	0x3e2b9a10	0.16757989
221	0xbeb50d0c	-0.35361516
222	0xbe8327b0	-0.25616217
223	0xbe8ad8a2	-0.27118403
224	0x3d89a710	0.06721318
225	0xbdd7ac5d	-0.105309226
226	0xbe18e877	-0.14932428
227	0xbdb47e6c	-0.088131756
228	0x3d5804e6	0.052739047
229	0xbdd40a27	-0.10353499
230	0xbd90d162	-0.070711866
231	0xbf68abe1	-0.90887266
232	0xbeeb0786	-0.45904177
233	0x3ef7646b	0.483188
234	0x3d73a0c3	0.059479486
235	0x3c5b6f0b	0.013393174
236	0x3d86092e	0.0654472
237	0xbe487c59	-0.19578685
238	0x3d9e1295	0.07718388
239	0xbe247f2a	-0.16064134
240	0xbe83afd2	-0.25720078
241	0x3dabb163	0.08383443
242	0x3e271e3c	0.16320127
243	0xbdd476c9	-0.10374219
244	0xbbb39240	-0.005480081
245	0x3e68f6cf	0.227504
246	0xbda33462	-0.079689756
247	0xbe82f088	-0.25574136
248	0xbd3d01c4	-0.046144262
249	0xbf04d72a	-0.51890814
250	0xbd75598e	-0.05989986
251	0x3d998a5a	0.074970916
252	0x3da3721d	0.0798075
253	0xbe26dc28	-0.1629492
254	0x3e49a555	0.19691975
255	0x3f1380b3	0.57618254

model.2.bias f4 [64]
0	0xbdd12005	-0.10211185
1	0xbdf28ef9	-0.11843676
2	0x3ca25782	0.019817118
3	0xbda15ca0	-0.07878995
4	0xbdade873	-0.08491602
5	0x3e8b9236	0.27259988
6	0xbccd0f6b	-0.025031766
7	0xbd792236	-0.06082364
8	0x3c9e6b2f	0.019338218
9	0x3c83bd2a	0.016081411
10	0x3d4e6f0f	0.050398882
11	0xbe700bd9	-0.2344202
12	0x3da89d8d	0.082331754
13	0x3bc2c9db	0.005944473
14	0xbde6e45f	-0.11274027
15	0xbd5b8a34	-0.053598598
16	0xbda531ae	-0.08066116
17	0xbd103f41	-0.035216574
18	0xbd355ecb	-0.044279855
19	0x3e501d78	0.20323741
20	0xbd21a35f	-0.039462443
21	0x3e75057a	0.2392787
22	0x3e37810c	0.17920321
23	0xbd99ba14	-0.07506195
24	0xbdeae2cc	-0.11469039
25	0x3c7fcebb	0.015613253
26	0xbda70ec0	-0.0815711
27	0x3e41875a	0.18899289
28	0xbdb18395	-0.086676754
29	0xbd0596b9	-0.032614443
30	0xbda455bf	-0.08024167
31	0xbcd216d6	-0.025645655
32	0x3d1639ca	0.036676206
33	0x3e0e9563	0.13924174
34	0xbdbce160	-0.09222674
35	0xbdc7247d	-0.097237565
36	0x3e200489	0.1562673
37	0xbb381f34	-0.002809477
38	0x3d3222e8	0.04349032
39	0x3e64f147	0.22357665
40	0xbddfcc88	-0.10927683
41	0xbd023efe	-0.031798355
42	0xbc08e481	-0.008355261
43	0xbdc1c4c9	-0.09461362
44	0x3d70ae40	0.058759928
45	0x3d3a2663	0.045446765
46	0xbdceeeca	-0.10104139
47	0x38dc9fbd	0.00010520171
48	0x3de2bd00	0.11071205
49	0xbdb68687	-0.08912378
50	0xbd0b4bf5	-0.034007985
51	0xbdd7f47f	-0.10544681
52	0xbd76a508	-0.06021598
53	0x3e7df122	0.24799016
54	0xbdbf26a6	-0.093335435
55	0xbbc9006e	-0.0061340844
56	0xbdb04d9c	-0.08608553
57	0xbda7b220	-0.081882715
58	0xbd3de3f1	-0.04635996
59	0xbda60e05	-0.08108143
60	0xbcf9643e	-0.030443307
61	0xbd808933	-0.06276169
62	0x3d741fff	0.059600826
63	0x3cbf5add	0.023358757
