checkpoints/checkpoint_ep500.pt (torch, 163021 bytes, 24 tensors)

model.0.weight f4 [128, 7]
000000 33 88 68 bf db 75 e2 3e dc 48 17 be 8e d5 cc be
       -0.90832824 0.44230542 -0.14773887 -0.4000668
000010 2f 8d 8f bd 42 c0 1a 3e 00 73 22 bd 68 a1 a3 3e
       -0.070093505 0.15112403 -0.039660454 0.3195908
000020 70 5e 27 bf 19 52 8b be 78 a0 8b 3e 7f 07 cb 3e
       -0.65378475 -0.27211073 0.27270865 0.39654157
000030 6e 7c 49 bf 03 1f 34 3e 7b 6e 65 bd 56 30 84 3e
       -0.7870549 0.17589955 -0.056013566 0.25818127
000040 3c da 7e be e7 e9 06 3e 8a 17 2c bd 34 66 36 be
       -0.24887937 0.13175164 -0.042014636 -0.17812425
000050 2f d0 a6 3e 41 02 de 3d 6b b9 00 bf 67 86 8e 3d
       0.32580706 0.10840274 -0.50282925 0.06959229
000060 7b 31 ac be 04 1f 14 3f 11 e4 0d bf 3f 84 ad 3e
       -0.336315 0.57859826 -0.55426127 0.33889958
000070 c9 cb 11 be 92 1e 63 be d9 b2 c1 3e 74 81 c2 be
       -0.14237894 -0.2217963 0.37831762 -0.3798939
000080 6e 1b 65 3e 66 26 40 bf 4f 0f 77 3e 10 4d b6 be
       0.22373745 -0.7505859 0.24126934 -0.3560567
000090 bd b0 a6 be 86 8d 90 3e c8 81 d0 bf e7 9a 28 3e
       -0.32556716 0.28232974 -1.6289606 0.1646534
0000a0 4b 6f 7b be 2c 53 ae 3a 04 49 06 3e 36 b1 fb 3c
       -0.24554174 0.0013299934 0.13113791 0.03072415
0000b0 86 42 8a bf e1 4c 22 3e 96 cd 92 be d9 56 80 3e
       -1.0801551 0.1584964 -0.28672475 0.2506626
0000c0 f6 05 b2 3e 9a 4c 67 bf d5 13 a8 bd a2 26 07 bf
       0.34770173 -0.9035126 -0.08206908 -0.52793324
0000d0 2c ab c4 3e ba 63 ac be c6 9e 23 be 3c 63 59 3d
       0.38411844 -0.33669835 -0.15978536 0.053073153
0000e0 ae a2 83 3e 9d 5c aa 3e 8a 8c 5e be 46 d5 9a bf
       0.25710052 0.33273783 -0.21733299 -1.2096336
0000f0 95 a2 9c bd 26 10 bd 3e 7c a4 50 3e 06 a6 5a be
       -0.076481976 0.36926383 0.20375246 -0.21352395
000100 02 4a 11 be c7 4d a0 be 3e 50 04 3e 46 cc 87 3d
       -0.14188388 -0.3130934 0.12921235 0.06630759
000110 70 5d 3a be f6 4c 45 be 5d d7 82 be 53 45 f8 bd
       -0.18199706 -0.1926764 -0.25554934 -0.121225975
000120 73 e9 a9 be 76 fd 4b bc f4 12 89 3d 0b 8d f7 bd
       -0.3318592 -0.0124505665 0.06693068 -0.12087449
000130 c3 3a 43 3e 61 1b a5 3e 71 ad 0a bf bb 2d 9b be
       0.19065385 0.3224745 -0.541709 -0.30308327
000140 48 0e 17 bf 4f a1 d6 bd 32 48 a8 3e 87 8d 88 be
       -0.59006166 -0.10479986 0.3286758 -0.26670477
000150 48 83 73 bf 56 78 fa 3e 4d 7b 3f be a7 84 1c 3e
       -0.95122194 0.48919934 -0.1869938 0.15284978
000160 23 2f 3b be 32 bc 69 be 6b 8e 79 be 93 d4 fe 3e
       -0.182797 -0.22825697 -0.24370734 0.49771556
000170 df d5 1d 3d cb 23 dc 3e 57 78 01 bf dd 62 a2 bd
       0.03853404 0.42996058 -0.5057425 -0.07929013
000180 26 98 77 3e 1a 87 bd be 47 c3 4c 3f 8c 80 9f 3c
       0.24179134 -0.37017137 0.7998547 0.019470476
000190 3a 16 2a bf 5f c5 f3 bd 73 48 9c bc fe be 11 bd
       -0.66440165 -0.1190288 -0.019077515 -0.035582535
0001a0 1d e6 92 3e ab f8 00 bf 05 91 94 3e 6d fd 44 3e
       0.28691188 -0.5037944 0.2901689 0.192373
0001b0 e9 f6 7a be 3f cd 85 bd e4 4f b7 be 86 20 82 3e
       -0.24508251 -0.06533288 -0.3580314 0.25415438
0001c0 84 1d 99 be f2 97 74 be 0f 5a 11 3e 5f 6c d6 3d
       -0.2990533 -0.23886088 0.14194511 0.10469889
0001d0 9e 5c f3 bd 1e dd 86 3d 70 21 b2 3e 7b 4e b7 3e
       -0.118829 0.065851435 0.34791136 0.35802063
0001e0 20 e3 48 3e 57 9f 76 bf 2b c7 13 be c7 ef 05 3e
       0.19617891 -0.96336883 -0.14431445 0.13079749
0001f0 9c 51 7f 3e bc f7 a2 3e 72 86 d4 3e e5 d9 93 3e
       0.24933475 0.3182963 0.41508824 0.28877178
000200 b2 be c0 bd 1c 8a a0 bd 1e 32 91 3e 2b 0d ba 3d
       -0.09411372 -0.07838842 0.2835855 0.09084543
000210 b5 07 a6 3d 6f 35 26 3e ca 3c 07 bc 8a f1 27 be
       0.08106939 0.16231321 -0.008254239 -0.16400734
000220 ff 4c a4 3d ab 2b e8 bc 0c 20 57 be 99 b7 59 be
       0.08022498 -0.028341135 -0.21008319 -0.21261443
000230 4d 0a 1c 3f 42 3f 1a 3c 8f 9d 45 bf fa c5 02 3e
       0.6095322 0.009414496 -0.7719354 0.12770835
000240 1b b0 70 bd ae 46 fd 3d 5a a2 3b 3d 86 0e ab bd
       -0.058761697 0.12366997 0.045809127 -0.083523795
000250 2f fa a9 be dd c1 0b 3d 29 d7 85 3e d6 57 0f be
       -0.33198687 0.03412043 0.26140717 -0.1399835
000260 69 12 6b 3e 22 9c 45 be 7f 78 5a bc 52 27 0d be
       0.22956242 -0.19297841 -0.013334393 -0.13784531
000270 93 df 91 3e 42 8f 99 3c de e2 bf be 27 72 8c 3d
       0.28490886 0.018745068 -0.37477773 0.0685771
000280 5b 13 ab bd 42 00 bd bc ee 0b 20 c0 f4 f3 54 3d
       -0.08353301 -0.023071412 -2.5007281 0.051990464
000290 f6 2a 6c be a9 25 85 3e 79 ca 23 3e e1 8e 75 3e
       -0.23063263 0.26005295 0.15995206 0.23980285
0002a0 d6 de ee bd 75 4b 1d 3f ff 6f 0e 3d cc 19 e0 be
       -0.11663596 0.61443263 0.034774777 -0.4376968
0002b0 c8 53 da 3e 01 fb 85 be 90 ea 25 3e df 1c b5 be
       0.42642045 -0.26168063 0.1620276 -0.3537359
0002c0 f8 d8 a1 be 0a b4 a7 3d 6d e3 b9 bc 36 42 93 be
       -0.31610847 0.081886366 -0.022691453 -0.28761452
0002d0 90 3b 32 3e 79 bc 3d 3e 07 da e7 bc 2a 58 a2 3e
       0.17405534 0.18528928 -0.028302206 0.3170789
0002e0 d1 32 2f bf fd cb b0 3e f3 b2 4c be 28 cb 60 3e
       -0.68436915 0.3453063 -0.19990139 0.21952498
0002f0 60 29 03 be cc df dd bd a3 2f 9f 3e 2c 00 87 3e
       -0.12808752 -0.108337015 0.3109103 0.2636732
000300 86 b1 8d 3d 2f b9 32 c0 43 89 df ba a4 7f 45 3f
       0.069186255 -2.7925527 -0.0017054457 0.7714789
000310 bd 2e 36 3c 2a 8f b0 3d 14 c1 9a bd 97 00 bc be
       0.011119542 0.086210564 -0.07556358 -0.367192
000320 cc b1 b7 3e 85 ca 83 be 84 ef b3 be 9f d5 11 c0
       0.35877836 -0.25740448 -0.35143673 -2.2786634
000330 01 9d ee 3e 0e a5 06 bd 6f 47 00 3e 4e f2 2a 3f
       0.4660416 -0.032872252 0.1252725 0.6677598
000340 59 94 90 be 2d 42 0c bd 62 ed 25 be 26 23 8b be
       -0.2823818 -0.034242798 -0.16203836 -0.27175254
000350 c5 f6 05 3e 54 ac 7a 3d 46 6a 08 3f 9c 1a 0c 3e
       0.13082416 0.0611995 0.5328716 0.13682026
000360 ac 7b 35 be 34 f1 73 3e f7 ac c1 bd da 89 d5 3d
       -0.17722958 0.2382248 -0.094568186 0.10426684
000370 e3 8e c5 be d5 94 08 3e f8 5f 83 be 4a b1 50 be
       -0.38585576 0.13338025 -0.25659156 -0.2038013
000380 16 17 1c bf 89 84 e6 be 88 c9 20 be a7 35 14 bf
       -0.60972726 -0.4502299 -0.15701878 -0.57894367
000390 ed 76 d8 3e fe 9d 6d be 8b 27 4f 3e e7 fa e4 3d
       0.42278233 -0.232048 0.20229928 0.11180668
0003a0 10 07 1c 3f b9 de 04 3d 22 f6 23 bf 09 64 7f be
       0.60948277 0.032438967 -0.64047444 -0.24940504
0003b0 b0 1a 5c 3d db 1b 26 3e 19 15 93 3d ff d7 57 bd
       0.05373639 0.16221564 0.071817584 -0.052696224
0003c0 3b 0e 1e 3f bf cd bc be ed 58 f5 be 18 3d c3 be
       0.61740464 -0.36875722 -0.47919407 -0.38132548
0003d0 5d 39 ee 3d 1f e9 55 be c6 cc bb be 55 c1 7f 3e
       0.11632035 -0.2088971 -0.36679667 0.24976094
0003e0 77 cb 88 be 70 a6 9f be d7 0f 5b 3e 4f dc 63 be
       -0.2671773 -0.3118167 0.21392761 -0.2225201
0003f0 b5 fd c7 be 78 79 f5 3e 86 6d 08 3f 30 7b 3d be
       -0.3906075 0.47944236 0.5329212 -0.18504024

model.0.bias f4 [128]
000000 4d 00 9f 3e 21 d6 2b ba 95 b8 c1 be 60 95 fe 3d
       0.31054917 -0.000655504 -0.37836137 0.12430835
000010 9b 73 ea 3d 58 e8 c7 3e da b5 0f 3e f0 65 0c be
       0.11447831 0.39044452 0.14034215 -0.13710761
000020 70 72 04 3e bb 81 b9 be e1 13 cb 3b 3c cd 82 3e
       0.1293428 -0.3623179 0.006197438 0.25547206
000030 95 8e 96 3e d5 d5 f0 be 1c 2d 17 3e 72 54 98 3d
       0.29405656 -0.4703814 0.14763302 0.07437982
000040 7e f9 66 be 9f f2 90 3d 50 16 c4 be 3f 0b 7d be
       -0.22556111 0.07077526 -0.38298273 -0.24711321
000050 05 fd 2c 3d 70 eb a6 be fe 24 96 be c0 d0 b3 3d
       0.042233486 -0.326015 -0.29325098 0.0878005
000060 46 e6 53 bd 67 a1 33 be 0f 63 9c be 22 8c 25 be
       -0.051733278 -0.17542039 -0.30544326 -0.16166738
000070 9d 03 46 be e0 af 80 bd ec 86 2b 3e 78 16 a5 be
       -0.19337316 -0.062835455 0.16750687 -0.32243705
000080 c2 51 b0 3e 23 c1 0b 3e f4 ff a3 3e 03 fc 89 be
       0.34437376 0.13647895 0.32031214 -0.26950082
000090 3a 04 c8 be 0d 29 5c be 77 7c b2 be 78 ac 46 3e
       -0.39065725 -0.21500035 -0.34860584 0.19401729
0000a0 f2 e7 89 3d 98 32 c1 be 47 fd 2d 3e b9 ca 3c 3e
       0.06733693 -0.37733912 0.16991149 0.18436708
0000b0 c1 0c e2 3e 20 0d ad be 64 1c 12 3e 4d 78 fe bd
       0.44150355 -0.33799076 0.14268643 -0.12425289
0000c0 3c 58 55 3e cb fa 50 3c 68 72 6b be bf 04 83 be
       0.2083444 0.012755106 -0.22992861 -0.25589558
0000d0 11 d1 09 3d 83 92 59 be 9b e8 b5 bd ae f2 b9 be
       0.033646647 -0.21247296 -0.088822566 -0.36317962
0000e0 a6 c9 59 3e 25 74 8a be 65 13 d8 be d6 c0 3b be
       0.21268329 -0.27041736 -0.42202297 -0.1833528
0000f0 f3 43 af be 83 2e c6 bd 95 ea f6 3d bf 41 a6 3d
       -0.3423153 -0.0967684 0.12056462 0.08118009
000100 fe fa 81 be 7f d3 04 bf 66 39 09 bf df a4 c6 be
       -0.25386804 -0.5188522 -0.5360321 -0.38797662
000110 35 e2 b4 bd 0d 9d 2d bd 06 69 59 3c 7d 43 a8 be
       -0.08832208 -0.042386103 0.013269668 -0.3286399
000120 34 ce 9e 3d 23 6b 90 3e eb 76 da 3d f6 81 9b bd
       0.07754174 0.2820674 0.10667213 -0.075931475
000130 d7 97 be be 45 55 80 be aa 9a 3c 3e fb 18 83 3e
       -0.3722522 -0.25065055 0.18418375 0.25604996
000140 65 76 0f be e4 f1 e9 be bb 98 a0 3e 88 3d be be
       -0.14010008 -0.4569236 0.31366524 -0.3715632
000150 e8 9e a1 3e 65 c2 8f 3e b5 2f 5d be d7 74 34 be
       0.31566548 0.28078 -0.2160023 -0.17622696
000160 cc de ca 3d fe d6 e7 3e 40 b1 b3 be 55 46 06 3d
       0.099057764 0.45281214 -0.3509617 0.032781918
000170 ba c0 67 3e 7e 93 b7 3e 78 dd 9a 3e ce 5b 7f be
       0.22632113 0.35854715 0.30247092 -0.24937364
000180 f3 e9 92 3e 38 89 a0 3c 87 cb 20 be 5a fe e2 3d
       0.28694114 0.019596681 -0.1570264 0.1108367
000190 ef 39 c6 be ac c7 cb be e0 31 96 be a5 f0 8f be
       -0.38716075 -0.39800775 -0.29334927 -0.28113285
0001a0 b3 52 93 3e 19 75 fb bd 57 aa 1a be ae 91 e0 bc
       0.28774032 -0.12278194 -0.15104042 -0.027413215
0001b0 66 f5 74 bd 12 d3 a1 be 13 ee 96 bd 6f 1d 93 bd
       -0.059804343 -0.31606346 -0.07369628 -0.071833484
0001c0 0f f8 ea be a4 10 18 3d 04 62 f8 3d 79 39 27 3e
       -0.4589238 0.037125245 0.1212807 0.16330518
0001d0 80 f0 0f be 32 c2 47 be f3 4a f8 3d 3a e3 86 3e
       -0.14056587 -0.19507673 0.121236704 0.26345235
0001e0 73 13 de 3c 25 73 12 3e ba 26 02 be 86 b6 df 3e
       0.027108883 0.14301737 -0.12710086 0.43693942
0001f0 f9 56 d1 be 5f 35 2f bd 52 c8 c6 bd 74 6a 94 bd
       -0.40886667 -0.042775508 -0.09706177 -0.07246867

model.2.weight f4 [64, 128]
000000 90 b5 1f bd a9 d7 c7 bc ae a8 83 bd a3 95 c3 bd
       -0.03899151 -0.024394827 -0.064286575 -0.09550025
000010 39 59 0b 3d 47 44 b5 3c 30 85 1a 3c c1 8d 82 3a
       0.034020636 0.022127284 0.009431168 0.0009960459
000020 16 5a 18 bd 7d 53 da 3a 71 e9 4f bd ea ca 6c 3d
       -0.037195288 0.0016656962 -0.050759736 0.0578107
000030 c5 2a 77 3d 8c 8a ca 3c 4c 27 16 3d 52 46 8b bd
       0.060343523 0.024724267 0.03665857 -0.06800522
000040 28 13 be 3c f0 43 86 bd b8 e3 a9 bd 64 cc 02 3d
       0.023202494 -0.06555927 -0.08295387 0.031933203
000050 b4 ed 49 3d 82 4a c2 bb 7c bb 4e 3d 01 10 a7 bd
       0.049298957 -0.005929292 0.050471768 -0.081573494
000060 37 f3 e2 3c ba e8 0b bc 48 bc 0c bd 63 f8 4f 3d
       0.027703864 -0.008539373 -0.034359246 0.05077399
000070 43 19 43 bd 02 2c 96 bd 3b c3 41 bd 8c 84 b1 3d
       -0.047631513 -0.073326126 -0.047305327 0.086678594
000080 74 56 8a bd 9a 18 2e bd 0f de 10 bd 6a e5 97 3d
       -0.06754771 -0.04250393 -0.03536802 0.07416804
000090 c1 4e 89 3c 32 bf e2 bd 6e 9d a6 bc ad 18 ff 3c
       0.016761186 -0.11071624 -0.02033874 0.031139696
0000a0 f7 60 df 3b 43 1e 20 bd 8a bd 11 3d ce 0f ec 3c
       0.006816979 -0.03909136 0.03558115 0.02881613
0000b0 a7 e8 9d 3d 1c 74 11 3c e6 1a ac bc eb bc 3b bd
       0.077103905 0.00887778 -0.02100892 -0.045834463
0000c0 96 22 36 ba db 2d 9f bb b1 76 78 3d 08 bf cc ba
       -0.0006947903 -0.0048577613 0.060660068 -0.0015620897
0000d0 88 12 67 bd ef f6 d7 bc 27 03 41 3d 22 c6 9d 3d
       -0.056414157 -0.026362864 0.047122147 0.077038065
0000e0 c8 9b 66 bd 65 f7 18 3c 6b 49 93 3d 1f 21 db bc
       -0.05630091 0.009336327 0.07191738 -0.026749192
0000f0 75 9e 9b bd 9d 61 4e 3d e8 24 c0 3d e8 8b 82 3d
       -0.07598583 0.05038606 0.09382039 0.06374341
000100 32 38 9e bd d7 fb 61 3d 93 ff 33 3d 1f 8d a8 bd
       -0.07725562 0.055171814 0.043944906 -0.08230042
000110 aa 4e 8f 3c 16 b7 4c 3d 79 e9 89 3d e5 6e 0f bd
       0.017493565 0.04997929 0.067339845 -0.035017867
000120 f4 c3 c0 3c b5 b6 4e 3d 49 07 7c 3c 3a 62 b1 bd
       0.023530938 0.05046721 0.015382596 -0.08661313
000130 a5 f8 82 bd 15 26 0b 3d 81 66 98 bd 2d 60 d5 3b
       -0.063950814 0.033971865 -0.07441426 0.006511709
000140 96 d7 83 bd 41 ab 0f 3c 9a 52 0d 3d 13 28 20 3d
       -0.06437604 0.008768857 0.034502603 0.039100718
000150 ca 6c a9 bd e2 5a 82 bd c2 7c 20 bc c6 a9 3a 3d
       -0.08272703 -0.06364991 -0.00979537 0.045572065
000160 09 5a f9 bb 5e d8 69 bc 5e dc 02 3d 63 fb c4 3c
       -0.00760961 -0.014272777 0.03194844 0.024045652
000170 77 4e c2 3c d3 9e 92 bc 69 89 e5 bd f0 0a b5 bd
       0.023719056 -0.017897999 -0.112078495 -0.08839977
000180 e7 fc 97 bc 2b 02 39 bd e3 1f 40 3b 33 fd 28 bd
       -0.01855321 -0.045168083 0.002931588 -0.041257095
000190 e3 26 d3 3c 8a 67 81 bd 0c 82 5e bb 24 97 a3 3d
       0.025775379 -0.06318577 -0.0033952026 0.07987812
0001a0 69 79 0d 3d 04 78 d7 bd 68 c4 7f bc 78 46 92 bc
       0.034539614 -0.10520938 -0.015610792 -0.017855868
0001b0 ca 71 14 bd 40 77 54 3d 66 8d 05 3d 51 77 b2 bc
       -0.03624133 0.05187154 0.03260555 -0.02178541
0001c0 01 83 37 3d 31 13 5f bd e9 9b 08 3b 9f bc 19 3c
       0.04480267 -0.05446166 0.0020844883 0.00938335
0001d0 26 73 93 3d 46 d4 70 bd 01 8b 74 bd b1 fd fe bc
       0.07199697 -0.05879619 -0.059702877 -0.031126829
0001e0 be db 80 ba dd d2 ac bd 81 c7 ba bd 89 02 2a 3d
       -0.0009831113 -0.084386565 -0.091200836 0.041506324
0001f0 45 23 1c 3d 93 d1 8c 3d b7 0f a5 3c ed 3e 73 3d
       0.038119573 0.068759106 0.020149095 0.059386183
000200 f5 19 f8 bd 8e 01 99 3e d6 78 a9 bd 3f 5b e5 3e
       -0.12114326 0.29884 -0.08275001 0.44796178
000210 e4 5a 4a bd 8c 71 85 be 3b cd 35 be fc e1 8e be
       -0.049403086 -0.26063192 -0.1775407 -0.27906787
000220 0b 82 e5 3c 84 6c b1 bd 43 6b e7 bb 08 86 7d be
       0.02801611 -0.08663276 -0.007062347 -0.2475816
000230 10 a2 19 be 66 4a 0e be 76 8d 84 bd 5e 1e b1 bd
       -0.15003228 -0.13895568 -0.06472294 -0.0864837
000240 bc fe 8f 3c 4c ef ed be 07 0d 2d bf 54 aa 43 bd
       0.017577522 -0.46471632 -0.67598003 -0.04776986
000250 28 94 93 3d 3d d7 0f bd dc 3a b7 3d 52 51 e7 3e
       0.07205993 -0.035117377 0.089467734 0.4517923
000260 8f 03 68 3e 54 dd ef bb 6d 7f 5a be 04 66 88 be
       0.22657607 -0.0073200855 -0.21337672 -0.26640332
000270 7d 77 40 bd 47 75 19 bd cb 08 89 be 09 14 8d 3e
       -0.046988953 -0.03746536 -0.2676452 0.27554348
000280 0d 26 0d bd 54 e3 14 bf 5b 61 f4 bd 51 d0 a8 bd
       -0.034460116 -0.58159375 -0.119326316 -0.08242858
000290 84 ef 04 bb 9e e8 36 bd 90 dd 81 bd d8 cf 83 3f
       -0.0020284364 -0.044655435 -0.06341088 1.0297804
0002a0 db 08 96 bd 70 11 b7 bd 55 5c 0f be cf 36 d4 be
       -0.07325908 -0.08938873 -0.14000066 -0.41448066
0002b0 4b 2e 0d 3e 3f b6 82 3d ff fd 25 bf 26 bd 34 be
       0.1378719 0.06382417 -0.6484069 -0.1765028
0002c0 4e 95 46 be 74 5f 1d bd 54 f0 f3 bd 5a fe 55 be
       -0.19392893 -0.03842111 -0.11911073 -0.20897809
0002d0 b1 5f c3 be 24 23 6d bf a7 d2 b0 bd 0a 4a aa 3d
       -0.38158944 -0.92631745 -0.08633929 0.08314903
0002e0 ea f3 1c be e1 20 6c bc ac d9 de bd 3d 44 1e 3e
       -0.15327421 -0.014412136 -0.10881361 0.15455718
0002f0 f2 86 ae bd ec 51 12 3e bf e0 a1 3c 47 20 d0 3d
       -0.085218325 0.14289063 0.019760488 0.101624064
000300 c0 f3 68 3d f7 b6 05 3d 5e a1 6c be d5 5c 94 be
       0.056873083 0.032645192 -0.23108432 -0.28977075
000310 b9 ca 00 bb 63 b3 0d bf 4f 26 ca be 65 0a ff bc
       -0.0019652082 -0.5535185 -0.39482352 -0.031132886
000320 e8 5c ea be 03 0b e6 3d 44 ea a2 be bc 9b 0f bd
       -0.45774007 0.11232569 -0.31819355 -0.03506063
000330 53 d0 af bd de 81 c0 3c 0a eb 51 3e 98 e9 c8 be
       -0.085846566 0.023499426 0.20499817 -0.39240718
000340 c8 fd 4b 3b 2d ba 83 bc 47 50 c9 be da b5 67 bd
       0.0031126607 -0.016079986 -0.3931906 -0.05656991
000350 93 24 bd 3c 35 2a c3 bd 7a 14 2e bc 84 57 1e be
       0.023088729 -0.09529535 -0.010624999 -0.15463072
000360 8b c2 b6 be fb fb d0 bd 1f f7 2b 3d 0d 6b 0a bd
       -0.356953 -0.102043115 0.04198372 -0.033793498
000370 10 9a 2b 3e 0c 0d b5 be d7 b3 ab be 96 71 92 be
       0.16757989 -0.35361516 -0.33535644 -0.28602284
000380 10 a7 89 3d 5d ac d7 bd 77 e8 18 be 82 3d 49 be
       0.06721318 -0.105309226 -0.14932428 -0.1965237
000390 e6 04 58 3d 31 8a fa bd 62 d1 90 bd 69 1c 70 bf
       0.052739047 -0.12233389 -0.070711866 -0.9379335
0003a0 86 07 eb be e9 13 c2 3e c3 a0 73 3d 0b 6f 5b 3c
       -0.45904177 0.37905815 0.059479486 0.013393174
0003b0 24 cd 01 3d 59 7c 48 be 79 e5 5d 3d 2a 7f 24 be
       0.031689778 -0.19578685 0.05417392 -0.16064134
0003c0 d2 af 83 be 14 e6 5d 3d d6 eb 8a 3d c9 76 d4 bd
       -0.25720078 0.054174498 0.067832634 -0.10374219
0003d0 40 92 b3 bb cf f6 68 3e 62 34 a3 bd 88 f0 82 be
       -0.005480081 0.227504 -0.079689756 -0.25574136
0003e0 c4 01 3d bd 2a d7 04 bf 6f 3f 21 be de d4 5e bc
       -0.046144262 -0.51890814 -0.15746854 -0.013600556
0003f0 53 d0 95 3d 28 dc 26 be 9a 13 e3 3d b3 80 13 3f
       0.07315125 -0.1629492 0.11087723 0.57618254

model.2.bias f4 [64]
000000 05 20 d1 bd d9 f7 5d be 82 57 a2 3c a0 5c a1 bd
       -0.10211185 -0.21676578 0.019817118 -0.07878995
000010 d4 be 56 be 10 88 9a 3e 6b 0f cd bc 36 22 79 bd
       -0.20971233 0.30181932 -0.025031766 -0.06082364
000020 35 20 0f 3d 2a bd 83 3c a8 61 71 3d 2b 8f 8a be
       0.034942824 0.016081411 0.058931023 -0.27062353
000030 99 4c d3 3d 02 e4 63 bc 5f e4 e6 bd 34 8a 5b bd
       0.10317344 -0.013909342 -0.11274027 -0.053598598
000040 ae 31 a5 bd 41 3f 10 bd cb 5e 35 bd 65 a2 65 3e
       -0.08066116 -0.035216574 -0.044279855 0.2242523
000050 5f a3 21 bd 66 8e 92 3e 95 0d 55 3e 14 ba 99 bd
       -0.039462443 0.28624266 0.20805962 -0.07506195
000060 2d e4 14 be bb ce 7f 3c c0 0e a7 bd 9e c4 71 3e
       -0.14540167 0.015613253 -0.0815711 0.2361016
000070 4b 56 06 bd b9 96 05 bd f3 ef 0d be 1e eb 79 bd
       -0.03279714 -0.032614443 -0.13861065 -0.06101524
000080 ca 39 16 3d 8c 7a 4d 3e 60 e1 bc bd 7d 24 c7 bd
       0.036676206 0.20066279 -0.09222674 -0.097237565
000090 8b 48 10 3e 34 1f 38 bb e8 22 32 3d 27 73 81 3e
       0.14090173 -0.002809477 0.04349032 0.25283167
0000a0 88 cc df bd fe 3e 02 bd 81 e4 08 bc c9 c4 c1 bd
       -0.10927683 -0.031798355 -0.008355261 -0.09461362
0000b0 6b 7f 11 3e de cf 85 3c ca ee ce bd bd 9f dc 38
       0.14208762 0.01633447 -0.10104139 0.00010520171
0000c0 34 4e 6c bd 3a d4 85 bd 02 95 7e bd 7f f4 d7 bd
       -0.057691768 -0.0653462 -0.062153824 -0.10544681
0000d0 08 a5 76 bd e7 73 93 3e a6 26 bf bd 6e 00 c9 bb
       -0.06021598 0.28799364 -0.093335435 -0.0061340844
0000e0 9c 4d b0 bd 20 b2 a7 bd f1 e3 3d bd 05 0e a6 bd
       -0.08608553 -0.081882715 -0.04635996 -0.08108143
0000f0 3e 64 f9 bc 4b 4e c1 bd 50 16 ef bd dd 5a bf 3c
       -0.030443307 -0.09438761 -0.11674178 0.023358757

model.4.weight f4 [4, 64]
000000 30 7e d5 3b 80 35 16 3f bd b3 2c 3d b6 a9 a4 bd
       0.006515287 0.58675385 0.0421636 -0.08040182
000010 7c 10 65 bf cb e5 79 3e 19 e0 f4 3d 0c b7 9a 3d
       -0.8947828 0.24404065 0.11956806 0.07554445
000020 d7 9f 45 be 9a 19 ac bd 42 25 c9 bd 29 0c f1 3d
       -0.19299255 -0.084033206 -0.098215595 0.117698975
000030 19 ea 10 be a4 77 37 3f 8e 06 ba 3d 26 3d e1 3d
       -0.14151801 0.7166693 0.090832815 0.10997991
000040 9c b1 eb bc 80 de 9e 3d 32 ec f9 3c a9 9a 83 3e
       -0.028771214 0.07757282 0.030508135 0.25703934
000050 86 a0 ae bd 40 98 cb 3d 0d e7 ae 3e 09 a5 97 3d
       -0.08526711 0.09941149 0.34160653 0.07404525
000060 4f 36 c2 bc 20 a4 c9 3b 52 b8 f6 3d 68 aa cc 3e
       -0.023707537 0.0061535984 0.12046875 0.3997376
000070 cd c8 dd 3d b4 78 0c 3d a4 6b a3 3d 2e ed 1e be
       0.10829315 0.0342948 0.07979515 -0.15520164
000080 da 24 1a bd 07 e4 25 3e bf 2a 44 3d 98 18 98 bd
       -0.0376328 0.16200267 0.04789233 -0.07426566
000090 8f 50 6e be 92 b2 6d bd 12 1e 82 bd 75 ae 78 3e
       -0.23272918 -0.058031626 -0.06353392 0.242853
0000a0 68 20 29 3d 8f 22 f8 bd 96 23 86 bd 36 71 4c 3d
       0.04129067 -0.121159665 -0.06549756 0.049912654
0000b0 60 63 68 3e 74 b7 16 3c 69 93 97 bd 95 1c 17 3d
       0.22694159 0.009199012 -0.07401163 0.036892492
0000c0 20 7f d3 bd a5 5b 20 be a2 fc 7e 3e 60 2c 30 3d
       -0.103269815 -0.1565996 0.2490106 0.04301107
0000d0 8c 0f 71 bc 86 31 b0 bd 60 8f cd 3d d2 d9 41 bb
       -0.014713179 -0.08603196 0.10037112 -0.0029579294
0000e0 00 2d ac bd 5d 31 05 3d 09 5b c7 bd 6c 14 14 bd
       -0.084070206 0.03251778 -0.097341605 -0.03615229
0000f0 62 11 1d 3c a5 55 6c bd ad ac 29 bf 08 54 48 3d
       0.009586664 -0.057698864 -0.6627911 0.048908263
000100 17 f3 83 3c 54 ef e1 3e 32 17 34 bd d8 5e a2 3d
       0.016107125 0.44127905 -0.043967433 0.07928246
000110 ac 49 12 3d a8 8c 85 3e f3 4f 3e 3d ac 83 05 3d
       0.03571479 0.26083875 0.046462964 0.032596275
000120 be a3 7e be c4 c7 95 bd bf 02 c0 bf 05 e3 38 3f
       -0.2486715 -0.07313493 -1.5000838 0.72221404
000130 77 76 a2 bc 9d f5 f6 3e 70 36 8a bb 50 0c 1e bc
       -0.019831879 0.48234263 -0.0042179152 -0.00964649
000140 f9 c5 9b bd 03 f1 df 3d ea bf 69 bd 86 a6 7b 3e
       -0.0760612 0.10934641 -0.05706779 0.24575242
000150 40 e1 b1 bb 6c 91 6e 3e 81 a3 2b 3e 42 d1 50 3d
       -0.005428463 0.23297662 0.1676159 0.050980814
000160 65 8b 78 bc a8 0a 5c bd 48 be e8 bc 83 20 d0 3e
       -0.015169953 -0.0537211 -0.028411046 0.40649804
000170 92 e4 80 3e fa 1d eb bc 95 23 bc bd 21 56 ae 3d
       0.25174385 -0.028700817 -0.09186474 0.085125215
000180 74 06 4f bd d5 b7 d0 3e 1c 5a 75 3d aa 66 b7 bd
       -0.050543264 0.40765253 0.059900388 -0.089551285
000190 ec 22 88 3d d6 b9 c1 3c 32 de 82 3c 6f b2 c1 3e
       0.06647286 0.023648184 0.015975092 0.37831447
0001a0 8a 45 c0 bd 6d 93 8e bd 7d f4 9b 3d 0e 11 86 3d
       -0.093882635 -0.06961713 0.07614992 0.06546222
0001b0 a3 eb 2a be 60 55 d0 3c b9 d1 0e bd 5d 79 a6 bd
       -0.16691451 0.025431335 -0.034867976 -0.08128617
0001c0 32 51 97 3e 44 fe 2d bf c0 53 f7 3e f0 bc 58 bd
       0.29554135 -0.67966104 0.48306084 -0.05291456
0001d0 1b cd a5 bd 37 f7 64 be a7 49 ee bd ce 27 c5 3d
       -0.080957614 -0.2235993 -0.11635142 0.09626733
0001e0 ee 40 b3 bd 09 05 b4 bd d0 c1 8a 3d a4 32 28 bd
       -0.08752619 -0.08790023 0.06775248 -0.04106392
0001f0 9f de 30 3d 52 c1 db 3c 45 a0 f7 be 1d 1b 59 3c
       0.043181058 0.02682558 -0.48364463 0.013251093
000200 fe 95 e0 3d 66 12 0a bf 09 56 91 bc 56 57 87 3d
       0.10966109 -0.53934324 -0.01774122 0.06608455
000210 22 b5 b0 3e cb 8e 7b 3e ff 31 34 bd ab 69 56 be
       0.34513193 0.2456619 -0.043992992 -0.20938747
000220 60 ee 25 3e 4b 17 a8 bd 6e 9e 7a 3e 67 d5 b5 3d
       0.16204214 -0.08207568 0.24474499 0.08878594
000230 02 56 30 3d e5 e0 b5 3e 54 5e 7c 3d 84 5a e0 3d
       0.043050773 0.35523143 0.061613396 0.109547645
000240 1c bb dd 3b 10 36 e8 3d f0 79 0b be 59 11 89 3e
       0.00676669 0.113384366 -0.13620734 0.26771048
000250 00 c7 ca bd 19 e8 ed 3e 0a de 7d 3e 9b 90 82 bd
       -0.099012375 0.4646614 0.24791732 -0.063752376
000260 2d 8f 51 bd 31 5c 7e bd ff 98 95 3d 00 6e ae 3e
       -0.051161934 -0.06209964 0.07304572 0.34068298
000270 37 a7 15 be a0 cd 7b bd 62 06 ef 3d ee bd 14 bf
       -0.14614569 -0.061475396 0.11671139 -0.5810231
000280 2b b1 43 bd 54 2a 8f 3e ab 08 9b bd cc f3 80 3d
       -0.047776382 0.2796198 -0.07570013 0.062965006
000290 2a 56 7e bd 17 31 05 bd 90 94 6e bd 92 c7 34 39
       -0.06209389 -0.03251752 -0.05824715 0.00017240483
0002a0 83 82 9b 3b bd 06 ea bc 4a e5 09 bd 78 39 bd 3d
       0.004745783 -0.028567666 -0.033665933 0.09239477
0002b0 d4 6b 3f 3c cb a8 4e 3d ce a7 62 bd 82 5b 30 bd
       0.011683423 0.050453942 -0.055335812 -0.04305602
0002c0 23 81 eb be 65 5a 74 be f5 bc 7f 3e 2b 76 d1 3d
       -0.4599696 -0.23862608 0.24974425 0.10227617
0002d0 1d 2e 0b 3c b8 86 f8 be 10 1d 48 bd 44 27 d3 3d
       0.008494881 -0.48540282 -0.04885584 0.10310224
0002e0 ea 1d 35 bd d8 5c 8e bd 80 d9 2a 3c 8a 6f 8e 3d
       -0.04421798 -0.06951302 0.010427833 0.06954868
0002f0 cc df 79 3d 0d 19 f9 bb 8f 82 74 be f5 39 c0 bc
       0.061004445 -0.0076018632 -0.23877929 -0.023465136
000300 04 ee 8f bc 53 5e 27 3e 31 ad 46 3d 14 85 6f 3d
       -0.01756955 0.16344576 0.048505012 0.058476523
000310 28 fc 3b 3f 14 18 95 3e b5 1c 8d 3d 56 7b df 3b
       0.73431635 0.29119933 0.06890241 0.0068201227
000320 00 bc c6 3e 6d ba 1e bc c3 81 c8 bc 9d 63 89 bb
       0.38815308 -0.009688002 -0.024475938 -0.004192783
000330 66 66 9e be 77 52 f9 3e 02 65 c7 3d 36 7b c1 bd
       -0.309375 0.48695728 0.097360626 -0.09447329
000340 61 ef 12 3e 70 f0 12 3c d9 d7 f0 3b f9 78 56 bd
       0.14349128 0.008968458 0.00734995 -0.052361462
000350 3b e2 6d bd b4 bd 8f 3e 53 9d c0 3e 92 ea db 3d
       -0.05807708 0.2807442 0.3762003 0.107381
000360 6e c8 1a bd 67 9e df 3d c0 38 25 3d 72 20 e8 3e
       -0.0377888 0.10918885 0.040337324 0.45337254
000370 43 ec 03 3f 28 5c bb bd 37 4b f3 3b ca 74 a2 bf
       0.5153238 -0.09148437 0.007424738 -1.2691891
000380 d9 e5 4f bd 45 6c 8a 3e 14 1f ba bd 5e f2 67 bd
       -0.05075631 0.27035728 -0.09087959 -0.056627624
000390 ee d1 b6 be 01 75 c4 3b 37 44 0b bd 2a 60 89 3e
       -0.3570704 0.0059953933 -0.0340006 0.2683118
0003a0 92 eb bd 3d b1 4f e2 3c 3f 55 b1 3d 28 78 fd bd
       0.09273447 0.02762589 0.086588375 -0.123764336
0003b0 1c 03 95 3e e9 83 0d ba af cc 64 3d 01 a2 b4 bd
       0.29103935 -0.0005398379 0.055859264 -0.08819962
0003c0 8b 41 13 be c3 97 84 bd c0 33 aa be 9b bb 16 3d
       -0.14380471 -0.06474259 -0.33242607 0.03680001
0003d0 8e a1 cb bd 48 1f b9 be 0f 38 5b 3d 5b 3f b6 3c
       -0.099429235 -0.36156678 0.05352026 0.022247007
0003e0 d8 41 cd bc ea 3f 84 3d 05 01 13 bd e9 c4 69 bc
       -0.02505581 0.06457503 -0.035889644 -0.014268138
0003f0 1e 72 4b bd 4e 93 b3 bc 7c 69 8a bd cd 4e 0a bd
       -0.049669378 -0.021920826 -0.06758401 -0.033766557

model.4.bias f4 [4]
000000 ed fc b1 3d 32 d6 7a 3d 9d 41 70 3e e3 6c 3e 3e
       0.0869082 0.06123943 0.2346253 0.18596224

model.0.weight f4 [128, 7]
000000 33 88 68 bf db 75 e2 3e dc 48 17 be 8e d5 cc be
       -0.90832824 0.44230542 -0.14773887 -0.4000668
000010 2f 8d 8f bd 42 c0 1a 3e 00 73 22 bd 68 a1 a3 3e
       -0.070093505 0.15112403 -0.039660454 0.3195908
000020 70 5e 27 bf 19 52 8b be 78 a0 8b 3e 7f 07 cb 3e
       -0.65378475 -0.27211073 0.27270865 0.39654157
000030 6e 7c 49 bf 03 1f 34 3e 7b 6e 65 bd 56 30 84 3e
       -0.7870549 0.17589955 -0.056013566 0.25818127
000040 3c da 7e be e7 e9 06 3e 8a 17 2c bd 34 66 36 be
       -0.24887937 0.13175164 -0.042014636 -0.17812425
000050 2f d0 a6 3e 41 02 de 3d 6b b9 00 bf 67 86 8e 3d
       0.32580706 0.10840274 -0.50282925 0.06959229
000060 7b 31 ac be 04 1f 14 3f 11 e4 0d bf 3f 84 ad 3e
       -0.336315 0.57859826 -0.55426127 0.33889958
000070 c9 cb 11 be 92 1e 63 be d9 b2 c1 3e 74 81 c2 be
       -0.14237894 -0.2217963 0.37831762 -0.3798939
000080 6e 1b 65 3e 66 26 40 bf 4f 0f 77 3e 10 4d b6 be
       0.22373745 -0.7505859 0.24126934 -0.3560567
000090 bd b0 a6 be 86 8d 90 3e c8 81 d0 bf e7 9a 28 3e
       -0.32556716 0.28232974 -1.6289606 0.1646534
0000a0 4b 6f 7b be 2c 53 ae 3a 04 49 06 3e 36 b1 fb 3c
       -0.24554174 0.0013299934 0.13113791 0.03072415
0000b0 86 42 8a bf e1 4c 22 3e 96 cd 92 be d9 56 80 3e
       -1.0801551 0.1584964 -0.28672475 0.2506626
0000c0 f6 05 b2 3e 9a 4c 67 bf d5 13 a8 bd a2 26 07 bf
       0.34770173 -0.9035126 -0.08206908 -0.52793324
0000d0 2c ab c4 3e ba 63 ac be c6 9e 23 be 3c 63 59 3d
       0.38411844 -0.33669835 -0.15978536 0.053073153
0000e0 ae a2 83 3e 9d 5c aa 3e 8a 8c 5e be 46 d5 9a bf
       0.25710052 0.33273783 -0.21733299 -1.2096336
0000f0 95 a2 9c bd 26 10 bd 3e 7c a4 50 3e 06 a6 5a be
       -0.076481976 0.36926383 0.20375246 -0.21352395
000100 02 4a 11 be c7 4d a0 be 3e 50 04 3e 46 cc 87 3d
       -0.14188388 -0.3130934 0.12921235 0.06630759
000110 70 5d 3a be f6 4c 45 be 5d d7 82 be 53 45 f8 bd
       -0.18199706 -0.1926764 -0.25554934 -0.121225975
000120 73 e9 a9 be 76 fd 4b bc f4 12 89 3d 0b 8d f7 bd
       -0.3318592 -0.0124505665 0.06693068 -0.12087449
000130 c3 3a 43 3e 61 1b a5 3e 71 ad 0a bf bb 2d 9b be
       0.19065385 0.3224745 -0.541709 -0.30308327
000140 48 0e 17 bf 4f a1 d6 bd 32 48 a8 3e 87 8d 88 be
       -0.59006166 -0.10479986 0.3286758 -0.26670477
000150 48 83 73 bf 56 78 fa 3e 4d 7b 3f be a7 84 1c 3e
       -0.95122194 0.48919934 -0.1869938 0.15284978
000160 23 2f 3b be 32 bc 69 be 6b 8e 79 be 93 d4 fe 3e
       -0.182797 -0.22825697 -0.24370734 0.49771556
000170 df d5 1d 3d cb 23 dc 3e 57 78 01 bf dd 62 a2 bd
       0.03853404 0.42996058 -0.5057425 -0.07929013
000180 26 98 77 3e 1a 87 bd be 47 c3 4c 3f 8c 80 9f 3c
       0.24179134 -0.37017137 0.7998547 0.019470476
000190 3a 16 2a bf 5f c5 f3 bd 73 48 9c bc fe be 11 bd
       -0.66440165 -0.1190288 -0.019077515 -0.035582535
0001a0 1d e6 92 3e ab f8 00 bf 05 91 94 3e 6d fd 44 3e
       0.28691188 -0.5037944 0.2901689 0.192373
0001b0 e9 f6 7a be 3f cd 85 bd e4 4f b7 be 86 20 82 3e
       -0.24508251 -0.06533288 -0.3580314 0.25415438
0001c0 84 1d 99 be f2 97 74 be 0f 5a 11 3e 5f 6c d6 3d
       -0.2990533 -0.23886088 0.14194511 0.10469889
0001d0 9e 5c f3 bd 1e dd 86 3d 70 21 b2 3e 7b 4e b7 3e
       -0.118829 0.065851435 0.34791136 0.35802063
0001e0 20 e3 48 3e 57 9f 76 bf 2b c7 13 be c7 ef 05 3e
       0.19617891 -0.96336883 -0.14431445 0.13079749
0001f0 9c 51 7f 3e bc f7 a2 3e 72 86 d4 3e e5 d9 93 3e
       0.24933475 0.3182963 0.41508824 0.28877178
000200 b2 be c0 bd 1c 8a a0 bd 1e 32 91 3e 2b 0d ba 3d
       -0.09411372 -0.07838842 0.2835855 0.09084543
000210 b5 07 a6 3d 6f 35 26 3e ca 3c 07 bc 8a f1 27 be
       0.08106939 0.16231321 -0.008254239 -0.16400734
000220 ff 4c a4 3d ab 2b e8 bc 0c 20 57 be 99 b7 59 be
       0.08022498 -0.028341135 -0.21008319 -0.21261443
000230 4d 0a 1c 3f 42 3f 1a 3c 8f 9d 45 bf fa c5 02 3e
       0.6095322 0.009414496 -0.7719354 0.12770835
000240 1b b0 70 bd ae 46 fd 3d 5a a2 3b 3d 86 0e ab bd
       -0.058761697 0.12366997 0.045809127 -0.083523795
000250 2f fa a9 be dd c1 0b 3d 29 d7 85 3e d6 57 0f be
       -0.33198687 0.03412043 0.26140717 -0.1399835
000260 69 12 6b 3e 22 9c 45 be 7f 78 5a bc 52 27 0d be
       0.22956242 -0.19297841 -0.013334393 -0.13784531
000270 93 df 91 3e 42 8f 99 3c de e2 bf be 27 72 8c 3d
       0.28490886 0.018745068 -0.37477773 0.0685771
000280 5b 13 ab bd 42 00 bd bc ee 0b 20 c0 f4 f3 54 3d
       -0.08353301 -0.023071412 -2.5007281 0.051990464
000290 f6 2a 6c be a9 25 85 3e 79 ca 23 3e e1 8e 75 3e
       -0.23063263 0.26005295 0.15995206 0.23980285
0002a0 d6 de ee bd 75 4b 1d 3f ff 6f 0e 3d cc 19 e0 be
       -0.11663596 0.61443263 0.034774777 -0.4376968
0002b0 c8 53 da 3e 01 fb 85 be 90 ea 25 3e df 1c b5 be
       0.42642045 -0.26168063 0.1620276 -0.3537359
0002c0 f8 d8 a1 be 0a b4 a7 3d 6d e3 b9 bc 36 42 93 be
       -0.31610847 0.081886366 -0.022691453 -0.28761452
0002d0 90 3b 32 3e 79 bc 3d 3e 07 da e7 bc 2a 58 a2 3e
       0.17405534 0.18528928 -0.028302206 0.3170789
0002e0 d1 32 2f bf fd cb b0 3e f3 b2 4c be 28 cb 60 3e
       -0.68436915 0.3453063 -0.19990139 0.21952498
0002f0 60 29 03 be cc df dd bd a3 2f 9f 3e 2c 00 87 3e
       -0.12808752 -0.108337015 0.3109103 0.2636732
000300 86 b1 8d 3d 2f b9 32 c0 43 89 df ba a4 7f 45 3f
       0.069186255 -2.7925527 -0.0017054457 0.7714789
000310 bd 2e 36 3c 2a 8f b0 3d 14 c1 9a bd 97 00 bc be
       0.011119542 0.086210564 -0.07556358 -0.367192
000320 cc b1 b7 3e 85 ca 83 be 84 ef b3 be 9f d5 11 c0
       0.35877836 -0.25740448 -0.35143673 -2.2786634
000330 01 9d ee 3e 0e a5 06 bd 6f 47 00 3e 4e f2 2a 3f
       0.4660416 -0.032872252 0.1252725 0.6677598
000340 59 94 90 be 2d 42 0c bd 62 ed 25 be 26 23 8b be
       -0.2823818 -0.034242798 -0.16203836 -0.27175254
000350 c5 f6 05 3e 54 ac 7a 3d 46 6a 08 3f 9c 1a 0c 3e
       0.13082416 0.0611995 0.5328716 0.13682026
000360 ac 7b 35 be 34 f1 73 3e f7 ac c1 bd da 89 d5 3d
       -0.17722958 0.2382248 -0.094568186 0.10426684
000370 e3 8e c5 be d5 94 08 3e f8 5f 83 be 4a b1 50 be
       -0.38585576 0.13338025 -0.25659156 -0.2038013
000380 16 17 1c bf 89 84 e6 be 88 c9 20 be a7 35 14 bf
       -0.60972726 -0.4502299 -0.15701878 -0.57894367
000390 ed 76 d8 3e fe 9d 6d be 8b 27 4f 3e e7 fa e4 3d
       0.42278233 -0.232048 0.20229928 0.11180668
0003a0 10 07 1c 3f b9 de 04 3d 22 f6 23 bf 09 64 7f be
       0.60948277 0.032438967 -0.64047444 -0.24940504
0003b0 b0 1a 5c 3d db 1b 26 3e 19 15 93 3d ff d7 57 bd
       0.05373639 0.16221564 0.071817584 -0.052696224
0003c0 3b 0e 1e 3f bf cd bc be ed 58 f5 be 18 3d c3 be
       0.61740464 -0.36875722 -0.47919407 -0.38132548
0003d0 5d 39 ee 3d 1f e9 55 be c6 cc bb be 55 c1 7f 3e
       0.11632035 -0.2088971 -0.36679667 0.24976094
0003e0 77 cb 88 be 70 a6 9f be d7 0f 5b 3e 4f dc 63 be
       -0.2671773 -0.3118167 0.21392761 -0.2225201
0003f0 b5 fd c7 be 78 79 f5 3e 86 6d 08 3f 30 7b 3d be
       -0.3906075 0.47944236 0.5329212 -0.18504024

model.0.bias f4 [128]
000000 4d 00 9f 3e 21 d6 2b ba 95 b8 c1 be 60 95 fe 3d
       0.31054917 -0.000655504 -0.37836137 0.12430835
000010 9b 73 ea 3d 58 e8 c7 3e da b5 0f 3e f0 65 0c be
       0.11447831 0.39044452 0.14034215 -0.13710761
000020 70 72 04 3e bb 81 b9 be e1 13 cb 3b 3c cd 82 3e
       0.1293428 -0.3623179 0.006197438 0.25547206
000030 95 8e 96 3e d5 d5 f0 be 1c 2d 17 3e 72 54 98 3d
       0.29405656 -0.4703814 0.14763302 0.07437982
000040 7e f9 66 be 9f f2 90 3d 50 16 c4 be 3f 0b 7d be
       -0.22556111 0.07077526 -0.38298273 -0.24711321
000050 05 fd 2c 3d 70 eb a6 be fe 24 96 be c0 d0 b3 3d
       0.042233486 -0.326015 -0.29325098 0.0878005
000060 46 e6 53 bd 67 a1 33 be 0f 63 9c be 22 8c 25 be
       -0.051733278 -0.17542039 -0.30544326 -0.16166738
000070 9d 03 46 be e0 af 80 bd ec 86 2b 3e 78 16 a5 be
       -0.19337316 -0.062835455 0.16750687 -0.32243705
000080 c2 51 b0 3e 23 c1 0b 3e f4 ff a3 3e 03 fc 89 be
       0.34437376 0.13647895 0.32031214 -0.26950082
000090 3a 04 c8 be 0d 29 5c be 77 7c b2 be 78 ac 46 3e
       -0.39065725 -0.21500035 -0.34860584 0.19401729
0000a0 f2 e7 89 3d 98 32 c1 be 47 fd 2d 3e b9 ca 3c 3e
       0.06733693 -0.37733912 0.16991149 0.18436708
0000b0 c1 0c e2 3e 20 0d ad be 64 1c 12 3e 4d 78 fe bd
       0.44150355 -0.33799076 0.14268643 -0.12425289
0000c0 3c 58 55 3e cb fa 50 3c 68 72 6b be bf 04 83 be
       0.2083444 0.012755106 -0.22992861 -0.25589558
0000d0 11 d1 09 3d 83 92 59 be 9b e8 b5 bd ae f2 b9 be
       0.033646647 -0.21247296 -0.088822566 -0.36317962
0000e0 a6 c9 59 3e 25 74 8a be 65 13 d8 be d6 c0 3b be
       0.21268329 -0.27041736 -0.42202297 -0.1833528
0000f0 f3 43 af be 83 2e c6 bd 95 ea f6 3d bf 41 a6 3d
       -0.3423153 -0.0967684 0.12056462 0.08118009
000100 fe fa 81 be 7f d3 04 bf 66 39 09 bf df a4 c6 be
       -0.25386804 -0.5188522 -0.5360321 -0.38797662
000110 35 e2 b4 bd 0d 9d 2d bd 06 69 59 3c 7d 43 a8 be
       -0.08832208 -0.042386103 0.013269668 -0.3286399
000120 34 ce 9e 3d 23 6b 90 3e eb 76 da 3d f6 81 9b bd
       0.07754174 0.2820674 0.10667213 -0.075931475
000130 d7 97 be be 45 55 80 be aa 9a 3c 3e fb 18 83 3e
       -0.3722522 -0.25065055 0.18418375 0.25604996
000140 65 76 0f be e4 f1 e9 be bb 98 a0 3e 88 3d be be
       -0.14010008 -0.4569236 0.31366524 -0.3715632
000150 e8 9e a1 3e 65 c2 8f 3e b5 2f 5d be d7 74 34 be
       0.31566548 0.28078 -0.2160023 -0.17622696
000160 cc de ca 3d fe d6 e7 3e 40 b1 b3 be 55 46 06 3d
       0.099057764 0.45281214 -0.3509617 0.032781918
000170 ba c0 67 3e 7e 93 b7 3e 78 dd 9a 3e ce 5b 7f be
       0.22632113 0.35854715 0.30247092 -0.24937364
000180 f3 e9 92 3e 38 89 a0 3c 87 cb 20 be 5a fe e2 3d
       0.28694114 0.019596681 -0.1570264 0.1108367
000190 ef 39 c6 be ac c7 cb be e0 31 96 be a5 f0 8f be
       -0.38716075 -0.39800775 -0.29334927 -0.28113285
0001a0 b3 52 93 3e 19 75 fb bd 57 aa 1a be ae 91 e0 bc
       0.28774032 -0.12278194 -0.15104042 -0.027413215
0001b0 66 f5 74 bd 12 d3 a1 be 13 ee 96 bd 6f 1d 93 bd
       -0.059804343 -0.31606346 -0.07369628 -0.071833484
0001c0 0f f8 ea be a4 10 18 3d 04 62 f8 3d 79 39 27 3e
       -0.4589238 0.037125245 0.1212807 0.16330518
0001d0 80 f0 0f be 32 c2 47 be f3 4a f8 3d 3a e3 86 3e
       -0.14056587 -0.19507673 0.121236704 0.26345235
0001e0 73 13 de 3c 25 73 12 3e ba 26 02 be 86 b6 df 3e
       0.027108883 0.14301737 -0.12710086 0.43693942
0001f0 f9 56 d1 be 5f 35 2f bd 52 c8 c6 bd 74 6a 94 bd
       -0.40886667 -0.042775508 -0.09706177 -0.07246867

model.2.weight f4 [64, 128]
000000 90 b5 1f bd a9 d7 c7 bc ae a8 83 bd a3 95 c3 bd
       -0.03899151 -0.024394827 -0.064286575 -0.09550025
000010 39 59 0b 3d 47 44 b5 3c 30 85 1a 3c c1 8d 82 3a
       0.034020636 0.022127284 0.009431168 0.0009960459
000020 16 5a 18 bd 7d 53 da 3a 71 e9 4f bd ea ca 6c 3d
       -0.037195288 0.0016656962 -0.050759736 0.0578107
000030 c5 2a 77 3d 8c 8a ca 3c 4c 27 16 3d 52 46 8b bd
       0.060343523 0.024724267 0.03665857 -0.06800522
000040 28 13 be 3c f0 43 86 bd b8 e3 a9 bd 64 cc 02 3d
       0.023202494 -0.06555927 -0.08295387 0.031933203
000050 b4 ed 49 3d 82 4a c2 bb 7c bb 4e 3d 01 10 a7 bd
       0.049298957 -0.005929292 0.050471768 -0.081573494
000060 37 f3 e2 3c ba e8 0b bc 48 bc 0c bd 63 f8 4f 3d
       0.027703864 -0.008539373 -0.034359246 0.05077399
000070 43 19 43 bd 02 2c 96 bd 3b c3 41 bd 8c 84 b1 3d
       -0.047631513 -0.073326126 -0.047305327 0.086678594
000080 74 56 8a bd 9a 18 2e bd 0f de 10 bd 6a e5 97 3d
       -0.06754771 -0.04250393 -0.03536802 0.07416804
000090 c1 4e 89 3c 32 bf e2 bd 6e 9d a6 bc ad 18 ff 3c
       0.016761186 -0.11071624 -0.02033874 0.031139696
0000a0 f7 60 df 3b 43 1e 20 bd 8a bd 11 3d ce 0f ec 3c
       0.006816979 -0.03909136 0.03558115 0.02881613
0000b0 a7 e8 9d 3d 1c 74 11 3c e6 1a ac bc eb bc 3b bd
       0.077103905 0.00887778 -0.02100892 -0.045834463
0000c0 96 22 36 ba db 2d 9f bb b1 76 78 3d 08 bf cc ba
       -0.0006947903 -0.0048577613 0.060660068 -0.0015620897
0000d0 88 12 67 bd ef f6 d7 bc 27 03 41 3d 22 c6 9d 3d
       -0.056414157 -0.026362864 0.047122147 0.077038065
0000e0 c8 9b 66 bd 65 f7 18 3c 6b 49 93 3d 1f 21 db bc
       -0.05630091 0.009336327 0.07191738 -0.026749192
0000f0 75 9e 9b bd 9d 61 4e 3d e8 24 c0 3d e8 8b 82 3d
       -0.07598583 0.05038606 0.09382039 0.06374341
000100 32 38 9e bd d7 fb 61 3d 93 ff 33 3d 1f 8d a8 bd
       -0.07725562 0.055171814 0.043944906 -0.08230042
000110 aa 4e 8f 3c 16 b7 4c 3d 79 e9 89 3d e5 6e 0f bd
       0.017493565 0.04997929 0.067339845 -0.035017867
000120 f4 c3 c0 3c b5 b6 4e 3d 49 07 7c 3c 3a 62 b1 bd
       0.023530938 0.05046721 0.015382596 -0.08661313
000130 a5 f8 82 bd 15 26 0b 3d 81 66 98 bd 2d 60 d5 3b
       -0.063950814 0.033971865 -0.07441426 0.006511709
000140 96 d7 83 bd 41 ab 0f 3c 9a 52 0d 3d 13 28 20 3d
       -0.06437604 0.008768857 0.034502603 0.039100718
000150 ca 6c a9 bd e2 5a 82 bd c2 7c 20 bc c6 a9 3a 3d
       -0.08272703 -0.06364991 -0.00979537 0.045572065
000160 09 5a f9 bb 5e d8 69 bc 5e dc 02 3d 63 fb c4 3c
       -0.00760961 -0.014272777 0.03194844 0.024045652
000170 77 4e c2 3c d3 9e 92 bc 69 89 e5 bd f0 0a b5 bd
       0.023719056 -0.017897999 -0.112078495 -0.08839977
000180 e7 fc 97 bc 2b 02 39 bd e3 1f 40 3b 33 fd 28 bd
       -0.01855321 -0.045168083 0.002931588 -0.041257095
000190 e3 26 d3 3c 8a 67 81 bd 0c 82 5e bb 24 97 a3 3d
       0.025775379 -0.06318577 -0.0033952026 0.07987812
0001a0 69 79 0d 3d 04 78 d7 bd 68 c4 7f bc 78 46 92 bc
       0.034539614 -0.10520938 -0.015610792 -0.017855868
0001b0 ca 71 14 bd 40 77 54 3d 66 8d 05 3d 51 77 b2 bc
       -0.03624133 0.05187154 0.03260555 -0.02178541
0001c0 01 83 37 3d 31 13 5f bd e9 9b 08 3b 9f bc 19 3c
       0.04480267 -0.05446166 0.0020844883 0.00938335
0001d0 26 73 93 3d 46 d4 70 bd 01 8b 74 bd b1 fd fe bc
       0.07199697 -0.05879619 -0.059702877 -0.031126829
0001e0 be db 80 ba dd d2 ac bd 81 c7 ba bd 89 02 2a 3d
       -0.0009831113 -0.084386565 -0.091200836 0.041506324
0001f0 45 23 1c 3d 93 d1 8c 3d b7 0f a5 3c ed 3e 73 3d
       0.038119573 0.068759106 0.020149095 0.059386183
000200 f5 19 f8 bd 8e 01 99 3e d6 78 a9 bd 3f 5b e5 3e
       -0.12114326 0.29884 -0.08275001 0.44796178
000210 e4 5a 4a bd 8c 71 85 be 3b cd 35 be fc e1 8e be
       -0.049403086 -0.26063192 -0.1775407 -0.27906787
000220 0b 82 e5 3c 84 6c b1 bd 43 6b e7 bb 08 86 7d be
       0.02801611 -0.08663276 -0.007062347 -0.2475816
000230 10 a2 19 be 66 4a 0e be 76 8d 84 bd 5e 1e b1 bd
       -0.15003228 -0.13895568 -0.06472294 -0.0864837
000240 bc fe 8f 3c 4c ef ed be 07 0d 2d bf 54 aa 43 bd
       0.017577522 -0.46471632 -0.67598003 -0.04776986
000250 28 94 93 3d 3d d7 0f bd dc 3a b7 3d 52 51 e7 3e
       0.07205993 -0.035117377 0.089467734 0.4517923
000260 8f 03 68 3e 54 dd ef bb 6d 7f 5a be 04 66 88 be
       0.22657607 -0.0073200855 -0.21337672 -0.26640332
000270 7d 77 40 bd 47 75 19 bd cb 08 89 be 09 14 8d 3e
       -0.046988953 -0.03746536 -0.2676452 0.27554348
000280 0d 26 0d bd 54 e3 14 bf 5b 61 f4 bd 51 d0 a8 bd
       -0.034460116 -0.58159375 -0.119326316 -0.08242858
000290 84 ef 04 bb 9e e8 36 bd 90 dd 81 bd d8 cf 83 3f
       -0.0020284364 -0.044655435 -0.06341088 1.0297804
0002a0 db 08 96 bd 70 11 b7 bd 55 5c 0f be cf 36 d4 be
       -0.07325908 -0.08938873 -0.14000066 -0.41448066
0002b0 4b 2e 0d 3e 3f b6 82 3d ff fd 25 bf 26 bd 34 be
       0.1378719 0.06382417 -0.6484069 -0.1765028
0002c0 4e 95 46 be 74 5f 1d bd 54 f0 f3 bd 5a fe 55 be
       -0.19392893 -0.03842111 -0.11911073 -0.20897809
0002d0 b1 5f c3 be 24 23 6d bf a7 d2 b0 bd 0a 4a aa 3d
       -0.38158944 -0.92631745 -0.08633929 0.08314903
0002e0 ea f3 1c be e1 20 6c bc ac d9 de bd 3d 44 1e 3e
       -0.15327421 -0.014412136 -0.10881361 0.15455718
0002f0 f2 86 ae bd ec 51 12 3e bf e0 a1 3c 47 20 d0 3d
       -0.085218325 0.14289063 0.019760488 0.101624064
000300 c0 f3 68 3d f7 b6 05 3d 5e a1 6c be d5 5c 94 be
       0.056873083 0.032645192 -0.23108432 -0.28977075
000310 b9 ca 00 bb 63 b3 0d bf 4f 26 ca be 65 0a ff bc
       -0.0019652082 -0.5535185 -0.39482352 -0.031132886
000320 e8 5c ea be 03 0b e6 3d 44 ea a2 be bc 9b 0f bd
       -0.45774007 0.11232569 -0.31819355 -0.03506063
000330 53 d0 af bd de 81 c0 3c 0a eb 51 3e 98 e9 c8 be
       -0.085846566 0.023499426 0.20499817 -0.39240718
000340 c8 fd 4b 3b 2d ba 83 bc 47 50 c9 be da b5 67 bd
       0.0031126607 -0.016079986 -0.3931906 -0.05656991
000350 93 24 bd 3c 35 2a c3 bd 7a 14 2e bc 84 57 1e be
       0.023088729 -0.09529535 -0.010624999 -0.15463072
000360 8b c2 b6 be fb fb d0 bd 1f f7 2b 3d 0d 6b 0a bd
       -0.356953 -0.102043115 0.04198372 -0.033793498
000370 10 9a 2b 3e 0c 0d b5 be d7 b3 ab be 96 71 92 be
       0.16757989 -0.35361516 -0.33535644 -0.28602284
000380 10 a7 89 3d 5d ac d7 bd 77 e8 18 be 82 3d 49 be
       0.06721318 -0.105309226 -0.14932428 -0.1965237
000390 e6 04 58 3d 31 8a fa bd 62 d1 90 bd 69 1c 70 bf
       0.052739047 -0.12233389 -0.070711866 -0.9379335
0003a0 86 07 eb be e9 13 c2 3e c3 a0 73 3d 0b 6f 5b 3c
       -0.45904177 0.37905815 0.059479486 0.013393174
0003b0 24 cd 01 3d 59 7c 48 be 79 e5 5d 3d 2a 7f 24 be
       0.031689778 -0.19578685 0.05417392 -0.16064134
0003c0 d2 af 83 be 14 e6 5d 3d d6 eb 8a 3d c9 76 d4 bd
       -0.25720078 0.054174498 0.067832634 -0.10374219
0003d0 40 92 b3 bb cf f6 68 3e 62 34 a3 bd 88 f0 82 be
       -0.005480081 0.227504 -0.079689756 -0.25574136
0003e0 c4 01 3d bd 2a d7 04 bf 6f 3f 21 be de d4 5e bc
       -0.046144262 -0.51890814 -0.15746854 -0.013600556
0003f0 53 d0 95 3d 28 dc 26 be 9a 13 e3 3d b3 80 13 3f
       0.07315125 -0.1629492 0.11087723 0.57618254

model.2.bias f4 [64]
000000 05 20 d1 bd d9 f7 5d be 82 57 a2 3c a0 5c a1 bd
       -0.10211185 -0.21676578 0.019817118 -0.07878995
000010 d4 be 56 be 10 88 9a 3e 6b 0f cd bc 36 22 79 bd
       -0.20971233 0.30181932 -0.025031766 -0.06082364
000020 35 20 0f 3d 2a bd 83 3c a8 61 71 3d 2b 8f 8a be
       0.034942824 0.016081411 0.058931023 -0.27062353
000030 99 4c d3 3d 02 e4 63 bc 5f e4 e6 bd 34 8a 5b bd
       0.10317344 -0.013909342 -0.11274027 -0.053598598
000040 ae 31 a5 bd 41 3f 10 bd cb 5e 35 bd 65 a2 65 3e
       -0.08066116 -0.035216574 -0.044279855 0.2242523
000050 5f a3 21 bd 66 8e 92 3e 95 0d 55 3e 14 ba 99 bd
       -0.039462443 0.28624266 0.20805962 -0.07506195
000060 2d e4 14 be bb ce 7f 3c c0 0e a7 bd 9e c4 71 3e
       -0.14540167 0.015613253 -0.0815711 0.2361016
000070 4b 56 06 bd b9 96 05 bd f3 ef 0d be 1e eb 79 bd
       -0.03279714 -0.032614443 -0.13861065 -0.06101524
000080 ca 39 16 3d 8c 7a 4d 3e 60 e1 bc bd 7d 24 c7 bd
       0.036676206 0.20066279 -0.09222674 -0.097237565
000090 8b 48 10 3e 34 1f 38 bb e8 22 32 3d 27 73 81 3e
       0.14090173 -0.002809477 0.04349032 0.25283167
0000a0 88 cc df bd fe 3e 02 bd 81 e4 08 bc c9 c4 c1 bd
       -0.10927683 -0.031798355 -0.008355261 -0.09461362
0000b0 6b 7f 11 3e de cf 85 3c ca ee ce bd bd 9f dc 38
       0.14208762 0.01633447 -0.10104139 0.00010520171
0000c0 34 4e 6c bd 3a d4 85 bd 02 95 7e bd 7f f4 d7 bd
       -0.057691768 -0.0653462 -0.062153824 -0.10544681
0000d0 08 a5 76 bd e7 73 93 3e a6 26 bf bd 6e 00 c9 bb
       -0.06021598 0.28799364 -0.093335435 -0.0061340844
0000e0 9c 4d b0 bd 20 b2 a7 bd f1 e3 3d bd 05 0e a6 bd
       -0.08608553 -0.081882715 -0.04635996 -0.08108143
0000f0 3e 64 f9 bc 4b 4e c1 bd 50 16 ef bd dd 5a bf 3c
       -0.030443307 -0.09438761 -0.11674178 0.023358757
